Thesis/Experiments with MNIST/New dotted data/CKA-Centered-Kernel-Alignment-master/Hweight3.npy (npy, 23168 bytes, 1 tensors)

array f4 [10, 64, 3, 3]
000000 ab 15 2d bd 0a a1 47 ba 88 5c 5b be 2e 5c b1 bd
       -0.042256992 -0.0007615244 -0.21422017 -0.0866016
000010 18 9e 0f 3e d2 e6 15 bd 15 75 98 bc 7e 71 3b 3e
       0.14025152 -0.03659708 -0.018610517 0.18305013
000020 b4 6b b8 bc 67 46 ed bd 3e 69 30 3d 80 f9 d4 3d
       -0.022512294 -0.11585694 0.043069117 0.10399151
000030 51 19 ae bd 81 85 12 3d b4 4d 14 3e 8a 57 83 3c
       -0.085009225 0.03577185 0.14482766 0.016032953
000040 fe 71 2f bc d7 99 80 be 9a df 1c bc 01 97 fb bc
       -0.01070833 -0.2511737 -0.009574795 -0.030711653
000050 bc 1d 28 bc f0 8f 51 bd 04 88 38 bd ae 2e 3c bd
       -0.0102609955 -0.05116266 -0.04505159 -0.045942955
000060 a6 40 20 bd dd 55 3c bd 24 5a ba bd 1b 26 c5 3e
       -0.039124154 -0.045980323 -0.09099224 0.38505635
000070 cf ff 2d 3e ca ed 84 3e 7e b5 3a 3e 22 01 59 bd
       0.16992114 0.2596267 0.18233296 -0.052979596
000080 e4 14 15 3d af ef a1 3e 92 e9 7a be 19 66 95 be
       0.036396876 0.31628177 -0.24503163 -0.29179457
000090 3e 84 40 3e 1e a9 09 be a7 56 77 3d 13 6d 56 bd
       0.18800446 -0.1344342 0.060385372 -0.052350115
0000a0 b0 e9 04 be e6 a4 33 bd 36 5a 61 3d 3e 14 0d be
       -0.1297977 -0.04385843 0.055017672 -0.13777253
0000b0 bc dd af bc 5d 79 96 bc 70 02 87 bb 53 17 5a ba
       -0.021468036 -0.018368417 -0.0041201636 -0.00083195156
0000c0 97 4c e7 bc f6 29 ca bc 9c 90 6c bb 27 91 2b 3d
       -0.028234763 -0.024678212 -0.0036096936 0.041886475
0000d0 8a cc 09 bd ac c4 e1 bc 2a 90 ec bd 98 91 11 bf
       -0.03364233 -0.0275596 -0.115509346 -0.56862783
0000e0 02 66 c3 be 04 92 67 bd 57 6f d0 be 93 5c 08 3f
       -0.38163763 -0.056535736 -0.40709946 0.5326626
0000f0 bc c9 88 3e e2 1c 25 3d e9 06 b6 3e ea 2a af 3c
       0.2671641 0.040310748 0.35552147 0.021382768
000100 a8 66 a9 bb a9 f5 26 3d 58 7a 20 bd 7b 0e cc bc
       -0.0051697083 0.040761624 -0.039179176 -0.024909249
000110 a6 56 d4 3c 1b 19 1c bd 1a 3a fe 3c d0 9e 5e bb
       0.025920223 -0.03810988 0.031033564 -0.0033969171
000120 f8 dd 02 3d 1d 56 87 3d 64 6b 5f 3d a3 dc 3c bb
       0.031949967 0.06608222 0.054545775 -0.0028818033
000130 40 fe 1c bd 16 2c e6 bb 67 3b b9 bc 73 a4 a0 3c
       -0.03832841 -0.0070242984 -0.022611333 0.019609665
000140 f9 f3 77 bc 6d b0 31 3c 07 fa 0f bd e3 50 d0 3b
       -0.015133851 0.010845286 -0.035150554 0.0063572987
000150 d4 2e e7 bc 79 46 d4 bc 91 8d db 3c d1 5a d0 3c
       -0.028220572 -0.02591251 0.026800903 0.02543393
000160 8e 0c 1a bc 9f 56 ae 3c b0 d2 26 bd 6a 0a 8f 3c
       -0.009402407 0.021281539 -0.04072827 0.01746102
000170 1f 3e 00 3d f0 0e 5f bc 7c 3a 73 3c 5e 04 a1 bc
       0.031309243 -0.013614401 0.014845487 -0.019655403
000180 ac ec 7f 3c 00 42 db bc d6 51 19 bd d2 a8 ee bc
       0.015620392 -0.02676487 -0.03743156 -0.029133234
000190 70 0c 5b bc 27 52 8c 3c 90 71 8b bd 27 9d 25 3d
       -0.013369665 0.017129017 -0.0680877 0.040433075
0001a0 9c b0 8d 3d af b5 1d 3d 48 9c 91 bd 35 7d 4f be
       0.06918451 0.038503345 -0.071098864 -0.20262606
0001b0 12 07 e3 bd c9 d3 22 bd d7 c6 fa bc 6d 59 23 3e
       -0.11085333 -0.039752755 -0.030612392 0.15952082
0001c0 14 19 01 bd 3c 86 a0 bb 41 89 c3 3c 09 bd a6 3d
       -0.031518057 -0.0048988145 0.023869159 0.08141524
0001d0 d5 52 0d 3e f6 f7 9d 39 66 10 ef bb cd e3 c4 bd
       0.13801129 0.0003013012 -0.007295656 -0.09613762
0001e0 4a 4b 2a bd bd 94 48 3d c2 67 b5 bc b6 2e b9 bc
       -0.041575707 0.048969973 -0.022144202 -0.022605281
0001f0 41 97 5e 3c 5a 58 bb bc 9c 09 65 bd 96 82 00 3d
       0.013585866 -0.022869278 -0.055917367 0.031374536
000200 53 69 aa bc 06 85 6a bd 5e 58 c7 39 dd 19 82 39
       -0.020802176 -0.057255767 0.00038022076 0.00024814802
000210 f2 de 78 3b a7 c6 53 3d 26 96 cc 3c 8e b2 43 bd
       0.0037974683 0.05170312 0.02497394 -0.047777705
000220 f5 36 96 3c 39 70 82 bd e1 51 41 bd e4 c2 07 3e
       0.018336752 -0.06369061 -0.047197226 0.13257939
000230 b9 89 a3 bd cf 2f 7d bd ed a2 bf 3c c8 12 c2 bd
       -0.07985253 -0.061813172 0.023393119 -0.094762385
000240 3d 5a c8 3d 7e 8d 2c 3d ee ee d3 3c 08 26 c9 3b
       0.097828366 0.042127125 0.025870766 0.006138567
000250 58 37 c7 3c ad 91 07 3d 6d 3b fe 3d ff 60 9f bd
       0.024318382 0.03309791 0.12413678 -0.077821724
000260 1b 53 4a 3c be 50 70 3e fc 97 50 bd d1 e1 6b 3d
       0.012348915 0.234683 -0.050926194 0.057588402
000270 aa 04 78 bd 11 ee 21 be 2a 3b 2e be 2f 0f 0f be
       -0.060551323 -0.15813471 -0.17014757 -0.13970636
000280 26 f5 20 be f4 95 a3 bd 62 b1 c5 bd 27 2c 70 3d
       -0.15718517 -0.07987586 -0.09652974 0.058635857
000290 4a 5f 0a be b9 b0 78 bd c5 f5 47 3e f4 78 e3 bd
       -0.13512912 -0.06071541 0.19527347 -0.11107054
0002a0 51 ca 8a bd 90 68 72 bc 14 10 d5 bd c7 f6 19 3e
       -0.0677687 -0.014795437 -0.10403457 0.15035544
0002b0 46 20 34 bd 8e c5 f9 3d d1 60 97 3d 1a e5 b0 bd
       -0.04397609 0.12195884 0.07391513 -0.08637448
0002c0 45 9b 3a 3d dc ea 85 3c a3 40 ad bd d2 c4 10 bd
       0.045558233 0.016347341 -0.08459594 -0.035343952
0002d0 29 d0 da bc d3 b6 72 bc db 8b 92 bb ba 90 01 bc
       -0.026710587 -0.0148140965 -0.0044722385 -0.007908041
0002e0 e8 6e 89 3a 62 50 c7 bb 71 52 fc 3c 8d b5 00 bc
       0.0010485323 -0.0060825804 0.03080103 -0.007855785
0002f0 96 9b 02 3d 82 72 95 bd 4a f4 b6 3d 34 1f 0e be
       0.03188666 -0.07297231 0.08933313 -0.1387909
000300 9d 05 30 bd 04 21 d4 3d 7d 43 3d bd e5 8a 03 bd
       -0.042974103 0.1035786 -0.04620694 -0.032114882
000310 28 2b 90 bd 12 a2 64 bc c6 f7 82 3e 87 3a b5 3c
       -0.070394814 -0.013954656 0.2557966 0.022122635
000320 58 f7 d4 3d 36 07 f8 3b 66 9a 3d be 17 e7 0a be
       0.103987396 0.007569219 -0.1851593 -0.13564716
000330 01 87 a9 bc ff 02 6c be 7e d2 ba bd ce 11 89 bd
       -0.020694258 -0.23048018 -0.091221794 -0.06692849
000340 cf 35 a4 3c 4a 67 5c bd 27 20 a9 bd 0f 05 04 3e
       0.02004519 -0.05380944 -0.08258086 0.12892555
000350 ec 1a 02 be 0d dd ee bd 5c 06 3a 3c cb 28 ca bd
       -0.12705582 -0.11663256 0.011354055 -0.09871062
000360 8e e8 52 bd c9 6a d4 3d ae 88 80 3d 77 be b7 3c
       -0.051491313 0.1037193 0.062760696 0.022429688
000370 24 85 69 bc 8f f8 5e bc 56 e7 37 3c 0b 38 26 3d
       -0.014252935 -0.013609066 0.011224588 0.04058079
000380 df 45 65 bc 95 97 06 be d1 05 11 3e f8 0b 25 bd
       -0.013993709 -0.13143761 0.14162375 -0.040294617
000390 93 04 d6 bc 43 97 05 3e fc a4 f5 bd 5b 19 fb bd
       -0.026125228 0.13045983 -0.11994359 -0.122606955
0003a0 08 8f 25 3e f5 bd 8d bc 52 6e ee 3c 90 b0 3f 3b
       0.16167843 -0.017302493 0.02910534 0.0029249527
0003b0 40 b4 90 3c b8 cf 88 bb 23 a3 27 3d 00 80 04 37
       0.017664075 -0.0041751526 0.040927064 7.897615e-06
0003c0 18 c3 b7 bc cd 0d 1e 3d 28 b9 93 bb f7 33 15 3d
       -0.022431895 0.03858738 -0.0045081563 0.03642651
0003d0 1f ea a1 3c ea 6c 26 3d ae a7 0c 3d 3f 11 4e 3d
       0.019764958 0.040631212 0.0343396 0.050309416
0003e0 bf fe 86 3c dd c7 a7 b9 39 df b3 3d ee f1 12 bd
       0.016478894 -0.00032001632 0.08782811 -0.035875253
0003f0 bc 96 20 bc 21 07 07 3d 28 15 85 3c a8 d6 85 bb
       -0.009801563 0.032965783 0.01624544 -0.004084427
