Thesis/Experiments with MNIST/New dotted data/CKA-Centered-Kernel-Alignment-master/Hweight2.npy (npy, 73856 bytes, 1 tensors)

array f4 [64, 32, 3, 3]
0	0xbc87128a	-0.016488332
1	0xbc2ad837	-0.010427526
2	0xbc6645f5	-0.014054765
3	0xbd93b1f2	-0.07211675
4	0x3c9bd17e	0.019020792
5	0x3ce1ee6c	0.027579509
6	0xbce10f8d	-0.027473236
7	0x3b8d6cb3	0.0043159365
8	0xbd54eee0	-0.05198562
9	0x3bceb72a	0.006308456
10	0x3db30d2a	0.08742745
11	0x3cbb5b9b	0.02287083
12	0x3d1dbc33	0.03850956
13	0xbd2219be	-0.03957533
14	0x3c812ec9	0.01576938
15	0xbda4546f	-0.08023917
16	0xbd28e480	-0.04123354
17	0x3d090c11	0.033458773
18	0x3c78bdc1	0.01518196
19	0x3e1f6161	0.15564491
20	0xbcb41556	-0.02198283
21	0xbdc1afa9	-0.09457333
22	0xbd49b41f	-0.049244042
23	0x3de866e0	0.11347747
24	0xbdc9f875	-0.098618425
25	0xbdbb3d80	-0.091425896
26	0x3d45d019	0.04829416
27	0xbcf1706d	-0.029472554
28	0xbd5cb9d1	-0.053888146
29	0xbd0db12a	-0.034592785
30	0x3d13868b	0.036016982
31	0x3c5399ac	0.012915056
32	0xbcaa4874	-0.020786501
33	0xbcb66cda	-0.022268701
34	0x3d1a2efd	0.037642468
35	0x3d2dfb7f	0.042476173
36	0x3da01837	0.078171186
37	0x3dab1cfc	0.08355138
38	0x3cddd440	0.027078748
39	0x3cc86246	0.024460923
40	0xbd5c4d4b	-0.05378465
41	0xbd9e3469	-0.0772484
42	0xbbb03fec	-0.005378714
43	0xbd3f5082	-0.046707638
44	0x3da579a3	0.08079841
45	0x3b0b38cb	0.0021243568
46	0xbdd787c1	-0.1052394
47	0xbd067f9e	-0.03283655
48	0xbbbd0d41	-0.0057694023
49	0x3be28c94	0.006913731
50	0xbc80bf42	-0.015716199
51	0x3d9f8a7d	0.077900864
52	0x3c85d114	0.016335048
53	0xbd664841	-0.05622125
54	0x3d975310	0.0738889
55	0x3ec5689f	0.38556382
56	0xbcb4a755	-0.022052446
57	0xbd8f062f	-0.06983601
58	0x3cb124ae	0.021623936
59	0x3dfeefaf	0.1244806
60	0xbeae6fba	-0.34069616
61	0xbe4f45c1	-0.20241453
62	0x3eafb013	0.3431402
63	0xbc791f14	-0.0152051635
64	0xbd1d7fc0	-0.03845191
65	0x3d1abf73	0.037780236
66	0x3cab701a	0.020927478
67	0x3c6eea54	0.014582235
68	0xbc3f6d5c	-0.011683788
69	0xbc96a45a	-0.018388916
70	0x3c0ec642	0.0087142605
71	0x3d3ac689	0.045599494
72	0x3c0a4124	0.008438382
73	0xbce79f5c	-0.02827423
74	0x3d6fc367	0.05853596
75	0x3aa26629	0.0012390065
76	0x3d3e6268	0.046480566
77	0x3c6ab1ed	0.014324647
78	0x3d585803	0.05281831
79	0x3cfb2a84	0.030659921
80	0xbcf61a55	-0.030041853
81	0x3d22a9da	0.039712764
82	0xbb5158c9	-0.003194379
83	0xbd3a724f	-0.04551917
84	0xbd43ac2c	-0.047771618
85	0xbdaf3ffe	-0.085571274
86	0x3bfb681e	0.007672324
87	0xbd2061a0	-0.039155602
88	0x3d2e4729	0.042548332
89	0xbc82cb07	-0.015965952
90	0xbc26ce20	-0.01018098
91	0x3ce75376	0.02823804
92	0x3cc473be	0.023980971
93	0xbd1f4a0e	-0.038888983
94	0x3cb1e5fe	0.021716114
95	0x3ccd11d2	0.025032911
96	0xbd3fe82a	-0.04685227
97	0x3d51d8b7	0.051232066
98	0xbd12dcc8	-0.035855085
99	0xbcc8f969	-0.02453299
100	0xbcc06755	-0.023486773
101	0x3d6ccfa6	0.057815216
102	0xbce3bee0	-0.027800977
103	0x3d60894a	0.05481843
104	0x3d11346f	0.035450395
105	0x3c119b27	0.008887089
106	0xbcab26aa	-0.02089246
107	0xbd01b7b5	-0.031669337
108	0x3d008ef4	0.03138633
109	0x3e06bd12	0.13158062
110	0xbc4697c6	-0.012121147
111	0xbe22fa5b	-0.15915816
112	0xbcee7dca	-0.029112715
113	0x3e132617	0.14369999
114	0xbdd1af4e	-0.10238515
115	0xbde9afcb	-0.11410483
116	0x3e114ce6	0.1418949
117	0x3bc6620d	0.006054169
118	0x3d381827	0.04494491
119	0x3d2a8c91	0.04163796
120	0xbd4c2da4	-0.049848214
121	0x3d786ea8	0.060652405
122	0xbd69c92a	-0.05707661
123	0x3d0aba37	0.033868995
124	0x3b03e02a	0.0020122626
125	0x3ce46212	0.027878795
126	0xbc3a3394	-0.011364836
127	0x3cc63c58	0.024198696
128	0xbd1fc6db	-0.039008003
129	0xbe3293b2	-0.17439154
130	0xbd1b43ef	-0.037906583
131	0x3e1f8eea	0.15581861
132	0x3d001ef0	0.031279504
133	0x3bcb2a04	0.006200077
134	0x3dc49343	0.095984004
135	0x3d995803	0.0748749
136	0x3e48fe74	0.19628316
137	0xbd469f24	-0.048491612
138	0x3d04cb5a	0.032420494
139	0xbd08fc00	-0.03344345
140	0x3ce26b6e	0.027639117
141	0xbe83a0f7	-0.25708744
142	0xbd4dfc74	-0.050289586
143	0x3e540199	0.20703734
144	0xba3ba828	-0.0007158541
145	0x3cfba877	0.030719979
146	0xbd428601	-0.047491077
147	0xbdd10ec8	-0.102078974
148	0xbc0636dc	-0.00819179
149	0x3d4702b3	0.04858656
150	0xbcb2e5ff	-0.021838186
151	0xbd15c11d	-0.03656112
152	0x3d861bec	0.065482944
153	0x3d4d0b0f	0.050059374
154	0x3d502ae1	0.050822143
155	0x3d454585	0.048162002
156	0xbd672704	-0.056433693
157	0x3ca1786a	0.019710738
158	0x3cb1ea28	0.0217181
159	0xbd310822	-0.043220647
160	0x3cc3aa56	0.023884933
161	0xbd02f72a	-0.031973995
162	0x3c198544	0.009370152
163	0x3c98bc63	0.018644517
164	0x3d50447f	0.050846573
165	0xbcfd3db7	-0.030913217
166	0xbd3de532	-0.046361156
167	0x3d5f51cd	0.05452137
168	0x3ccaa12e	0.02473506
169	0x3cdb1627	0.026743961
170	0x3cadc2f2	0.021211121
171	0x3c0274c7	0.007962412
172	0x3dc5cdfb	0.09658428
173	0xbd2ab3ed	-0.041675497
174	0x3d5eb6fd	0.05437373
175	0x3d55baaa	0.05217997
176	0x3d07cb84	0.033153072
177	0xbd7954f8	-0.06087205
178	0xbd4e2d4e	-0.050336175
179	0x3dab9608	0.083782256
180	0xbd9ce610	-0.076610684
181	0xbdc95ac5	-0.09831766
182	0xbd50a5cf	-0.050939377
183	0x3ce668ac	0.028126083
184	0x3c476d55	0.012172063
185	0xbd9307d5	-0.07179228
186	0x3ced0df6	0.028937321
187	0xbcd8ff36	-0.026488882
188	0xbcc37689	-0.023860233
189	0xbcf5e8d2	-0.030018244
190	0xbdd4f976	-0.103991434
191	0x3cecf6fb	0.028926363
192	0xbdb968a9	-0.090531655
193	0x3da405c4	0.08008912
194	0x3df7c7f6	0.120986864
195	0x3ca0dc43	0.019636279
196	0xba41f5af	-0.00073989754
197	0xbdcb84cf	-0.099374406
198	0xbcef5ad0	-0.029218107
199	0x3c7c7deb	0.015410881
200	0xbd714a2f	-0.058908638
201	0xbd4bf4dc	-0.049794063
202	0x3b5e8db6	0.0033958978
203	0xbc785d8b	-0.015159021
204	0xbcc3150c	-0.023813747
205	0xbd911d2a	-0.07085641
206	0x3cc6ad13	0.02425245
207	0x3d050bc0	0.03248191
208	0x3d688685	0.056768913
209	0xbd41756f	-0.047231134
210	0xbe0e9346	-0.13923368
211	0xbd29d806	-0.04146578
212	0x3e2fa7bb	0.17153828
213	0xbdb99af9	-0.09062762
214	0xbd055082	-0.03254748
215	0x3d7414fb	0.05959032
216	0x3d19a6b7	0.037512507
217	0xba0469c0	-0.00050511584
218	0xbd206779	-0.03916118
219	0x3d50254b	0.050816815
220	0x3d0691bb	0.032853823
221	0xbd3db0f5	-0.046311338
222	0xbcf113e6	-0.029428434
223	0xbca44568	-0.020052627
224	0xbd0b5524	-0.034016743
225	0x3d38ddd1	0.045133416
226	0xbd18d04c	-0.037308022
227	0x3d285ecd	0.041106034
228	0xbdc08644	-0.09400609
229	0x3d1042ce	0.03521996
230	0x3d7d1808	0.061790496
231	0xbd81912d	-0.06326518
232	0x3d274386	0.04083588
233	0xbb360e22	-0.002777942
234	0xbd86dec9	-0.06585462
235	0xbd5e41eb	-0.054262083
236	0x3d5168f3	0.051125478
237	0xbcf8022e	-0.030274477
238	0x3bc3be18	0.0059735887
239	0xb90fd8c3	-0.00013718293
240	0x3d23653c	0.039891466
241	0x3c16ebd3	0.009211498
242	0xbda629cf	-0.08113443
243	0xbd094e49	-0.033521924
244	0x3c96df0a	0.0184169
245	0x39fae780	0.00047856197
246	0xbd1db246	-0.038500093
247	0xbd53722a	-0.051622547
248	0x3c4c6ee4	0.01247761
249	0xba5caa40	-0.0008417703
250	0x3d2ad245	0.041704435
251	0xbc125b3c	-0.008932885
252	0xbd112f03	-0.035445224
253	0x3c3c6af6	0.011500111
254	0xbc8f662d	-0.017504776
255	0xbd8a20ae	-0.067445144
