Thesis/Experiments with MNIST/New dotted data/CKA-Centered-Kernel-Alignment-master/Hweight1.npy (npy, 1280 bytes, 1 tensors)

array f4 [32, 1, 3, 3]
000000 53 47 25 3e 22 de 2f be 5d 27 d6 bd 16 36 20 3e
       0.1614049 -0.1717458 -0.10456727 0.15645632
000010 02 ac a0 be 1a b4 4c 3e ae e7 7b bd 9e b8 1a 3f
       -0.31381232 0.19990578 -0.061500244 0.60437953
000020 fc db d7 3d 75 97 ee bc 30 1f 42 3f af 8e cb 3e
       0.105400056 -0.029124955 0.7582884 0.39757296
000030 40 54 f9 3d 98 04 05 be f0 16 c7 bc ac 72 93 bc
       0.121742725 -0.12990034 -0.02430293 -0.017999016
000040 69 4a 23 3e 70 dd 9e 3c 69 5a 25 3f 6d 7a d2 3f
       0.15946354 0.019392699 0.6459108 1.6443611
000050 f4 67 e7 3d f3 26 4e be e8 d9 64 bd 20 3b 13 be
       0.11299124 -0.20132045 -0.055871874 -0.14378023
000060 17 2a d7 bd 57 94 bf 3e 5f af be 3e f6 86 39 3e
       -0.10506075 0.37417862 0.37243173 0.1811789
000070 da d5 a6 be 7a 99 53 3e 60 b6 be 3d 05 e3 a1 3e
       -0.3258503 0.20664015 0.09312129 0.31618515
000080 ea 4c 61 3e 37 80 9b be 74 45 a2 be d3 a2 24 be
       0.22001997 -0.30371258 -0.31693614 -0.16077738
000090 d1 ef dc 3e 9f 63 0b 3f a8 d2 bd 3e 1b 9f 1e be
       0.43151715 0.54448885 0.3707478 -0.15490381
0000a0 11 76 a7 3e e8 6a 10 be 55 b4 92 3e 8b 95 20 bd
       0.32707265 -0.14103281 0.28653207 -0.039205115
0000b0 37 c9 8c be 19 4a aa 3d cb 0d 5a bf 07 7d a8 bd
       -0.27497265 0.08314914 -0.85177296 -0.08226972
0000c0 fc 1f c5 bd 00 b0 15 bd b0 13 a4 be b4 dc 3c be
       -0.09625241 -0.0365448 -0.3204627 -0.18443567
0000d0 60 49 f4 3e 7a 17 29 bd 91 95 79 3f 0d ee 97 40
       0.4771223 -0.041282155 0.97493845 4.747809
0000e0 b8 6a bb 3f 90 d5 63 be ee db 4f 3e d4 de d3 3d
       1.4641943 -0.22249436 0.2029874 0.103452355
0000f0 03 ee 81 be 9e 2c 9f 3f 57 07 ef 3e bd 91 95 3e
       -0.253769 1.2435491 0.46685287 0.29212752
000100 be 8e 3f be f8 bd 60 bd c0 97 d3 bb c8 6a 47 3d
       -0.18706796 -0.05486867 -0.006457299 0.04868582
000110 a6 85 81 be c0 37 72 be da af 39 3e 70 14 a0 bd
       -0.25297278 -0.2365408 0.18133488 -0.07816398
000120 a3 15 1b 3e fd 68 6a 3b 6c 26 e0 3d 54 1c 96 3d
       0.15144973 0.0035768144 0.109448284 0.07329622
000130 9c 37 f8 3d de 33 29 3e 55 08 9e be 4c 71 2a 3e
       0.12119982 0.16523692 -0.30865732 0.16644782
000140 b6 0f 70 be c3 eb 81 be d7 4b ac 3c b7 b0 6c bd
       -0.23443493 -0.25375184 0.021032257 -0.057785716
000150 2a 79 48 3e a6 ad 45 be 37 b8 97 be e9 06 9b 3e
       0.1957747 -0.19304523 -0.29632732 0.3027871
000160 10 57 94 3e 7e fc 8d 3e 80 77 db 3d 1b f5 7f be
       0.28972673 0.277317 0.10716152 -0.24995844
000170 84 25 89 3d 64 f9 a3 3d ee 8a 64 be 06 f4 21 be
       0.06696609 0.08006552 -0.22318622 -0.15815744
000180 d0 c5 e8 3d e0 8f 74 3d a0 31 11 be 97 5e c2 bd
       0.11365855 0.059707522 -0.14179087 -0.09490698
000190 49 4e d2 3e 23 3f 95 bd de 70 40 3e 66 cc 13 3e
       0.41075352 -0.07287433 0.18793055 0.1443344
0001a0 eb a3 5c be e4 99 a0 be 39 6c 01 3f 45 1c 26 3d
       -0.21546905 -0.3136741 0.5055576 0.040554304
0001b0 f3 17 f1 3e bd 5c d6 3f 9d 90 27 3f 3e f6 7e 3e
       0.47088584 1.6747051 0.6545504 0.24898621
0001c0 21 d4 a1 3e 98 80 62 be de 8b 8a 3d 8c 03 a7 3f
       0.31607154 -0.22119367 0.06764959 1.3047957
0001d0 5d e8 08 3f c3 01 7f 3e e0 2e 7f be ab cb 75 be
       0.5347956 0.24903016 -0.24920225 -0.24003474
0001e0 c0 6d 4e be 48 86 2b 3d f5 18 aa 3e ba 5b 5c be
       -0.20159054 0.041876107 0.33222166 -0.21519366
0001f0 36 07 87 3e 37 a5 4b be b1 22 a9 be 1c 32 8c 3d
       0.2637269 -0.19887243 -0.3303428 0.06845495
000200 c5 8d db 3e 51 71 9e 3e 33 fb 53 be 74 25 94 3d
       0.428816 0.3094583 -0.20701294 0.07233706
000210 1d 22 c5 3e 83 17 b2 3f 7b d4 dd 3e 2e 05 19 3f
       0.3850259 1.3913425 0.43326172 0.5977353
000220 64 ca 35 40 9a 51 7c 3f 1e 69 69 be 9c 51 8f be
       2.840478 0.98562014 -0.22794005 -0.2799195
000230 ee 67 1c be bb 74 21 bd 82 de 4e be df b5 0f 3e
       -0.15274021 -0.039417963 -0.20202067 0.14034222
000240 f8 2f 2f 3e 1a ea 4f bd e5 28 3f 3e a0 a0 dc 3d
       0.17108142 -0.050760366 0.18667944 0.10772824
000250 b6 65 50 3e 6a de 65 3e 86 10 1c be fd eb 8c 3f
       0.203513 0.22448125 -0.15240678 1.1009518
000260 05 13 26 3e 20 a1 3b bc c0 16 a1 be 0b b0 5b be
       0.16218193 -0.011451989 -0.3146267 -0.21453874
000270 7b 68 47 be 00 ff 11 be 7a ad 72 3e 20 15 df bd
       -0.1947345 -0.14257431 0.23698989 -0.10892701
000280 6e 12 7f be f9 cc 02 3e e2 e4 f3 3d f2 9a 68 3e
       -0.24909374 0.12773503 0.1190889 0.22715357
000290 68 a1 30 be 2c 03 94 3d 76 86 f8 bd c0 60 99 bd
       -0.17249072 0.072271675 -0.121350214 -0.07489157
0002a0 e6 01 88 be 00 91 1b be 6c 12 d1 bd 50 07 32 3e
       -0.26563948 -0.15192032 -0.10208592 0.17385602
0002b0 27 fc d2 3e b0 c3 ac 3e e1 57 aa 3e 21 56 a6 3e
       0.41208002 0.33743048 0.3327017 0.32487586
0002c0 32 ce 68 3e 81 00 14 bd 6d 26 3b bf 53 8f 6b 3e
       0.22734907 -0.036133293 -0.7310551 0.23003893
0002d0 78 82 f9 bd 57 94 42 bf f6 2c 1f bf a0 d8 86 bd
       -0.12183088 -0.760076 -0.6217798 -0.06584287
0002e0 e6 27 5c be 9d d3 9c 3e 48 97 a4 be 51 a5 28 bf
       -0.21499595 0.30630198 -0.32146668 -0.6587725
0002f0 79 f2 a5 bd c5 36 a9 be 5e 7a 7c bf 88 6f 11 bf
       -0.081028886 -0.33049598 -0.9862422 -0.5681081
000300 ee 51 20 be 90 a8 9a 3c 2a 17 77 3e 6c 7a ad be
       -0.15656254 0.018879205 0.2412993 -0.33882463
000310 e4 02 cd 3e bf 0f c3 3e 6d e9 be 3e 23 17 5d be
       0.40041268 0.3809795 0.37287465 -0.21590857
000320 4e fe be 3d 1b 64 7c be eb b4 91 3e c6 67 04 be
       0.093258485 -0.24647562 0.28458342 -0.12930211
000330 f3 d8 69 3e df af 01 3e 8c f2 4f 3a 47 9f 1f 3d
       0.22836666 0.12664746 0.00079325656 0.038970258
000340 eb 40 99 3f 5d 6a 42 3f d8 f8 5a 3d 34 40 d0 3d
       1.1972936 0.7594355 0.053459972 0.10168496
000350 d6 84 99 be ee 16 99 3e 2e 25 cf 3f c4 e9 14 3f
       -0.29984158 0.29900306 1.6183221 0.581692
000360 42 52 7c 3e 1e 51 76 be 86 10 fd bd 2b 7b 96 3e
       0.24640754 -0.24054381 -0.12356667 0.29390845
000370 5f fd 81 be 19 d5 9a 3e 8a 3a 86 be 28 70 70 be
       -0.2538862 0.30240706 -0.26216537 -0.23480284
000380 d0 de 26 3e b7 49 74 be e5 35 2a 3e 1d 24 00 3f
       0.16295934 -0.23856245 0.16622122 0.50055104
000390 e5 2e 87 3e b3 68 a1 3e 64 86 8a bd 6e 52 90 be
       0.26402965 0.31525192 -0.06763914 -0.2818789
0003a0 27 d2 75 3f 90 3b 8e 3b 42 9e 80 be f8 2f 70 bf
       0.9602379 0.0043405965 -0.2512074 -0.93823195
0003b0 c3 f2 3c bf 06 5a 60 3e be ec 55 3e ba 6b 87 be
       -0.73807925 0.21909341 0.20891091 -0.26449376
0003c0 4f f6 a9 be f5 92 3f bd 15 c2 70 3e 00 2c 1e bc
       -0.3319573 -0.04677101 0.23511536 -0.009654045
0003d0 1e 15 2d be 00 b8 f9 3b 44 6a a0 be b8 3d 71 be
       -0.16902587 0.0076208115 -0.31331074 -0.235587
0003e0 d3 38 63 be 27 e5 91 3e ea 06 9f 3e 10 e1 e7 bd
       -0.22189645 0.28495142 0.31059963 -0.11322224
0003f0 6a ff 9d 3c ff 1e 3c 3f 24 34 98 3e 6e ec 2a be
       0.01928683 0.73484796 0.2972728 -0.16691753
