Thesis/Experiments with MNIST/New dotted data/CKA-Centered-Kernel-Alignment-master/Vweight1.npy (npy, 1280 bytes, 1 tensors)

array f4 [32, 1, 3, 3]
00000000: 1cd0 b93e 38a8 16be 9e11 efbc a766 783f
00000010: 02ac a0be 6d26 2a3f 2f99 a93c baa6 2d3e
00000020: 85d1 403e a391 b33d 5458 bd3d 6fe6 113d
00000030: a10c 413f 9804 05be f76d 97bd 5374 bf3b
00000040: 98e5 453d 50df 93bd 2950 c53e 6c70 d43d
00000050: 4e3b febd b359 1dbe e8d9 64bd 5956 27be
00000060: afc1 dabd b0bf 823c e999 8c3e be7f 233e
00000070: dad5 a6be de54 623e 8313 933d 05e3 a13e
00000080: b1b1 713e 3780 9bbe 7445 a2be b3a2 24be
00000090: 5128 af3e 186c 63bd 7e26 fe3d 8391 41bd
000000a0: 1176 a73e 4445 30bf 49f0 963e c057 813b
000000b0: 1d5c f5be a69c 483e c62f 35be 3247 493b
000000c0: a8df 84bf 00b0 15bd 6ff1 6abf 2559 2fbf
000000d0: 1638 393e f379 dbbe 913b e23e efcd 883e
000000e0: 5b73 093c 0420 2cbe eedb 4f3e e70a 273f
000000f0: 4da2 5cbe 12b6 5d3e fb2b ca3e 9c92 e73e
00000100: 7356 3fbe 3ab7 60bd 6062 8b3e c86a 473d
00000110: a685 81be f31a 87be daaf 393e 0814 a0bd
00000120: d3a9 8b3e d0ac 9b3c ae36 263e 1b9c be3e
00000130: 9c37 f83d a0f4 b63e daa0 bbbe 86cf 2b3e
00000140: 5b21 96be 75d8 b1bd 5010 a63c e8ee 68bd
00000150: 2a46 0e40 a6ad 45be 89e0 91be 7d61 8e3f
00000160: 4074 4abd cb92 773e 8077 db3d 1bf5 7fbe
00000170: 8425 893d dbbb a13d ee8a 64be 06f4 21be
00000180: fe88 e63d e08f 743d a031 11be 8ba3 cebd
00000190: 874f 9c3e a09d 7cbd 19e3 433e 66cc 133e
000001a0: eba3 5cbe ce23 91be 2dd2 a33e 3096 8e3c
000001b0: 1fe9 293f 5078 8d3d fe10 093e ee1d 3740
000001c0: 21d4 a13e 5483 8ebe 56a3 3d3f f6b8 7e3e
000001d0: 44a6 a33e a367 593e 8607 77be 2181 62be
000001e0: 693d 59be 4886 2b3d a184 193f b29c 57be
000001f0: dae3 353e 2fdf 96be 81ee 8bbd 0018 91bd
00000200: f31c a23e 479d 4940 33fb 53be 3b62 4a3f
00000210: 2919 b93f 8e2f 623e 40f6 cd3e 2f16 8e3e
00000220: 22e6 573e dcf4 c43d 1f8b 73be 9c51 8fbe
00000230: 5542 1abe c8fc 1ebd 9638 51be 39d3 d13d
00000240: 63cf 7b3e 7094 9abd e3b9 623e 577b 3d3f
00000250: b665 503e b201 5f3f b5c8 0fbe e7be a63e
00000260: cc5f 943d db54 5abc c016 a1be 6338 69be
00000270: bb60 71be 00ff 11be 22a1 1f3f cf8f fbbd
00000280: 6e12 7fbe e420 823e b091 da3d 1214 5d3e
00000290: 68a1 30be 2c03 943d 7686 f8bd c060 99bd
000002a0: e601 88be 0091 1bbe 6c12 d1bd d7f0 c63e
000002b0: 986e 793d 0cc4 393e 53af 1b40 2156 a63e
000002c0: 508a 813f 0e90 093f a821 6cbe b4c0 db3e
000002d0: a1c2 28be 00c3 dcbc 998d 8ebe ac36 2fbf
000002e0: e627 5cbe b7cb 7b3f cc43 11bf 1f08 85be
000002f0: 238c 1f3e 9b21 fbbe 2044 f43d f751 26be
00000300: 2d57 11c0 90a8 9a3c ef68 333f 08c2 a0bf
00000310: d24a 203e 0903 a53e 10a6 b03e e6e8 6ebe
00000320: 2898 b73d 95a9 b0be ebb4 913e d451 00be
00000330: 7004 b13e 8097 223c dbb4 d4bc a077 bd3d
00000340: 6019 683d 004c 1e3e 1054 b93f 3440 d03d
00000350: 9955 b6be 91a2 453f 51cc 943e 8046 b53e
00000360: feba c23e 1e51 76be b02b e3bd c932 213f
00000370: 5ffd 81be 53c1 cc3e 26f1 74be 2870 70be
00000380: 5b6f 7a3e eff0 a6be 4066 9cbd 7c5d a13e
00000390: 6991 1a3f b368 a13e 49ad 7c3c bc52 f8be
000003a0: 4f0a a83e 2069 91bd e825 41be 906a a63d
000003b0: 3650 b9be 944f e8be beec 553e b15f 39bf
000003c0: 1c8b 4fbf 5032 efbc 1191 943c 002c 1ebc
000003d0: 1e15 2dbe 00b8 f93b 446a a0be b83d 71be
000003e0: d338 63be 978c 8c3e 9571 963e 10e1 e7bd
000003f0: 1817 c23c 263a 183e 011c cd3d a678 2abe
0.36291587 -0.14712608 -0.029183205 0.97031635 -0.31381232 0.66464883 0.020702926 0.16958132
0.18829925 0.087680124 0.09245363 0.03562015 0.75409895 -0.12990034 -0.07394021 0.0058427243
0.04831466 -0.07220328 0.3853772 0.10373005 -0.12413655 -0.15366249 -0.055871874 -0.16341533
-0.106814735 0.015960544 0.27461174 0.15966699 -0.3258503 0.22102687 0.07181456 0.31618515
0.2360294 -0.30371258 -0.31693614 -0.1607769 0.34210446 -0.055523008 0.124096856 -0.04725791
0.32707265 -0.6885569 0.29480198 0.003947228 -0.4792184 0.19591007 -0.17694005 0.0030712602
-1.0380754 -0.0365448 -0.9177465 -0.684954 0.18087801 -0.42866477 0.4418607 0.26719615
0.008389319 -0.16809088 0.2029874 0.6525101 -0.21546288 0.21651486 0.3948668 0.45229042
-0.18685322 -0.05486224 0.27223492 0.04868582 -0.25297278 -0.26387748 0.18133488 -0.07816321
0.27278003 0.019003302 0.16231796 0.37228474 0.12119982 0.3573351 -0.36646158 0.16778383
-0.29322323 -0.08683864 0.02027145 -0.056868464 2.2230325 -0.19304523 -0.2849162 1.1123501
-0.04942727 0.24177091 0.10716152 -0.24995844 0.06696609 0.07897159 -0.22318622 -0.15815744
0.11256598 0.059707522 -0.14179087 -0.10089787 0.30529425 -0.06167376 0.191296 0.1443344
-0.21546905 -0.2834763 0.3199629 0.0174056 0.6637134 0.069077134 0.13385388 2.8612018
0.31607154 -0.2783457 0.74077356 0.24875244 0.31962788 0.2123094 -0.24123964 -0.22119571
-0.21214832 0.041876107 0.59968 -0.21055868 0.177627 -0.2946715 -0.068326004 -0.07084656
0.31662712 3.1502244 -0.20701294 0.7905614 1.4460803 0.22088453 0.40226936 0.277513
0.21083882 0.09617016 -0.23783539 -0.2799195 -0.15064366 -0.03881529 -0.20431742 0.10245366
0.2459083 -0.075478435 0.22141223 0.74016327 0.203513 0.8711196 -0.14041407 0.32567522
0.07244834 -0.013325895 -0.3146267 -0.22775416 -0.23572056 -0.14257431 0.62355244 -0.12283289
-0.24909374 0.2541572 0.10672319 0.21589687 -0.17249072 0.072271675 -0.121350214 -0.07489157
-0.26563948 -0.15192032 -0.10208592 0.3885562 0.060896486 0.18141192 2.432576 0.32487586
1.0120335 0.53735435 -0.23059714 0.42920458 -0.16480495 -0.026948452 -0.27842405 -0.684428
-0.21499595 0.9835772 -0.56744075 -0.25982758 0.15580802 -0.49049076 0.11927056 -0.16242205
-2.2709458 0.018879205 0.7008199 -1.2559214 0.15653542 0.32228878 0.34501696 -0.23331031
0.089645684 -0.3450438 0.28458342 -0.12531215 0.34573698 0.009923816 -0.025965145 0.09251332
0.056664824 0.15458679 1.4478779 0.10168496 -0.3561218 0.7720118 0.2906213 0.3540535
0.3803329 -0.24054381 -0.11092317 0.62968117 -0.2538862 0.39991245 -0.23920116 -0.23480284
0.24456541 -0.32605693 -0.0763669 0.31516635 0.6037813 0.31525192 0.015422174 -0.4850062
0.32820365 -0.07100129 -0.18862116 0.08125794 -0.3619401 -0.45373213 0.20891091 -0.7241164
-0.8107164 -0.029198796 0.01813558 -0.009654045 -0.16902587 0.0076208115 -0.31331074 -0.235587
-0.22189645 0.27451012 0.2938353 -0.11322224 0.023692653 0.14865932 0.10015107 -0.16647586
