Thesis/Experiments with MNIST/New dotted data/CKA-Centered-Kernel-Alignment-master/Vweight3.npy (npy, 23168 bytes, 1 tensors)

array f4 [10, 64, 3, 3]
0	0xbcec31ad	-0.028832281
1	0xbd197d4f	-0.03747302
2	0xbcb5712f	-0.022148697
3	0xbd4dfdd2	-0.05029089
4	0x3d089c13	0.03335197
5	0xbc821f2e	-0.015884008
6	0x3ba38cc9	0.004991148
7	0xbca7ac1b	-0.020467808
8	0x3cd5847a	0.026064146
9	0xbc615006	-0.013751989
10	0xbd131e2a	-0.03591744
11	0xbd1a5a88	-0.037683994
12	0xbd1c2f9b	-0.038131338
13	0x3cb67593	0.02227286
14	0x3c3dbd91	0.011580841
15	0xbc01ba4a	-0.00791795
16	0x3d15ad5d	0.036542285
17	0xbd0995c4	-0.033590093
18	0xbd818060	-0.06323314
19	0xbd3b4d5d	-0.045728076
20	0xbbdc69af	-0.0067264657
21	0x3cd33e40	0.025786519
22	0x3d5f1bae	0.054469757
23	0x3df0597c	0.11735818
24	0xbd338a3e	-0.04383301
25	0x3c03f003	0.008052829
26	0x3c91deee	0.017806496
27	0x3e19b549	0.15010561
28	0xbcc7e7ff	-0.024402617
29	0x3d89c398	0.0672676
30	0xbdc3c9d5	-0.09559981
31	0xbe3b1dbd	-0.18273063
32	0xbe317c67	-0.17332612
33	0x3c73fb7a	0.0148915
34	0x3d669758	0.056296676
35	0xbd6bff0d	-0.057616282
36	0x3e2bef87	0.16790591
37	0x3e8e02cb	0.27736506
38	0x3e69de7b	0.22838776
39	0xbd85961c	-0.06522772
40	0xbdbeae2f	-0.09310567
41	0xbe2d1108	-0.16901028
42	0xbe0be073	-0.1365984
43	0xbd863e37	-0.06554835
44	0xbe42955d	-0.1900229
45	0xbc9ae688	-0.018908754
46	0xbb767050	-0.0037603565
47	0xbaac3520	-0.0013138391
48	0xbce63f83	-0.028106457
49	0xbcccdccb	-0.025007626
50	0xbb63ae40	-0.0034741312
51	0x3d28cb51	0.041209523
52	0xbd0b7043	-0.034042608
53	0xbcea6e58	-0.02861707
54	0x3c611ec0	0.0137402415
55	0x3be94179	0.0071184007
56	0x3d16966b	0.036764544
57	0xbd7811fb	-0.060564023
58	0x3dab0053	0.08349671
59	0xba1c7cdd	-0.0005969534
60	0xbdda07d1	-0.10646022
61	0xbda9abdf	-0.08284735
62	0xbd77c47c	-0.060490116
63	0x3caf2899	0.021381663
64	0xbba972c3	-0.0051711514
65	0x3d26f3ee	0.040759973
66	0xbd207bd0	-0.039180577
67	0xbccc10e5	-0.0249104
68	0x3cd45495	0.025919238
69	0xbd1c1a9e	-0.03811132
70	0x3cfe35ed	0.031031573
71	0xbb5ebe92	-0.00339881
72	0xbc5ee077	-0.013603321
73	0x3c0a0e66	0.008426284
74	0x3d010966	0.031503104
75	0xbdad5d0e	-0.084650144
76	0x3d2c8314	0.042117193
77	0xbc16c12c	-0.009201329
78	0xbdcb8ad8	-0.09938592
79	0xbd97074e	-0.0737444
80	0x3d25f6e5	0.04051866
81	0xbb0fa52f	-0.0021918525
82	0xbd341423	-0.043964516
83	0x3a8c46cb	0.001070225
84	0xbcfc8e93	-0.030829703
85	0xbc90870d	-0.017642522
86	0x3cbc91b4	0.023018695
87	0xbb82f255	-0.0039961734
88	0x3b285009	0.002568247
89	0x3d2adc12	0.04171378
90	0xbd27a13a	-0.040925242
91	0x3c917d13	0.017759835
92	0x3cfd6ec4	0.030936606
93	0xbc5dec00	-0.013545036
94	0x3c74452c	0.01490907
95	0xbca0ed6f	-0.019644467
96	0x3c81ca3f	0.015843509
97	0xbcdb5572	-0.026774142
98	0xbd193b5d	-0.03741013
99	0x3e13e0dd	0.14441247
100	0x3db397b0	0.087691665
101	0x3c20d933	0.009817409
102	0xbc967a7c	-0.018368952
103	0xbd20edd9	-0.03928933
104	0xbdc2e511	-0.09516347
105	0x3dd22071	0.10260094
106	0xbdd17d69	-0.10228998
107	0xbc9f9853	-0.019481814
108	0x3d64236b	0.05569784
109	0xbe2eaa96	-0.17057261
110	0xbde1c359	-0.11023588
111	0x3e0d6265	0.13807066
112	0x3de0ecbe	0.10982655
113	0x3c82247e	0.015886541
114	0x3e944375	0.28957716
115	0x3df3722a	0.118870094
116	0x3e493829	0.1965033
117	0x3cebedb6	0.028799873
118	0x3c8f24b2	0.017473552
119	0xbd0eec78	-0.034893483
120	0xbccac616	-0.024752658
121	0x3c27447c	0.010209199
122	0xbcbaebae	-0.022817459
123	0xbbe07158	-0.006849449
124	0xbcb32ee0	-0.021872938
125	0xbcdfb466	-0.0273077
126	0xbc906723	-0.017627304
127	0xbdbafd0c	-0.09130296
128	0xbc39bec6	-0.011336988
129	0xbc63dd12	-0.013907688
130	0x3e1153ce	0.14192125
131	0x3d620e11	0.055189196
132	0x3ce051a4	0.02738268
133	0xbdc1470d	-0.0943738
134	0x3e02cc3a	0.12773219
135	0x3cb79a93	0.022412574
136	0xbdc99760	-0.098433256
137	0xbda23b05	-0.07921413
138	0x3d2e8ab4	0.042612746
139	0x3ca5224f	0.020157961
140	0x3c7139d1	0.014723257
141	0x3dccb686	0.09995751
142	0x3e071efd	0.13195415
143	0x3c068296	0.008209845
144	0x3d233d0e	0.03985315
145	0xbde581f4	-0.11206427
146	0xbdbf610e	-0.093446836
147	0x3d8e08b7	0.06935256
148	0x3c1fa1a9	0.009743133
149	0x3d36222f	0.044466194
150	0x3e580bb9	0.21098222
151	0xbe28564b	-0.16439168
152	0xbd8d4067	-0.068970494
153	0x3d2c67e8	0.04209128
154	0xbe19c74a	-0.15017429
155	0xbe752c4d	-0.2394268
156	0x3a9d8973	0.0012019112
157	0x3d482997	0.04886779
158	0xbcbba701	-0.022906782
159	0x3e4b3147	0.19843017
160	0x3e99f8f5	0.30072752
161	0x3e646a2b	0.22306125
162	0x3e006394	0.12537986
163	0xbe07a6a1	-0.13247158
164	0xbd67d175	-0.05659624
165	0x3e15130e	0.1455805
166	0x3e349658	0.17635477
167	0x3dfa6a74	0.122273356
168	0x3e975bbf	0.29562184
169	0xbe78b93f	-0.24289416
170	0x3aa89bd7	0.0012863827
171	0x3c0a1487	0.008427746
172	0x3cbba768	0.022906974
173	0x3e172a0d	0.14762135
174	0xbd9acbaa	-0.07558377
175	0xbd4bd9ec	-0.049768373
176	0xbd52eab4	-0.05149336
177	0xbdcf8074	-0.10131922
178	0xbdd3a3cd	-0.10333977
179	0x3c310e0a	0.01080657
180	0xbaca7634	-0.0015446604
181	0xbd28b498	-0.041187853
182	0xbd189ee5	-0.03726091
183	0xbd2b7a5b	-0.041864734
184	0xbc5a2084	-0.013313416
185	0xbcaf4715	-0.0213962
186	0x3ccbc00b	0.024871847
187	0xbcdb8351	-0.026796015
188	0x3c008a67	0.007845498
189	0x3e4117d2	0.18856743
190	0xbdce3a45	-0.10069708
191	0x3a6f7e7e	0.0009135975
192	0xbe010b2f	-0.12601922
193	0xbe6634ae	-0.22481033
194	0xbdebfbd6	-0.11522643
195	0x3cf13022	0.029441897
196	0x3c271e3a	0.010200078
197	0xbc9e1995	-0.019299308
198	0x3e8e5c7a	0.2780493
199	0xbcd3ec8a	-0.025869627
200	0x3dba78d9	0.09105081
201	0xbcf3378f	-0.029689578
202	0xbe9fe89b	-0.3123215
203	0xbebc0279	-0.36720636
204	0xbe0e5c69	-0.13902439
205	0x3d85d218	0.06534213
206	0xbdcfcba3	-0.101462625
207	0x3c6c3099	0.014415883
208	0x3ccc2fe2	0.024925176
209	0x3cbea0a8	0.023269966
210	0xbd1cbfbb	-0.038268786
211	0x3c881ae6	0.016614389
212	0xbd9adf52	-0.07562126
213	0xbcea844f	-0.028627543
214	0xbd48da88	-0.049036533
215	0xbc9dc8c4	-0.019260772
216	0x3dd56176	0.1041898
217	0x3cbf0621	0.023318352
218	0x3bbb9c87	0.0057254466
219	0x3d9a6cde	0.07540296
220	0x3bd70d48	0.0065628625
221	0x3dca691c	0.09883329
222	0x3d41d3e0	0.0473212
223	0xbe90fc7d	-0.28317633
224	0xbe30c64b	-0.17263143
225	0xbc43b656	-0.011945328
226	0x3ca753c8	0.020425692
227	0xbb8bb7b8	-0.0042638443
228	0x3d1526cd	0.036413956
229	0x3c9b9388	0.018991247
230	0xbcfa9ba3	-0.030591791
231	0xbcfc591b	-0.030804208
232	0x3cce711a	0.025200415
233	0x3cab80ae	0.020935383
234	0x3cee68c2	0.029102687
235	0x3b40a8c9	0.0029397479
236	0x3c90d0bf	0.017677663
237	0xbb88d945	-0.004176291
238	0x3d279f9b	0.040923696
239	0x36b8dca5	5.5093137e-06
240	0xbcb7c43c	-0.022432439
241	0x3d1e0bde	0.038585536
242	0xbb93e716	-0.0045136316
243	0x3e543968	0.20725024
244	0x3dc73837	0.09727519
245	0x3c4d0557	0.01251348
246	0x3cca7e58	0.024718449
247	0xbd161f7d	-0.036651123
248	0xbc40c67f	-0.011766075
249	0x3e585d19	0.21129264
250	0x3d5eb125	0.054368157
251	0xbd3a48a1	-0.04547942
252	0xbcd047bd	-0.025424832
253	0x3c9505b4	0.018191196
254	0x3d629d9e	0.055326097
255	0xbd52247f	-0.051304337
