Thesis/Experiments with MNIST/New dotted data/CKA-Centered-Kernel-Alignment-master/Vweight2.npy (npy, 73856 bytes, 1 tensors)

array f4 [64, 32, 3, 3]
000000 b5 ab cf 3a b3 9f 85 bc 8c 55 b3 bc 98 03 7d 3b
       0.0015844019 -0.016311502 -0.021891378 0.0038606878
000010 74 43 23 3c c8 58 2d bd a6 bf c8 bc 59 53 5b 3c
       0.009964813 -0.042320997 -0.024505448 0.013386571
000020 48 61 38 bd 4e d2 99 ba db 5c fe 3c a6 87 42 3c
       -0.04501465 -0.0011735649 0.031050136 0.011873161
000030 da 5b 86 3d 55 c7 24 bd 0f 69 80 bc d2 52 29 bc
       0.06560488 -0.04022916 -0.015675096 -0.010334687
000040 f9 a5 0c bd 2f c6 12 bd 34 3f 73 3c 6d 7b f3 3a
       -0.03433797 -0.035833534 0.014846612 0.0018576212
000050 65 63 f6 bc 74 db 1c bd 57 fb 47 bd 0e 37 5d 3d
       -0.030076692 -0.038295224 -0.04882368 0.054007582
000060 1b 7f 24 bc c7 f6 17 bc b0 82 b1 bc 6d 70 f1 bc
       -0.01004007 -0.009275145 -0.021668762 -0.029472554
000070 d5 b9 5c bd 2a b1 0d bd 52 f9 14 3d 3d fb 3c 3c
       -0.05388816 -0.034592785 0.036370583 0.011534509
000080 f7 8f aa bc da 6c b6 bc 0e 2f 1a 3d 7f fb 2d 3d
       -0.0208206 -0.022268701 0.03764253 0.042476173
000090 10 9b 6f 3d 07 b4 cb 3c 0c 9e 9d 3c ad dd 07 bb
       0.05849749 0.024866117 0.019240402 -0.0020731494
0000a0 ee 67 df bc 13 dc 89 bd dc d2 06 3d 40 7d 4a bc
       -0.027271237 -0.06731429 0.032915935 -0.0123589635
0000b0 63 30 d1 3c e4 75 8e bc 4d 21 41 bd 21 08 9a bc
       0.025535768 -0.017390199 -0.0471509 -0.018802704
0000c0 97 f8 f0 bb 91 c6 b1 b8 ff 10 47 bd 9d 99 ea 3b
       -0.007353853 -8.4770036e-05 -0.048600193 0.0071594254
0000d0 05 94 a4 ba 28 c1 c3 bc ba ef c2 3c 59 68 09 bb
       -0.001255632 -0.023895815 0.023795951 -0.0020966737
0000e0 4e c3 b1 bc f8 05 68 3d 8a 31 7a 3c 43 45 53 3b
       -0.021699574 0.056646317 0.0152706 0.0032237328
0000f0 98 5c 39 bc a3 2b 3a bd 5a 6d 3a 3d c9 71 8e bc
       -0.01131358 -0.04545177 0.045514442 -0.017388241
000100 42 e1 1b bd d1 90 0f 3d 5d 4a 0f 3d 0e 41 6f 3c
       -0.03805662 0.035050217 0.034983028 0.014602913
000110 35 da ac bc a6 d1 a2 bc 7e c6 23 3c 94 7f 31 3d
       -0.021100143 -0.019875359 0.009996055 0.04333456
000120 cf 62 a1 3b 0e 65 04 bd 92 4c 5e 3d c6 33 6b 3c
       0.004925109 -0.032322936 0.054272242 0.0143556055
000130 05 56 11 3d e5 8e 76 3b 64 9e 4e 3d 68 d0 ee 3c
       0.035482425 0.0037621793 0.05044402 0.02915211
000140 1b 98 0c bd 57 a7 c7 3d 35 c2 2f bb 96 b9 b1 bd
       -0.034324747 0.097487144 -0.0026818637 -0.08677976
000150 c8 d7 a9 3c 9e 46 59 bd fe ab 8b bd df bc 20 bc
       0.020732775 -0.05304586 -0.06819914 -0.009810655
000160 03 e2 2b 3d 82 61 e2 39 ad cc 26 bc 76 53 e7 3c
       0.04196359 0.00043178728 -0.010180634 0.02823804
000170 c8 73 c4 3c 0e 4a 1f bd fe e5 b1 3c d2 11 cd 3c
       0.02398099 -0.038888983 0.021716114 0.025032911
000180 f3 e7 3f bd b7 d8 51 3d db dc 12 bd f9 c4 bc bc
       -0.046852063 0.051232066 -0.035855155 -0.023043143
000190 d6 cd 46 bd bd 97 5c 3d a6 cd 37 3c 97 3b 4b 3d
       -0.048536144 0.053855646 0.011218464 0.049617376
0001a0 b6 4b 7c 3b c1 30 03 3d fc 1f 9a bc f0 8d 40 bd
       0.0038497276 0.032028917 -0.01881408 -0.047010362
0001b0 8f 08 88 3d d7 ab 22 bc 9c ac 42 bd 74 28 1b 3d
       0.066422574 -0.009928665 -0.047527894 0.037880376
0001c0 31 b8 e8 39 94 59 31 bd e4 67 62 3d 3e 16 33 bd
       0.00044387722 -0.04329832 0.05527486 -0.043722384
0001d0 62 63 0a 3d de 64 c6 3b 6f e5 06 3d 07 9e 2a 3d
       0.033786185 0.006054505 0.03293365 0.041654613
0001e0 bb a9 4e bd 91 cf 31 3d 0f 08 75 bd 96 bd 0a 3d
       -0.050454836 0.04341084 -0.05982214 0.03387221
0001f0 a8 84 28 bb a0 7e e4 3c a8 dc 33 3d 05 6b 93 3c
       -0.0025713835 0.02789241 0.043911606 0.017995367
000200 06 ff ac bd 69 04 cc ba 9d 07 46 bb 38 e9 b6 bc
       -0.08447079 -0.0015565279 -0.003021694 -0.022328004
000210 bf a4 cf 3d 0c 9e 3b bb 09 14 93 3d e7 0e 1b 3d
       0.10138845 -0.0028628139 0.07181556 0.03785601
000220 84 ee f3 bc c7 2b 3a bd b6 69 e8 3c 36 4e 05 bd
       -0.029776819 -0.045451906 0.02837072 -0.03254529
000230 4e a5 cc 3c 78 b5 4e bd d7 d4 31 3d e2 ad 90 3c
       0.024981167 -0.05046603 0.04341587 0.017661039
000240 c2 78 6f 3a 27 27 68 3c 96 64 4c bd eb 41 ee 3b
       0.0009135121 0.014169491 -0.049900614 0.0072710416
000250 ad 7b b7 bc 89 2b 53 bd ff 38 19 bc 91 f9 e3 bc
       -0.02239784 -0.05155519 -0.009351968 -0.027828963
000260 26 47 56 3d e9 25 40 3d b4 a1 16 3d 26 0a 4a 3d
       0.052313946 0.046911154 0.036775306 0.049326085
000270 d5 2a 78 bd 13 00 d2 3b 3c 13 b9 3c 27 14 3a bd
       -0.060587723 0.0064087003 0.02259218 -0.045429375
000280 69 08 c4 3c b2 70 09 bd 44 85 19 3c f2 e3 9f 3c
       0.023929792 -0.03355474 0.009370152 0.019517872
000290 7f 44 50 3d b7 3d fd bc 32 e5 3d bd cd 51 5f 3d
       0.050846573 -0.030913217 -0.046361156 0.05452137
0002a0 2e a1 ca 3c b6 9f ea 3c f2 c2 ad 3c d9 76 b6 3c
       0.02473506 0.02864061 0.021211121 0.022273468
0002b0 4f d8 1a 3c a1 b9 bb bd 7e 81 6d 3d e5 0c 93 bb
       0.009450986 -0.09166265 0.05798482 -0.004487621
0002c0 7a e1 74 bc d2 b7 b0 bb bf 92 29 bd a0 84 a4 3c
       -0.014946336 -0.005393007 -0.041399714 0.020082772
0002d0 9e 0e 76 bd 3c 97 8f bd 4c e2 3c bd 52 64 35 bd
       -0.060072534 -0.070112675 -0.04611425 -0.044285126
0002e0 aa cc 0d bd c7 f4 da bc f1 fd 07 bd 65 28 6e bd
       -0.03461901 -0.026728047 -0.03320116 -0.058143992
0002f0 60 76 04 3d 84 6e 5c bd 38 24 8a bd f5 bd 09 3d
       0.032339454 -0.053816333 -0.067451894 0.033628423
000300 c0 2d c3 bd ec b7 48 3c e8 66 77 3d 7f a1 af bd
       -0.095302105 0.012250882 0.060400873 -0.08575725
000310 5a a5 6a bd a8 01 4a bd ee 44 10 bd 3f 3f f1 3b
       -0.057286598 -0.049317986 -0.035221986 0.007362276
000320 93 42 80 bd 50 ac 41 bd 0c 04 d7 3c 93 b1 b9 bc
       -0.06262698 -0.04728347 0.026247047 -0.022667682
000330 d8 e4 df bc 38 a9 47 bd b5 70 d6 3c 4a b1 2a 3d
       -0.0273308 -0.048745364 0.02617679 0.041672982
000340 31 41 e4 bc cc a3 7f bd 3d 79 1c 3d c2 d9 75 3c
       -0.027863117 -0.06241207 0.03820156 0.015005531
000350 90 3a 6b 3a e2 70 1c 3d c6 5d ce bb cc 40 11 bd
       0.0008973265 0.03819359 -0.0062977998 -0.035462186
000360 0b 04 1c 3d e6 65 f0 bb d6 88 3a bd 1f 42 91 3d
       0.038089793 -0.007336366 -0.045540653 0.0709269
000370 75 54 df 3c b5 b5 78 bd ff 83 f5 bc a0 af 84 bc
       0.027261952 -0.060720164 -0.029970167 -0.016197026
000380 0b b1 17 bd 2f 23 e1 3c a1 3e 2c bd 5d 12 41 3d
       -0.037034076 0.027482597 -0.042051915 0.047136653
000390 94 79 af bc a7 c0 f6 3c 56 2d 2c bc 54 86 c4 bc
       -0.021420278 0.03012116 -0.010508856 -0.023989834
0003a0 d5 2f 21 3d 3f 7d 58 bd 9a 1b 4f bd 7c 83 1d 3c
       0.039352257 -0.05285382 -0.050563432 0.009613868
0003b0 8e 94 5f 3d b3 6c 1f bd 30 22 b9 bc 7f 82 10 bd
       0.054585032 -0.038922023 -0.02259931 -0.0352807
0003c0 00 4d 12 bd 35 94 ac bc ef d9 c2 bc 49 4e 09 bd
       -0.035717964 -0.021066764 -0.02378556 -0.033521924
0003d0 0a df 96 3c 80 e7 fa 39 46 b2 1d bd e6 d4 09 bd
       0.0184169 0.00047856197 -0.038500093 -0.0336503
0003e0 e4 6e 4c 3c 40 aa 5c ba 45 d2 2a 3d 3c 5b 12 bc
       0.01247761 -0.0008417703 0.041704435 -0.008932885
0003f0 af a0 43 bd 1e 87 7c bd 89 49 8d bc d9 88 5a bc
       -0.04776066 -0.061652295 -0.017246978 -0.013338291
