Weightsmarch9/INLtrainedWeight4.npy (npy, 295040 bytes, 1 tensors)

array f4 [128, 64, 3, 3]
00000000: 7d29 293c a14f 33bd 35a1 613b 1bf2 ce3b
00000010: d0ca 603d 4928 5abd 39a6 84bd e295 94bc
00000020: 090b 4abd 16cb 2b3d 3ea2 6cbc c168 0dbb
00000030: c7f6 e9bc 6e55 81bc 1b94 4abc 421b f0bb
00000040: 4f42 503c 4d94 303c df70 96bd 5f39 c2bd
00000050: 0f58 213d 51d2 a0bc 10e2 b83b 3fb9 f53b
00000060: 3d88 64bd 5f16 b23d ecac f0bc 7ec8 19bc
00000070: 923c ee3c 8035 cbbc fef9 af3c c347 fb3c
00000080: f37b 8bbc 8b76 fbbc cf40 1b3c 48f9 1d3d
00000090: d489 483c 1ee2 853c eebc 8fb8 52ee 17bd
000000a0: 3c01 8c3c 7db2 d63b 50a1 92bc 14aa 053d
000000b0: 7584 f2ba a913 da3b 829c 47bc 381e 1dbc
000000c0: 1c1b 27bd 2969 183d 1407 bcbc 9ac0 22bd
000000d0: 864b 11bd 1671 96bc 8c3d 0cbd 0406 b03c
000000e0: a4d8 53bc 902a 40bd 877b d2ba c098 173d
000000f0: f9d8 e23c 77a3 f43c 1495 4c3c 2aef 2cbb
00000100: 0e0d b23c 1322 bfbc 64a9 2b3d ae8f 75bc
00000110: 82cc d33c f845 dcbb 88cd 073d 0fe9 e5bc
00000120: 9538 e7bc 7ba2 c0bb 7e5f fe3c 7e7e c23c
00000130: 7dc8 203d 84df 1bbd eeb8 b1bc dc34 cdb8
00000140: f5aa f6bc d641 33bd 6beb f4bc c0be a5bc
00000150: 5cf8 2f3c 5616 593c c6f1 35bc de8c 183d
00000160: 34c9 143d 7679 1fbd 307c 4e3c 5d82 603c
00000170: a6cc 033d 3f62 0dbc bc95 12bd 3cca f8ba
00000180: 3c95 b83c 2c92 26bd 36d1 eb3c c1d2 16bc
00000190: e431 1e3d 97f7 92bc a770 6fbb 8a17 c239
000001a0: deb1 16bd e359 9abb 41f2 103d 6ea8 1e3d
000001b0: 3304 0bbc b5f7 9fbc cd00 893c 72aa 8cbc
000001c0: 6182 9ebc b1f8 4dbb eaa6 14bd 429c 4a3d
000001d0: ae9a d33b dfdf 5f3c bf31 0d3c db54 1b3c
000001e0: 1b8d 00bb c893 233d b81e b9bc ca88 603c
000001f0: d972 bf3b c886 c73b 21bf ff3c eb08 23bd
00000200: 206d 80bc 1f70 1abd d7f7 8c3d f5df 24bd
00000210: d723 35bd a3ef 10bd d5e4 3ebc 92f6 333c
00000220: cca3 4d3c 992b c3bc 4f4a c1bc a6f8 f83b
00000230: f6fb efb8 5ee8 ccbc 5109 0ebd e542 053b
00000240: 28cf a2bc 8f59 8dbc 6e70 ba3c 40a3 273d
00000250: 8093 223d de82 ac3c 5a12 17bd 1420 8ebb
00000260: e802 423c e2f1 40bd ec06 0dbd 5f8c 763c
00000270: e311 7b3c b2d2 c23b 4af4 c33c 8748 d73b
00000280: 110f 4abd 12c8 1ebc 47b2 37bd 81ac c0bc
00000290: bd55 02bc a553 35bd da4a 46bc 5c56 f539
000002a0: 50c4 59bd 8be3 5b3d a624 f5bb effc 65bd
000002b0: 4ef4 acbc d426 fb3c d4f6 d0bc 0045 1bbd
000002c0: 84f5 6d3d 8f69 d2bc cdc4 3e3c 7420 043d
000002d0: f750 43bd 23a9 333d 1ff2 4f3c 3de0 983c
000002e0: b15f 913c 11f8 8bbd dcdf 3b3c 9846 d2bc
000002f0: ee87 b23c eb19 21bd 00ee 71bc e9b3 2f3d
00000300: c096 043d c5df 8a3c 594f 84bc 4fa3 483c
00000310: 63d8 4d3c bdab 89bc 3154 3abd b808 c33c
00000320: 9096 ae3c 9535 0d3d de08 26bc a1ab 29bd
00000330: e5f3 f33c ffbd 2b3c a2b4 12bb 875f babc
00000340: 0c78 60bd ff63 91bd e0b7 31ba 4ac8 3b3c
00000350: 62e2 9c3c ca93 1fbd ef60 9f3b 7abd 3bbd
00000360: f663 5e3c a650 c53b c06c c0bc 11d8 8d3c
00000370: e90f 0cbd 29c5 3e3d b787 023d 24a7 1abc
00000380: b0b1 b3bc 316b 6e3c d0ee 233c 582a 5fbd
00000390: 0df1 14bd 1cdb 853c c649 30bd d106 e4bc
000003a0: 1cc3 eabc 2c33 2abd 7a7f 74bd a20c 17bd
000003b0: 81bb bf3c 3b08 d4bd f536 41bc fb3b 0a3c
000003c0: 728f 493d 3d3d c43d 1f15 6fbc 56ce 22bc
000003d0: c61b 44bd 4313 f03b dc3f 17bd 2b00 9b3c
000003e0: 4bd4 603c 490a 4fbc 7c4c 853d 5b0d 823c
000003f0: 3b7a 0cbb 300e 20bd d39e b73c f6aa cf3c
0.010324833 -0.043777112 0.0034428362 0.0063154823 0.054880917 -0.053261075 -0.06477017 -0.018137876
-0.04932693 0.041941725 -0.014442978 -0.002157733 -0.028560055 -0.015787806 -0.012364413 -0.007327468
0.012711122 0.010777545 -0.07345747 -0.09483599 0.03939062 -0.019631537 0.005642183 0.0074988897
-0.05579399 0.08695673 -0.02937933 -0.00938618 0.029081617 -0.024805784 0.02148151 0.030673867
-0.017026877 -0.030696174 0.009475901 0.03856781 0.012239892 0.016343173 -6.853962e-05 -0.037092514
0.017090432 0.006552039 -0.017899185 0.032632902 -0.001850261 0.0066551757 -0.01218331 -0.009589724
-0.040797338 0.037209664 -0.022952594 -0.03973446 -0.035472415 -0.01836447 -0.034238383 0.021487243
-0.012930069 -0.04691559 -0.0016058543 0.037010908 0.027691351 0.029863102 0.012486715 -0.002638767
0.02173474 -0.023331678 0.04190959 -0.014987869 0.025854353 -0.006722208 0.033154994 -0.028065233
-0.028225223 -0.005878744 0.031051394 0.023741957 0.0392537 -0.038054958 -0.021694627 -9.7850076e-05
-0.030110816 -0.043763958 -0.029897412 -0.020232558 0.010740366 0.013249954 -0.011105007 0.037243716
0.036324695 -0.038934194 0.012602851 0.013702956 0.03217759 -0.008629381 -0.03578733 -0.0018981169
0.022532098 -0.040666744 0.028786283 -0.009205521 0.0386218 -0.017940326 -0.0036535652 0.000370201
-0.03679072 -0.0047104224 0.03538728 0.038734846 -0.008484888 -0.019527296 0.016724015 -0.017171118
-0.019349279 -0.003142875 -0.036291994 0.049465425 0.0064576482 0.013664215 0.008617817 0.00948068
-0.0019615355 0.039935857 -0.022597656 0.013704488 0.0058425483 0.006089065 0.031219067 -0.039803427
-0.015677035 -0.037704583 0.06883209 -0.040252645 -0.044223633 -0.035384785 -0.0116512375 0.01098408
0.012551259 -0.0238245 -0.023595003 0.0075980006 -0.000114433395 -0.025013145 -0.034676854 0.0020334062
-0.01987417 -0.017254619 0.022758689 0.04092717 0.03969145 0.021058496 -0.036882736 -0.00433732
0.011841513 -0.047105677 -0.03443043 0.0150481155 0.015324089 0.005945527 0.023920197 0.006569925
-0.049330775 -0.009691255 -0.044847753 -0.023519756 -0.007955012 -0.044269223 -0.012102807 0.00046794384
-0.053165734 0.0536838 -0.0074811755 -0.05614942 -0.021112587 0.030658163 -0.025508322 -0.0379076
0.05809547 -0.0256851 0.011643601 0.032257512 -0.047684636 0.043862473 0.0126920035 0.018661613
0.017745825 -0.06834424 0.011466946 -0.025668427 0.021793332 -0.039331358 -0.014766216 0.042896185
0.03237033 0.016952405 -0.016151117 0.012245967 0.012563798 -0.016805524 -0.045490447 0.023807868
0.021312028 0.034474928 -0.01013395 -0.041423444 0.029779384 0.01048231 -0.0022385498 -0.02275063
-0.054801986 -0.07099151 -0.00067794137 0.011461327 0.019150916 -0.038959302 0.0048638503 -0.045834996
0.013573637 0.006021577 -0.023489356 0.017314943 -0.03419486 0.046574745 0.03186771 -0.0094392635
-0.021935314 0.014551924 0.010005668 -0.05448374 -0.036362696 0.016339831 -0.043039106 -0.027835282
-0.028657489 -0.041552708 -0.059691884 -0.036877282 0.023404839 -0.10353132 -0.011792888 0.008437152
0.049209066 0.09581993 -0.014592438 -0.00993689 -0.04787805 0.007326515 -0.036926135 0.018920979
0.01372249 -0.0126367295 0.06508729 0.015875509 -0.002143516 -0.03907603 0.0224146 0.025350075
