Weightsmarch9/INLtrainedWeight3.npy (npy, 73856 bytes, 1 tensors)

array f4 [64, 32, 3, 3]
0.14760177 0.017944606 0.10795153 0.011491155 -0.0026113207 0.031250663 -0.025703393 0.29779625
0.031611998 0.042257175 0.019256772 -0.038439706 0.007871917 0.005700821 -0.023365548 -0.00076831685
0.008435138 -0.039851747 0.00760391 -0.050396226 0.029659478 -0.032526318 0.023923945 -0.005101303
-0.032637846 0.015509005 -0.04062523 0.016970387 0.035451565 0.024946284 0.05181473 0.0040898803
0.08899414 0.036799803 -0.028359685 -0.0034945558 -0.06155806 0.011753052 0.008933106 0.033673383
0.017591195 0.003690694 -0.055949207 0.011805854 -0.0031437837 -0.020039253 -0.051808473 -0.10580694
-0.011664758 0.14485355 -0.006989442 0.03907636 -0.029419966 0.082965314 0.030098835 0.018671067
-0.011859256 -0.05169438 0.014684194 0.0119524095 0.009397728 0.028885495 -0.028365595 0.021800963
-0.014113259 -0.060699467 0.006873421 -0.019102944 0.068933785 -0.03914226 -0.042560685 -0.0132224355
-0.06207215 -0.01008438 -0.037631433 0.035223074 -0.04302212 -0.021421101 0.041807584 -0.028674562
0.08120859 0.0036417942 0.005329441 0.010522937 -0.05162746 0.1308592 0.0099203745 -0.07140889
0.085691296 -0.01584532 -0.030767184 0.028401313 0.009878985 -0.052263122 0.018195618 -0.0033033087
-0.015302151 0.026049927 0.007941651 0.044613183 -0.017143356 0.017582988 0.01661401 0.13356374
-0.056785755 -0.01307536 0.07801134 -0.047828536 -0.043019332 0.03800633 0.030165065 0.054433513
0.022829112 -0.01579373 -0.04572114 -0.03805077 0.017434362 0.03624666 0.06855397 0.092116244
0.03911826 0.07787156 0.065668754 0.0012727631 0.1484823 0.00561367 0.020034552 0.0022933288
0.029734908 -0.008110564 0.009261677 -0.107187584 0.0049991137 0.03744339 0.06072851 0.029786278
-0.04383135 -0.059820186 -0.042626485 -0.045272443 -0.025895765 0.03572618 0.087307274 0.012676642
-0.045050222 0.04038021 -0.040139135 0.041396853 -0.020844392 -0.028109191 0.03697706 0.016896917
-0.01628712 0.062396053 -0.06824317 0.027734475 0.012442816 -0.078465566 -0.045614585 -0.053331997
0.12085339 -0.052690275 0.110509366 -0.013136463 0.07081528 0.056824427 0.026346289 -0.012175386
-0.044691827 0.056667212 -0.047004804 0.00883228 -0.044811774 0.0123053305 -0.040263727 0.04639825
-0.0069185235 -0.05218167 -0.044582903 -0.05229191 0.0022204907 0.020069774 -0.007117299 -0.0044864826
-0.09910147 -0.015177805 -0.02363421 -0.025035543 0.04411464 0.04218625 -0.09838773 -0.021346007
-0.06701744 0.047843292 -0.11523234 -0.051499885 0.14265749 -0.016626265 0.03095457 0.04666133
0.0047222297 0.010236161 0.018671326 0.051730808 -0.046739526 0.012094174 0.0136382235 0.014867084
0.03009556 0.014191093 -0.01586569 -0.011442552 -0.08612938 0.030901814 -0.017789979 0.114351556
0.0379095 0.060070354 0.022915322 0.023873674 0.036709193 0.013131343 -0.0032292365 -0.0385331
0.066459045 -0.034156255 -0.009738635 0.057195272 -0.052082434 0.02938233 -0.00065536425 0.022111963
0.042944398 0.045667287 0.10685711 -0.008051162 0.043535035 0.07521637 0.053475235 0.025139151
-0.025723794 0.1842093 -0.056026563 -0.029579682 -0.034948025 -0.003680886 -0.077898085 0.047680553
-0.078482956 0.040154908 0.014452925 0.016046412 0.010530349 -0.0044088066 -0.011363275 0.04429466
00000000: eb24 173e 9100 933c b115 dd3d 6645 3c3c
00000010: b122 2bbb b200 003d ec8f d2bc c078 983e
00000020: 957b 013d dc15 2d3d 61c0 9d3c f472 1dbd
00000030: 37f9 003c f4cd ba3b 1b69 bfbc df68 49ba
00000040: 8833 0a3c 963b 23bd 382a f93b 466c 4ebd
00000050: 6ff8 f23c 513a 05bd 26fc c33c d528 a7bb
00000060: 43af 05bd 7b19 7e3c a466 26bd 7b05 8b3c
00000070: a935 113d 265c cc3c af3b 543d 6704 863b
00000080: 8f42 b63d 64bb 163d 9252 e8bc eb04 65bb
00000090: 4e24 7cbd df8f 403c 2a5c 123c 1aed 093d
000000a0: 691b 903c 92df 713b ff2a 65bd 576d 413c
000000b0: f007 4ebb 5c29 a4bc 1f35 54bd 4fb1 d8bd
000000c0: 8b1d 3fbc 7d54 143e b007 e5bb 890e 203d
000000d0: 2402 f1bc b8e9 a93d d591 f63c 11f4 983c
000000e0: 534d 42bc 7cbd 53bd f995 703c 0ad4 433c
000000f0: eef8 193c 46a1 ec3c f75e e8bc ef97 b23c
00000100: 4c3b 67bc 01a0 78bd 6f3a e13b c77d 9cbc
00000110: 282d 8d3d a253 20bd 1d54 2ebd eaa2 58bc
00000120: 5e3f 7ebd f538 25bc 6b23 1abd 1246 103d
00000130: f637 30bd 4e7b afbc 6e3e 2b3d eae6 eabc
00000140: b050 a63d 2bab 6e3b 97a2 ae3b 6668 2c3c
00000150: 5177 53bd f4ff 053e 1189 223c d33e 92bd
00000160: eb7e af3d 0bce 81bc 760b fcbc dfa9 e83c
00000170: 77db 213c db11 56bd fa0e 953c 537c 58bb
00000180: e0b5 7abc a866 d53c b31d 023c 50bc 363d
00000190: 3970 8cbc 330a 903c 1b1a 883c efc4 083e
000001a0: 2e98 68bd 093a 56bc 69c4 9f3d dbe7 43bd
000001b0: 0a35 30bd 87ac 1b3d ba1c f73c adf5 5e3d
000001c0: 1e04 bb3c da61 81bc 1746 3bbd 20db 1bbd
000001d0: 82d2 8e3c 6177 143d 0666 8c3d 71a7 bc3d
000001e0: 783a 203d 207b 9f3d 577d 863d d8d2 a63a
000001f0: be0b 183e e1f2 b73b 801f a43c ac4b 163b
00000200: 9f96 f33c 2ce2 04bc 4abe 173c 2a85 dbbd
00000210: 9bcf a33b 3d5e 193d 75be 783d 5a02 f43c
00000220: 8088 33bd 0306 75bd 1c99 2ebd 996f 39bd
00000230: 5b23 d4bc 9d55 123d 28ce b23d b1b1 4f3c
00000240: 9586 38bd b865 253d ef68 24bd bf8f 293d
00000250: dcc1 aabc 3f45 e6bc 4275 173d 676b 8a3c
00000260: 916c 85bc 0193 7f3d 13c3 8bbd 6933 e33c
00000270: f4dc 4b3c 8eb2 a0bd 5cd6 3abd a772 5abd
00000280: fb81 f73d c2d1 57bd bc52 e23d 523a 57bc
00000290: 9a07 913d bbc0 683d 2cd4 d73c 457b 47bc
000002a0: c70e 37bd e11b 683d 1c88 40bd 44b5 103c
000002b0: 8d8c 37bd 4c9c 493c 94eb 24bd 170c 3e3d
000002c0: c8b4 e2bb 72bc 55bd 909c 36bd 0b30 56bd
000002d0: a785 113b 5e69 a43c 3b38 e9bb 5803 93bb
000002e0: b6f5 cabd 54ac 78bc 889c c1bc 5717 cdbc
000002f0: 8eb1 343d 7dcb 2c3d 827f c9bd d2dd aebc
00000300: 7140 89bd 54f7 433d effe ebbd 8bf1 52bd
00000310: ce14 123e ce33 88bc 7094 fd3c f31f 3f3d
00000320: efbc 9a3b 92b5 273c 9cf4 983c afe3 533d
00000330: f271 3fbd a426 463c db72 5f3c 1295 733c
00000340: f78a f63c c281 683c c3f8 81bc 8b79 3bbc
00000350: 9a64 b0bd cd25 fd3c 4abc 91bc 2631 ea3d
00000360: fe46 1b3d 550c 763d eab8 bb3c b992 c33c
00000370: 615c 163d d824 573c 99a1 53bb e2d4 1dbd
00000380: ae1b 883d 6ee7 0bbd cc8e 1fbc 9745 6a3d
00000390: 6454 55bd 36b3 f03c c0cc 2bba 2624 b53c
000003a0: 77e6 2f3d 9f0d 3b3d e7d7 da3d 05e9 03bc
000003b0: cb51 323d 0a0b 9a3d d908 5b3d 9ff0 cd3c
000003c0: b5ba d2bc 5da1 3c3e 1c7c 65bd 1751 f2bc
000003d0: a925 0fbd 053b 71bb 0889 9fbd af4c 433d
000003e0: acbb a0bd 7979 243d f6cb 6c3c c473 833c
000003f0: 7c87 2c3c c077 90bb 082d 3abc 516e 353d
