Weightsmarch9/INLtrainedWeight5.npy (npy, 46208 bytes, 1 tensors)

array f4 [10, 128, 3, 3]
00000000: 1db1 a43c 6374 733d 1f34 b33c e65e a43b
00000010: e662 cd3c 2802 64bc 57e6 8fbd be13 0cbd
00000020: 0c37 07bd 286d 07bc fd5d 07bd 3f62 aabd
00000030: f9fc 293b 02af 39bd c376 6f3d 3fe7 443c
00000040: 92bd 9d3c efc3 e9bc 9f1a 903b dfc4 0fbb
00000050: f927 9abc 1406 823c 3ecd ba3b aa5a 9f3d
00000060: 7924 38bc e090 7b39 8464 97bd 6a36 fd3c
00000070: 2d60 d1bd 0dac 263c c81d b03d eb0a 8f3d
00000080: 7eb7 fd3c 6c51 3e3d 31ae acbd 8c42 603d
00000090: 3aee 92bb 10c9 1abd 7912 383d 0558 77bd
000000a0: 3f14 5a3d a513 45bc c10c 413d 0de3 26bd
000000b0: 8fce 5d3d 3683 aa3a 3d29 3fbc 02d2 8bbd
000000c0: 521a 06bd c136 60bd 8040 923d 730a d83d
000000d0: 9849 89bc 22cb 1fbd 2ba0 c33c 8628 843d
000000e0: 0f1e 2bbd 5ca5 03bd ac86 8d3b a3e3 af3d
000000f0: b1b0 7fbd a42d 473d 642a 17bd 6a87 733d
00000100: fc31 d53c d4e6 90bc b6eb 403d e1cd 183d
00000110: 5510 55bd 6423 ef3c e214 343d d992 8d3b
00000120: 1d0e 433d 6b6e 4b3d a713 0f3e 28e8 b23d
00000130: abae 983c 1f49 3b3d 1a70 353c 064c e23d
00000140: 5146 56bb 0e2a ddbc 1327 80bd e4f8 bf3b
00000150: 1037 6b3d c0b8 d73c 70f0 f43c 22b3 8dbb
00000160: 2b92 8d3d 8f51 563d 3991 0cbb 7829 74bb
00000170: 5f93 72bc 2fb2 a33c aec0 883c f2dd 96bc
00000180: ea8d 083c 3198 bb3c 555c 99bc 0ee5 f7bc
00000190: 7400 8f3c 2a39 1ebc 5051 c53c 18c1 fbbc
000001a0: b08f b4bc 4245 88bd 11d5 aebc 289d c8bd
000001b0: 0ea0 17bc 5bfd 89bd c4cb aa3c 4fff 16bd
000001c0: f614 7d3d 99e4 c53c 0155 09bb 2868 66bd
000001d0: 601e 0c3d 8419 a43c 3e47 2f3a b982 cd3b
000001e0: 4ee6 44bd 2b87 8bbc 5691 25bd 491c e53c
000001f0: dab3 2e3b 14f1 143e 2875 2f3c 6fbf 233a
00000200: 54e0 6bbd fa42 a8bd b0eb 03bd d33f 06be
00000210: 68c6 813d 6a35 843d 26c0 f43d 9e3c 7ebd
00000220: 958e 523c b65c 9bbd 5112 cabc f317 cfbd
00000230: 5381 59bd 9196 903c adad a53d b86d a63d
00000240: dce9 c93d ed94 12bc fc18 0fbb fec9 ea3c
00000250: 7f75 e7bd cbb5 3fbc d419 ac3d 538c 1fbd
00000260: 2516 793d 257b cabc 5501 48bc ab03 b2bc
00000270: 5224 e13c 0f6f ea3b ac68 b63c 8703 7338
00000280: 7fc3 853c 329e 4bba 99b3 0b3c a350 d3bc
00000290: d9c2 0abc e6f7 30bc 6c6d a0bc 6538 d3bc
000002a0: 016d 9cbc a6f5 363c 6c9a 273d e85b 5abc
000002b0: d43a ad3d caa8 053d 6706 1abd 2a30 b4bd
000002c0: 5522 a13c 251d a33d d92c f63d 51ea b03d
000002d0: d15d 5f39 f815 1cbd 6151 da3a 0f08 783a
000002e0: e579 cebc 66b8 68bd 121e 403d 4d2e adbc
000002f0: c1ae 243d f220 4ebd 5d7e 75bd 0df2 a43c
00000300: 3419 65bd 6eee 443d ac8b 423d c882 343d
00000310: 7939 913c d878 ae3d 2057 cf3d 9938 3e3d
00000320: 6cf4 023d 03b5 963c 36e6 d3bc c277 5d3c
00000330: 18a3 853d bc36 9fbb 0655 35bb 618c 743d
00000340: 3e26 d43c 38db 28bd 99fa 92bc 99bb 26bd
00000350: 0995 a03d b2a1 ad3d 7742 df3c f423 a0bc
00000360: adb9 5bbc 5143 4abc 4515 d53c e4ad cdbb
00000370: 0ed5 f53c d4fa 1c3c 5156 a13c 9003 25bc
00000380: 1998 efbc 1439 2fbd 04e3 afbd 0f39 7b3d
00000390: fed8 b5bc 25b8 ecbc de7a 8c3c d86b 043c
000003a0: 14f3 563d c7f3 0b3e bbad 083b 3732 6e3b
000003b0: 84ae 03be 0171 d53c eb45 ae3c 0e08 8a3d
000003c0: 4d82 a53c da05 0a3c 5a58 5ebd 5155 a23d
000003d0: d9fc 5dbd 3e72 52bd 63e2 993c 1046 78bd
000003e0: 9eb7 723c 17b4 ab3d 1513 4bbd 56e4 81bd
000003f0: 87b3 303d 8574 febd 3eeb 233d 80d5 233d
0.020103985 0.059437167 0.02187544 0.0050161956 0.025071573 -0.01391653 -0.07026356 -0.034198515
-0.03301148 -0.008265771 -0.03304862 -0.0831952 0.0025938137 -0.045332916 0.05846287 0.012018024
0.019255433 -0.028535811 0.0043977047 -0.0021937413 -0.018817889 0.015872039 0.0057007363 0.07780965
-0.0112391645 0.00023991195 -0.07392219 0.030909736 -0.10223422 0.010172856 0.0859943 0.06984504
0.030971285 0.04646437 -0.08431662 0.054750964 -0.004483965 -0.037789404 0.044939492 -0.060386676
0.053241964 -0.012028609 0.047131304 -0.040743876 0.054152068 0.0013009075 -0.011667547 -0.06827165
-0.032739945 -0.054739717 0.07141209 0.10548868 -0.016758725 -0.039012082 0.023880085 0.06453042
-0.041776713 -0.03214012 0.0043190327 0.0858834 -0.062424365 0.04862751 -0.03690566 0.059455313
0.026024811 -0.017688192 0.04709979 0.037305716 -0.05201753 0.02919168 0.043965228 0.004320484
0.04762088 0.04966585 0.1397234 0.087356865 0.018637976 0.04572403 0.01107409 0.110496566
-0.003269572 -0.026997592 -0.06257453 0.0058585275 0.05742556 0.026333213 0.029899806 -0.004324333
0.06912645 0.052323874 -0.0021448864 -0.0037256163 -0.014805644 0.019982425 0.01669344 -0.018416379
0.008334616 0.022899719 -0.018720785 -0.030260589 0.01745627 -0.009657184 0.024086624 -0.030731723
-0.022041172 -0.06653835 -0.021341832 -0.097956 -0.009254469 -0.06737777 0.020849116 -0.036864575
0.061787568 0.024156855 -0.0020955207 -0.056251675 0.034208655 0.020031698 0.0006686336 0.006271687
-0.0480712 -0.017032227 -0.040421806 0.027967589 0.0026657493 0.14545089 0.010709085 0.00062464824
-0.057586983 -0.082159 -0.03220719 -0.13110285 0.06336671 0.064555004 0.11950712 -0.062069528
0.012851377 -0.075860426 -0.024666937 -0.1011199 -0.05310185 0.01764992 0.08089767 0.08126396
0.09859058 -0.0089466395 -0.002183496 0.02866077 -0.113017075 -0.011701058 0.08403364 -0.038952183
0.060812134 -0.024716923 -0.012207349 -0.021730265 0.02748314 0.0071543525 0.022266708 5.7939e-05
0.016328571 -0.00077674084 0.008526706 -0.025795287 -0.008469307 -0.010801291 -0.019583426 -0.025783727
-0.019094946 0.011166966 0.040918753 -0.013327576 0.08458486 0.032631673 -0.037603762 -0.08798249
0.019669691 0.07964543 0.12020273 0.08638442 0.00021301887 -0.03810689 0.0016656333 0.000946165
-0.025204608 -0.05681648 0.046903677 -0.021140242 0.04020572 -0.050324388 -0.059934963 0.02013495
-0.05593224 0.048078947 0.047496483 0.044070035 0.0177276 0.08519143 0.1012404 0.046440694
0.03197138 0.01839686 -0.025866609 0.013517322 0.06525248 -0.00485882 -0.0027669086 0.05970419
0.025897142 -0.04122469 -0.01794176 -0.04070625 0.07840926 0.084781066 0.027253373 -0.019548394
-0.013410968 -0.012345151 0.026011119 -0.006276833 0.030008819 0.009581286 0.01969448 -0.01007165
-0.02924733 -0.042779043 -0.08588222 0.061333712 -0.022198197 -0.0288964 0.017148431 0.008082353
0.05247791 0.13667212 0.0020855505 0.0036345848 -0.12859541 0.026054861 0.021273574 0.067398176
0.020203734 0.008424247 -0.054283477 0.07926429 -0.054196212 -0.05137848 0.018784707 -0.06061369
0.014814286 0.08383959 -0.049578745 -0.0634238 0.04313996 -0.12424568 0.040019266 0.03999853
