Weightsmarch9/INLtrainedWeight2.npy (npy, 18560 bytes, 1 tensors)

array f4 [32, 16, 3, 3]
000000 c3 e7 d8 bc 0d 4d ae 3d 03 a3 1b 3e e5 ce f2 3d
       -0.0264777 0.0851079 0.15198903 0.11855868
000010 8f 5f b3 bd 71 07 2e 3e 97 ba c7 3b a7 71 87 bd
       -0.08758461 0.16995026 0.0060952413 -0.06613474
000020 35 a8 29 bc 38 11 18 bd 06 18 d5 bc 54 d1 0e 3d
       -0.010355045 -0.037125796 -0.026012432 0.0348676
000030 1b 24 7f 3c 4b a4 ac 3c f9 0b aa 3d 1f 30 a8 3d
       0.015572573 0.021074435 0.08303065 0.08212303
000040 6c ce 76 3d cd c5 17 3b 0b 5c 44 bc f2 32 25 3e
       0.060255453 0.002315867 -0.011984835 0.16132715
000050 13 dc ec bd ed 81 13 be 7e 4a ab ba 44 12 90 bc
       -0.11565413 -0.14405032 -0.0013068465 -0.017586835
000060 23 2d c7 bd d1 98 07 3e c0 bb 86 3d 79 d4 c7 bd
       -0.09725406 0.13241889 0.06578779 -0.09757323
000070 1c 9c e0 bc 8a c4 88 bd 1b 5c 2f 3e 0e 1d 63 bb
       -0.027418189 -0.06678112 0.17124979 -0.003465477
000080 02 13 91 3c 8e 79 96 3d 1c d6 a3 3c 5d 94 e9 bc
       0.017709259 0.073474035 0.019999556 -0.028513128
000090 52 f1 07 3d 1e 5d 8e 3e 65 dd 91 3e 0a 03 ac bd
       0.033189125 0.27805418 0.28489223 -0.08399017
0000a0 36 d2 f8 3d 3a f7 3d 3e 45 95 18 3e 47 7b 56 bd
       0.121494696 0.1855134 0.14900692 -0.05236366
0000b0 99 9f 9b 3e 55 b6 18 be 00 bf 74 3d 95 38 98 bc
       0.303952 -0.14913304 0.059752464 -0.018581668
0000c0 c6 62 2b be 47 0a 3e bd 45 91 8b 3d d8 dd 16 3d
       -0.16736898 -0.04639652 0.06814817 0.03683266
0000d0 4f 3d 57 be 30 c0 12 3e aa 93 f1 3e b7 81 11 3f
       -0.21019481 0.14331126 0.4718297 0.56838554
0000e0 d4 a9 04 3e 16 d8 7c 3d 57 03 03 3f d5 98 c3 3e
       0.1295541 0.061729513 0.5117697 0.3820254
0000f0 55 40 8b bc 3a b9 cf 3e 2f 3e be 3e 97 dc 8e be
       -0.01699845 0.40571004 0.37156817 -0.27902672
000100 a9 4f 0d 3e ac ec 0f be 3f 4b 8b be dd 28 a0 3b
       0.13799919 -0.14055127 -0.27205846 0.004887684
000110 45 b4 2d 3e 4a a2 fe 3c 69 03 39 be ed b7 96 3d
       0.16963299 0.031083245 -0.18067707 0.073593
000120 12 3c 11 3e bb 23 3d 3e f2 92 11 3d dc ed 0c 3e
       0.14183071 0.18470661 0.03554053 0.13762611
000130 01 eb ff 3d 2b a1 91 3e bc 42 16 3e a1 c9 ed 3a
       0.12495995 0.28443274 0.14673895 0.0018141755
000140 ed d5 08 3e 81 a0 78 3d cb fe 68 3d ee 87 02 3e
       0.13362856 0.060699943 0.056883615 0.12747166
000150 75 1f 2d bd 47 06 e6 bc 05 b4 81 bd dd ec 71 bd
       -0.042266328 -0.028079165 -0.06333164 -0.05906378
000160 9c 3f 8a bd 7a d2 3b 3d 95 71 96 3d 10 e1 e7 bc
       -0.06750414 0.045855023 0.07345883 -0.02830556
000170 60 f1 74 3b 26 3a 18 3d 38 97 23 3c 6e ec 2a bd
       0.0037375316 0.03716483 0.009984784 -0.041729383
000180 2a dc 44 3d 4a d4 51 3d d0 41 9e bb 93 c1 29 3d
       0.048061527 0.051227845 -0.004829623 0.041444372
000190 92 1e b9 3e f2 82 0a 3e 0e 9d 53 bd 89 63 9b 3e
       0.36156136 0.13526514 -0.05166345 0.30349377
0001a0 72 ae 65 3e 40 26 99 bd 59 8e f9 3d 01 9f e0 3d
       0.22429827 -0.07477999 0.12185354 0.109678276
0001b0 36 65 83 3e 93 c6 c7 3e 8c ce 95 3e d2 c7 ba 3d
       0.25663155 0.39018688 0.29259145 0.09120144
0001c0 b9 d8 a1 3e 84 19 fb 3e ae 24 4d 3c 1f 44 9e 3c
       0.3161066 0.49042904 0.012520952 0.019319592
0001d0 31 eb 78 3e 78 5d 2a 3d 55 81 ab 3c 03 41 4a ba
       0.24308468 0.041593045 0.020935694 -0.0007715376
0001e0 81 38 44 3c 6e 46 a7 3d 2b 9b f2 3d ac 86 02 3d
       0.011976362 0.0816773 0.11846002 0.031866714
0001f0 65 0d 51 bc e3 75 63 3c 2d e5 2d 3e 86 0e 18 3e
       -0.012759541 0.013883087 0.16981955 0.1484929
000200 80 ef ae 3e 4d 39 75 3e 56 5a d6 bc f4 50 82 3d
       0.341671 0.2394764 -0.026166122 0.06363097
000210 c9 e6 49 3e e6 74 b6 3d d7 c5 8c bd 21 c8 88 bc
       0.19716944 0.08909015 -0.068736725 -0.016696991
000220 1e 86 1b bd ce f7 37 ba 84 c1 f5 bc 23 7b f4 bc
       -0.0379697 -0.0007017822 -0.029999502 -0.029843872
000230 a8 01 33 bc 83 01 90 bb fe 8f 84 3d a4 ee c8 bb
       -0.010925688 -0.0043947115 0.06472777 -0.006131964
000240 d0 ec cc bb d1 45 fe bc 89 9f 96 bd 01 7e a6 3d
       -0.006253816 -0.03103915 -0.07354648 0.08129502
000250 cc 51 8e 3c ae 3e a2 3d cd 26 c0 3b 13 b4 a4 bc
       0.017372988 0.079221115 0.0058640004 -0.020105397
000260 9d d2 9d bd bf bf 01 bd 3a d6 5f 3d f3 de a6 bd
       -0.07706187 -0.031677004 0.05464766 -0.08147993
000270 34 6f ee bc 70 14 50 3d d2 b9 44 3d ed e6 fc 3c
       -0.02910576 0.05080074 0.048028775 0.030871833
000280 f4 20 87 bc 10 c1 ce bb 91 7f 49 bc 05 f6 f2 bc
       -0.016495205 -0.006309636 -0.012298481 -0.029658327
000290 23 1f 25 3d a3 90 06 bd e8 0e 36 bd aa 91 97 3c
       0.040312897 -0.03285278 -0.04444781 0.018502075
0002a0 a2 8c 8a bd a6 4b 86 bc 8d 26 34 3d 4c fc 03 3d
       -0.06765105 -0.016393494 0.043982077 0.03222303
0002b0 a7 a1 95 3d d8 89 62 bd 07 56 f0 bb 24 82 be bc
       0.07306223 -0.05530724 -0.007334474 -0.023255415
0002c0 7e ab 24 bd 18 8f 38 bd 87 1e ba 3c 90 af 79 3c
       -0.04020261 -0.04505834 0.022719635 0.015239611
0002d0 85 15 e4 bc a6 92 61 bd 7d 82 8e bd b6 41 d9 3d
       -0.027842293 -0.055071495 -0.069584824 0.106082365
0002e0 32 2a 1a bc 8c 19 a2 bc 5f 8c e4 ba d5 61 23 bd
       -0.009409474 -0.019787572 -0.0017436853 -0.03988822
0002f0 c3 c0 99 bd 87 2f 37 bd eb f8 62 3d 2a be 9a 3c
       -0.075074695 -0.04472306 0.055413168 0.018889505
000300 10 9e 03 bd a4 cf e1 bc e6 24 5b 3d 4f 72 78 3d
       -0.032133162 -0.027564831 0.053501986 0.06065589
000310 3c 22 aa 3d 9c 13 fa 3c 31 fa 34 3d 06 66 0a bc
       0.08307311 0.030526929 0.044183914 -0.008447176
000320 8e 27 33 bd 9e 88 a2 bd 15 7c 4a 3d 58 6d 7a bc
       -0.043738894 -0.07936214 0.04943474 -0.015284859
000330 10 d5 19 3d 41 2a b4 3a 90 32 a2 bd f7 c2 19 bd
       0.037556708 0.0013745503 -0.079198 -0.03753945
000340 16 d1 e9 3c ed 25 83 bc e7 01 b9 bd 28 56 0c 3d
       0.028542083 -0.016009295 -0.09033566 0.034261853
000350 36 58 7b 3b 29 65 d0 bc 13 73 1e 3d da 2a cb 3c
       0.0038352138 -0.025438862 0.038683962 0.024800707
000360 84 6d ec bc b6 5a 9a 3d ba 13 2e 3d b1 d4 33 3c
       -0.028860815 0.07536833 0.04249928 0.010976003
000370 53 bd 84 bc fc 95 8d bd f8 9f 94 3d d1 dd b7 bc
       -0.016203558 -0.06913373 0.07257074 -0.022444637
000380 3d da 56 bd b2 98 7a 3d d2 dd f2 3c 14 b4 ba 3c
       -0.052454222 0.061180778 0.029646788 0.022790946
000390 a4 a2 55 3b 6c c1 cb bc d9 59 6b 3c 14 cf a4 3d
       0.0032598162 -0.024872504 0.014364683 0.080473095
0003a0 4a 05 42 3c 89 0f 29 bd cb 89 a9 3d c0 9a e9 3a
       0.011842081 -0.04127458 0.08278235 0.0017822608
0003b0 3d ea 86 3d 20 61 a6 3c 69 fa 98 3d be f0 44 3d
       0.06587646 0.020309985 0.07469637 0.048081152
0003c0 60 05 2e bd 7a c5 6f 3d 80 88 0c 3a e8 a7 89 bd
       -0.042485595 0.058537938 0.0005360916 -0.06721479
0003d0 2d d4 8b bc 43 74 9b bd df 86 2e bd b3 fd 70 bd
       -0.017068947 -0.075905345 -0.04260909 -0.058835696
0003e0 68 3d 60 3d 1f d5 49 bc 44 56 80 bc f1 ca 20 3d
       0.05474606 -0.012318878 -0.015666135 0.03925604
0003f0 bc 87 17 3d 6c 41 63 bd 46 80 fb 3c e6 2c 4b 3d
       0.03699468 -0.055482313 0.030700814 0.049603365
