Weightsmarch9/INLtrainedWeight1.npy (npy, 704 bytes, 1 tensors)

array f4 [16, 1, 3, 3]
00000000: e3b6 c73e 9c6f 36be 66f2 18bd a701 f13e
00000010: 3142 72be 728a 8b3e d562 073e 45e9 b03e
00000020: e0fa 6a3d 6ede 2dbd c83b de3d 0793 283c
00000030: ee11 e23d 9804 05be fb82 f9bc d8be 22bd
00000040: 98e5 453d be51 f5bb b598 0b3f d5b1 e13e
00000050: c5e8 1cbe f097 afbe 4d06 043c 6684 84be
00000060: 5c64 ccbd 3d88 533e 08b8 df3e 3656 f33d
00000070: 7b0b cebe 7ed2 943e 0785 6d3e 7a4c d53e
00000080: ea7a c63e f287 9cbe 470c a7be 56e8 4ebe
00000090: 54d0 623f f11c 003d 9651 453e e186 813e
000000a0: 3b4b 213f 4ed9 8fbe 8945 023f e015 023f
000000b0: ce82 e0bd eaa5 063f 3450 18be bbff e93d
000000c0: bfca 1bbc 1bea 9c3c c266 05bf 7afd 0fbe
000000d0: 1faf fd3e df30 62ba f0f8 8a3f 3f63 8b3f
000000e0: e0a0 263d 30d3 623c cd30 803f 1a8f e63e
000000f0: 4270 d0bd 203a 5d3f 1a04 813f 18f3 353f
00000100: da73 dabd 1b23 9bbd c10c bd3c dd11 2b3e
00000110: a149 26bf a3b5 f6be df47 073f 402e f3bd
00000120: 6aa5 0c3f 5df5 023e e506 493e c3ff cb3e
00000130: 21b3 f13e cefb 973e b240 6cbe 5589 ec3e
00000140: 1e68 f2bd b187 7ebe c452 b5bc a0a9 68bd
00000150: 0afc 6f3e 0ad9 49be 37b8 97be f070 d23e
00000160: 6402 7a3d 7a02 993e 8077 db3d 1bf5 7fbe
00000170: 8425 893d 64f9 a33d ee8a 64be 06f4 21be
00000180: d0c5 e83d e08f 743d a031 11be 6a0e 213e
00000190: dc2f f63e 5b58 8dbd 7257 df3e ea72 163f
000001a0: 5766 0fbe b791 8fbe e31a 3a3f 34a3 6d3e
000001b0: dcfc 573f 1295 933e 7045 cd3d 731f 433f
000001c0: cb79 5b3f 5419 f2bd eecd 713e 77c9 5f3f
000001d0: 4117 113f 1a49 aa3e f019 46be c455 7fbe
000001e0: bc32 29be 6a4d 1e3e 9972 cd3e b7eb 61be
000001f0: 4851 703e d3d6 0bbe c814 29be 133d b73d
00000200: b900 353f b5eb 223f 9a94 89be 5d41 993e
00000210: 506f 753f 2087 0d3f f30c 0e3f a3d7 603e
00000220: c90d 843e 21c2 fa3d 1e69 69be 9c51 8fbe
00000230: dfe5 01be c8fc 1ebd 9638 51be 1bbc 103e
0.3900672 -0.17816013 -0.037340544 0.47071573 -0.23658063 0.27254063 0.13221295 0.3455297
0.05736816 -0.042448454 0.10851246 0.01028896 0.11038576 -0.12990034 -0.030457964 -0.039732784
0.04831466 -0.007486551 0.5452989 0.44080988 -0.1532317 -0.34295607 0.008058143 -0.25882262
-0.099800795 0.2065744 0.43695092 0.11881678 -0.40243134 0.29066843 0.23195277 0.4165991
0.3876565 -0.30572468 -0.32626554 -0.20205817 0.88599133 0.0312776 0.19269404 0.25298217
0.6300542 -0.28095478 0.5088735 0.5081463 -0.10962449 0.52596915 -0.14874345 0.1142573
-0.009508788 0.019154599 -0.5210992 -0.14061537 0.4954767 -0.0008628498 1.085722 1.0889663
0.040680766 0.013844296 1.0014893 0.45031053 -0.101776615 0.86416817 1.0079377 0.71074057
-0.10666628 -0.07575055 0.02307737 0.16706033 -0.649561 -0.48185453 0.5284404 -0.11874056
0.549399 0.12788911 0.19631536 0.39843568 0.47206977 0.296843 -0.23071554 0.46198526
-0.11836265 -0.2485645 -0.022134192 -0.056802392 0.23435989 -0.197117 -0.29632732 0.4110179
0.061037436 0.29884702 0.10716152 -0.24995844 0.06696609 0.08006552 -0.22318622 -0.15815744
0.11365855 0.059707522 -0.14179087 0.15728155 0.4808339 -0.06901618 0.43621403 0.58769095
-0.14003883 -0.2804086 0.72697276 0.23206788 0.8437021 0.2882467 0.1002301 0.7621986
0.85732716 -0.11821237 0.23613712 0.87416786 0.5667611 0.33258897 -0.19345832 -0.2493506
-0.1652326 0.15459219 0.40126494 -0.22062574 0.23468506 -0.13656168 -0.16511834 0.08947196
0.7070423 0.6364091 -0.26871186 0.2993268 0.95872974 0.5528431 0.5548851 0.21957259
0.25791767 0.122440584 -0.22794005 -0.2799195 -0.12685345 -0.03881529 -0.20431742 0.14134257
