Weightsmarch9/LtrainedWeight4.npy (npy, 295040 bytes, 1 tensors)

array f4 [128, 64, 3, 3]
0	0x3cac8b93	0.021062648
1	0xbd43e46f	-0.047825273
2	0xbd478ec3	-0.048720133
3	0xbc3d57bd	-0.011556563
4	0x3b1a8ed1	0.002358366
5	0xbc7d307d	-0.015453455
6	0xbd41b829	-0.04729477
7	0xbc28a385	-0.010292892
8	0x3cacbce5	0.021086166
9	0x3a8b45af	0.0010625626
10	0xbd90227c	-0.070378274
11	0xbcce84d8	-0.02520983
12	0xbd772b41	-0.060343985
13	0xbd21444a	-0.039371766
14	0x3c2ca5f3	0.010537612
15	0xbbb1ac88	-0.0054221787
16	0x3d17aa48	0.037027627
17	0x3ca89d72	0.020582888
18	0xbd63dd48	-0.055630952
19	0xbd9ee983	-0.077593826
20	0x3c78542c	0.015156787
21	0xbb9e0917	-0.004822861
22	0xbd22942d	-0.039692093
23	0x3d418a41	0.04725099
24	0xbd2b8175	-0.041871507
25	0x3d2f109d	0.042740453
26	0xbcb2d200	-0.021828651
27	0xbb8b2853	-0.0042467504
28	0x3c51bbe3	0.012801143
29	0xbcfb4d89	-0.03067662
30	0x3c97e516	0.018541854
31	0xbc8fe60c	-0.01756575
32	0xbc4e876e	-0.012605531
33	0xbc8f7eca	-0.017516512
34	0x3d1c0f45	0.0381005
35	0x3d646f44	0.055770174
36	0x3cbe2b59	0.02321403
37	0x3b30e175	0.0026989852
38	0xbce0d6e1	-0.027446212
39	0xbc933cbc	-0.017973296
40	0x3c159a4a	0.009131024
41	0xbc19a40e	-0.009377493
42	0xbd2e78a5	-0.042595524
43	0x3d940ff1	0.07229603
44	0xbbdd86c0	-0.006760448
45	0xbcd1029c	-0.02551394
46	0xbcf37007	-0.029716505
47	0xbd2281c7	-0.039674547
48	0xbd8c3c6c	-0.06847462
49	0x3d0dd708	0.034628898
50	0x3c80fe61	0.015746297
51	0xbd00a9f1	-0.03141207
52	0xbcdb7a68	-0.026791766
53	0xbb2bfa2e	-0.0026241648
54	0xbd3b6375	-0.045749146
55	0xbd1bacd0	-0.038006604
56	0xbd6f0a59	-0.058359478
57	0xbc857a02	-0.01629353
58	0xbcee7219	-0.02910714
59	0x3d885bb9	0.0665812
60	0x3cb6cda9	0.022314863
61	0x3cd1fdb8	0.025633678
62	0x3d27615f	0.040864345
63	0xbb16bfe1	-0.0023002552
64	0x3cafe95e	0.021473583
65	0xbcdaccad	-0.026708925
66	0x3d2bd88f	0.041954573
67	0xbc418b9a	-0.011813069
68	0x3cdfd188	0.027321592
69	0xbc06abfd	-0.008219716
70	0x3d0177f1	0.031608526
71	0xbcf841b4	-0.030304767
72	0xbc8cef28	-0.017203882
73	0xbd1788db	-0.03699575
74	0x3c001d8d	0.007819545
75	0x3c551609	0.013005742
76	0x3bc8574f	0.0061139236
77	0xbd2db1bc	-0.04240583
78	0xbcd05775	-0.025432328
79	0xbc4d3485	-0.012524729
80	0xbd152f4a	-0.03642205
81	0xbd0d18b2	-0.03444738
82	0xbcdde4cc	-0.027086638
83	0xbc9ff29d	-0.019524867
84	0x3c9c6b94	0.019094266
85	0x3c5df066	0.013546085
86	0xbca88828	-0.020572737
87	0x3d0fd423	0.03511442
88	0x3d270d92	0.040784426
89	0xbd1185b6	-0.035527907
90	0x3c37c345	0.0112159895
91	0x3c89bc51	0.01681343
92	0x3d03bfe1	0.03216541
93	0xbc0b2aeb	-0.008494119
94	0xbd13931c	-0.036028966
95	0xbb0885a0	-0.00208316
96	0x3cbf1172	0.023323748
97	0xbd267e91	-0.040648047
98	0x3cec3be1	0.028837146
99	0xbc53af88	-0.012920268
100	0x3cd489cb	0.025944611
101	0xbcbb9422	-0.022897784
102	0xbb90ea85	-0.004422488
103	0xb9500fd5	-0.00019842324
104	0xbcff15ef	-0.031138388
105	0xbb88e014	-0.004177103
106	0x3d0509e1	0.032480124
107	0x3d4fbb6a	0.05071584
108	0x3ba08e84	0.0048998017
109	0xbc612fc3	-0.013744297
110	0xbc58a97a	-0.013224
111	0x3b09753d	0.002097442
112	0xbcc97eac	-0.024596535
113	0xbbfe7bf3	-0.0077662407
114	0xbce2a13d	-0.027664775
115	0x3ca7378d	0.02041223
116	0x3cf480ca	0.029846568
117	0x3b640df1	0.0034798349
118	0xbb5f59f3	-0.0034080714
119	0xbcdddcbe	-0.027082797
120	0xbb3cd8dc	-0.0028815782
121	0x3c5f264a	0.013619969
122	0xbc49677d	-0.01229274
123	0x3c6c29d1	0.014414267
124	0xbcb74bcd	-0.022375012
125	0x3cf9c935	0.03049145
126	0xbd228405	-0.039676685
127	0xbdb588ca	-0.08863981
128	0xbd7d8c3f	-0.061901327
129	0xbd9ffad8	-0.078115165
130	0x3c270d24	0.010196004
131	0x3d2fba97	0.042902555
132	0xbd2a5fad	-0.04159515
133	0x3c80b6ad	0.015712107
134	0x3d3c83a3	0.046023976
135	0x3c822f61	0.015891733
136	0xbaf08111	-0.0018349012
137	0xbcadcc68	-0.021215633
138	0xbc9b219a	-0.01893692
139	0x399bc82f	0.00029713052
140	0x3a96a626	0.0011493608
141	0xbce9259e	-0.02846032
142	0xbca44bd1	-0.020055683
143	0x3c10b5b5	0.008832385
144	0xbca11ceb	-0.01966711
145	0xbd170cb1	-0.036877338
146	0x3c823e5b	0.015898874
147	0x3d207b6f	0.039180215
148	0x3d06df40	0.03292775
149	0x3c2b8e67	0.010470963
150	0xbd1d7ebb	-0.038450938
151	0x3d0c88a4	0.03431
152	0x3d069820	0.03285992
153	0xbd5837f7	-0.052787747
154	0xbd3df813	-0.04637916
155	0x3b3d602d	0.0028896437
156	0x3c0faa3f	0.008768617
157	0xbd156f94	-0.036483362
158	0x3db03724	0.08604267
159	0x3d714b96	0.058909975
160	0xbd5e3298	-0.05424747
161	0x3d183225	0.037157197
162	0xbd4c9fec	-0.0499572
163	0xbd0fd681	-0.035116676
164	0xbd4b6e3b	-0.04966567
165	0xbd3458a0	-0.044029832
166	0xbd4b7de9	-0.049680624
167	0x3d36a831	0.044593994
168	0xbbaf5b24	-0.005351441
169	0x3d29a23c	0.041414484
170	0x3d3316b1	0.043722812
171	0xbd9c31e4	-0.076267034
172	0xbd434dd3	-0.04768164
173	0x3a56f3d7	0.0008199787
174	0xbd3035b2	-0.043019958
175	0xbdc935f6	-0.09824745
176	0x3d91454d	0.07093296
177	0xbcd90ad8	-0.026494429
178	0x3cac910a	0.021065254
179	0x3d0d5c89	0.034512077
180	0xbd0db479	-0.03459594
181	0xbbebce73	-0.0071962415
182	0xbc169846	-0.009191578
183	0x3ce02302	0.027360443
184	0xbd6908d0	-0.05689317
185	0xbc22c0fb	-0.009933705
186	0x3d2e46c7	0.042547967
187	0x3b0ed4a6	0.0021794229
188	0x3d0d48f9	0.03449342
189	0xbce819b3	-0.028332567
190	0x3c47b0ea	0.012188176
191	0x3c671cf2	0.014106022
192	0x3d08cce5	0.033398528
193	0x3d08bb3e	0.033381693
194	0xbbe9239e	-0.0071148416
195	0x3c2526ff	0.010080098
196	0x3c64fd8a	0.013976464
197	0xbcc6993c	-0.02424299
198	0xbd1ff875	-0.039055306
199	0x3c5fce67	0.01366005
200	0x3cbe196d	0.023205483
201	0x3d510e32	0.05103893
202	0xbcbd94f1	-0.02314231
203	0xbcf407c8	-0.029788867
204	0x3d345f31	0.044036094
205	0x3c973b28	0.018460825
206	0xbc3b7f4f	-0.011443927
207	0xbc4b176b	-0.01239572
208	0xbd3cc913	-0.046090197
209	0xbd25bf16	-0.040465437
210	0xbcb4d7f3	-0.022075629
211	0xbd271ee4	-0.040800944
212	0x3c630b7b	0.013857718
213	0xbcf4468d	-0.029818797
214	0x3d48e18d	0.049043227
215	0xbd1b1b40	-0.037867785
216	0xbc014153	-0.00788911
217	0x3cc48d80	0.023993254
218	0xbd5574d5	-0.052113373
219	0x3c75fcbf	0.015013873
220	0xbd4296b2	-0.047506995
221	0x3ccf6bfa	0.025320042
222	0x3d1ef19c	0.038804635
223	0xbcb5c188	-0.02218701
224	0xbc8d3204	-0.017235763
225	0x3d390ca7	0.04517808
226	0x3c83dd50	0.016096741
227	0xba0c56b3	-0.00053534954
228	0xbce12e8a	-0.027488012
229	0xbb580dab	-0.003296713
230	0xbd72a4ab	-0.05923907
231	0xbd56010c	-0.052247092
232	0xbd53ce6f	-0.051710542
233	0xbd6bca97	-0.05756625
234	0xbd42141d	-0.047382463
235	0xbde795da	-0.11307879
236	0x3d7a9b63	0.061183345
237	0xbd6eb891	-0.058281485
238	0xbd20583c	-0.039146647
239	0x3c6b6801	0.014368058
240	0xbd0462d2	-0.032320805
241	0x3da93ec3	0.08263924
242	0xbd485cb9	-0.048916552
243	0x3c048185	0.0080875205
244	0xbd96b7d8	-0.07359284
245	0x3bb16991	0.005414196
246	0xbcee9e69	-0.02912827
247	0x3b621f1e	0.003450341
248	0xbbba99c6	-0.0056946008
249	0xbd49ddcb	-0.049283784
250	0x3db6725d	0.08908532
251	0xbd061f58	-0.032744735
252	0x3c41b374	0.01182257
253	0xbcdc3efa	-0.026885498
254	0x3b8e2a64	0.0043385495
255	0x3b7826e1	0.003786497
