Weightsmarch9/LtrainedWeight2.npy (npy, 18560 bytes, 1 tensors)

array f4 [32, 16, 3, 3]
0	0x3c4519e6	0.0120301
1	0x3d8b96b5	0.068158545
2	0x3ddd08ae	0.10792671
3	0x3dff2638	0.124584615
4	0xbd7a74a8	-0.06114641
5	0x3da8420a	0.08215721
6	0xbc9bcfdf	-0.01902002
7	0xbb9981e5	-0.004684674
8	0xbdb097ba	-0.086226895
9	0xbcea1a9f	-0.028577147
10	0xbcb623ed	-0.022233928
11	0x3d2e6d34	0.042584613
12	0x3c93e8c8	0.018055335
13	0x3cc27eeb	0.02374216
14	0x3db3302a	0.08749421
15	0x3dae6f78	0.08517355
16	0x3d850b03	0.06496241
17	0x3ba42adc	0.005009992
18	0xbd8887c5	-0.06666521
19	0x3ddb6421	0.107124574
20	0xbcfdd1ee	-0.030983891
21	0xbdcbe3f7	-0.0995559
22	0xbe0896d9	-0.13338794
23	0xbcd41368	-0.02588816
24	0xbd3133f4	-0.043262437
25	0x3d6e53a4	0.058185235
26	0xbd289fca	-0.04116801
27	0xbd95583b	-0.07292219
28	0xbc8d3055	-0.01723496
29	0xbccacba2	-0.024755303
30	0x3e3271a9	0.1742617
31	0x3d838150	0.06421149
32	0x3d048c92	0.03236062
33	0x3d8fb9a1	0.07017828
34	0x3e00264d	0.1251461
35	0x3bc295e9	0.005938281
36	0x3da349ad	0.07973037
37	0x3e32f20e	0.17475149
38	0x3e93a6cc	0.28838193
39	0xba8dc70a	-0.0010816765
40	0x3cb2181e	0.021740016
41	0x3d91a72b	0.07111963
42	0x3e1f2ae3	0.15543704
43	0xbd26aa6f	-0.040689882
44	0x3e28d17f	0.16486166
45	0xbdbe6d5b	-0.09298202
46	0xbcee457c	-0.029085867
47	0x3c139cd9	0.009009563
48	0xbd2853f0	-0.041095674
49	0xbda1452e	-0.07874523
50	0x3cbfc259	0.023408102
51	0x3cf8e9b7	0.030384881
52	0xbe1568ae	-0.14590713
53	0x3d5543f1	0.052066747
54	0x3e92a813	0.28643855
55	0x3eee03b1	0.4648719
56	0x3ea9597b	0.3307608
57	0x3c8b97a3	0.01704008
58	0x3e61e1ba	0.22058764
59	0x3ec57cd8	0.3857181
60	0x3c5ed40f	0.013600363
61	0x3e56f84a	0.20993152
62	0x3e4c127d	0.19928928
63	0xbe3d5283	-0.18488507
64	0x3cd20ae6	0.025639962
65	0xbc04e2a6	-0.008110678
66	0xbd8fa6cf	-0.07014238
67	0xbda3a0a1	-0.07989622
68	0x3e10dfc6	0.14147863
69	0x3dcec9d5	0.1009709
70	0xbdf55ce5	-0.11980609
71	0xbd4f4148	-0.050599366
72	0x3e1a9b3d	0.15098281
73	0x3de1f8d8	0.11033791
74	0x3dd2f75e	0.10301088
75	0x3dfefbc3	0.124503635
76	0x3d2add1c	0.041714773
77	0x3e5d15ba	0.2159032
78	0x3e043161	0.12909462
79	0x3c6af189	0.014339813
80	0x3d533f11	0.051573817
81	0x3d46527d	0.04841851
82	0x3d2e5307	0.04255965
83	0x3d5e9b49	0.05434731
84	0xbcb2d93f	-0.021832107
85	0x3ccf4f9c	0.025306515
86	0xbd8bcaad	-0.06825767
87	0xbd7bb080	-0.06144762
88	0xbd613b5e	-0.054988258
89	0x3d209b69	0.03921071
90	0x3d9bb4cf	0.07602846
91	0xbcd9ccf1	-0.026586981
92	0x3bbd64ee	0.005779854
93	0x3d1f471a	0.038886167
94	0x3c1320d8	0.0089799985
95	0xbd23f161	-0.04002512
96	0x3d475813	0.04866798
97	0x3d50feef	0.051024374
98	0xbb9990f4	-0.004686469
99	0x3cdade1b	0.026717236
100	0x3e3afb43	0.18259911
101	0x3e200d4f	0.15630077
102	0xbd881042	-0.06643726
103	0x3e1902bf	0.14942454
104	0x3dded870	0.10881126
105	0xbd5bc09f	-0.053650495
106	0x3d55cc64	0.052196875
107	0xbc98a0d9	-0.018631386
108	0x3e63be17	0.22240482
109	0x3e432de8	0.1906048
110	0x3eacd3ad	0.33755246
111	0x3e041327	0.12897931
112	0x3e111df6	0.14171585
113	0x3ebf5cb8	0.37375426
114	0x3d4f4d04	0.050610557
115	0xbd256fea	-0.040389933
116	0x3d6632b0	0.056200683
117	0xbbb62e09	-0.005559687
118	0xbcf79c26	-0.030225825
119	0x3c4bbd11	0.012435214
120	0xbc8da265	-0.01728935
121	0x3cd95e38	0.026534185
122	0x3d96074e	0.07325612
123	0x3ccf7193	0.025322711
124	0xbcc644cc	-0.024202727
125	0xbd15b8d3	-0.036553215
126	0x3e4fbf5d	0.20287843
127	0x3e4586d3	0.19289713
128	0x3e4c01df	0.19922589
129	0x3e2badd0	0.16765523
130	0x3e0db555	0.13838704
131	0x3d03d8af	0.032189067
132	0x3d62dd87	0.055387046
133	0x3df378ca	0.11888273
134	0xbd64588b	-0.055748504
135	0xbc02a381	-0.007973553
136	0x3bcda452	0.006275692
137	0x3cf222af	0.029557554
138	0xbd750494	-0.05981882
139	0xbd3f8a5e	-0.046762817
140	0xbb408a27	-0.002937922
141	0x3ce237b1	0.027614446
142	0x3d96cfb8	0.07363838
143	0x3d008ad7	0.031382408
144	0xbcaa5c59	-0.020795988
145	0xbc8ffaaa	-0.01757558
146	0xbd74ede6	-0.05979719
147	0x3d998292	0.074956074
148	0x3cab58b4	0.02091632
149	0x3db6ebbe	0.08931683
150	0x3b3f342c	0.0029175384
151	0xbcb0579f	-0.021526156
152	0xbd9a1236	-0.07523005
153	0xbd03f1bb	-0.032212954
154	0x3d6010d6	0.054703556
155	0xbda4047f	-0.0800867
156	0xbcd88eea	-0.026435334
157	0x3d4d635e	0.050143592
158	0x3d457114	0.048203543
159	0x3cff9508	0.031198993
160	0xbc81ace1	-0.015829505
161	0xbbcb4c53	-0.006204167
162	0xbc2812ee	-0.010258419
163	0xbc854ce4	-0.016272016
164	0x3d02a3fd	0.031894673
165	0xbcf784a9	-0.030214624
166	0xbcc63fd3	-0.024200356
167	0x3cf3509b	0.029701522
168	0xbd82d2c8	-0.063878596
169	0xbca520cc	-0.02015724
170	0x3d5420dc	0.05178915
171	0x3d198b31	0.03748626
172	0x3dcd28c7	0.10017543
173	0xbd5552f5	-0.052081067
174	0xbbd46d49	-0.0064827544
175	0xbccb81d4	-0.02484218
176	0xbcea58dc	-0.028606825
177	0xbd08ce06	-0.033399604
178	0x3ccfa0fe	0.025345322
179	0x3c97447e	0.018465277
180	0xbd188748	-0.03723839
181	0xbca5eca7	-0.020254446
182	0xbd8645cf	-0.06556284
183	0x3db626a7	0.08894091
184	0x3c1fa800	0.009744644
185	0x3c048c90	0.008090153
186	0xbc00c1a7	-0.00785867
187	0xbcfbdd8e	-0.030745294
188	0xbd85d7d2	-0.06535305
189	0xbd686076	-0.056732617
190	0x3d9924a3	0.07477691
191	0x3cc2de3d	0.023787612
192	0xbd115d91	-0.035489623
193	0xbcb81547	-0.022471083
194	0x3d969f23	0.07354572
195	0x3d980b53	0.07424035
196	0x3d9ca611	0.07648862
197	0x3d20a310	0.03921801
198	0x3d9b9870	0.075974345
199	0x3cc583df	0.024110733
200	0xbd5a609d	-0.053314794
201	0xbd998ff5	-0.07498161
202	0x3db702bb	0.08936068
203	0xbb62f9e4	-0.003463381
204	0x3d39c822	0.045356877
205	0x3772732f	1.4451142e-05
206	0xbda1c7ed	-0.07899461
207	0xbd56147a	-0.05226562
208	0x3d9322cd	0.07184372
209	0xbbbd239e	-0.005772068
210	0xbdbf2d86	-0.09334855
211	0x3d46bfef	0.048522886
212	0x3d127b53	0.035762142
213	0xbb4a40cb	-0.0030861374
214	0x3cf2993a	0.02961408
215	0x3d28d3e8	0.041217715
216	0xbcc09a2b	-0.023511013
217	0x3dc3cb75	0.09560291
218	0x3d2e28ed	0.0425195
219	0x3c6ed990	0.014578238
220	0xbbafd001	-0.005365372
221	0xbd7414e5	-0.05959024
222	0x3d9eda4c	0.077564806
223	0xbcc32969	-0.023823457
224	0xbd54ad9a	-0.05192337
225	0x3d584bee	0.052806787
226	0x3cd9f824	0.02660758
227	0x3cf99edd	0.03047126
228	0xbbc879ac	-0.00611802
229	0xbcd25f3d	-0.025680179
230	0x3c7f545d	0.015584079
231	0x3d936606	0.07197194
232	0x3ca56470	0.020189494
233	0xbd35fa4b	-0.04442815
234	0x3da946ed	0.08265481
235	0x3ae956d5	0.0017802367
236	0x3d8701b1	0.065921195
237	0x3ca70594	0.020388402
238	0x3d98fa69	0.07469637
239	0x3d4521f3	0.04812808
240	0xbd2f237d	-0.042758454
241	0x3d6fc272	0.058535047
242	0x3a0ce702	0.0005374999
243	0xbd81adcb	-0.063319765
244	0xbc1b42f6	-0.009476414
245	0xbd9b515a	-0.07583876
246	0xbd1fd50d	-0.03902154
247	0xbd5bd087	-0.053665664
248	0x3d6c36c1	0.057669405
249	0xbc2cd0f9	-0.01054787
250	0xbc715469	-0.014729598
251	0x3d224aab	0.03962199
252	0x3cdf5c97	0.02726583
253	0xbc194e89	-0.009357103
254	0x3d1100ae	0.03540104
255	0x3d128d3a	0.035779215
