Weightsmarch9/LtrainedWeight1.npy (npy, 704 bytes, 1 tensors)

array f4 [16, 1, 3, 3]
0	0x3edfdf4b	0.43725047
1	0xbe2a96d7	-0.16659103
2	0x3d3bc71f	0.045844194
3	0x3eee975c	0.46599853
4	0xbe636761	-0.22207405
5	0x3e9634a8	0.2933705
6	0x3d839f61	0.064268835
7	0x3ec82347	0.39089414
8	0x3da22a41	0.079182155
9	0xbbc1ce84	-0.005914511
10	0x3e073c9c	0.13206714
11	0x3d58b397	0.052905645
12	0x3dded592	0.10880579
13	0xbe065a9b	-0.131205
14	0xbcc716f0	-0.02430293
15	0xbbcbed2d	-0.006223342
16	0x3d9dee0f	0.07711422
17	0xbb2ccbf0	-0.0026366673
18	0x3ed6a685	0.4192392
19	0x3e4fef51	0.20306136
20	0xbe30bdf6	-0.17259964
21	0xbe95b24f	-0.292376
22	0xbdef4c08	-0.11684424
23	0xbe8b2bd6	-0.27181882
24	0xbe33757f	-0.1752529
25	0x3d83a51a	0.06427975
26	0x3e79b58d	0.24385662
27	0x3e9e423b	0.30909905
28	0xbe8f5d21	-0.2800074
29	0x3ed8d549	0.42350224
30	0x3eb2253d	0.34794036
31	0x3f0469d7	0.51724
32	0x3ee32e2d	0.44371167
33	0xbe8d0f99	-0.27550963
34	0xbe97ed27	-0.2967312
35	0xbe3a5caa	-0.18199411
36	0x3f5a00c7	0.85157436
37	0xbb87f549	-0.0041491133
38	0x3e0e1c34	0.13877946
39	0x3e7433c6	0.23847875
40	0x3f44ccab	0.768748
41	0xbe7ee7c2	-0.24893096
42	0x3ec5265c	0.38505828
43	0x3eefda35	0.46846166
44	0xbe1ffbfe	-0.15623471
45	0x3edecac5	0.43514076
46	0xbe647f11	-0.22314097
47	0xbc1b8d60	-0.009494156
48	0xba85b615	-0.0010201359
49	0x3e21a1ab	0.15784328
50	0xbeded287	-0.43519995
51	0xbea23fef	-0.31689402
52	0x3ed32245	0.41237083
53	0xbdc495ff	-0.09598922
54	0x3f701d1d	0.93794423
55	0x3f81dec8	1.0146112
56	0x3da8ec77	0.08248227
57	0x3d6f9f2c	0.058501408
58	0x3f8e5a94	1.1121392
59	0x3f0f0f44	0.5588267
60	0xbdd2451b	-0.10267087
61	0x3f465eb2	0.77488244
62	0x3f698d78	0.9123149
63	0x3f501419	0.81280667
64	0xbe8f3b3e	-0.27974886
65	0xbdd57cb6	-0.10424177
66	0x3e546e83	0.20745282
67	0x3ec1733a	0.37783223
68	0xbf0d3cfe	-0.5517119
69	0xbf008e4c	-0.5021713
70	0x3f1b1fb9	0.6059528
71	0xbe02524b	-0.12726705
72	0x3f047300	0.51737976
73	0x3e62b99d	0.22141118
74	0x3e827198	0.2547729
75	0x3eb4e818	0.35333323
76	0x3eea35cb	0.45744166
77	0x3ea74ae2	0.3267432
78	0xbe3f2de5	-0.18669851
79	0x3efc9c23	0.49337873
80	0xbd534287	-0.051577117
81	0xbe47ad54	-0.19499713
82	0x3ca32520	0.019915164
83	0xbd68a9a0	-0.056802392
84	0x3eb9c2dc	0.36281478
85	0xbe460ad9	-0.19340076
86	0xbe97b837	-0.29632732
87	0x3edd6e75	0.43248335
88	0x3c1f93a4	0.00973979
89	0x3e486b7d	0.19572254
90	0x3dcb130e	0.09915744
91	0xbe7ff51b	-0.24995844
92	0x3d892584	0.06696609
93	0x3d9394f2	0.072061434
94	0xbe648aee	-0.22318622
95	0xbe21f406	-0.15815744
96	0x3dd8615e	0.10565446
97	0x3d53c709	0.051703487
98	0xbe1131a0	-0.14179087
99	0xbd46389d	-0.048393834
100	0x3efe6ee0	0.49693966
101	0xbd8c197e	-0.068408
102	0x3e36587e	0.17807195
103	0x3ebe768c	0.3719982
104	0xbe56186e	-0.20907757
105	0xbe8ed740	-0.27898598
106	0x3f07930f	0.5295877
107	0x3e40dca2	0.18834165
108	0x3f5b895e	0.8575648
109	0x3e63be33	0.22240524
110	0x3e05f7c1	0.13082792
111	0x3f3fb25d	0.74881536
112	0x3f7063a6	0.9390205
113	0xbe816c2e	-0.25277847
114	0x3e072631	0.13198163
115	0x3f7b100c	0.9807136
116	0x3f146a9c	0.57975173
117	0x3e3f4396	0.18678126
118	0xbe6e27b1	-0.23257329
119	0xbe75cbab	-0.24003474
120	0xbe4e6dc0	-0.20159054
121	0x3d9b4056	0.075806305
122	0x3eb0fd63	0.3456832
123	0xbe579ca8	-0.21055853
124	0x3e3a5abe	0.18198678
125	0xbe380349	-0.17970003
126	0xbe57b1b5	-0.21063884
127	0x3dfec0fa	0.12439151
128	0x3f4b80f4	0.7949364
129	0x3f53acd0	0.82685566
130	0xbe800f01	-0.25011447
131	0x3f14a35a	0.58061755
132	0x3f6a361a	0.914888
133	0x3f0623e5	0.5239852
134	0x3f0481a4	0.51760316
135	0x3e8c7770	0.27434874
136	0x3e91a8d5	0.2844912
137	0x3e21a83b	0.15786831
138	0xbe69691e	-0.22794005
139	0xbe8f519c	-0.2799195
140	0xbe134cc8	-0.14384758
141	0xbd1efcc8	-0.03881529
142	0xbe513896	-0.20431742
143	0x3def7095	0.11691395
