GLmodels/BaseGLseed9.pt (torch_old, 38047 bytes, 10 tensors)

conv1.weight f4 [4, 3, 3, 3]
00000000: 2c9a 753d 880f 9cbd 008e fdbb 96a5 da3d
00000010: 4dbc 243e fbe2 293e ebe6 bcbd 23b6 323e
00000020: 3c7e 3cbd b5da 99be cd4c be3d b3ac 83bd
00000030: 9c72 afbe bf40 4dbe fa36 21be 9f68 43be
00000040: aefd 43bd 5a1a 84be 980e a5bc 7867 4f3d
00000050: 6e83 993d 2e68 fd3d 3b0a 223e d27c b63d
00000060: 90c5 a7bc 7d82 28be b35f 253e 9a6e df3d
00000070: 3bd5 393e f4fb 173d d074 473d 1a17 853d
00000080: eda4 193e e680 fa3d ea41 b23d d432 13bd
00000090: f194 1e3f c76e 263f 70cd d73e 80cc 7e3f
000000a0: 275e 8b3f e183 a43e ff18 873f 1f0b 813f
000000b0: cb0c a63e 76e2 b43d cbb5 e3bd d5dc 073e
000000c0: 2a2f d83d 44f2 2fbe 32e3 ca3d 5068 fb3c
000000d0: 3629 bd3d 5a29 be3d 588b e6bc d0cb 99bd
000000e0: 504d 21bd 0534 8bbd 9c64 30be 4266 963d
000000f0: 8a8f abbd a0b7 423d 2c44 48bd da3e 4d3f
00000100: 6ae0 023f 3850 e1bd 598a 4e3f 1646 383f
00000110: a5e4 e23d c6e4 783f 8c81 663f b4d4 763e
00000120: ef50 42be 3d6a 333e 1a1a 16be 08fb 923c
00000130: 0aec f13d 598d 27be 22fa 813d b75e 3c3e
00000140: 647f 9fbd 10d0 84bd 7b1a 32be 3ea3 43be
00000150: ac97 5abd 19f7 153e 00b5 5d3a 6215 14be
00000160: 3ad0 ff3d 0096 a43c 59d6 253f 207c 1abe
00000170: c580 33be 494d 213f ffc3 393b f71f 29be
00000180: b4ca 4a3f 7153 d13d 18d5 25be f089 643d
00000190: dc35 7f3d 7d41 393e 6460 79bd 4032 9b3c
000001a0: 0abd f0bd b8ee 2d3d 6c30 033d 678d b1bd
0.059961483 -0.0762015 -0.007737875 0.10676114 0.16087456 0.16590492 -0.092237316 0.17452292
-0.046018824 -0.30049673 0.09291992 -0.06429424 -0.34267128 -0.2004423 -0.15743628 -0.19082879
-0.04784935 -0.25801355 -0.02014856 0.050635785 0.07495771 0.12373386 0.15824215 0.08910526
-0.020479947 -0.16456027 0.16149788 0.109097674 0.18147747 0.037105516 0.048695385 0.06498547
0.1500432 0.12231617 0.08703978 -0.035937145 0.61946017 0.6501278 0.42148924 0.9953079
1.0888108 0.32131866 1.0554503 1.0081519 0.32431635 0.088322565 -0.11118659 0.13267834
0.10555871 -0.17182261 0.09906615 0.030689389 0.09236376 0.09285231 -0.028142616 -0.07509577
-0.03938037 -0.06797031 -0.1722588 0.07343723 -0.08376987 0.0475384 -0.04889314 0.8017403
0.5112368 -0.11001629 0.8067985 0.7198194 0.11078767 0.9722408 0.9004142 0.24104577
-0.18976186 0.17520995 -0.14658394 0.017941967 0.11812599 -0.16362514 0.06346537 0.18395506
-0.0778797 -0.06484997 -0.17392914 -0.1910524 -0.0533673 0.14645042 0.0008457452 -0.14461282
0.12490888 0.020091057 0.64780194 -0.15086412 -0.1752959 0.6300855 0.0028345583 -0.165161
0.7921555 0.10220993 -0.1619457 0.05579561 0.062307224 0.18091388 -0.06088294 0.01894486
-0.11754806 0.042463988 0.0320286 -0.086695485

conv1.bias f4 [4]
00000000: ecb4 613f 4c69 d9bb 49a5 8abb 7b58 aaba
0.8816669 -0.006634867 -0.0042311293 -0.001299634

conv2.weight f4 [8, 4, 3, 3]
00000000: ba7b cabc 33f3 753c c0c3 7e3d 8770 053e
00000010: cad3 273d 3659 313e ee0b 14bd 1846 ca3d
00000020: 5ec9 03be 40b1 1b3e 90b1 9c3d c1cf a63d
00000030: 53e4 99bd cd21 263e 1580 5abd 1a73 b83d
00000040: b4d1 243e 4ed8 03be 5213 3d3e f988 85bd
00000050: 199c fcbd c4a3 f0bc 8e1d ffbd a062 1a3e
00000060: 3020 363e 00f2 90bd 400f c83d c11c 063e
00000070: 681c 9b3c c91b 053e b4ba c0bd 6cce 083e
00000080: 89a5 0d3e 49ec 7d3d 6782 cc3c e1ba 90bb
00000090: c1cf 053e e6f8 763d c106 5d3e 05aa 283e
000000a0: fe7d 003e db78 a43e 6a4d 1a3e 6791 c43a
000000b0: db17 2b3e a7a3 30be 139c 3bbe 1667 1ebe
000000c0: 9d53 2ebe 575b 30be 7c20 94bd f125 8bbc
000000d0: e4d6 8fbd e36a 52bc e064 b03b 04dc fb3d
000000e0: 603f 6abd d477 163a 6df0 e7bc c983 74bd
000000f0: c16f 21bd ef97 68bd c8c5 c23d 9378 623c
00000100: 7735 1b3e 8914 863d abb2 433e 4dff 153e
00000110: e2c3 fcbd cf93 d7bd 75cd 09be 623d 22be
00000120: e571 a2bd 15e2 d5bd 84a3 cd3c 8769 22be
00000130: a194 ca3d 2e50 303e 1983 533c ca40 503d
00000140: 0ac2 0fbe 00f3 8c3d 7461 933c 146b 483e
00000150: 9725 6f3e d37b d03d 6bb0 d2bd 2d0a bb3e
00000160: c5fc 98ba 22ae 113e 429a 9a3e 310d fb3c
00000170: fc9d 463e 0c26 933e 6223 a23b c2b8 12be
00000180: 7e7c 093e 239b b83d 3bf5 313e 0e7d 4c3e
00000190: 5479 833c 8e33 7ebd a5ec 853e 85cd 6d3d
000001a0: 7a15 aa3d de2d 523e 58fb 1f3d 14c0 283e
000001b0: e1b7 4abd 36ee 16be 6771 8b3d c12c e7bd
000001c0: 5c12 9dbd caed 15be a3bc 18be 3260 b0bc
000001d0: 5919 adbd 4eb3 b73d 17c4 ebbd 27af 163e
000001e0: f2d5 643e 5922 95bb e018 a9ba 87eb d23d
000001f0: 8955 8e3c 692a 26be be66 c0bd 3137 97bd
00000200: d95e a73d c340 b53d 276e 00be 2c4f 10be
00000210: 8adc 393e aafd 073e 99eb 27be a4c3 183e
00000220: 3e7f 85bd df42 833c 2b96 cd3c 8422 923d
00000230: d4ed d23d d35c d13d 12ce 86bd c63f 76bd
00000240: be43 473e 0dd9 a43e 9c8a 9a3e 0831 b83e
00000250: a395 b33e 9ee6 a43e 3c4c a13e 0a25 e43d
00000260: 4305 c53d 18e3 55be 71be 77bd 685e 54be
00000270: a78e 11bd 1163 1c3d 7bac 643b 3859 39be
00000280: 3f66 8ebd e624 c0bd 231a 7bbd e5b2 46be
00000290: 4cc7 423d 60c8 8fbd dc37 3abe c2ae f2bd
000002a0: e20a 53bd 155c 43bd ae55 4dbe f0d8 953a
000002b0: 6eb5 583d 9473 853d c6da 0abe d25b 763d
000002c0: 6c35 05be 230c e13d a78f 033d 903c b7bd
000002d0: 9e16 0e3e f550 1a3e 7556 183e 006b ccbc
000002e0: f12a f73b d7eb 7a3d 3889 473d a051 58be
000002f0: 40d6 5b3e 1610 693d 3213 8abd d495 febd
00000300: 6673 f33e 84da 823e 5aa1 babd 5a4b f63e
00000310: 6152 5e3e d469 adbd 09ea 0e3e 3856 d83c
00000320: d5d7 a0bd 5b1a a13e ee93 543e 8e3a 51be
00000330: bfd8 633e 9f97 8a3e 8ed5 c13d 5a55 70bd
00000340: e646 3b3e 8c98 11be 0736 d33d 2356 4f3e
00000350: df7a 4cbe e7a8 913e 0e1c 503e 095f cb3d
00000360: 024c 2ebe 4c70 973d 1f1a b1bd ed45 e3bd
00000370: 33c2 cdbd 2bc3 353d a602 a3bd 3fd5 3e3e
00000380: 2155 4c3d 4ce9 6e3e 621c bc3d ca48 b8bd
00000390: 8a31 823e 28fa a7bc d362 74bd 6203 bdbc
000003a0: 0cf1 b5bd 3bca 6abd 1aae ad3e e747 84bd
000003b0: d160 2d3d 496a 063e 57f8 18be bb7d 16be
000003c0: d780 043e 2356 20be 121f f6bd 5856 893e
000003d0: 8a61 9bbd 022b 043d 80ef 073e 473d 123e
000003e0: 4b07 ebbb 24d0 0c3e 608a e83d d70d c63c
000003f0: 0293 29be d565 af3d d8cc c8bd bca0 cdbd
-0.0247172 0.0150115965 0.0621984 0.13031207 0.040973462 0.17319188 -0.03614419 0.098766506
-0.12869784 0.15204334 0.07651055 0.08145095 -0.075142525 0.16223831 -0.053344805 0.09006329
0.1609562 -0.12875482 0.18464401 -0.06520266 -0.12334461 -0.029374965 -0.12456809 0.15076685
0.17785716 -0.07077408 0.09768534 0.13096906 0.018934444 0.1299888 -0.09410611 0.13359994
0.13832678 0.061992917 0.024964524 -0.004416809 0.13067533 0.06029596 0.21584608 0.16471107
0.12548062 0.32123455 0.15068594 0.0014996947 0.16708319 -0.17249928 -0.18321256 -0.15469012
-0.17024083 -0.17222343 -0.072327584 -0.016985865 -0.07023409 -0.012842867 0.005383119 0.12297824
-0.057189345 0.00057399017 -0.028312886 -0.059695993 -0.039413217 -0.05678552 0.0951038 0.013822692
0.15157114 0.065468855 0.19111125 0.14648171 -0.12342049 -0.10526239 -0.13457282 -0.15843728
-0.0793188 -0.10443512 0.025102384 -0.15860568 0.0989163 0.17218086 0.012909674 0.050843038
-0.14038864 0.06882286 0.017990805 0.19572097 0.23354183 0.101798676 -0.10287555 0.365312
-0.0011672011 0.14226583 0.30195814 0.030645939 0.19396204 0.28739965 0.0049480656 -0.14328292
0.13426396 0.09013965 0.17378704 0.1996958 0.016049065 -0.062060885 0.26157108 0.058057327
0.083048776 0.2052531 0.03905806 0.16479522 -0.049491767 -0.14739308 0.06808739 -0.11287833
-0.076695174 -0.1464149 -0.14915709 -0.021530244 -0.084521 0.089697465 -0.115120105 0.14715253
0.22347239 -0.0045512137 -0.001290109 0.102988295 0.01737477 -0.16227116 -0.093945965 -0.07383574
0.08172388 0.08850243 -0.1254202 -0.14092702 0.18150535 0.13280359 -0.16398467 0.14918381
-0.0651841 0.016023098 0.02509602 0.071354896 0.10299268 0.10222783 -0.065822735 -0.060119413
0.19459435 0.32196847 0.30183876 0.35974908 0.350751 0.32207197 0.31503475 0.11139877
0.09620144 -0.2088741 -0.060484353 -0.20739138 -0.035536435 0.038180415 0.0034892845 -0.1810044
-0.06953096 -0.09382038 -0.061304223 -0.1940418 0.047553346 -0.070206404 -0.18185371 -0.11849739
-0.05152405 -0.04769524 -0.20052215 0.001143245 0.0529074 0.065161854 -0.13560018 0.06014616
-0.1300866 0.10988643 0.03211942 -0.08947098 0.13875815 0.15069945 0.1487673 -0.024953365
0.007542961 0.06126007 0.048714846 -0.21124887 0.21468449 0.056900106 -0.067419425 -0.12430921
0.4754898 0.2555734 -0.091128066 0.48104364 0.21711113 -0.08467451 0.13956465 0.0264083
-0.07853667 0.3146542 0.20759556 -0.20432493 0.22250651 0.27068803 0.094645604 -0.058675148
0.18288764 -0.14218348 0.10313039 0.20247702 -0.19968747 0.28449175 0.20323202 0.09930236
-0.17021182 0.07394466 -0.0864756 -0.11097322 -0.10046806 0.04437558 -0.079594895 0.18636034
0.049885873 0.23331183 0.09185101 -0.089982584 0.2542842 -0.020505026 -0.05966456 -0.023072902
-0.08883867 -0.05732177 0.3392189 -0.06459027 0.04232866 0.13126482 -0.14938484 -0.146964
0.12939773 -0.15657859 -0.12017645 0.26823688 -0.075869635 0.032267578 0.13274956 0.14281188
-0.0071725002 0.13751274 0.11354518 0.024176521 -0.16559985 0.08564345 -0.09804696 -0.10040423

conv2.bias f4 [8]
00000000: 92fb 4bbc 6c13 e83e a80e dd3d ba60 c83d
00000010: 99c3 d33e 7b7f 323e 00c5 2c3e 0749 243e
-0.012450116 0.45327318 0.10793811 0.09784074 0.41360167 0.17431442 0.16872025 0.16043483

conv3.weight f4 [16, 8, 3, 3]
00000000: 4c1d 5abc 6a2b c13d 6cef b0bd af45 c0bd
00000010: c3f1 17be a170 ba3c 3815 68bd f3b0 5ebd
00000020: dbe9 0d3e 0063 f1bd 2d26 c73c ab99 9ebc
00000030: 1b00 9f3d 72e4 f13d 0882 033d d022 b53d
00000040: 5e40 313d 1744 22be 51dd 8d3c 9df6 81bc
00000050: 1ce9 5abd e80d c63d c79b 93bd 8de8 703c
00000060: c23f 403d 00d2 91bd 72a9 623e 3dcf 5c3c
00000070: 3a7b 1dbc b0dc aebd 0b7f 7b3c 174c e63c
00000080: f64b bc37 b5e6 ca3d 5ef7 a93d 3123 fe3d
00000090: ff2d 22bd 098f aa3d c2ac 183d 05ac 05be
000000a0: 2200 fbbd 69d5 d1bd a698 a5b9 6beb a9bd
000000b0: e505 ecbd 001a 733d 15c0 02be 3bc2 1ebe
000000c0: a872 673e 6331 a2bd 1479 d73d 46e6 103e
000000d0: 936c 43be 21fc 4c3e fce4 1fbd 8423 e13a
000000e0: 865e 5fbd f5b8 edbd 6731 773d 7095 8c3b
000000f0: 2eb7 193e 2947 913c 7705 083d 4486 80bd
00000100: 0a1a 9bbe ebb0 2a3e 2a81 813e 04d4 83be
00000110: 3382 273e 47e2 833c 1d7b d93d c7ca 053f
00000120: 9553 a93d e5d4 fe3c f2a2 853b 9fa7 a23d
00000130: 68db 89bd 494a 8dbd b002 c63d 9ec5 2d3d
00000140: 8a11 a7bd e84e 00be 6f9c 53bd 0f0f 363d
00000150: 19a1 a93d a93f f1bc 9b51 bd3c 0676 3dbd
00000160: 1e44 0abb a2fb 173c f11d 01bd 76b2 103d
00000170: d641 20bd 9143 203d f6c8 06bd 0c89 3fbd
00000180: 0fca e93d 87f0 16bd c01f e53c c85c b3bd
00000190: 7c05 d13d 7673 cebd c397 863d bf30 59bc
000001a0: d5bc d6bc 40d8 6bbd 897e 903c 0d19 b2bd
000001b0: 06f1 403d 3ead f4bd 4e5f fdbd 048a b03d
000001c0: fe6a 0a3d e362 c4bb b5c0 953d 9fc1 16bd
000001d0: 66e8 30bd 3fda f6bd faca 943d 3e1b aabd
000001e0: 057f 84bb 139b 01be b945 29bd f22e 0cbd
000001f0: 487a c5bd 9c94 c4bd 21da 07bd e520 ee3c
00000200: 7729 cf3d 840d 2bbd e90f 463d df82 0cbc
00000210: 0de2 503c 448b 953d d0e9 c73d 4d9c 883d
00000220: 6f41 54bc 7d83 20be dc05 35be ade8 163d
00000230: e7ca 7f3d d6fa 943d c6b7 453e fa1b 10be
00000240: a61e 953c f85c c7bd 6b36 f43c 8d47 49bd
00000250: a944 46bc a980 d03d 5e89 f3bd da08 29bd
00000260: a3e6 d73b 9357 2bbd 4d28 d4bd 0dce babd
00000270: bc04 02be b201 1abd 5d32 2b3d 3497 0bbe
00000280: 319f a53b 4dd5 943c 29f7 39bd 0154 2c3d
00000290: 356f 2d3d 6314 52be 8a3b 05bd 6783 8fbd
000002a0: eae0 a23d 052e 98bd 6376 0e3e 1e94 e7bd
000002b0: 625b f33d e6c4 fb3c 0f56 25be b909 fcbd
000002c0: 0f85 663c aa74 7cbd a910 303b cc93 d13b
000002d0: 1664 a8bc 236f 1d3b 9494 14be d753 9dbc
000002e0: a28a 873b 0acb 84bd 4582 583d ce94 1abd
000002f0: 265e 21be 0aa5 973c 6184 423d 9d85 fe3c
00000300: 5697 71bd 3dcf ae3d 9ac7 29be 2752 ed3d
00000310: ad2e 05be a468 6a3e 6957 f3bd d9c8 e5bd
00000320: 5c39 e5bd 3aba 03be 3c4c 1e3d 10b4 7cba
00000330: 5393 ebbd 2063 77bd 99cb 4d3c 1381 9a3e
00000340: 9727 1fbe b102 153f 6d1d fdbc 6e41 84be
00000350: 2a30 2c3e 0aa7 8ebd d529 06be a9bd f73e
00000360: 3a2e e83d 12c4 893d 86a3 3b3d e385 e0ba
00000370: 7578 51bd 710d 053e bcd7 8dbd 341e a23d
00000380: 4690 a83d 4c70 a83d 9e51 723e 5bfe 393d
00000390: d75b 813e 29a2 2f3d 892d 223e c6b6 a63d
000003a0: d058 5e3e 3f1b ca3c 22c4 a1bc 83d7 cdbd
000003b0: 2d2b 47bd d945 83bd a3c9 e53c 1404 933c
000003c0: 17f8 8dbd a0bc 4fbd 1ded fb3c 7cc8 b73c
000003d0: 3d32 80bc 1fe1 d3bd 9c17 49bd b091 b03d
000003e0: 840d b23b 5ea8 e33b ff95 ecbd c526 853d
000003f0: 1301 af3d 8756 5d3e 5f9d a53e 85fe 883e
-0.013312649 0.09432109 -0.08639416 -0.09388291 -0.14838319 0.022758784 -0.05666086 -0.05436797
0.1385874 -0.11786461 0.024310196 -0.019360384 0.07763692 0.118111506 0.03210643 0.088445306
0.043274276 -0.15846287 0.017317446 -0.015864665 -0.053444967 0.09670621 -0.072074465 0.014703882
0.046935804 -0.071201324 0.22134951 0.013477144 -0.009611899 -0.085381866 0.015350114 0.028112454
2.2446719e-05 0.09907285 0.08299135 0.12409056 -0.039594647 0.08328063 0.03727413 -0.13053901
-0.12255885 -0.10245783 -0.00031584984 -0.082968555 -0.11524562 0.059350967 -0.12768586 -0.1550378
0.22602332 -0.07919576 0.10521141 0.14150342 -0.19084387 0.20018055 -0.039036736 0.0017176722
-0.054533504 -0.116075434 0.060349848 0.0042902753 0.15011284 0.017734127 0.033208337 -0.06275609
-0.30293304 0.16669051 0.25293857 -0.25747693 0.16358261 0.016099108 0.10619185 0.5226254
0.08267895 0.031107375 0.0040782625 0.079421274 -0.067313015 -0.068989344 0.09668481 0.04242479
-0.08157642 -0.125301 -0.05166286 0.044447955 0.0828268 -0.0294493 0.023110202 -0.046255134
-0.002109773 0.0092763025 -0.031522695 0.035326444 -0.039125286 0.039126936 -0.032906495 -0.046761557
0.11415493 -0.03685048 0.027969241 -0.08757931 0.10206124 -0.10080616 0.06571915 -0.013256251
-0.026213089 -0.05757928 0.017638462 -0.08696184 0.047104858 -0.11947106 -0.123716936 0.086200744
0.033793442 -0.0059932335 0.073121466 -0.036805745 -0.043190382 -0.12053346 0.07265277 -0.08305977
-0.004043462 -0.12656812 -0.04132626 -0.034224458 -0.09642464 -0.095986575 -0.03316701 0.02906842
0.10115331 -0.041760936 0.048355017 -0.008576124 0.012749207 0.073019534 0.09761393 0.06670437
-0.012955054 -0.15675159 -0.17678016 0.03684299 0.062449362 0.07274406 0.19308385 -0.14073172
0.01820309 -0.09734529 0.029811105 -0.0491405 -0.012101331 0.1018079 -0.11891435 -0.041268207
0.0065887733 -0.041831564 -0.10359249 -0.09121332 -0.12697119 -0.037599273 0.041796077 -0.13631898
0.0050543775 0.018168116 -0.045401726 0.0420723 0.042342383 -0.2051559 -0.032527484 -0.07007485
0.07953055 -0.074306525 0.13912348 -0.11307548 0.11882664 0.030733537 -0.1614611 -0.12306542
0.01406981 -0.061634697 0.00268654 0.0063957926 -0.020555537 0.0024022541 -0.14509803 -0.019205017
0.0041363994 -0.06484039 0.05285861 -0.037739567 -0.15758571 0.018511314 0.047489528 0.031069571
-0.058982216 0.08535621 -0.16580048 0.11587935 -0.13006087 0.2289148 -0.118819065 -0.11219949
-0.11192581 -0.12864009 0.03864692 -0.00096398685 -0.11502709 -0.060397267 0.0125607485 0.301766
-0.15542446 0.5820723 -0.03089782 -0.2583117 0.16815248 -0.06965454 -0.13101895 0.48386887
0.11336942 0.067268506 0.045810245 -0.0017129745 -0.051140267 0.12993409 -0.06925914 0.07915917
0.08230643 0.08224544 0.23663947 0.045408588 0.2526538 0.042879257 0.15837683 0.0814033
0.21713567 0.024671195 -0.019746844 -0.10050871 -0.04862516 -0.06409807 0.02805025 0.01794628
-0.06932085 -0.050716996 0.030752713 0.022434466 -0.015648955 -0.10345673 -0.04909478 0.08621538
0.00543374 0.006947561 -0.11552047 0.06501535 0.08545127 0.21615039 0.32346627 0.26756683

conv3.bias f4 [16]
00000000: b070 a4bd a760 88bd 36b9 30bc 25dd 9a3e
00000010: 9c64 793d 075e 2c3e 494d 2c3b cab4 4bbc
00000020: a7df 45bd f85d 74bd 6aec 433d cc74 2a3e
00000030: eef8 0e3e 76be 523c a57d d73d b4f3 3d3e
-0.08029306 -0.0665906 -0.010786345 0.30246845 0.060886964 0.16832744 0.0026291183 -0.01243324
-0.048308995 -0.059659928 0.047832884 0.16646117 0.13962147 0.012862792 0.10522012 0.18549997

conv4.weight f4 [32, 16, 3, 3]
00000000: 5b77 5dbb d384 643d 2459 db3d 882c 013e
00000010: 8798 eb3d ff19 f63c a99a 0bbe 4cde 15bc
00000020: 2448 4f3d 20b8 27bd e225 a33d 8b6f 14bd
00000030: 3715 ecbc 8102 733c 8bcb efbc b601 ae3d
00000040: aae9 48bd 090c 5c3c 0025 263d 4857 df3b
00000050: bcf3 6cbc c2b7 67bd 72fd da3d c3e5 0e3e
00000060: 734a a9bc b3af 4e3e a945 2b3e d310 82bd
00000070: ce7b 75bc 459e fb3d 8f03 28bb d5f7 9bbd
00000080: bf0a b73d f62e 513d 6176 acbb d764 833d
00000090: 9264 443d d7cb 313d 9485 b8bd 7bb1 a03d
000000a0: 5c62 26bc c7d3 50bd 28a2 b7bc 8437 48be
000000b0: efc0 0bbd bd35 e8bd e1bf 2c3e 2991 013e
000000c0: 8324 d4bc a34f 35bd c626 01bd a7f5 2d3e
000000d0: 1623 0c3e fb17 953d 8960 033d 9d90 8d3c
000000e0: d2d9 30bd 196d cd3d af9f 9fbd 5bf5 76bd
000000f0: 1616 1b3d 9132 3b3a 4061 a03d 3501 79bd
00000100: 666e 703d 1536 a4bd fc6c 24bd dc4b 59bd
00000110: 165a 79bd d0f4 4cbd 19b1 3b3d 467c d03c
00000120: 7b0a 8a3d e70d 90bd a120 473d 9a8f 253d
00000130: fb4a 693b 6cb3 42bd a35e 8a3d 8b98 b3bd
00000140: 9abd 0abd 9ed7 04bd ca13 b9bd 737b a6bd
00000150: a0fa 883d 9549 1ebd 877c f3bc 0989 0abe
00000160: 141e 443d f49b 66bd b51f 173d 8e78 a83c
00000170: 7c7d 3dbd 30c8 553d 1777 8fbd c592 10be
00000180: fd61 1abe f8d9 b33c 46a3 053d b426 88bd
00000190: d0dc 9bbd 0c38 9dbd e5db 8d3b 14da 54be
000001a0: ea4a f6bb c94e 68bd 7daa 38be 1952 243c
000001b0: b918 abbd 5fa9 953d 7ec3 653c c57d 52be
000001c0: 7220 85bd ab9d bdbd 1700 933d 9eb5 77ba
000001d0: 12dd 83bd 4e63 5f3e 6529 8cbd 89ae a83c
000001e0: ef42 693e 863c 64be d0b8 30bc bc1d 86be
000001f0: 241a 8bbe 98f1 a53c 6000 ab3d 1239 09bb
00000200: 9906 f13d 7986 803e 3a26 51be 4349 9e3b
00000210: 9e37 09be d35f 47be 44c0 c43c 6cc8 2dbd
00000220: 1757 f3bc d916 8dbc 7c60 bebd 5c6e 033e
00000230: eae7 123e 0997 2ebe b00c 87bd 0c94 bf3c
00000240: d002 373d 5b3c 0c3d 39d6 d23d dbd4 adbd
00000250: 7877 cebd 3594 2f3e 8ec0 4b3d 1c2c f83d
00000260: 4afd adbb 788c 49bd ee83 5ebc 9a64 b93b
00000270: b267 a13c 797d 273d e453 833d e542 f23c
00000280: a772 523a 3363 703d 0167 b03c 3c07 1ebe
00000290: 1108 6f3e dc5c 183b 5cfe 9c3d d25e 0c3e
000002a0: f0eb fc3c ce4c 00bd 3e6b 3cbd b355 dc3c
000002b0: ffcc aa3c 506a e8bd a6df d4bb 99e3 7c3d
000002c0: 3246 26bd 55bb 1cbd ec24 c4bd 6031 6bbd
000002d0: 5914 f6bc b165 3ebe 0fa5 a1bc dca3 06be
000002e0: 76b1 bfbd 4286 5abd 4888 c13d c54c 0e3e
000002f0: 8550 bfbd 9f23 30be dc84 62be df50 0bbe
00000300: e492 07bd 1281 2dbd 1a1e bebd 367e 1cbe
00000310: f0e1 803c 4b8f e6bd 089f 08be ef2c 12be
00000320: 426a a73d 8d24 a4bd 96cb b6bd c93d 80bd
00000330: a134 dcbd 5ace 503d 5378 09bc ec92 4bbd
00000340: 2242 dc3c 6f56 2abd a745 4b3d cd41 92bd
00000350: a685 31bc 56bd 79bc 4c2a 37bd aba9 883d
00000360: 839f 9ebc d31d b43b 3a15 103d b9ee 77bd
00000370: 8d8d 773c b32f 9c3d 3b4d 5e3d 65f2 23bd
00000380: 5642 943d d3f8 cabd 33b6 68bd f002 033d
00000390: 277e 363d 928d a2bd d904 063b 8183 473d
000003a0: 5dc7 d63d fdb6 b7bd 0604 773d df36 553d
000003b0: e344 06bd 6050 623d a9c7 2fbe 457d 44bd
000003c0: 16a6 edbd de2b a53d aea1 633d 2c17 94bd
000003d0: 80ee 0d3c bd42 b73d 0569 2c3e 1286 67be
000003e0: 5f12 edbc 223e b33d 04b0 693d f4c7 853e
000003f0: f741 843d 817c 15be 77ce 2bbe 6cb7 45be
-0.0033793065 0.055790734 0.107103616 0.12614644 0.11503702 0.030041693 -0.13633217 -0.009147238
0.050605908 -0.04094708 0.0796621 -0.03623919 -0.02881871 0.01483214 -0.029271862 0.0849642
-0.049050964 0.013430604 0.04056263 0.0068158247 -0.014462408 -0.05657173 0.10692872 0.13954835
-0.020665383 0.20184211 0.16725792 -0.06350865 -0.014983131 0.12286047 -0.0025636887 -0.076156296
0.089375965 0.051070176 -0.0052631353 0.06415718 0.047947474 0.043407287 -0.09009853 0.07846352
-0.010155287 -0.050983217 -0.02241619 -0.19552428 -0.034119543 -0.11338375 0.16870071 0.1265303
-0.025896316 -0.0442654 -0.031531118 0.1698824 0.13685259 0.072799645 0.032074485 0.017280871
-0.04317648 0.10030574 -0.07794129 -0.060292583 0.03786286 0.0007141019 0.07831049 -0.060792167
0.058699034 -0.08018128 -0.040142998 -0.05305086 -0.06087693 -0.05003816 0.04582319 0.025449883
0.0674028 -0.07033902 0.0486151 0.040420152 0.003559767 -0.04753439 0.06756332 -0.0876933
-0.033872224 -0.03243219 -0.090369776 -0.08129015 0.06688428 -0.038644392 -0.029722465 -0.13528837
0.047880247 -0.056301072 0.036895473 0.020565297 -0.04626225 0.052192867 -0.070051365 -0.14118488
-0.15076442 0.021954522 0.032626413 -0.06648007 -0.07610476 -0.07676706 0.004329192 -0.20786315
-0.0075162547 -0.05671576 -0.18033786 0.010029339 -0.08354325 0.073076956 0.01402366 -0.2055579
-0.06500329 -0.092585884 0.071777515 -0.00094493653 -0.0643865 0.21815225 -0.06843833 0.020591037
0.2277944 -0.22288713 -0.01078625 -0.2619456 -0.2716838 0.020256802 0.08349681 -0.0020938558
0.117688365 0.25102594 -0.20424739 0.004830511 -0.13400123 -0.19470148 0.02401746 -0.042427465
-0.029704614 -0.017222809 -0.09295747 0.12835068 0.1434628 -0.17049803 -0.06594217 0.023386024
0.044680417 0.034237247 0.10294766 -0.084878646 -0.100813806 0.1714638 0.04974418 0.12117788
-0.0053097354 -0.049206227 -0.013581259 0.0056577446 0.019702766 0.040891144 0.06412485 0.029572913
0.0008027949 0.058688354 0.021533491 -0.15432447 0.23342921 0.0023248708 0.07665703 0.13708046
0.030874223 -0.031323247 -0.04600071 0.026896333 0.020849703 -0.113484025 -0.0064963875 0.06174049
-0.040594287 -0.03826459 -0.09577355 -0.057420135 -0.030039 -0.1859348 -0.019732026 -0.13148445
-0.0936002 -0.053350694 0.09449822 0.13896473 -0.0934153 -0.17201088 -0.22120994 -0.13605069
-0.03309907 -0.04235942 -0.09283085 -0.1528252 0.015732735 -0.112578 -0.13341916 -0.14274953
0.08174564 -0.08014784 -0.0892555 -0.062617846 -0.10752226 0.050978042 -0.008390504 -0.049700662
0.026887003 -0.041586336 0.049626973 -0.07141457 -0.010835087 -0.015242895 -0.04471807 0.066729866
-0.01936317 0.0054967194 0.035176493 -0.060530398 0.015109432 0.076262854 0.05427287 -0.040026087
0.07239215 -0.09910741 -0.056814384 0.031985223 0.044553902 -0.07937159 0.0020449667 0.048709396
0.10487244 -0.08970449 0.06030657 0.052054282 -0.03278054 0.055252433 -0.17166008 -0.04797103
-0.11603944 0.080650076 0.05557411 -0.07230982 0.00866282 0.08948276 0.16836937 -0.22609738
-0.028939424 0.08752085 0.057052627 0.26129115 0.06457894 -0.14598276 -0.16777979 -0.19308251

conv4.bias f4 [32]
00000000: a89b a6bc 38a4 3bbd 1d46 5d3d cf3c 2c3e
00000010: 8363 8abd 7150 05bd 3899 733d 4910 df3d
00000020: 442e eb3d 0084 0ebd e700 a4bd 7a8a bb3d
00000030: f4b9 47bd 778d 83bd 0371 153e 85ae 093e
00000040: 10a4 743d 7441 b13d dd07 6f3d 539c bc3d
00000050: 3923 7e3e ddd4 8ebd 6760 67bc 6be2 873d
00000060: fae0 1dbd a220 2dbb 5815 113e f8e8 44bd
00000070: 27ff aebc 45b8 6a39 3ab5 db3d afe4 abbc
-0.020337895 -0.045810908 0.054021943 0.16820072 -0.067572616 -0.032547418 0.059472293 0.10891778
0.11483434 -0.034793854 -0.080079846 0.09157272 -0.048761323 -0.06423467 0.14593892 0.1344548
0.059726775 0.08655062 0.05835711 0.09209504 0.24818124 -0.06974194 -0.014122105 0.06634983
-0.038544632 -0.0026417156 0.14168298 -0.04807374 -0.0213619 0.00022384625 0.107279256 -0.020983068

conv5.weight f4 [10, 32, 3, 3]
00000000: 4e48 f83d 3552 203e f045 183e 70e7 343e
00000010: a749 ac3d d3d1 7f3d e72c 5abe 5a80 983d
00000020: 4b94 9c3d e1c1 b83c f718 8bbd 405d dc3d
00000030: 1629 933d 8cd7 bf3d 3ef4 a4bd 55a2 c63d
00000040: b459 d03d 209e 743d 198f 28be 21c0 8f3b
00000050: b0cc 813e dac4 6cbe 6de9 813b 99fe 603d
00000060: 2858 68bc 2057 7a3e 9f11 bf3d 7565 1bbc
00000070: 35c1 84be daf4 0bbe 6053 933c 5b27 683e
00000080: 151f 573e bc43 483e 0c16 273d dd1a 80bd
00000090: f903 9e3d 884e 3a3e 6152 063d 33bc ed3a
000000a0: 789b 813d 9a8a febd b104 793d 38ab e23d
000000b0: bbb8 19be 652b 053d 94d7 e0bd e74b 16be
000000c0: cada ab3b 0674 1a3e 535c 7e3d 85b3 5f3d
000000d0: 141e 053d 3f63 a23d 0db9 3b3d 545f 503d
000000e0: 7012 523d 6a87 ccbc 8afd e6bd 831f 5b3d
000000f0: 6c8f 803d 31ba d5bd fd7f 453e c8cb 613e
00000100: 276f 6b3d 51da 1d3e 5ecc 13bd 8c6e aa3c
00000110: 680a 923d 6d38 aabd dd6b fbbd 3cdd 54be
00000120: 0a50 78bd f103 5cbd 8a68 d53d bbef 20be
00000130: 3595 e23d dc22 1ebe 4f90 973d 0f67 a23e
00000140: c20c 08be 4277 acbd c27f 1c3d c7ee f0bc
00000150: 4246 0fbc 58b3 f1bd 5a31 2d3d 9785 693e
00000160: 8586 90bd 4505 2cbd 83b5 2dbd 56bc 973c
00000170: bd25 9b3c 213d cebd a0b9 c9b9 6976 0ebe
00000180: adc2 313d 5de6 9d3d 3c91 803d af48 08be
00000190: f8f6 3a3d 66b5 bebd 3314 acbc 68f3 7c3d
000001a0: 4a21 a23d f26b 533e ca70 543c 60ce 023d
000001b0: 17fb 6abd 939f 5dbe 2ca3 f23c c119 293d
000001c0: 1b9c 97bd 1bca 4bbd bfc8 113e 501e b0bd
000001d0: 839d 8f3d 931d ac3d 4e82 323e c4f5 2c3d
000001e0: e5df 093b 8e7b 943d ecdc a3bd dc2e 49bd
000001f0: e1ca c2bc 9337 d2bc 3309 6d3e a6f0 fd3d
00000200: b40c 80be 771f 82bd 1bdb 24bd 35ea 8fbe
00000210: 60b4 5fbd 9d21 cfbd 4bd6 48be 4bd6 8a3c
00000220: 4ef6 513d 8895 223c 7934 5d3e 3de0 98bd
00000230: 1886 24bc d9ca ddbc 12d3 91be c372 213e
00000240: bbe3 3d3e 9e7f 22be 5d8e ad3d 99a8 8f3d
00000250: 71ce 24be e26c cf3c f3b1 07be d22d 0cbe
00000260: 25d6 923d 7144 693d 37a5 093e c6a3 38be
00000270: 4bb2 283e bc0d a83d e563 8abd 5762 21bd
00000280: 1057 cd3c 19d2 8abd 71f8 d5bd c4a2 a23e
00000290: 81e5 2cbe 9a8c d73d 54d4 373e 293c b63c
000002a0: 3442 393e 8528 95be 6f8f 563b b0d4 5d3c
000002b0: 19e1 ca3d f715 6dbd 1aa7 acbb 4fac 113e
000002c0: bff3 ed3d bb8d 11bc 7e1e 083d b507 06bc
000002d0: 0cba d13d 3efd ba3d 79a5 a2be 61a8 88bd
000002e0: 38c1 5bbe 9b22 4cbe 262e 45bd 2219 0cba
000002f0: cc90 553e d25c 3b3d 0890 00bd f1e7 133d
00000300: 8ef6 e1bd 4137 413e 959d 303d 36ad 093d
00000310: 7465 86bd 2870 bebd 9d1f d2bc 1b17 14be
00000320: d157 6ebd f34e 7a3d b71f 383e 6ee1 b03d
00000330: 1829 d6bc 8217 acbc d479 67bd 42b5 633e
00000340: 0974 7abe 01a5 363e f346 b33b f431 323a
00000350: bf14 253e 8a1e 83bd f8e2 323e e56f 3d3e
00000360: 97e3 d4bd 6bdd ffbc ccae 93bd 0abf a4be
00000370: 90e8 4b3d b22e 4cbd 29c4 2a3e eb79 c73d
00000380: 8aa0 af3c c39e 1a3e bee8 4c3d 8801 aebd
00000390: b74e 503c a138 083e 72cd c13d fc59 64be
000003a0: 9528 5fbd b45e 853e 3347 513d 7abf c03d
000003b0: 4332 34bd 36c3 683e a58f 19be 85a7 dabe
000003c0: 3270 c33d b419 92be f278 6bbe 7440 36bc
000003d0: c563 343d bc9e dabc 739a 60bc 4abf a3bc
000003e0: 91fe 763a e019 7f3c 78e7 333d df4f 833c
000003f0: 372c 97bd 97da c0bd 9686 113e bbd9 62be
0.12123166 0.1565636 0.14870429 0.17666411 0.084124856 0.062455963 -0.21306191 0.07446356
0.07645472 0.022553386 -0.06791871 0.107599735 0.07185571 0.09367284 -0.08054398 0.09698931
0.101733595 0.059721112 -0.16460837 0.004386917 0.25351477 -0.23121968 0.003964594 0.054930303
-0.014181174 0.24447298 0.09329533 -0.009484638 -0.25928655 -0.13667622 0.017984092 0.22671263
0.2100795 0.19557089 0.04079251 -0.06255124 0.077156015 0.1819402 0.032793406 0.0018137753
0.063284814 -0.1242878 0.06079549 0.11067814 -0.15011875 0.032512087 -0.10978618 -0.14677392
0.0052445875 0.15083322 0.062099766 0.054614563 0.032499388 0.07929086 0.045830775 0.050872162
0.051287115 -0.024966914 -0.112788275 0.05349685 0.062773556 -0.10435904 0.19287105 0.22050393
0.05747905 0.15415312 -0.03608357 0.020804666 0.07130891 -0.083115436 -0.12276433 -0.20787519
-0.060623206 -0.053714696 0.1042033 -0.1571645 0.11063615 -0.15442985 0.074005716 0.31719252
-0.13286117 -0.08421184 0.038207777 -0.029410733 -0.008744778 -0.11801785 0.042283393 0.22804867
-0.070569076 -0.041997213 -0.04240943 0.018522423 0.018938893 -0.10070253 -0.0003847601 -0.13912357
0.043398548 0.07709954 0.06277701 -0.13308977 0.045645684 -0.09311943 -0.021005725 0.061755568
0.07916506 0.20646647 0.012966344 0.031935096 -0.057368364 -0.21642904 0.029618822 0.041284326
-0.07402822 -0.04975329 0.14236735 -0.08599532 0.07012465 0.08404078 0.1743252 0.042226568
0.0021037993 0.07250129 -0.08001122 -0.049116954 -0.02377838 -0.025661265 0.2314804 0.12399416
-0.25009692 -0.06353658 -0.040248018 -0.28108373 -0.05461538 -0.10113833 -0.19612996 0.016947886
0.051260285 0.009923346 0.21602048 -0.07464645 -0.010041736 -0.027074264 -0.28481346 0.15766434
0.18543904 -0.15868995 0.08474419 0.07014579 -0.16094376 0.025320474 -0.13251476 -0.13689354
0.07169751 0.056950036 0.1344193 -0.18031225 0.16474263 0.082057446 -0.067573346 -0.039400425
0.025065929 -0.06778354 -0.10447777 0.31764805 -0.16884424 0.105248645 0.1795209 0.022245483
0.1809166 -0.29132476 0.0032739302 0.013539478 0.09906215 -0.057882275 -0.0052689435 0.14225887
0.116187565 -0.008883889 0.033232205 -0.008180548 0.10240564 0.09130333 -0.3176687 -0.06672741
-0.21460426 -0.19935076 -0.048139714 -0.0005344321 0.20856017 0.045742817 -0.03138736 0.03610987
-0.11033355 0.18868734 0.043119032 0.033612452 -0.065623194 -0.09298736 -0.02564984 -0.14461939
-0.058189217 0.061110448 0.17980848 0.08636747 -0.026142642 -0.021007303 -0.05651267 0.22237113
-0.24458326 0.17836381 0.0054711043 0.0006797605 0.16121195 -0.06402309 0.17469394 0.18499716
-0.10394972 -0.03123351 -0.07211074 -0.32177 0.049782336 -0.04984922 0.16676392 0.09740051
0.021438856 0.15099625 0.050026648 -0.08496386 0.01271408 0.13302852 0.09463014 -0.22299951
-0.05448206 0.26048815 0.05109329 0.09411521 -0.043993246 0.22730717 -0.14996202 -0.42705932
0.09542884 -0.28535235 -0.22995356 -0.011123765 0.04404046 -0.026687019 -0.013708699 -0.019988675
0.00094220886 0.015570134 0.043921918 0.016029296 -0.0738148 -0.09416693 0.14211497 -0.2215337

conv5.bias f4 [10]
00000000: e195 bf3d 5ebd c13c e069 203d 464d 18bd
00000010: 94f4 a9bc 0caa 063d 74bc 613d fcdd 653c
00000020: da1e c13c 2b78 b43d
0.09354759 0.023649868 0.03916347 -0.03718307 -0.020746507 0.032877013 0.055111364 0.014029976
0.023574281 0.08811983
