GLmodels/BaseGLseed3.pt (torch_old, 38047 bytes, 10 tensors)

conv1.weight f4 [4, 3, 3, 3]
0	0xbe436373	-0.19080906
1	0xbe1b75c4	-0.15181643
2	0xbda8d0ad	-0.08242927
3	0xbe3a71ea	-0.18207517
4	0xbc330170	-0.010925636
5	0xbe2d5ff2	-0.16931131
6	0x3dd64e22	0.104641214
7	0x3dc01a2e	0.093799934
8	0x3d14dc20	0.03634274
9	0x3f78a78b	0.9713065
10	0x3f835dc5	1.0262991
11	0x3fd7fe37	1.6874455
12	0xbf6bc132	-0.9209167
13	0xbf4159d9	-0.7552772
14	0xbf5c490e	-0.8604897
15	0x3e71848f	0.23585723
16	0x3cd627c9	0.026142018
17	0x3f563cf4	0.8368676
18	0x3e08e433	0.13368301
19	0x3e13beb9	0.14428224
20	0x3d69d1a8	0.05708471
21	0xbde0d979	-0.109789796
22	0x3e31168d	0.17293759
23	0xbe404be1	-0.18778946
24	0xbdfb8e84	-0.12283042
25	0xbdf62aa0	-0.12019849
26	0xbda35fd2	-0.07977261
27	0x3d1d2e18	0.038374037
28	0xbe154711	-0.14577891
29	0xbe17d2d3	-0.14826517
30	0xbdbc7e24	-0.09203747
31	0x3df08f3e	0.11746071
32	0xbe0e241a	-0.13880959
33	0xbe30c017	-0.17260776
34	0xbe2acd20	-0.16679811
35	0xbdc1f30a	-0.09470184
36	0xbd4f1e30	-0.0505659
37	0xbe435d4e	-0.19078562
38	0xbdb887c9	-0.09010274
39	0x3b72a200	0.003702283
40	0x3d01f150	0.031724274
41	0xbce20340	-0.02758944
42	0xbcb2c1f0	-0.021820992
43	0xbe00353d	-0.12520309
44	0x3dc9eb4e	0.09859334
45	0xbd3de644	-0.046362177
46	0xbe06bd43	-0.13158135
47	0xbd3dd600	-0.046346664
48	0xbcdc40c0	-0.026886344
49	0x3e363605	0.17794044
50	0x3dcd687a	0.10029693
51	0xbd9f25e0	-0.07770896
52	0xbcdfab10	-0.027303249
53	0x3e2e24cd	0.17006226
54	0x3dfd3566	0.123637006
55	0x3d448b54	0.047984436
56	0xbd8d6239	-0.069035
57	0x3e23f9fb	0.16013329
58	0x3da8dc4e	0.08245145
59	0xbdaf8a03	-0.085712455
60	0x3e0bda0b	0.13657396
61	0x3c60baf0	0.013716444
62	0xbe11be5c	-0.14232773
63	0xbd7c245e	-0.06155812
64	0xbe428e84	-0.18999678
65	0xbe665842	-0.22494605
66	0x3e9a580e	0.30145305
67	0xbe546b5d	-0.20744081
68	0x3e0d926a	0.13825384
69	0x3ec026c2	0.3752957
70	0x3e3deeb4	0.1854809
71	0x3e4c4fd8	0.19952333
72	0xbdb2c9f0	-0.08729923
73	0x3b3c1440	0.0028698593
74	0x3df22fae	0.118255004
75	0x3d883d22	0.06652285
76	0x3cbf0350	0.02331701
77	0x3e24c9bd	0.16092582
78	0x3d33a6fc	0.04386042
79	0x3e049817	0.12948643
80	0xbe29d59f	-0.16585396
81	0xbe29d0fe	-0.1658363
82	0xbe31df8e	-0.17370436
83	0x3c327d50	0.010894135
84	0x3e273c6d	0.16331644
85	0xbe2bfa97	-0.16794811
86	0x3d9cd3d2	0.07657589
87	0xbe2de8db	-0.16983359
88	0xbe02f705	-0.12789543
89	0xbd866702	-0.06562616
90	0x3f3caed8	0.7370429
91	0x3e9d860c	0.30766332
92	0xbf5ff703	-0.87486285
93	0x401150a3	2.2705467
94	0x3ff438d2	1.907984
95	0x3f1d5e86	0.61472356
96	0x3e6515dd	0.22371621
97	0x3f73c602	0.9522401
98	0x3dba399a	0.09093018
99	0xbdc4199b	-0.09575196
100	0x3d0614c0	0.032734632
101	0x3da408fa	0.08009525
102	0x3ca6f5a0	0.020380795
103	0xbd89e4c6	-0.06733088
104	0x3d1293f0	0.035785615
105	0xbd988092	-0.07446398
106	0xbd8570d8	-0.06515664
107	0xbd926e3f	-0.07149934

conv1.bias f4 [4]
0	0x3f350780	0.7071457
1	0xbe09bf01	-0.13451768
2	0x3d8267fc	0.0636749
3	0x3e79dd20	0.24400759

conv2.weight f4 [8, 4, 3, 3]
0	0xbeabd519	-0.33561018
1	0xbe3ed2d6	-0.18635115
2	0xbde3600d	-0.111023046
3	0xbbe66e40	-0.007032186
4	0x3eb2912b	0.3487638
5	0x3f11b40c	0.56915355
6	0x3dc6cdf4	0.09707251
7	0x3e8204ce	0.2539429
8	0x3e65f73c	0.22457594
9	0xbe276cdc	-0.1635012
10	0xbe1c2814	-0.15249664
11	0xbda4d273	-0.080479525
12	0xbe2a3cbf	-0.16624735
13	0xbd9c976b	-0.07646068
14	0x3d38a22c	0.045076534
15	0xbb74f300	-0.0037376285
16	0xbcfef420	-0.031122267
17	0x3c27b800	0.01023674
18	0x3e8736e2	0.2640906
19	0x3c901909	0.017590063
20	0x3ddbe4c7	0.10736995
21	0xbcdc8f27	-0.02692373
22	0xbe1ecc10	-0.15507531
23	0x3c0f9e9f	0.008765846
24	0x3da79a81	0.08183766
25	0x3e205457	0.15657173
26	0xbe0972ca	-0.13422695
27	0x3ef2d230	0.47425985
28	0xbb2b52c0	-0.0026141852
29	0x3e271924	0.16318184
30	0x3ea0a78e	0.31377834
31	0x3e0c3e40	0.13695621
32	0xbe8377d0	-0.25677347
33	0x3e832c90	0.25619936
34	0x3e3ecb2d	0.18632193
35	0xbe76e9d7	-0.2411264
36	0x3dfe248e	0.12409316
37	0x3e2893e4	0.16462666
38	0xbf12b721	-0.5731068
39	0x3f1854a0	0.5950413
40	0x3eea54df	0.45767877
41	0x3f1f47e8	0.62219095
42	0xbde60242	-0.112308994
43	0xbed8b4c5	-0.42325416
44	0xba92b088	-0.0011191526
45	0x3bbad300	0.0057014227
46	0x3d2d0114	0.042237356
47	0xbd77baa6	-0.060480736
48	0xbe08cbe8	-0.13359034
49	0x3c82a7f8	0.015949234
50	0x3d3deab4	0.04636641
51	0x3daba792	0.08381571
52	0xbe0f2827	-0.1398016
53	0xbe252490	-0.16127229
54	0x3de457f0	0.11149585
55	0xbdfff37f	-0.12497615
56	0xbb599ab8	-0.0033203792
57	0xba4e0be5	-0.0007860049
58	0x3c4b1f85	0.012397652
59	0xbcaefe7d	-0.021361584
60	0xbe262340	-0.16224384
61	0x3d9d9c3a	0.076958135
62	0x3ce874ca	0.028376002
63	0xbd16217f	-0.036653038
64	0x3de326bf	0.110913746
65	0x3f69827d	0.91214734
66	0xbe1c33b6	-0.15254101
67	0xbec7fe20	-0.3906107
68	0x3e72f4fd	0.23726268
69	0x3e854e49	0.2603629
70	0x3eb3bd69	0.35105446
71	0x3ed2b1f6	0.41151398
72	0x3db38230	0.08765066
73	0xbdb164d4	-0.086618096
74	0xbdb0867f	-0.08619403
75	0x3edc77f1	0.43060258
76	0xbcb66848	-0.022266522
77	0xba0d20cb	-0.00053836097
78	0x3e7c906f	0.24664472
79	0xbe0cdd5e	-0.1375632
80	0xbebbff6d	-0.36718312
81	0x3c8ec768	0.017429069
82	0x3d76d694	0.06026323
83	0x3db756ba	0.08952089
84	0x3c1a11b0	0.009403631
85	0x3d210a7c	0.03931664
86	0xbd9aac58	-0.07552403
87	0x3e21ad37	0.15788732
88	0xbde0eee6	-0.10983066
89	0x3dddf8da	0.1083848
90	0x3da810a0	0.08206296
91	0x3e69d313	0.22834425
92	0x3e4badb9	0.19890489
93	0xbd172526	-0.036900662
94	0x3e507360	0.20356512
95	0xbc9c1e02	-0.019057278
96	0x3e15965a	0.14608136
97	0xbe354b83	-0.17704587
98	0xbdc9a4b4	-0.09845868
99	0xbddf5b1d	-0.1090605
100	0x3f053089	0.52027184
101	0x3ec2f431	0.38076928
102	0xbe8ebf77	-0.2788045
103	0x3e18b8fc	0.14914316
104	0x3f09f5a4	0.5389044
105	0xbe2f6489	-0.17128195
106	0x3e79d80f	0.24398826
107	0x3f587555	0.84554034
108	0xbe8643f1	-0.2622371
109	0xbec6ae63	-0.38804922
110	0x3e130305	0.1435662
111	0x3d10e600	0.035375595
112	0x3d88eee7	0.06686192
113	0x3837fc84	4.3865773e-05
114	0x3ebfc1ac	0.37452447
115	0x3e849038	0.2589128
116	0x3e54b654	0.20772678
117	0xbe1302e2	-0.14356568
118	0xbc814700	-0.015780926
119	0x3e010a2d	0.12601538
120	0x3e037ca5	0.12840517
121	0x3e1e0c71	0.15434434
122	0x3d83cdde	0.064357504
123	0x3e2885cd	0.16457291
124	0xbe250997	-0.1611694
125	0x3d0131ec	0.03154175
126	0x3d8aa168	0.06769067
127	0x3e5a9126	0.21344432
128	0x3d025e05	0.031827945
129	0x3d671404	0.056415573
130	0xbe4e3a3c	-0.20139402
131	0x3d1eb596	0.038747393
132	0x3d2a3aa8	0.041559845
133	0x3df17962	0.1179073
134	0x3de348c0	0.1109786
135	0x3f35f2c9	0.71073586
136	0x3ec9a082	0.3938027
137	0xbde1b29d	-0.11020396
138	0x3f1caf66	0.61205137
139	0x3f1263a2	0.5718328
140	0x3e5fa986	0.21842012
141	0xbe914490	-0.28372622
142	0x3de4ab66	0.11165504
143	0xbdfecec7	-0.124417834
144	0x3f565653	0.8372547
145	0x3f3f4de5	0.7472823
146	0x3f176c51	0.5914965
147	0xbf005b99	-0.50139767
148	0xbf31668a	-0.6929709
149	0xbf8d2b51	-1.1028844
150	0x3f163c01	0.5868531
151	0x3f4f5018	0.8098159
152	0x3ecef90a	0.40424377
153	0xbe20d2db	-0.15705435
154	0xbd15aa6c	-0.03653948
155	0x3ca52680	0.02015996
156	0x3c1c1e90	0.009528771
157	0x3db97bd2	0.0905682
158	0x3d4a8834	0.0494463
159	0xbd3a6d1c	-0.04551421
160	0xbdf17fa3	-0.11791923
161	0xbb4fb900	-0.0031695962
162	0xbd255196	-0.04036101
163	0xbd8aad74	-0.06771365
164	0x3c6c382d	0.01441769
165	0xbe01f7ec	-0.12692231
166	0x3db76348	0.08954483
167	0x3c0c353f	0.008557617
168	0xbd7a1151	-0.06105167
169	0xbb9e1a1a	-0.004824889
170	0x3cd240cf	0.025665669
171	0xbe9dca37	-0.3081834
172	0x3d75adf8	0.059980363
173	0xbd55d457	-0.052204456
174	0x3ec7cd87	0.39023992
175	0x3f594bf7	0.8488154
176	0x3f88f9cd	1.0701233
177	0xbe286bb1	-0.16447331
178	0xbe88ee8a	-0.2674449
179	0x3df1cf50	0.1180712
180	0xbee2d77d	-0.4430503
181	0xbf0d4bd7	-0.5519385
182	0x3dc0c0db	0.09411784
183	0x3d64d043	0.055862676
184	0xbe9ad4f8	-0.30240607
185	0x3d932c19	0.07186145
186	0x3f121a4c	0.57071376
187	0x3eb4abbc	0.35287273
188	0xbf017c21	-0.5058003
189	0xbd8ed85b	-0.0697486
190	0xbced0ec0	-0.028937697
191	0xbd4c8e6c	-0.04994051
192	0x3cb4fdc8	0.022093669
193	0xbd1ae034	-0.037811473
194	0xbd4291dc	-0.047502384
195	0xbdf18213	-0.11792388
196	0xbd8060d3	-0.06268468
197	0xbde9e81e	-0.11421226
198	0x3d5e6d24	0.054303303
199	0x3ea4fb3f	0.32222936
200	0x3dee759a	0.116435245
201	0xbd5d4394	-0.054019526
202	0xbdf86c80	-0.1213007
203	0x3e0fb52e	0.14033958
204	0xbd2ac661	-0.041693095
205	0x3d5e2077	0.05423018
206	0x3dff86ac	0.124768585
207	0x3f9251ec	1.143125
208	0x3f8a3586	1.0797584
209	0xbd83cc54	-0.06435457
210	0x3e9d87ec	0.30767763
211	0x3f6143ae	0.87993896
212	0x3f227fa9	0.63476044
213	0xbec1b194	-0.37830794
214	0x3e9e2849	0.3089011
215	0x3f682cdf	0.9069347
216	0xbba6aea0	-0.005086735
217	0xbe1d1e4f	-0.15343593
218	0xbccf4318	-0.025300547
219	0x3d0bd2ec	0.034136698
220	0xbd979510	-0.07401478
221	0x3c3fe2f0	0.011711821
222	0x3ce9fba8	0.028562382
223	0x3d8599e0	0.0652349
224	0xbd941850	-0.072312
225	0x3e18c18f	0.14917587
226	0x3e130f49	0.143613
227	0x3dd6d192	0.10489191
228	0xbde42626	-0.11140089
229	0xbdc8827b	-0.09790512
230	0x3c8bb800	0.017055511
231	0xbdb325ee	-0.08747469
232	0xb94b7400	-0.00019402802
233	0xbda7eb73	-0.08199205
234	0xbd904900	-0.07045174
235	0x3c9f9898	0.019481942
236	0xbe091cb3	-0.13389854
237	0x3d2da9bc	0.0423982
238	0xbc3e9330	-0.011631772
239	0xbd8f27f8	-0.06990045
240	0xbdab00f3	-0.083497904
241	0xbdcaa7c8	-0.09895283
242	0x3e05d893	0.13070898
243	0x3bc25360	0.005930349
244	0xbd13c820	-0.036079526
245	0xbcc80460	-0.024416149
246	0xbe0a8d6f	-0.13530515
247	0xbe1a0646	-0.15041456
248	0xbe03613e	-0.12830064
249	0xbd1d6f4c	-0.03843622
250	0xbda1cc60	-0.079003096
251	0x3d79eacc	0.061014935
252	0x3e10f587	0.14156161
253	0xbd26efa0	-0.040755868
254	0x3e50cf47	0.2039157
255	0xbdb16a2d	-0.086628295

conv2.bias f4 [8]
0	0x3e81b0b3	0.25330123
1	0x3e118fa6	0.14214954
2	0x3e2726b7	0.16323362
3	0x3d5d2fdc	0.05400072
4	0x3e78973b	0.2427644
5	0x3ccfc8a6	0.025364231
6	0xbd53a0ac	-0.0516669
7	0xbe0396da	-0.12850514

conv3.weight f4 [16, 8, 3, 3]
0	0xbdf75250	-0.12076247
1	0xbe12abeb	-0.14323394
2	0x3c452918	0.012033723
3	0x3df894f8	0.121377885
4	0x3cd6ad15	0.026205579
5	0x3d9c28e3	0.07624986
6	0xbb5c8077	-0.0033645907
7	0x3d02791d	0.031853784
8	0x3e1f757d	0.15572162
9	0xbe33c46e	-0.175554
10	0x3ccae4a9	0.024767237
11	0xbe3a96c6	-0.18221578
12	0x3c783bdd	0.015150991
13	0x3ddc5d1d	0.107599474
14	0xbe0335b2	-0.12813452
15	0x3da0436a	0.07825358
16	0x3d3bc889	0.045845542
17	0xbe03b347	-0.12861358
18	0xbdb06b51	-0.08614219
19	0xbbbf0eb9	-0.0058306125
20	0xbe3e95c9	-0.18611826
21	0x3db49f7b	0.08819481
22	0xbd2848d3	-0.041085076
23	0x3d1d9e23	0.03848089
24	0xbd923cd1	-0.07140506
25	0x3e54c81c	0.2077946
26	0x3c369608	0.011144169
27	0xbde53c17	-0.11193102
28	0xbe3828ec	-0.1798436
29	0xbdd48079	-0.10376067
30	0x3ce1c7f3	0.027561164
31	0xbbe12812	-0.006871232
32	0xbdeb2bc2	-0.114829555
33	0x3e4cea64	0.20011288
34	0x3e5f0186	0.21777925
35	0x3d4d59d4	0.050134495
36	0xbc8c66af	-0.017138807
37	0xbe2e7c27	-0.17039548
38	0xbe187c7d	-0.14891239
39	0xbdaad4be	-0.083413586
40	0xbe3b1908	-0.18271267
41	0xbe537846	-0.2065135
42	0x3e909ebe	0.2824611
43	0x3ee33503	0.44376382
44	0xbd4977e4	-0.049186602
45	0xbd8c9b27	-0.068655305
46	0xbcb4c619	-0.022067117
47	0xbe380e19	-0.17974128
48	0xbcd75723	-0.026286667
49	0x3e27ad46	0.16374692
50	0xbde6ed89	-0.11275775
51	0x3e39149f	0.18074273
52	0x3f1300d5	0.57423145
53	0x3e2b9331	0.16755368
54	0xbd074e06	-0.033033393
55	0xbdc59f44	-0.09649518
56	0xbd466536	-0.048436366
57	0xbce471ec	-0.027886353
58	0x3ca2c4bc	0.0198692
59	0x3d5862ce	0.052828602
60	0x3d218d0a	0.039441146
61	0xbd18fc3e	-0.037349932
62	0xbddd1916	-0.107958004
63	0x3d466cb6	0.04844352
64	0x3c9e9131	0.019356342
65	0xbdace9ce	-0.08443032
66	0x3bf6750a	0.0075212764
67	0xbdd88398	-0.105719745
68	0xbd924198	-0.07141417
69	0x3d782e8e	0.060591273
70	0x3d3bf121	0.045884255
71	0x3dce616a	0.10077174
72	0xbe1716dc	-0.14754814
73	0x3d2db3b2	0.0424077
74	0xbda7acea	-0.081872776
75	0x3e09c7cb	0.13455121
76	0x3e8068da	0.25079995
77	0x3deed42e	0.11661564
78	0x3d8e322f	0.069431655
79	0x3c427d99	0.011870765
80	0xbe7c35ba	-0.2462987
81	0x3e79ff88	0.24413884
82	0xbde2bf92	-0.110716954
83	0x3e43eb6a	0.19132772
84	0x3ea631e7	0.32459947
85	0x3d5d58a3	0.05403961
86	0x3e1aecb2	0.15129355
87	0xbd15d0d5	-0.03657611
88	0x3cfcccf2	0.030859444
89	0x3e35cdee	0.17754337
90	0x3ea955da	0.33073312
91	0x3d6d0a08	0.057870895
92	0x3de84978	0.11342138
93	0x3dea06a9	0.114270516
94	0x3dabd194	0.08389583
95	0xbc568ea0	-0.013095528
96	0x3d81c247	0.063358836
97	0xbdd76b3d	-0.10518501
98	0x3edf253f	0.43583104
99	0xbe2058f0	-0.15658927
100	0x3ced3431	0.02895555
101	0xbe44ff57	-0.1923803
102	0xbdacd679	-0.08439345
103	0x3e9c2934	0.30500185
104	0xbd90a87e	-0.07063387
105	0xbd90f127	-0.07077246
106	0xbdffa1ca	-0.12482031
107	0xbe04ae0b	-0.12957017
108	0x3bfec06d	0.007774404
109	0xbe592eed	-0.21209307
110	0x3e4478a9	0.19186653
111	0xbdff3d99	-0.12462921
112	0xbe97e551	-0.29667142
113	0xbec27169	-0.3797715
114	0xbe01a805	-0.1266175
115	0xbe32285d	-0.1739821
116	0x3e5b3ddd	0.21410318
117	0x3de3f3d0	0.11130488
118	0x3e8eebc7	0.2791426
119	0xbe98cd5e	-0.29844183
120	0xbd8a9a30	-0.0676769
121	0x3ea6bc73	0.3256565
122	0xbdf95286	-0.12173943
123	0x3e5ae6d2	0.21377113
124	0xbe372a8c	-0.17887324
125	0x3ed7b715	0.42131868
126	0xbdc072c8	-0.09396893
127	0x3dcad1a1	0.09903265
128	0xbc4ac310	-0.012375608
129	0x3c6de758	0.014520489
130	0xbcb54eb8	-0.022132263
131	0x3de06dd7	0.1095845
132	0xbab482c0	-0.0013771877
133	0x3d6f39ea	0.05840484
134	0xbc8c949c	-0.017160706
135	0x3dac5674	0.08414927
136	0xbb8cc16a	-0.0042955177
137	0x3d6ef639	0.058340285
138	0x3c7aac15	0.015299817
139	0x3d2f9461	0.042866115
140	0xbdfa9a9c	-0.12236521
141	0x3c839c84	0.016065843
142	0xbdb163ff	-0.08661651
143	0xbdaca6ce	-0.08430253
144	0xbd624f8b	-0.05525164
145	0x3dc64c47	0.096825175
146	0xbe4216a8	-0.18953955
147	0x3bb52cda	0.0055290284
148	0xbe317989	-0.17331518
149	0x3c7ab48e	0.015301837
150	0x3bc821c3	0.0061075403
151	0xbe8c075a	-0.2734936
152	0xbe38c5b8	-0.18044174
153	0xbe087f26	-0.13329753
154	0xbcea1e29	-0.028578835
155	0xbe46bffe	-0.19409177
156	0xbde98d74	-0.11403933
157	0xbe9868e8	-0.29767537
158	0x3c189af0	0.009314284
159	0xbe88e8d8	-0.26740146
160	0xbc876a9b	-0.016530326
161	0xbea70f60	-0.32628918
162	0xbe461e4b	-0.19347493
163	0xbe2212a5	-0.15827425
164	0xbd937ba9	-0.07201321
165	0xbdd898e6	-0.10576038
166	0x3e62c1a4	0.2214418
167	0xbe8d4095	-0.27588335
168	0xba61acc8	-0.0008608815
169	0xbd00106e	-0.03126567
170	0xbcb7faec	-0.022458516
171	0x3d51083d	0.051033247
172	0xbaa41b10	-0.0012520272
173	0x3e42abd1	0.19010855
174	0xbde4f69f	-0.11179852
175	0x3ec0d167	0.3765976
176	0xbc535b20	-0.012900144
177	0x3e526921	0.20547916
178	0xbe423d6d	-0.18968745
179	0x3d614ce4	0.05500497
180	0x3d8d880c	0.069107145
181	0x3e0fbf8a	0.1403791
182	0x3eac3354	0.3363291
183	0x3ccbfb39	0.024900066
184	0x3f554c78	0.8331981
185	0x3e54da5f	0.20786427
186	0x3e9a91db	0.30189404
187	0x3de4c80a	0.11170967
188	0x3ecc72fd	0.3993148
189	0x3e34033d	0.1757936
190	0xbd3ea8b5	-0.04654761
191	0x3de20df7	0.1103782
192	0xbe23364e	-0.15938684
193	0x3f294b8c	0.661309
194	0xbe2597fb	-0.16171257
195	0x3e8a66cf	0.27031562
196	0xbea4c0f3	-0.3217846
197	0x3e8e4b26	0.2779171
198	0x3d4677c2	0.048454054
199	0xbd8ba3fc	-0.06818387
200	0x3c78ae58	0.015178286
201	0x3d70509e	0.058670633
202	0xbdd75242	-0.10513736
203	0xbd45f308	-0.048327476
204	0x3d339ef6	0.04385277
205	0xbccdd5c8	-0.025126353
206	0xbd10d446	-0.03535869
207	0xbd80e18e	-0.06293021
208	0x3c85f506	0.016352188
209	0x3d6114ab	0.05495135
210	0x3dd043fe	0.101692185
211	0xbdf67d40	-0.12035608
212	0x3df1818b	0.117922865
213	0xbd910f0e	-0.070829496
214	0x3de3a992	0.11116327
215	0x3a9d2ebb	0.0011992076
216	0x3b8451b1	0.0040380587
217	0xbd176bcf	-0.03696805
218	0xbdd6850d	-0.10474596
219	0x3d4aff82	0.049560077
220	0xbd90b4eb	-0.07065757
221	0x3dd4df83	0.10394194
222	0x3a4fe726	0.0007930867
223	0x3d6c33fa	0.057666756
224	0x3d872c5d	0.066002585
225	0x3cb77340	0.022393823
226	0xbd7fe44f	-0.06247359
227	0xbe0a5f8f	-0.13513015
228	0xbddf5ec2	-0.109067455
229	0xbdcc2499	-0.09967918
230	0x3df49a1c	0.119434565
231	0x3d9a49e4	0.07533625
232	0x3de326a0	0.110913515
233	0x3ab2586d	0.0013606675
234	0xbb158eed	-0.0022820786
235	0x3d5aa861	0.053383235
236	0xbdba3e2e	-0.09093891
237	0x3db3db01	0.08782006
238	0xbdb25884	-0.08708289
239	0xbdb298e7	-0.0872057
240	0x3d85d6cd	0.065351106
241	0x3cfd1b8c	0.030896924
242	0x3cb96b8c	0.02263429
243	0x3ba2cda5	0.0049683624
244	0x3d475330	0.04866332
245	0xbbd7ec27	-0.006589431
246	0xbdbd0bae	-0.09230743
247	0x3cdff42e	0.027338114
248	0xbdf9b834	-0.12193337
249	0x3dd31515	0.103067555
250	0xbe03062e	-0.12795326
251	0x3cd40f03	0.025886064
252	0xbe22b978	-0.15891063
253	0x3cfdb61b	0.030970624
254	0x3ce23327	0.027612282
255	0xbdb04ae6	-0.08608036

conv3.bias f4 [16]
0	0xbe0fe1a0	-0.14050913
1	0x3dc7e8e4	0.09761217
2	0xbc54cc0a	-0.0129881
3	0xbe002af6	-0.12516388
4	0xbe0c493a	-0.13699809
5	0x3d31e704	0.043433204
6	0xbd9797f0	-0.07402027
7	0x3de623af	0.11237275
8	0xbd73bd3e	-0.059506647
9	0x3e23f277	0.16010462
10	0xbd158905	-0.036507625
11	0x3dbaf096	0.091279194
12	0x3df801c9	0.121097155
13	0x3e186fac	0.1488635
14	0x3c4eb6ad	0.0126167955
15	0xbdc6d701	-0.097089775

conv4.weight f4 [32, 16, 3, 3]
0	0xbd6830ec	-0.05668728
1	0xbdfb9ee9	-0.12286169
2	0x3baf8728	0.005356688
3	0xbd7ffd84	-0.06249763
4	0x3de90f0f	0.11379825
5	0x3dbae0a1	0.09124876
6	0xbe0a9915	-0.13534959
7	0xbd6c8974	-0.057748273
8	0xb9bfdf01	-0.0003659651
9	0x3d841b55	0.06450526
10	0x3da0e7a6	0.078566834
11	0xbc9653c7	-0.018350495
12	0xbd506618	-0.050878614
13	0xbc679667	-0.01413498
14	0x3df1ef24	0.118131906
15	0x3e56bb60	0.20969915
16	0x3d1641ed	0.036683965
17	0xbda11db6	-0.07866995
18	0xbc67d0d3	-0.014148909
19	0x3d53cd06	0.051709197
20	0xbda0efa0	-0.07858205
21	0xbe5e0ac3	-0.21683793
22	0xbea3b6ba	-0.31975347
23	0x3e1f6692	0.15566471
24	0xbe637a12	-0.22214535
25	0xbe832267	-0.25612184
26	0x3e203305	0.15644462
27	0x3d8607ef	0.06544482
28	0x3d5076f9	0.05089471
29	0xbd50831e	-0.050906293
30	0xbc7b250b	-0.015328656
31	0xbd53ed3f	-0.051739927
32	0xbd7063a9	-0.058688793
33	0x3cdf44d7	0.027254505
34	0xbc985f5b	-0.018600157
35	0x3c6af4d7	0.014340601
36	0x3cd8f472	0.026483748
37	0xbd0c6bb6	-0.03428241
38	0xbd55259a	-0.052037813
39	0xbbba8490	-0.005692072
40	0x3b2dfb6c	0.0026547564
41	0x3d41ea67	0.047342684
42	0x3cb4f8ef	0.022091357
43	0x3a3e88b0	0.0007268293
44	0xbdc346bf	-0.09534978
45	0xbcc30fda	-0.02381127
46	0x3de422cf	0.11139452
47	0xbcb5515a	-0.022133518
48	0x3ddfc5db	0.1092641
49	0x3c3f7bdd	0.011687246
50	0xbcef459b	-0.029207995
51	0xbdf9af25	-0.12191609
52	0xbdb9f2f6	-0.09079544
53	0x3d6e80b0	0.058228195
54	0x3c038a5f	0.008028596
55	0xbd2d7d58	-0.042355865
56	0xbdc57e36	-0.096432135
57	0x3d838844	0.06422475
58	0x3d11528e	0.03547912
59	0x3cf829d2	0.030293379
60	0x3d86d2e2	0.065831915
61	0xbca94ee3	-0.020667499
62	0x3d3c3303	0.045947086
63	0xbdf0381e	-0.117294535
64	0xbe1e0993	-0.1543334
65	0xbd9698cc	-0.073533624
66	0xbd7b7de8	-0.06139937
67	0xbd0773bd	-0.03306936
68	0xbe5e6283	-0.21717267
69	0xbeb911e1	-0.36146453
70	0xbdd1671f	-0.10224747
71	0x3cb4e220	0.022080481
72	0x3d88b80a	0.06675728
73	0x3d88bb75	0.066763796
74	0x3d9deee2	0.07711579
75	0x3a522410	0.0008016238
76	0x3cadd99f	0.021221934
77	0x3d42e823	0.047584664
78	0xbdf1bfc9	-0.11804158
79	0x3e04d13c	0.12970442
80	0xbcbe4689	-0.023226993
81	0x3de5ae6a	0.112149075
82	0x3e5fa1cc	0.21839064
83	0x3e19e97c	0.15030473
84	0x3dedd5bd	0.11613033
85	0x3ee5b6fe	0.44866174
86	0x3e7aefe7	0.24505578
87	0x3e76b8e0	0.24093962
88	0x3e3c964c	0.18416709
89	0x3dd215f5	0.10258094
90	0x3cadd8f2	0.021221612
91	0xbdffdfcb	-0.12493857
92	0x3df1b24a	0.11801584
93	0xbca704bf	-0.020388005
94	0x3e0a3ed2	0.13500527
95	0xbe1b37b8	-0.15157974
96	0xbe127fc2	-0.14306548
97	0xbc72bb1f	-0.014815121
98	0xbe0ed1c5	-0.13947208
99	0xbe0d1de6	-0.13780937
100	0x3cc571d2	0.024102125
101	0xbe27d594	-0.16390067
102	0xbd7de9b0	-0.06199044
103	0xbd198401	-0.037479404
104	0xbd2020a9	-0.039093647
105	0xbc6f6d9c	-0.014613535
106	0x3d1d2608	0.038366348
107	0x3d547192	0.05186612
108	0xbd2599da	-0.040429927
109	0x3d95d74d	0.07316456
110	0x3c97dea5	0.018538782
111	0x3e0f9425	0.14021356
112	0x3e11f3f5	0.14253218
113	0x3e145f5f	0.14489506
114	0x3e569bb3	0.20957832
115	0x3d06ceec	0.03291218
116	0xbbf01f4a	-0.0073279487
117	0xbc1c395f	-0.009535163
118	0xbcecec2c	-0.02892121
119	0xbd3286eb	-0.0435857
120	0xbe38a4ee	-0.18031666
121	0xbe812a1a	-0.25227433
122	0xbe95fa67	-0.29292604
123	0xbe9cc394	-0.30617964
124	0xbe9f90af	-0.31165072
125	0xbdb5d1d9	-0.08877916
126	0x3e33175f	0.17489384
127	0x3cbbf3c1	0.02294338
128	0x3d900798	0.070326984
129	0x3e0b036d	0.13575526
130	0x3d92f420	0.071754694
131	0xbe1bcb59	-0.1521429
132	0x3dcae0f6	0.09906189
133	0x3e3f6a3f	0.18692873
134	0x3ce169da	0.027516294
135	0x3e10dfc9	0.14147867
136	0xbd3de54b	-0.04636125
137	0xbd243542	-0.040089853
138	0xbdd92ea6	-0.106046006
139	0x3d366deb	0.04453842
140	0xbb3f3bad	-0.0029179857
141	0x3d19a292	0.037508555
142	0xbd949301	-0.07254601
143	0xbe1c159b	-0.15242617
144	0x3aee74f3	0.0018192813
145	0x3e2e50b7	0.17022978
146	0x3cddc79b	0.027072718
147	0xbce0b64b	-0.027430674
148	0x3cf7cf2f	0.03025016
149	0x3ddba5ec	0.107250065
150	0xbc87b6f2	-0.016566727
151	0x3c29d11a	0.010364795
152	0xbca3b8b4	-0.019985534
153	0xbddf4fc3	-0.10903885
154	0xbe0a3e9d	-0.13500448
155	0xbd07d528	-0.033162266
156	0xbd33f51c	-0.043934926
157	0xbd5f5031	-0.054519836
158	0x3caec026	0.021331858
159	0x3cb15d98	0.021651074
160	0xbe10f08a	-0.14154258
161	0x3c2b08bd	0.010439095
162	0xbd118095	-0.035523016
163	0xbd91bdd3	-0.07116284
164	0xbdbab4eb	-0.091165386
165	0x3dda0575	0.10645572
166	0x3ea04d46	0.31308955
167	0xbe021a67	-0.12705384
168	0x3b790c9b	0.0038001898
169	0xbd455ed8	-0.048186153
170	0x3d2d55a2	0.042317994
171	0x3d0c9c9b	0.034329038
172	0x3d2209ed	0.039560247
173	0xbba72898	-0.0051012747
174	0x3c64812a	0.013946811
175	0x3ca9e3b6	0.020738464
176	0x3c70da80	0.014700532
177	0xbd85f2f7	-0.065404825
178	0x3d76adbe	0.060224287
179	0x3d89e4dd	0.06733105
180	0x3906b5b2	0.00012846923
181	0xbd272a41	-0.04081178
182	0xbb95b46f	-0.0045686285
183	0x3d288908	0.04114631
184	0xbd79dfee	-0.06100457
185	0x3b84e607	0.0040557417
186	0x3d58cca7	0.052929547
187	0xbdd01a52	-0.1016127
188	0x3dabba22	0.083851114
189	0xbd2ae9a5	-0.041726727
190	0x3dae4937	0.085100584
191	0xbde48e1e	-0.11159919
192	0xbcc5052c	-0.024050318
193	0x3e09f2f8	0.13471591
194	0xbd3ec9f6	-0.046579324
195	0xbd5b48f1	-0.05353636
196	0xbdd1202e	-0.10211216
197	0xbd7035c2	-0.058645017
198	0x3c116c50	0.008875921
199	0xbd06ec10	-0.03293997
200	0xbced358a	-0.028956193
201	0xbc367b9a	-0.011137867
202	0x3cb1826d	0.021668637
203	0x3d6888bb	0.05677102
204	0xbd0fdd56	-0.03512319
205	0xbcc81543	-0.0244242
206	0xbd1ee399	-0.038791273
207	0xbdd10b87	-0.10207277
208	0xbd8a278c	-0.06745824
209	0xbcd1e986	-0.025624048
210	0xbd739e0e	-0.059476905
211	0x3e524268	0.20533144
212	0xbdc01f7b	-0.093810044
213	0x3d8df9ac	0.06932387
214	0x3c5c79b1	0.013456748
215	0xbe073dd9	-0.13207187
216	0xbd1b221b	-0.037874322
217	0x3d65de98	0.056120485
218	0x3d4af886	0.049553417
219	0x3a455f53	0.0007529158
220	0x3b3f91c2	0.0029231166
221	0xbd10feb7	-0.035399165
222	0x3c8b59cd	0.017010594
223	0xbd0b620f	-0.034029063
224	0x3c9480b9	0.018127786
225	0xbd815f03	-0.0631695
226	0xbe1fe0d2	-0.15613106
227	0xbd04a2b3	-0.032381725
228	0xbca00e2e	-0.019538011
229	0xbe4c6169	-0.19959034
230	0xbd55f698	-0.052237123
231	0x3c361842	0.011114182
232	0xbe5df992	-0.21677235
233	0x3d9b0deb	0.07571014
234	0x3c26831d	0.010163096
235	0xbd73d107	-0.059525516
236	0xbda9c654	-0.08289781
237	0xbc27c403	-0.010239604
238	0xbdf4f25c	-0.11960289
239	0x3db2c30d	0.08728609
240	0xbc8a9629	-0.016917305
241	0xbd6f7a9c	-0.05846654
242	0xbd0d5ccf	-0.034512337
243	0xbca80f9f	-0.020515261
244	0xbe0dc6e4	-0.13845402
245	0xbc29dc74	-0.0103675015
246	0xbd967962	-0.07347371
247	0x3e991e77	0.29906055
248	0x3ac3949e	0.0014921611
249	0xbd9e6466	-0.07733993
250	0xbdb6780f	-0.08909618
251	0x3c5d0dc2	0.01349205
252	0xb86bb71e	-5.6198907e-05
253	0xbc8a116d	-0.016854012
254	0xbe29db60	-0.16587591
255	0xbd96864a	-0.07349832

conv4.bias f4 [32]
0	0xbd8bea7c	-0.06831834
1	0xbda70930	-0.08156049
2	0x3dd762f8	0.10516924
3	0xbdbb6047	-0.09149223
4	0xbcfe1b36	-0.031018835
5	0xbdd1636e	-0.10224043
6	0x3df5ced3	0.12002339
7	0xbd5c2da2	-0.053754456
8	0xbbd5bfee	-0.006523124
9	0x3c8133a6	0.015771698
10	0x3e1a233b	0.15052502
11	0xbd67c45c	-0.056583747
12	0xbd7af7ad	-0.06127136
13	0x3e543bbb	0.2072591
14	0xbd85cdb8	-0.06533378
15	0xbd262698	-0.04056415
16	0x3cf5660b	0.029955884
17	0x3d424190	0.047425807
18	0xbd1c1f20	-0.03811562
19	0xbd549abe	-0.051905386
20	0x3c860ef3	0.01636455
21	0x3dbc801c	0.092041224
22	0xbca0f1c5	-0.019646535
23	0x3d859bfb	0.065238915
24	0xbd49742a	-0.04918305
25	0xbd026003	-0.031829845
26	0xbcf9f2b3	-0.030511236
27	0xbcbe9124	-0.023262568
28	0x3c18fbbc	0.009337362
29	0x3dfadde7	0.12249356
30	0xbc89985b	-0.016796282
31	0xbd31cfe4	-0.04341115

conv5.weight f4 [10, 32, 3, 3]
0	0xbe01dec6	-0.12682638
1	0xbab8ddbb	-0.0014104167
2	0xbd5da341	-0.05411077
3	0xbd0e4f9d	-0.034743894
4	0xbe87ab1f	-0.26497743
5	0xbe210b6f	-0.15727018
6	0x3e0a3ddd	0.13500161
7	0x3d4d14da	0.050068714
8	0xbd2f2d48	-0.042767793
9	0xbd37fdf1	-0.04491991
10	0xbd7c5248	-0.061601907
11	0xbd103425	-0.03520598
12	0xbd88c5de	-0.06678365
13	0xbd395d48	-0.045254976
14	0xbd0c10dc	-0.034195766
15	0xbb9d3211	-0.004797228
16	0xbd98c98e	-0.074603185
17	0xbcd3ac21	-0.025838913
18	0x3dd65067	0.10464554
19	0xbb4c1657	-0.0031141245
20	0x3d974a56	0.07387225
21	0x3e4ff0a0	0.20306635
22	0x3e83659e	0.25663465
23	0x3e21f94a	0.15817752
24	0xbe071ba8	-0.13194144
25	0xbe355e16	-0.17711672
26	0xbea7165e	-0.32634252
27	0xbda0a446	-0.07843833
28	0xbe69baf2	-0.2282522
29	0x3e4d6c36	0.2006081
30	0xbd94a38e	-0.07257758
31	0x3de17102	0.11007883
32	0xbdef2f52	-0.116789475
33	0xbd72d3c2	-0.05928398
34	0xbdf6f194	-0.12057796
35	0x3d68d948	0.05684784
36	0x3c3fdc2f	0.011710211
37	0x3d4a12e3	0.049334418
38	0x3d476add	0.048685897
39	0xbcc38d10	-0.023870975
40	0x3e93e701	0.2888718
41	0x3e42b825	0.19015558
42	0x3df99a06	0.12187581
43	0x3e5e75d9	0.21724643
44	0xbe51ee3e	-0.20501038
45	0xbd814210	-0.063114285
46	0xbd18805c	-0.037231788
47	0xbdbf2954	-0.093340546
48	0x3e58185a	0.2110304
49	0x3d149ce0	0.03628242
50	0xbd843dc1	-0.06457091
51	0xbd75e4e1	-0.06003273
52	0x3cea8e98	0.028632447
53	0xbd50822b	-0.050905388
54	0x3d0e6bb6	0.03477069
55	0x3ea6b35f	0.32558724
56	0x3df9f2b9	0.12204499
57	0xbdb661eb	-0.08905395
58	0x3dee7150	0.116427064
59	0xbe26c531	-0.1628616
60	0xbc1799ee	-0.009253008
61	0x3e1a85cc	0.15090102
62	0xbea89470	-0.3292575
63	0x3db7c7e1	0.08973671
64	0xbe956c87	-0.29184362
65	0xbe744d86	-0.23857698
66	0x3e4cf70a	0.20016113
67	0x3d000edf	0.031264182
68	0x3e03ccca	0.1287109
69	0x3e1a81ab	0.15088527
70	0xbdafdbe9	-0.085868664
71	0x3d001829	0.03127304
72	0x3d080814	0.03321083
73	0x3dddaebb	0.10824343
74	0x3d5d709e	0.05406248
75	0x3c977216	0.018487018
76	0x3e1ac28e	0.15113279
77	0xbddb371c	-0.10703871
78	0xbd9ab9e3	-0.07554986
79	0xbe327384	-0.17426878
80	0x3d9422b8	0.072331846
81	0x3d4f0925	0.05054583
82	0x3e3c8d76	0.18413338
83	0xbda215a6	-0.07914285
84	0xbce34a33	-0.027745342
85	0x3d377bfd	0.04479598
86	0x3d9c7683	0.07639792
87	0x3e19aace	0.15006563
88	0xbd6f94ec	-0.058491632
89	0xbde17040	-0.11007738
90	0xbca7b4e7	-0.020472003
91	0xbd762ef7	-0.060103383
92	0x3ddb2cee	0.10701929
93	0xbd63ebf3	-0.05564494
94	0xbe931438	-0.28726363
95	0xbca0a2d5	-0.019608894
96	0x3d676dfe	0.05650138
97	0x3e8e167a	0.27751523
98	0x3e147561	0.14497901
99	0xbc5bafe7	-0.013408638
100	0xbc63c8a0	-0.013902813
101	0xbd10307b	-0.035202485
102	0x3c4981c9	0.01229901
103	0x3d2f13de	0.042743556
104	0x3cb269bf	0.02177894
105	0xbcdf9315	-0.027291814
106	0x3c210f9c	0.009830382
107	0x3d1b27fc	0.03787993
108	0x3cffe201	0.031235697
109	0xbdf7774c	-0.12083301
110	0x3d467780	0.048453808
111	0xbd242bf3	-0.040080976
112	0xbd9f74e0	-0.07785964
113	0xbe5942ad	-0.21216841
114	0xbe1ab85c	-0.1510939
115	0xbd748e46	-0.059705995
116	0x3d1be214	0.0380574
117	0x3db7e95e	0.08980058
118	0x3e71665e	0.23574206
119	0xbe86509f	-0.26233384
120	0x3e20c7c6	0.15701208
121	0x3e8d67c2	0.27618223
122	0x3cc6b702	0.024257187
123	0x3d4701ee	0.048585825
124	0xbe27434c	-0.16334265
125	0xbdb357ba	-0.08756967
126	0xbc52d000	-0.012866974
127	0x3d81f156	0.06344859
128	0x3e0eed21	0.13957645
129	0x3e2c5396	0.1682876
130	0x3d9422e3	0.072332166
131	0xbe0bced9	-0.13653125
132	0xbd0a50a7	-0.033768322
133	0xbc0d4aba	-0.008623773
134	0x3e0efc1f	0.13963364
135	0x3b2c9bc6	0.0026337965
136	0xbdcc453c	-0.09974143
137	0xbe1b15ee	-0.15145084
138	0x3d4076f9	0.04698846
139	0x3cfa08a6	0.030521702
140	0x3e34f76a	0.17672506
141	0xbe169b0f	-0.14707588
142	0xbddd1c73	-0.10796442
143	0x3dd68688	0.104748785
144	0x3c44da10	0.012014881
145	0x3e0e0cb0	0.13872027
146	0x3e31c2b8	0.17359436
147	0xbdfd185b	-0.12358161
148	0x3d8234ca	0.06357725
149	0x3e2961ed	0.16541262
150	0x3d65276e	0.055945806
151	0x3e3ec939	0.18631448
152	0xbdc88ec3	-0.09792855
153	0xbcf63fef	-0.030059783
154	0x3d1b76d5	0.037955124
155	0x3e58e4fa	0.21181098
156	0x3d7e96eb	0.062155645
157	0xbd84471a	-0.06458874
158	0xbe1a689f	-0.15078972
159	0x3cbb9e7d	0.022902722
160	0xbdc12668	-0.094311535
161	0x3ecd5316	0.40102452
162	0xbd2b9858	-0.041893333
163	0xbd77a4af	-0.06045979
164	0x3d701abe	0.058619253
165	0xbd19c39c	-0.037540063
166	0xbd027f3b	-0.031859618
167	0x3d0960f1	0.033539716
168	0x39c474e4	0.00037471124
169	0x3c9ed4d4	0.019388594
170	0x3d68596d	0.056725908
171	0x3df8a26c	0.121403545
172	0x3d81d118	0.063387096
173	0xbbbf5d28	-0.0058399625
174	0xbd3ed2c8	-0.046587735
175	0x3d162af7	0.03666207
176	0xbc0835a6	-0.008313572
177	0x3d88d972	0.066820994
178	0xbe030779	-0.1279582
179	0x3c3d8eaf	0.011569663
180	0x3da26416	0.07929246
181	0xbe54e36f	-0.20789884
182	0xbdafcda4	-0.08584145
183	0xbd844c51	-0.06459869
184	0x3d7994ec	0.06093304
185	0x3d2500e5	0.040284056
186	0x3dd2231d	0.102606036
187	0xbe7d2c83	-0.24724011
188	0x3e7f76c8	0.24947655
189	0xbc29a72b	-0.010354797
190	0x3d02c5a3	0.031926762
191	0xbc30ce76	-0.010791412
192	0xbcb48286	-0.022034895
193	0xbdf324ce	-0.11872254
194	0xbe50929f	-0.20368432
195	0x3c785a8c	0.015158307
196	0x3c31d1e1	0.010853262
197	0x3ebeb9a8	0.3725102
198	0x3e422f7f	0.18963431
199	0xbe6a12d8	-0.22858751
200	0x3e03f8c3	0.12887864
201	0xbd57ad4b	-0.0526555
202	0x3d92aa5d	0.071614005
203	0x3e278404	0.16358954
204	0x3da0545f	0.078285925
205	0xbe37c904	-0.17947775
206	0x3dd54ee3	0.10415437
207	0x3e1003d8	0.14063966
208	0x3db70573	0.08936586
209	0x3cf37af1	0.029721709
210	0xbe598111	-0.21240641
211	0x3d095fa0	0.03353846
212	0x3db94f52	0.09048332
213	0xbdd14ddf	-0.10219931
214	0x3d98d0bf	0.0746169
215	0xbe4453d2	-0.191726
216	0x3d59cc95	0.05317362
217	0x3cf08b88	0.029363409
218	0xbd0ebb2b	-0.034846466
219	0xbd1545fb	-0.03644369
220	0xbdcf9c9a	-0.10137291
221	0x3d72aea2	0.059248574
222	0xbb915abe	-0.004435866
223	0x3d2f6db3	0.042829227
224	0xbd4bccee	-0.049755983
225	0xbd832200	-0.06402969
226	0xbda3b91e	-0.07994293
227	0xbd92e595	-0.071726955
228	0x3d8e3a89	0.069447584
229	0x3c705078	0.014667623
230	0xbd9581fe	-0.07300185
231	0x3d7f090f	0.0622645
232	0x3db4179e	0.08793567
233	0xbde5db2d	-0.11223445
234	0xbe3b2f2f	-0.18279718
235	0xbda564c9	-0.08075864
236	0xbdb71796	-0.089400455
237	0x3e303d23	0.17210822
238	0x3e0d80ae	0.13818619
239	0xbcae4fdf	-0.02127832
240	0xbdbd085e	-0.092301115
241	0xbe02df45	-0.12780483
242	0xbc7e8052	-0.015533524
243	0x3d8dc945	0.06923155
244	0xbe0408ca	-0.12893978
245	0x3e24489b	0.16043322
246	0x3ea4e7f6	0.32208222
247	0x3e106311	0.14100291
248	0xbd4d1bcf	-0.05007535
249	0x3e8fb3c8	0.2806685
250	0xbe8034ef	-0.25040385
251	0xbe2b442a	-0.16725221
252	0x3e17b7cc	0.14816207
253	0x3d14b2f7	0.036303487
254	0x3d996338	0.074896276
255	0xbd95a3f7	-0.073066644

conv5.bias f4 [10]
0	0x3d0d958e	0.034566455
1	0x3e9fd908	0.3122027
2	0xbd29710f	-0.041367587
3	0xbc508181	-0.012726189
4	0xbc6f91ba	-0.014622146
5	0xbd1880e4	-0.037232295
6	0xbcc01863	-0.023449128
7	0x3de3dd14	0.11126152
8	0x3d9e1d18	0.07720393
9	0x3d9684fa	0.07349582
