GLmodels/BaseGLseed6.pt (torch_old, 38047 bytes, 10 tensors)

conv1.weight f4 [4, 3, 3, 3]
000000 70 a5 e3 3c 00 e0 a9 3c c9 e0 3f 3e 70 50 2a 3d
       0.027788848 0.020736694 0.18738092 0.041580617
000010 0a 2a d1 bd 08 3e a0 bc d2 6c 89 3d 8a 7f c3 3d
       -0.102130964 -0.019560829 0.06710209 0.095458105
000020 c0 87 bd 3c 4e d2 f6 3e 32 ee 63 bf b7 02 3f bf
       0.02313602 0.48207325 -0.8903533 -0.7461352
000030 01 a3 d1 3f 4a 30 39 3f 2b 10 52 bf 6c f5 ae 3f
       1.637787 0.7233931 -0.8205592 1.3668647
000040 27 88 cb 3f 70 72 b7 3d 30 e0 54 bd c8 3f c2 bd
       1.5900925 0.08957374 -0.051971614 -0.094848216
000050 96 59 04 be ce cd aa bd 24 03 34 bd ed 8a 03 3e
       -0.129248 -0.083400354 -0.043948308 0.12845965
000060 b4 f6 38 3d c0 be 29 bd e8 18 f6 bd ff 01 05 3e
       0.04515715 -0.04144168 -0.12016469 0.12989043
000070 4c e3 e3 bd 70 89 e2 bc 80 7d 82 ba f1 a8 37 be
       -0.11127338 -0.027653426 -0.0009955615 -0.1793554
000080 e3 3a 17 3e 1c bf 1f be 72 46 dc 3d de 49 9b 3d
       0.14768557 -0.15600246 0.10755624 0.075824484
000090 a4 5f 10 3d be c3 7b be 10 42 21 3e 16 c0 80 3e
       0.03524746 -0.24586388 0.15747857 0.2514655
0000a0 c6 ad 11 3f 99 ea e6 3b da 2d d2 3e ce cd 1f 3f
       0.5690578 0.007047009 0.41050607 0.6242341
0000b0 1a 58 f5 3d 00 d1 03 bd a0 81 fd 3b 66 ae fa 3d
       0.11979695 -0.03218174 0.0077364 0.12240295
0000c0 70 ec 6d 3c f7 4c ab bd 60 53 fe bb 70 31 b1 bc
       0.014521703 -0.08364289 -0.007761404 -0.021630019
0000d0 13 54 33 3e 4a eb ac 3d 10 e9 06 be 0a c5 05 be
       0.1751254 0.08443315 -0.13174844 -0.13063446
0000e0 63 fc d1 bd ba a2 dc 3d 40 13 79 3c 24 0a 6a bd
       -0.10253217 0.10773225 0.015202343 -0.057138577
0000f0 80 4f 41 3d 1e aa fd 3d 60 b8 d7 3b 87 1d 51 3e
       0.047194958 0.12385963 0.0065832585 0.2042142
000100 f6 61 03 bc 08 f4 49 3d 22 9f 2b 3e 91 d8 ad bd
       -0.008018961 0.049304992 0.16759923 -0.084885724
000110 7c 8e 73 bd bd e8 7a 3c 4c 6a 0d 3e 56 2c ca bd
       -0.059462056 0.015314278 0.1381008 -0.09871738
000120 0d e3 35 3e 72 44 d1 3d a2 1e 2c be 00 60 85 bd
       0.17762394 0.10218133 -0.1680856 -0.06512451
000130 f7 9b 29 3e 27 1e 8d bd d9 13 38 be ae 1f f9 3d
       0.16563402 -0.06890517 -0.17976321 0.121642455
000140 51 ff 1a be 0c ae 36 bd 28 76 59 bd c1 f4 d0 bd
       -0.15136458 -0.044599578 -0.0530912 -0.10202933
000150 59 b8 36 3e e6 e7 d5 3d 24 71 ac bd 00 f3 2d bc
       0.1784376 0.10444622 -0.08420017 -0.010617018
000160 da ba 87 bd 08 5c 43 bd 3b dd c7 be f9 4d 21 3f
       -0.06627436 -0.04769519 -0.39035973 0.630096
000170 70 75 bf 3f d4 06 9b be 82 cb 99 be 1b ae ee 3e
       1.4957714 -0.30278647 -0.30038077 0.46617207
000180 89 5f 1a 3f 84 20 88 be 0f 08 19 bf 60 c7 e4 bd
       0.60302025 -0.26587307 -0.5977792 -0.1117084
000190 12 c3 d9 3d 32 7f c2 3d 7e 6e 84 3d 20 8f 75 bd
       0.1063291 0.09496917 0.06466387 -0.059950948
0001a0 a0 c9 0f 3c 9e 57 ff 3d 64 1b 5d 3d 59 6f 3a 3e
       0.0087760985 0.124678835 0.0539812 0.18206538

conv1.bias f4 [4]
000000 43 b8 b6 3f e1 a9 4a 3e 4d 45 4d bd a6 de 18 3f
       1.4274982 0.19791366 -0.05011492 0.59714735

conv2.weight f4 [8, 4, 3, 3]
000000 16 6b c1 bc 5b 3b f1 bd 7f 5d 71 3e 92 bc 12 bd
       -0.023610633 -0.11778899 0.23570822 -0.035824366
000010 4b 53 40 be f1 d8 c9 bd 31 2f 67 3a 44 26 b4 bd
       -0.18781774 -0.098558314 0.0008818983 -0.08796361
000020 82 bc 12 3d 9c 08 69 bc 90 98 2e 3e 15 fc bf 3d
       0.035824306 -0.014223244 0.17050385 0.09374253
000030 70 68 bb bd 11 6b d1 bd 87 b2 7f bd b8 59 96 3d
       -0.09150779 -0.102254994 -0.062426116 0.07341331
000040 cd ba 86 bd 29 18 5f 3c e7 8c 03 3e 57 38 4b bd
       -0.06578598 0.0136166 0.12846719 -0.049614277
000050 a9 43 2b bb 2f 8f b6 bd 58 62 10 3e 8d d1 58 3d
       -0.0026132858 -0.08914029 0.14100015 0.05293422
000060 85 a1 a3 bc 59 6b a1 bd ce 76 09 3e 74 3d 51 3e
       -0.01997448 -0.07881803 0.13424227 0.20433599
000070 56 b5 35 3e c6 02 01 3d 6c 5f 56 3e 27 27 09 3e
       0.17744955 0.031496786 0.20934838 0.13393842
000080 2f 5b b4 bd bd 20 00 bd a3 b6 66 bc 51 50 94 3e
       -0.088064544 -0.03128122 -0.01408163 0.28967527
000090 5a fa 9e 3e d5 ee 1b 3c ec 42 2b bd 00 04 d8 3c
       0.31050378 0.009517391 -0.04181187 0.026369095
0000a0 32 99 9c 3e a4 bd ba 3d 7f cc 8c 3d 69 e4 4f 3e
       0.3058563 0.09118202 0.06874942 0.20301975
0000b0 e5 b7 a0 3e 96 07 f5 3a ac 08 45 3e 97 7d 05 3d
       0.313903 0.0018694277 0.1924159 0.032590475
0000c0 61 e1 27 3c 47 98 eb bd 6e ed 6d 3d f2 6b 4d 3d
       0.010246606 -0.11503654 0.05808776 0.050151773
0000d0 d0 7c 07 3d 49 ac d2 bc fe 6b 25 3e 95 91 70 bd
       0.033078015 -0.025716918 0.16154477 -0.058732588
0000e0 a8 de 91 bd 68 9c 45 bd 5b f4 13 bd 52 bc b6 bd
       -0.071225464 -0.048244864 -0.036121707 -0.08922638
0000f0 07 ea 2a 3e 45 55 24 3e bc 64 c9 bd 65 6d 6b be
       0.16690837 0.16048153 -0.09833667 -0.2299095
000100 1d b3 9e bc 5f 8e 55 3e d9 37 d0 bd 24 69 50 be
       -0.019372517 0.20855092 -0.10166902 -0.20352608
000110 6f c2 28 3e 71 ba 97 bb 92 7e d7 3d 4f ce 13 be
       0.1648042 -0.00463038 0.10522188 -0.14434169
000120 ea 33 2f be 66 5d 21 3f b7 7f 33 3f f9 2b 83 be
       -0.17109647 0.6303314 0.7011675 -0.25619486
000130 b5 f7 87 3d 2b 97 22 3f c3 8f c0 bd eb bc 01 be
       0.06639043 0.63511914 -0.0940242 -0.12669723
000140 85 a6 ac 3e 2f e4 a4 3c d6 a9 9d 3e 1e 76 ce 3d
       0.33720794 0.020128338 0.30793637 0.10081123
000150 95 b5 42 3e a2 84 db 3d b7 10 74 bc de 6b a0 bd
       0.1901458 0.10718657 -0.014896563 -0.07833074
000160 c4 5a 0e be 16 6c 20 3e c9 3c b9 3d e6 08 48 3e
       -0.13901812 0.15666232 0.09044797 0.19534644
000170 69 0c d2 bd 24 ac 1e bd 1a 75 11 be c0 d9 0e 3e
       -0.10256273 -0.038738385 -0.14204827 0.13950253
000180 cf 6f ca bc 2e c8 b7 bd b0 f3 3c bc 71 d6 2e 3d
       -0.024711518 -0.08973728 -0.011532709 0.042684976
000190 fe 37 24 be 75 68 7f be 0f e3 0c 3e bc 0a 46 be
       -0.16036984 -0.24942191 0.13758491 -0.19340032
0001a0 ff ad 06 be 5b c6 4e 3e cc 52 78 3e 80 a4 44 3d
       -0.13152312 0.20192854 0.24250335 0.048008442
0001b0 64 8b 7e 3d e0 c9 b9 3c a8 e6 1b be 80 ab 9e bc
       0.062144652 0.02267927 -0.15224707 -0.019368887
0001c0 f8 56 b9 bd d0 6b 20 3c 76 da c0 bd 00 02 fd ba
       -0.09049791 0.0097913295 -0.09416668 -0.0019302964
0001d0 2f 0d 05 be 9a dc e1 3d 00 0c ae bd 40 5b b5 bd
       -0.1299331 0.110284045 -0.084983826 -0.08855295
0001e0 dd 05 16 3e f4 a3 0c 3d d2 5c 02 be 7b 8a cd bd
       0.14650674 0.034336045 -0.1273072 -0.10036179
0001f0 80 9a 86 bb 38 6c 22 be 6a ff d3 3d 96 bb c9 3d
       -0.0041077733 -0.15861595 0.10351451 0.09850232
000200 f4 8a 08 be 00 9c 98 3c 5f f4 0a 3e c6 d2 b3 bd
       -0.13334256 0.018629074 0.13569783 -0.08780436
000210 40 87 12 be fc 62 69 bd eb fe fc bd c4 d0 21 3d
       -0.14309406 -0.056979164 -0.12353309 0.039505735
000220 db 4c 93 bd df f4 0c be 36 56 e5 bd a1 9b 07 3e
       -0.071923934 -0.13765286 -0.11198084 0.13242961
000230 de 38 d5 bd b8 31 82 3d e8 4d 98 bd 60 f7 a3 bd
       -0.10411237 0.06357139 -0.074367344 -0.080061674
000240 62 cb 51 3e a0 9d 31 bd f3 ef db 3e 21 92 1f 3e
       0.2048774 -0.043363214 0.42956504 0.15583088
000250 97 7c b1 bc 16 d0 90 be 5a e6 56 3d 63 7f ae 3d
       -0.021665854 -0.28283757 0.052465774 0.08520391
000260 16 33 a3 be 5c f9 a5 3d 1f 79 f4 bd 7a e9 62 3e
       -0.31874913 0.08104202 -0.119371645 0.22159377
000270 54 f4 fb 3c 7d e3 4f 3d 44 32 9e 3c fb 4f 11 3e
       0.030756153 0.05075406 0.019311078 0.14190666
000280 72 a5 1e 3e 8a 74 b3 3d 0b d9 09 be 78 a4 d6 bd
       0.154928 0.087624624 -0.13461702 -0.10480589
000290 36 05 52 bd 29 30 bd 3d bc 13 0e be 14 20 1a be
       -0.0512745 0.092377014 -0.13874716 -0.150513
0002a0 0c 27 c8 3d bb 2b dd bd a2 b3 cf 3b 6a 9e e9 bc
       0.097730726 -0.107993565 0.0063385526 -0.02851792
0002b0 12 02 06 bc 16 c3 93 bd e0 a9 52 3e e0 e6 8c 3e
       -0.008179205 -0.07214944 0.20572615 0.27519894
0002c0 ac 88 94 3d d1 fe 5b bd e1 61 d5 3d 36 fd 50 3e
       0.072526306 -0.05370981 0.104190595 0.20409092
0002d0 40 95 f7 3e 8f 95 5e bf ed 83 8c bf 26 ef 8a 3f
       0.48356056 -0.8694696 -1.097776 1.0854232
0002e0 8a fd 31 3f b1 0d c7 be 57 31 2a 3f 4f f9 85 3f
       0.69527495 -0.38877633 0.66481537 1.0466708
0002f0 9d 24 f9 3e d5 4a 85 3e d0 33 13 3e e3 68 d4 bd
       0.48660746 0.26033655 0.14375234 -0.10371568
000300 4b a7 c3 3e 1f 25 32 3e 15 39 11 be f0 38 a7 3e
       0.38213572 0.17396973 -0.14181931 0.32660627
000310 04 51 9d 3e 48 85 20 3d 98 be 01 be 83 4e 70 3d
       0.30725873 0.039189607 -0.12670362 0.058668625
000320 6b 63 a9 bd 87 cd 27 3e 04 b9 c8 bd f2 e7 2b 3c
       -0.082709156 0.16386996 -0.09800914 0.010492312
000330 2a 2c fe 3d 47 1d 88 3d 2c 5a 95 3c b1 e5 81 3e
       0.124107674 0.06646209 0.018231474 0.25370553
000340 fa f1 50 3f f4 e1 5b 3f 74 9d a9 bd 5c ac e5 3e
       0.81619227 0.8589165 -0.08281985 0.44858062
000350 a7 28 1c 3f c0 1b 52 be b6 03 87 be a3 6e a3 3e
       0.6099953 -0.20518398 -0.2637002 0.31920347
000360 e9 95 4b 3f 69 f7 83 3e ae 32 15 bf 28 1d 0a 3f
       0.7952562 0.25774696 -0.58280456 0.5395074
000370 63 81 7c 3f 70 81 99 3e ac 33 c5 be dd 0e 48 3f
       0.9863493 0.29981565 -0.38515985 0.7814768
000380 a4 8a 79 3f 04 2d ba 3e bf 5d aa 3e 57 62 ba 3d
       0.97477174 0.3636247 0.33274648 0.09100788
000390 95 bb a8 3e ee df 46 3e 72 d0 e4 bc e1 7b 4b 3e
       0.32955614 0.1942136 -0.027931426 0.19871475
0003a0 e3 2e 12 3e 52 97 04 be 4a fe ca 3d 96 6d f0 bc
       0.14275698 -0.12948349 0.09911783 -0.02934913
0003b0 8b 0b 39 be a2 9d 1b 3d b5 7f 9a ba c3 f6 24 3d
       -0.1807081 0.037992127 -0.0011787327 0.040274393
0003c0 72 fa 28 3d b7 85 e3 bd 63 d6 56 bd 6f b3 ba be
       0.04125447 -0.111094885 -0.05245055 -0.36465022
0003d0 51 22 07 3e d9 a9 6d 3f 3f 8b cf be a0 02 82 bd
       0.13196684 0.9283729 -0.40535924 -0.06348157
0003e0 4c b6 c8 3e af db 1b 3e 38 70 7b be 44 b9 85 be
       0.3920158 0.15220521 -0.24554527 -0.2611791
0003f0 5a 80 f3 3d ee 7b ca bd 7e c0 cf 3d 38 47 1c be
       0.118897155 -0.09886919 0.10144137 -0.15261543

conv2.bias f4 [8]
000000 07 b2 bb bd ee d9 95 bd a2 f8 60 3e e0 ff b1 bc
       -0.091648154 -0.073169574 0.21969846 -0.021728456
000010 44 12 eb 3d 16 fb 45 3e e2 c3 cd 3d 53 2c 12 be
       0.11478093 0.19334063 0.10047127 -0.14274721

conv3.weight f4 [16, 8, 3, 3]
000000 5c ee d9 3d ef 64 57 bd 4a 30 c5 3d 51 80 0a 3d
       0.106411666 -0.052586492 0.09628351 0.03381378
000010 27 d4 95 3d 10 67 39 3d b3 e6 d0 bb 5d 8f 7d 3d
       0.073158555 0.045264304 -0.0063751577 0.0619043
000020 e9 72 00 3e b9 1b ea 3c 8b e7 60 3d 38 03 58 3c
       0.12543835 0.028577672 0.054908317 0.013184361
000030 69 8a 73 bd 4a 08 45 3c 6b d0 4e 3c b3 f9 14 3d
       -0.05945817 0.012025902 0.012622933 0.036370944
000040 2f 09 9c bc 30 4a 82 bd a5 ae 4f bd 5d dc 2e be
       -0.019047348 -0.063618064 -0.050703663 -0.1707625
000050 61 67 2d bd 54 6e 22 3e a4 eb 52 bd 17 49 8e bd
       -0.042334918 0.158624 -0.051494256 -0.069475345
000060 60 4d e9 3d f6 eb 84 3c 34 2f f0 3d ef eb c8 bd
       0.11391711 0.016225796 0.11727753 -0.09810626
000070 79 c3 c9 3d d9 ca eb 3d ac f8 32 bd 5a 5c 36 3d
       0.098517366 0.115132995 -0.043694183 0.044521667
000080 24 1d fa 3c be 5e 9a bd 7b 6a c7 3d 16 d6 43 3d
       0.030531473 -0.07537602 0.097371064 0.04781159
000090 78 3b cf bc f3 f6 63 bb 95 2e 9c 3d 2c b9 77 3d
       -0.025296912 -0.0034784644 0.07626072 0.060479328
0000a0 fc 53 2d 3d e7 4e 26 bd a6 73 c7 3d 92 a6 84 bd
       0.042316422 -0.04060259 0.09738855 -0.06477083
0000b0 e0 8c ce 3d 05 3b 14 3e 42 bf f8 3d 90 5e c4 bd
       0.100854635 0.14475639 0.121458545 -0.09588349
0000c0 f1 5f ee bd 2f 39 04 3e 75 23 32 3e a3 dd 8b be
       -0.11639393 0.12912439 0.17396338 -0.27317533
0000d0 e7 fb f1 3d fd 03 49 be e0 fd dc 3d 55 59 12 be
       0.11815625 -0.19630428 0.1079061 -0.1429189
0000e0 79 5a d8 3d 63 c3 6c 3d 28 95 08 3c 15 8d 99 3e
       0.10564131 0.057803523 0.008336343 0.2999045
0000f0 d9 9e 62 bd 44 df 20 3e 5e 69 5c be 40 0f e7 bc
       -0.05532727 0.15710169 -0.2152457 -0.028205514
000100 e3 1f ae 3d 2a 0a a9 bd 4e 10 30 3d 7d f4 c2 3d
       0.08502176 -0.08253892 0.0429843 0.09519289
000110 80 f2 48 bc d0 02 e5 3b 07 2c 82 bd 7b a7 ca bd
       -0.012264848 0.0069888607 -0.06356054 -0.098952256
000120 91 e2 51 3c 4e 4b 8a 3d 30 03 10 3d c1 28 33 bc
       0.012810365 0.067526445 0.03515929 -0.010935009
000130 bd 7d 09 bd 5d 1c a2 3d 73 b0 d4 3d 5f bc b4 3d
       -0.03356718 0.07915566 0.103852175 0.088249914
000140 14 23 df 3d c6 6a b4 3d d5 6b 3e 3d 40 5e d9 3d
       0.108953625 0.08809428 0.046489555 0.1061368
000150 89 e2 e3 3d c9 d2 de 3d 81 74 6b 3d f3 68 75 bd
       0.111271925 0.10880048 0.057484154 -0.05991454
000160 c4 ee 96 3d 20 c4 de 3d d3 be 05 be f9 b5 56 bd
       0.0736976 0.108772516 -0.13061075 -0.052419636
000170 4d 26 43 3d d1 78 25 3d 82 72 e9 3c ca 09 51 bd
       0.04764395 0.040398423 0.028496984 -0.051034726
000180 11 52 75 bd e3 cb cd bd a8 0f 7b bd d2 5c 02 3d
       -0.059892718 -0.10048654 -0.061294228 0.0318268
000190 a8 44 59 bc 66 5f be bd 4c 3a 6f bd 0a da 04 3d
       -0.013260998 -0.092955396 -0.058405206 0.0324345
0001a0 fa 00 b7 bd 0c d3 32 bd da c7 15 3d 88 e3 2c bc
       -0.08935733 -0.0436583 0.036567546 -0.010552295
0001b0 3b 1c 8b bc f7 90 f6 bc da 9f b0 3c 46 0d ec bd
       -0.016981235 -0.030098421 0.021560598 -0.11525969
0001c0 0e ac 6e 3d 20 b7 06 3d ee 31 8f bd 63 87 2f bd
       0.058269553 0.032889485 -0.06991945 -0.042853724
0001d0 25 2d 89 bd 16 f2 71 3e 40 24 82 bd 64 24 4e 3d
       -0.06698064 0.23627505 -0.063545704 0.050327674
0001e0 39 c0 4e bd 2a 5a a2 bd 51 0c 93 bd fb 76 14 be
       -0.050476287 -0.07927354 -0.071800835 -0.14498512
0001f0 61 f5 b4 3d ca 3a bc bd dc b9 4c 3e 36 e0 17 3d
       0.08835865 -0.091909006 0.19992775 0.03707906
000200 19 86 d3 3d 00 a1 c1 bd a7 65 b3 bc 26 58 c1 bc
       0.103283115 -0.094545364 -0.021899058 -0.023601603
000210 5c 8c 09 be cf 78 dd bd 07 03 3e 3d 84 5f cc bc
       -0.13432449 -0.10814058 0.046389606 -0.02494789
000220 ad c0 aa 3d 5c 09 67 bd e0 fe a2 bd 20 7c 48 bd
       0.08337531 -0.05640541 -0.0795877 -0.0489465
000230 dc c9 71 bd cb 32 be 3d 00 f9 c2 bb f0 41 98 3b
       -0.0590304 0.09287032 -0.0059500933 0.0046465322
000240 25 10 dd bd 99 84 01 be d6 3d 43 bd a3 67 f6 3b
       -0.10794095 -0.12648238 -0.047666393 0.0075196787
000250 2b c7 6d bd a9 62 01 bc ad 4d e8 3d 2e 41 e5 bd
       -0.05805127 -0.007897058 0.113429405 -0.11194073
000260 34 3e 8e bd f7 7d f4 3c b2 22 34 bc 2c 87 dc bd
       -0.06945458 0.029845221 -0.0109946 -0.107679695
000270 18 3d be 3d 69 2c f4 bb 5d f9 07 3d 17 02 ae 3d
       0.092889965 -0.007451583 0.033196796 0.08496492
000280 94 8c b2 bd 0b 98 fb 3c b1 55 95 3a 54 96 3d 3d
       -0.087182194 0.030712148 0.0011393336 0.046285942
000290 c4 c3 cd bd ea 25 09 be 72 7f 0d bd e7 97 0b be
       -0.10047105 -0.1339337 -0.03454537 -0.13632165
0002a0 f8 e7 2a 3d ad 2e b9 3d 11 88 f7 bd ad 8f ae bd
       0.04172513 0.09042106 -0.120864995 -0.08523498
0002b0 48 5a e4 bc 98 3c 63 3c 60 23 a7 3b bb 40 a0 bd
       -0.02787508 0.013869427 0.0051006526 -0.07824846
0002c0 bd db a4 3d fb a1 a1 3d dc ef d8 bd 18 4c aa bd
       0.08049724 0.078922234 -0.105926245 -0.08315295
0002d0 7e 22 ae bd 8a b4 88 3d 91 1f b7 3d 35 5e dd 3d
       -0.085026726 0.0667506 0.08941568 0.10808984
0002e0 1f b5 6e 3d bf 6a af 3b 57 9b ce 3d ec 43 b8 3d
       0.0582782 0.0053533013 0.100882225 0.0899733
0002f0 e3 47 a4 3c c9 74 01 3e 35 93 54 bd 1f 82 3e be
       0.02005381 0.12642206 -0.0518982 -0.18604325
000300 04 ae 1f 3e ce 45 30 bd 73 47 14 bd 28 43 81 bd
       0.15593725 -0.04303532 -0.03620095 -0.06311637
000310 01 95 91 3d 53 35 77 3d b2 94 b6 bd 6d a5 ac 3d
       0.07108498 0.06035359 -0.0891508 0.0842999
000320 1a ff 2a be 6f 50 84 3d aa df 00 3e 53 6f d2 bd
       -0.16698876 0.06460654 0.12585321 -0.1027514
000330 91 b8 08 bc 2f 73 2b 3e 3d 27 0d 3d ae 30 0b 3d
       -0.008344785 0.16743158 0.03446125 0.03398197
000340 6c 17 a1 3c 1e 9e 3f bd 6d 37 e2 3d ee 25 75 3d
       0.019664489 -0.04678165 0.11045728 0.059850626
000350 c6 d4 23 3d 05 4f d5 3d fd d6 e4 3d 78 c9 88 bd
       0.03999784 0.104154624 0.11173818 -0.06679052
000360 d4 9a 05 bd ed 6b 39 bd 70 3e 9b bd dd 89 77 bd
       -0.03261836 -0.04526894 -0.075802684 -0.06043421
000370 be 00 84 bd 3b 6f ec bd db b0 b8 bd e7 66 11 bd
       -0.06445454 -0.11544653 -0.090181075 -0.035498526
000380 db a9 9e bd 9e ee 99 bd e8 10 af bd 65 3c 6a bd
       -0.07747241 -0.07516216 -0.085481465 -0.057186503
000390 27 60 08 bd 5d bc da bc ae a8 6f bd 67 9b 60 3d
       -0.033294823 -0.026701147 -0.058510475 0.054835703
0003a0 93 27 d9 bd a2 b6 c6 bd dc f0 76 3d 86 5b e4 bd
       -0.10603251 -0.09702803 0.060288295 -0.11150269
0003b0 3b b5 13 3e 02 86 39 bd 7d 3b 51 3d 8b 11 10 be
       0.14424603 -0.045293815 0.051082123 -0.14069192
0003c0 e8 17 1a 3a 65 49 a5 bd ca 93 c8 bd f2 de 1d 3d
       0.0005878196 -0.080706395 -0.097938135 0.038542695
0003d0 78 4c 23 3c 1a db 86 bd 96 a0 65 3d 59 85 80 bd
       0.009966962 -0.06584759 0.05606135 -0.06275434
0003e0 00 b9 a5 bd a0 b0 cf bc 40 c5 9e bd 00 8b 51 ba
       -0.080919266 -0.025352776 -0.07752466 -0.000799343
0003f0 a6 a7 ce 3d 76 10 99 3d 6f d4 51 bc 4b 3d 71 bd
       0.1009057 0.07473843 -0.012806996 -0.058896344

conv3.bias f4 [16]
000000 69 9f c0 3d 92 81 a3 3c 31 7d e3 bc 80 d7 f3 bc
       0.09405405 0.019959245 -0.027769657 -0.029765844
000010 f2 16 fd 3d 32 fa 88 3d 32 e2 a7 3c 41 46 e3 bd
       0.12357892 0.06688346 0.0204936 -0.11097384
000020 23 a2 49 3e 08 9d 2d 3e a1 c2 2f 3e 86 5d 44 3c
       0.19690756 0.16954434 0.17164089 0.011985188
000030 b9 cd 7c bc 9f 71 c9 3d d2 05 4b 3e c7 73 06 3e
       -0.0154299075 0.09836125 0.19826439 0.13130103

conv4.weight f4 [32, 16, 3, 3]
000000 ca ea 6c bd e7 69 f4 3d 47 1b 7c bd 7c 5d 86 bd
       -0.0578411 0.11934262 -0.06154945 -0.065607995
000010 c9 95 21 3d 34 9e a8 3c 33 dc 94 3d 9f 82 1e 3e
       0.039449487 0.02058325 0.07268562 0.15479515
000020 d2 13 bb bd d3 ab 06 bc bb 1c 89 bd 4c 0b 3a bd
       -0.0913464 -0.008219677 -0.06694933 -0.04542093
000030 e4 e5 ba 3d 7d 07 20 bd bf b3 4e bd 7f c5 78 bd
       0.091258794 -0.03906964 -0.050464388 -0.060735222
000040 2e 22 08 bd f5 1d 11 bd 48 d7 73 3d c9 59 b0 3d
       -0.03323572 -0.03542896 0.05953148 0.08610875
000050 3d 0c 9d bc d9 a2 96 bd ea c3 0b bd a2 59 24 bd
       -0.019170875 -0.073552795 -0.034122385 -0.040124543
000060 8b 3a 84 3c 15 52 49 3d 28 b1 ba bd d3 9c a9 3c
       0.016141197 0.049150545 -0.09115821 0.020704662
000070 66 a9 6d bd 61 d8 87 3d 7a 98 b4 bd aa 5f 9f bd
       -0.05802288 0.06633068 -0.08818145 -0.07781918
000080 44 b2 ab bd e1 f2 89 bd 08 a6 9b 3c 96 92 f8 bc
       -0.08383611 -0.067357786 0.019000068 -0.030343335
000090 8b bd 02 be f3 fa 8e 3d 7d a4 06 bc bc f7 f5 bc
       -0.12767617 0.069814585 -0.008217928 -0.030025356
0000a0 5d a9 2e 3e 14 89 83 3e 64 fe 79 bd ef 8b fd bd
       0.17056794 0.2569052 -0.06103362 -0.12380206
0000b0 9f 8f 41 be e9 f3 98 3d b5 4f 8b bd a6 b5 c3 bc
       -0.18902443 0.07468397 -0.06802312 -0.023890328
0000c0 ae c2 08 bd 72 b3 41 be 51 ab 11 3c b7 1e 1a 3e
       -0.033388786 -0.18916109 0.008890943 0.1505078
0000d0 0e f7 ab 3c ea 23 69 be 3e f4 6f bd 2d ea 2a 3d
       0.020991828 -0.22767606 -0.058582537 0.041727234
0000e0 1a 69 30 3c c5 54 b6 3d 2d a6 d9 3d f3 d8 60 bd
       0.010767246 0.08902887 0.10627399 -0.0548944
0000f0 b1 12 9e bd 33 48 b6 bd 6d 29 0f bd 95 53 14 3d
       -0.07718409 -0.0890049 -0.034951616 0.036212523
000100 84 a7 a9 3d f5 6b 85 3d 1e 4d ae bd 29 ff cb bd
       0.08283904 0.06514732 -0.08510803 -0.09960777
000110 60 d7 9f bd 51 29 00 3c c3 e1 5a 3c 44 2e f8 bd
       -0.078047514 0.007822351 0.01335949 -0.121181995
000120 cf ee 13 be 33 1d 74 be 9c 43 53 3e 59 0d 2a 3e
       -0.14446567 -0.23839264 0.2063126 0.16606654
000130 b2 b7 8c 3e ba 34 90 3d b5 b0 11 bd 3b 5c 8b be
       0.27483898 0.07041307 -0.03556891 -0.27218804
000140 3c 7f d5 bd 19 b8 1c be 1b 5c 63 be 35 dc 1b be
       -0.10424659 -0.15304603 -0.22203104 -0.15220721
000150 54 c6 2a be eb 6c 23 3e ae 3f 55 bb 2a c1 a6 3c
       -0.16677219 0.15959518 -0.0032539177 0.02035578
000160 85 ef 66 bd 99 d4 51 be 2d 35 cf 3d 67 2d 2a 3d
       -0.056380767 -0.20491256 0.10117564 0.041547205
000170 fb a6 55 3c 34 64 07 be 3d 06 b2 bd 71 1c 53 3e
       0.0130402995 -0.13221818 -0.08692596 0.20616318
000180 05 7b 64 3e 86 dc 1c 3d 6e f8 30 be 79 5a e2 bc
       0.22312553 0.038296245 -0.17282268 -0.027631031
000190 1f 57 40 3d 04 21 0b 3e 14 4a 88 bc ba 49 91 bd
       0.046958085 0.13586813 -0.016636886 -0.0709414
0001a0 62 61 8e 3d d8 f7 bf bd 79 54 bc 3d bc e0 5e bd
       0.06952168 -0.09373444 0.091957994 -0.054413542
0001b0 21 f9 b1 bd 4a 41 4f 3e a2 e2 54 3e 70 65 8f 3d
       -0.08690096 0.2023975 0.20789579 0.070017695
0001c0 e3 29 8a be fe 51 33 be fa a9 7d be 4d f9 56 3b
       -0.26985082 -0.17511746 -0.24771872 0.0032802403
0001d0 df e9 84 3e 2e 1f 5a be 95 b5 34 bd 69 c3 33 3e
       0.2595968 -0.21300957 -0.044118483 0.17555012
0001e0 4c 61 8e 3d 2f 06 47 3c 07 47 32 be dc a1 37 be
       0.06952152 0.01214747 -0.17409907 -0.17932838
0001f0 d8 b2 35 be 6f c9 e9 bd d3 d7 8e 3d aa 07 39 3e
       -0.17744005 -0.114153735 0.06974759 0.1806933
000200 0d 02 d0 3d 5b bf 56 bd 22 5a 44 be 7b d2 c1 bd
       0.10156641 -0.052428585 -0.19175008 -0.09463974
000210 ea 31 ae bd 7b cf 55 3e 21 5b 7c bb 6e 5e 20 3e
       -0.08505614 0.20879929 -0.0038506465 0.15661022
000220 03 1b 15 3e 4f 54 46 bc 69 a6 00 be ae 2a 01 be
       0.14561085 -0.012105062 -0.1256348 -0.12613937
000230 16 d2 3b be 0f 42 e3 3d 3f db 8a 3e 45 c8 4a bc
       -0.1834186 0.11096584 0.27120396 -0.01237685
000240 e7 c7 88 bd 9c 42 43 3d 4f 6d b8 3c ac 95 82 3d
       -0.06678753 0.047670946 0.02251306 0.06376204
000250 c1 ae 94 bd d4 57 e8 bc b8 28 34 be d9 92 a9 bd
       -0.07259894 -0.028362192 -0.17593658 -0.08279962
000260 12 54 57 bd 3c 21 28 bd de e3 30 3b 98 8a d1 bd
       -0.05257041 -0.04104732 0.0026991288 -0.10231513
000270 29 37 63 3d 19 1b 62 bd ed 5b 47 bc 09 ac 85 3d
       0.055472527 -0.055201624 -0.012167913 0.06526954
000280 1a ea 12 bd 51 21 03 3d be 46 47 bd 08 0a 43 bc
       -0.035867788 0.032014195 -0.04865145 -0.011904247
000290 93 37 5d 3c 09 4d be bd d1 3a 0f bd 2e af cb 3d
       0.013502019 -0.09292037 -0.0349682 0.09945522
0002a0 94 09 1c 3c f9 d5 82 3d 1f 71 d1 bd fe e5 49 bd
       0.009523768 0.06388468 -0.10226654 -0.049291603
0002b0 bb ad 06 bd 51 57 86 3d 79 55 92 3d 39 1b 88 bd
       -0.032880526 0.06559623 0.07145209 -0.06645817
0002c0 8a 0f 80 bd 8a 6c 8a 3d f5 74 92 bd 10 9e a9 3c
       -0.06252964 0.067589834 -0.07151214 0.020705253
0002d0 68 f5 ed 3d 6a a0 92 bd 73 1d 2d be 16 20 c8 bc
       0.11619073 -0.07159503 -0.16905765 -0.024429362
0002e0 0e c5 46 3d f7 99 74 3d d6 9e 27 be b0 9c 38 bc
       0.04852777 0.059717145 -0.16369185 -0.011267826
0002f0 43 d4 3e be 2c 73 47 bd 3f 81 1b 3c e9 3d aa 3b
       -0.18635659 -0.04869382 0.009491264 0.0051953685
000300 16 e0 d0 3d bd 1d 1e 3e 56 9d 09 3e f5 dc 98 bd
       0.10198991 0.15441032 0.13438925 -0.07464019
000310 c1 9a d5 3d 50 93 a9 bd 62 be c8 3d 00 bb d5 bc
       0.104299076 -0.08280051 0.09801938 -0.026090145
000320 56 a3 95 bd 74 55 94 3c b8 c5 a4 ba 44 c9 40 bd
       -0.073065445 0.018107153 -0.0012571132 -0.04706694
000330 f4 fa 6b bb 7c 26 54 bd cd 09 45 bd f8 f7 8f bc
       -0.0036007734 -0.051794514 -0.04810505 -0.017574295
000340 f2 b1 ef bd 33 2c a9 3d 97 5f c3 bb 21 4f b2 bd
       -0.11703862 0.082603835 -0.005962323 -0.08706499
000350 77 d7 db bb b7 3c 5e bd cf 66 b6 bd a2 90 00 be
       -0.006709035 -0.05425712 -0.08906328 -0.12555173
000360 13 e3 39 3c 38 cb 03 3e b8 3e 8a bb 44 dd 35 3d
       0.011345643 0.1287049 -0.0042189024 0.04440047
000370 4d 0f 70 bd 2e 88 df 3d f3 00 59 3e e7 99 40 3d
       -0.058608342 0.10914646 0.21191768 0.047021773
000380 28 65 90 3e 99 de 2a 3e 8e b8 cd bd ea a2 f0 3d
       0.28202176 0.16686477 -0.10044967 0.117498234
000390 cd a2 3d 3d 53 e3 c3 bd d5 9f cd 3d 0e 7e 2c be
       0.046297837 -0.09564843 0.10040251 -0.16844961
0003a0 7c ab 54 bd 0c d4 8a bd bb 64 bb 3d be b0 23 3d
       -0.051921353 -0.06778726 0.09150072 0.039963476
0003b0 bf 23 9a bd 79 5d 98 3c ef d7 10 3e 44 a9 35 3e
       -0.07526349 0.018599259 0.14144872 0.17740351
0003c0 be 0d 05 be 92 bc 56 bd 16 c7 30 3e 35 8c de 3c
       -0.12993523 -0.05242593 0.17263445 0.027166465
0003d0 1e ed 0a bd d8 99 6d bd 0a b1 33 3d db 6f a6 bb
       -0.03391754 -0.058008045 0.04387001 -0.005079252
0003e0 c8 c9 db 3c eb 1c b4 3c 57 b1 0c be 95 b5 e2 bd
       0.026829615 0.021986445 -0.13739525 -0.1106979
0003f0 91 fb 24 be 53 3f 85 3e 1a b8 24 3c 18 9a 3a bd
       -0.1611159 0.26024875 0.010053659 -0.04555711

conv4.bias f4 [32]
000000 08 68 e2 bc 04 f6 94 3d ec 60 2b bd 76 9b df 3d
       -0.027637497 0.07273486 -0.04184048 0.10918324
000010 ec 69 94 bc d5 be 84 bc cf 54 5a bd d4 fc 50 3d
       -0.018116914 -0.016204277 -0.053303536 0.051022366
000020 1b 68 2b 3d 6d 5c 29 3e 19 33 a1 3d 24 f9 27 3d
       0.04184733 0.16539164 0.07871074 0.041009083
000030 18 4d ca bc 25 24 a2 bd 08 3a 5a 3d c3 7a 91 bd
       -0.024694964 -0.0791705 0.053278 -0.07103493
000040 bf d4 f7 bc a1 f7 03 3e f8 64 b6 3d 04 cc b2 3d
       -0.030252812 0.12887432 0.08905977 0.08730319
000050 d7 19 31 3c f5 38 0c bd a3 72 8b bd 98 26 a3 3d
       0.010809383 -0.034234006 -0.068089746 0.079663455
000060 af 01 b3 bd b7 a6 74 bd 39 32 8f bb 19 bd b8 3c
       -0.087405555 -0.059729304 -0.0043700007 0.022551106
000070 8e 05 81 bd 2f 0a 30 3c d1 9c 77 bd 6d bd ab bd
       -0.062998876 0.010744615 -0.060452286 -0.083857395

conv5.weight f4 [10, 32, 3, 3]
000000 e8 80 0c be ee ff 33 be d8 67 62 be 31 95 4d bd
       -0.13721049 -0.17578098 -0.22109926 -0.05019111
000010 c2 cf 52 bd c0 a6 86 bb 47 fb 6a 3e cc 1e 99 bd
       -0.051467665 -0.0041092336 0.22947417 -0.07476577
000020 6e 38 0c 3e 17 e6 a4 3d 96 b9 28 be 58 42 82 be
       0.13693401 0.08051699 -0.16477045 -0.2544124
000030 f3 42 65 bc c7 43 0d 3e 69 d0 38 ba f3 8a 73 bd
       -0.013993013 0.13795386 -0.00070500985 -0.059458684
000040 c2 d6 21 3c 75 53 30 be cb 8c 75 3d 06 bf 4a be
       0.009877862 -0.17219336 0.059948724 -0.19799432
000050 49 a0 51 bc f4 f8 17 3e 23 e0 1c 3d ee bd 09 3e
       -0.012794563 0.14841062 0.03829969 0.13451359
000060 90 5c 20 bd 83 db 76 3e 20 c3 e0 bd d7 04 3a 3c
       -0.039150774 0.24107175 -0.10974717 0.011353693
000070 66 47 8d 3c bf 08 f4 bc 7b 29 e3 3d 43 7e 04 be
       0.01724596 -0.029789327 0.11091896 -0.1293879
000080 a4 f1 a3 be 8f df dc bd 8d be 64 3e 63 e8 89 be
       -0.32020295 -0.10784828 0.22338314 -0.2693511
000090 99 4b 15 be 43 eb 2f 3d e0 dc 67 be bb 40 9c 3d
       -0.1457962 0.042948972 -0.22642851 0.07629534
0000a0 ac 39 db bd 47 00 8a 3e 1a f9 a0 3d 4f 71 d1 bd
       -0.107043594 0.26953337 0.07860012 -0.1022669
0000b0 f8 9d e4 bd ca de 94 bd 78 bf bd 3d eb de e6 bd
       -0.11162943 -0.07269056 0.092650354 -0.11272987
0000c0 a4 23 f1 ba 51 50 41 be 93 09 24 3d cd f0 5f bd
       -0.0018397463 -0.18878295 0.040048193 -0.054673005
0000d0 84 d2 97 3d 5f 01 2d be e9 de ac 3d bd 43 03 bd
       0.074131995 -0.16895054 0.08440954 -0.032047022
0000e0 c2 e9 1c 3e 37 cc 41 bd 1c 6f 2b bd 50 bf fa bd
       0.15323547 -0.047313895 -0.04185401 -0.12243521
0000f0 42 9a ba bd d9 c8 58 be 32 09 5d be af 59 82 3d
       -0.091114536 -0.21170367 -0.21585539 0.06364762
000100 9d 9c 01 bc 66 2a 04 be bc 34 39 bd 25 80 12 be
       -0.007910875 -0.12906799 -0.045216307 -0.14306696
000110 13 cc a8 be 97 04 4b 3e d6 95 d9 3d 2c 52 36 3e
       -0.32968196 0.1982597 0.10624282 0.17804784
000120 4e c2 60 3d 10 30 09 3d 0a d1 a9 3c e8 0a fc 3c
       0.054872803 0.0334931 0.02072956 0.03076692
000130 77 af af bc a0 74 86 39 1e 3e 9d bc d4 68 cf 3c
       -0.021445973 0.00025645364 -0.019194659 0.02531854
000140 37 77 75 bc a4 1f 14 3d 8e d8 4c 3d 9a f0 2f bc
       -0.014982036 0.036162987 0.05001121 -0.010738516
000150 37 57 da bd 69 8c 86 be bc 80 90 be 5a 59 10 be
       -0.10661166 -0.26279 -0.28223217 -0.14096585
000160 8f 2e 2b 3e 3f 25 8d 3e b3 23 29 3d 8a cf e9 bb
       0.1671698 0.2756748 0.04129381 -0.0071353363
000170 78 3c c4 bd 0e 17 1c 3e df f7 52 be a6 2b b2 bd
       -0.09581846 0.1524317 -0.20602368 -0.086997315
000180 84 64 34 3e 5b 25 49 3e 56 92 b4 bc 95 bd d4 3c
       0.17616469 0.19643156 -0.022042435 0.025969306
000190 3b 39 9f bc 56 88 4e 3d f5 d7 96 3d be bf 42 bd
       -0.01943647 0.05042299 0.07365409 -0.04754614
0001a0 14 ca 1e be 1f 56 28 bd 3c 69 6b be 65 63 1a 3d
       -0.15506774 -0.041097756 -0.22989362 0.037692446
0001b0 38 cf d8 bc 4d ab 7d 3c 9a a2 fe 3d 7c bc 1c 3d
       -0.026465997 0.015482736 0.124333575 0.03826569
0001c0 75 56 c7 bc d0 33 b3 3d 61 63 23 bb b5 fa 67 bd
       -0.024333218 0.08750117 -0.002493106 -0.056635577
0001d0 aa a9 81 be 74 a2 95 3d f1 d6 8a 3b 9c 6f e4 3d
       -0.25324756 0.07306376 0.004237049 0.111541
0001e0 d7 52 ad bc 64 da 21 bd cd ae 84 bb 75 71 06 3d
       -0.021157665 -0.039514914 -0.004049158 0.032823045
0001f0 42 bb d1 3c 18 1b 5f 3b 99 12 99 bd 5e e4 a7 3c
       0.025601987 0.0034043249 -0.0747425 0.020494636
000200 b1 46 b1 3d 78 fb d5 bd cd 0f 5b 3d e5 d4 0b 3e
       0.086560614 -0.104483545 0.053481866 0.13655432
000210 c4 66 74 bc 70 1d 70 3b 89 2d 4a 3d ba 20 bd 3d
       -0.014917079 0.003663864 0.049359832 0.09234758
000220 96 3f 67 3d 34 86 77 3e 77 96 aa bd 69 ae a6 bd
       0.056457125 0.24172288 -0.0832948 -0.08138735
000230 43 5b 51 be 53 d2 9c bc 2c 31 c4 3d db db ab 3e
       -0.2044497 -0.01914326 0.09579691 0.33566174
000240 3b 20 23 be be 23 8a 3d 87 7b 6d be 7b 99 10 3d
       -0.15930264 0.067450985 -0.23191653 0.03530262
000250 bf 72 8f 3e 25 0b 44 3d 72 16 46 be 3b 0d 9e bd
       0.28017232 0.04786219 -0.193445 -0.07717367
000260 3c 45 69 be 03 87 9f bc cf e2 73 be 69 39 52 be
       -0.22780317 -0.019473558 -0.2381699 -0.20529713
000270 b8 a1 da 3c 24 58 0f 3e 94 ed a0 3e 05 e6 a6 bc
       0.026688442 0.13998467 0.31431258 -0.020373354
000280 57 fd ee be 7a eb 1b 3e 9a 5e fd 3c cc ff 88 be
       -0.46677658 0.15226546 0.030928899 -0.26757658
000290 52 f1 ab 3e 50 3a 44 be 0c 5f fa bd 60 6f 82 be
       0.3358255 -0.1916287 -0.1222516 -0.25475597
0002a0 76 a1 76 3d 28 5b 17 3e ed e4 a1 3d d4 57 d5 bd
       0.060212575 0.14780867 0.07904992 -0.104171425
0002b0 48 ed f2 3c 2b c2 82 3e c4 ec 17 3c a8 8f 4b be
       0.02965416 0.25538763 0.009272758 -0.1987902
0002c0 44 fe 3d 3c 6f de 0b be 88 84 28 bc ba f1 22 3e
       0.011596266 -0.1365907 -0.010285504 0.15912524
0002d0 ce 09 b2 3d 28 f8 3f 3d 45 14 ca bd f7 49 7f 3d
       0.08693276 0.04686752 -0.09867147 0.062326398
0002e0 ae 09 da bc ec f9 41 3a 06 3a 80 3d 48 a0 9a be
       -0.026615944 0.0007399607 0.06261067 -0.3020041
0002f0 d4 f4 4a be 73 95 a6 3b b1 65 8d bd 13 fc ce 3c
       -0.19819957 0.0050837337 -0.06904162 0.025266683
000300 36 59 5e bd 1a 7e b3 bd ce 74 b3 3d 1c 4c b9 3c
       -0.054284297 -0.08764286 0.08762513 0.0226193
000310 e9 15 61 bd ff a4 68 ba f9 53 db bb 9e 85 e3 bc
       -0.054952536 -0.0008874684 -0.00669336 -0.027773675
000320 b9 e0 36 be 21 db 6a bc 49 db a1 bd ce 3b f0 bd
       -0.17859162 -0.014334471 -0.079031534 -0.11730157
000330 d0 88 c1 bc 06 b4 c6 3d f7 68 29 3b 88 af d0 3b
       -0.023624808 0.097023055 0.0025849917 0.006368581
000340 61 7b 88 bd 47 1b 86 3e 4c a8 42 be b6 e5 a3 bb
       -0.06664158 0.26192686 -0.19009513 -0.005001749
000350 ea e2 aa be 75 06 4f bc 29 48 30 3d 68 0b e5 3d
       -0.33376247 -0.012635817 0.043037567 0.11183816
000360 68 52 b7 bd af bc 1d 3c 10 aa 1e 3c 4d a3 9e bd
       -0.089512646 0.009627505 0.009684101 -0.07745991
000370 e9 5b 7c bc 34 64 b0 3d dd 09 e3 bd 48 a6 fb 3c
       -0.015402772 0.08612862 -0.11085866 0.030718938
000380 4a 96 c7 3c 4c 98 48 bd 10 b2 da bc 2e 7b 0e 3d
       0.024363656 -0.048973367 -0.026696235 0.034785442
000390 de 51 c5 3c 78 d2 29 bc 99 e8 19 3d 1a f2 fa ba
       0.024086889 -0.010365121 0.037575338 -0.0019145638
0003a0 88 1d 54 bc 80 4e af bc ab 56 e9 bc 27 6a 40 3d
       -0.012946494 -0.021399736 -0.02848371 0.046976235
0003b0 7c 9f 05 3d 97 00 41 bd 37 40 71 3d 4c e9 a6 bb
       0.0326228 -0.047119703 0.05889913 -0.005093729
0003c0 97 92 08 3c db 97 3d bc c8 d0 61 3d 4c 7e 87 bd
       0.008335731 -0.01157185 0.05513075 -0.06615886
0003d0 3a ef 6e bd 84 19 80 bd cd 33 eb 3c 89 9b 9b 3c
       -0.058333613 -0.06254867 0.028711224 0.018995063
0003e0 54 75 b0 bd 8b 23 a3 bd f4 72 fe 3d 9f 40 46 be
       -0.086161286 -0.07965764 0.12424269 -0.19360588
0003f0 b3 ad d3 bd b9 14 17 3d 7a 49 2d be c8 6d 64 bd
       -0.10335865 0.036884997 -0.1692256 -0.055768758

conv5.bias f4 [10]
000000 db ad 9c 3d 47 73 01 3d 99 1c bd bd 7c bb 14 bd
       0.07650348 0.031604078 -0.0923397 -0.03631161
000010 d3 a1 53 bc 27 ed 99 bd 22 5d 41 bc c6 39 de bc
       -0.012917 -0.07515936 -0.01180199 -0.027127158
000020 b6 4d b8 bc b7 95 d9 ba
       -0.022497993 -0.0016600405
