GLmodels/BaseGLseed10.pt (torch_old, 38047 bytes, 10 tensors)

conv1.weight f4 [4, 3, 3, 3]
000000 d8 29 84 bc 40 38 d8 bb 90 cd 93 bd 68 56 35 3d
       -0.016133234 -0.0065985024 -0.07216942 0.044271857
000010 05 7d e1 bd b0 02 0b bd 56 c3 98 3d e5 f8 38 3e
       -0.11010174 -0.03393811 0.074591324 0.18063696
000020 f0 b5 39 3d 85 48 8d 3e 6d d2 bb 3e 64 14 9e 3e
       0.045339525 0.2759439 0.3668398 0.30874932
000030 b8 01 c7 3e 1f 15 aa 3e 06 a4 aa 3e 78 50 a9 3e
       0.388685 0.3321924 0.33328265 0.33069205
000040 96 c7 95 3d b3 92 ec 3d b0 4a 35 3d 80 c4 a4 ba
       0.073134586 0.11551418 0.04426068 -0.0012570769
000050 90 fe 96 bc 31 66 2e be 42 fe 29 be 9b 55 31 be
       -0.018431932 -0.1703117 -0.16600898 -0.17317812
000060 52 d4 40 be 3d 8a 37 be b9 4a 15 be 5f be 31 be
       -0.18830994 -0.17923827 -0.14579286 -0.17357777
000070 25 dd 38 be 1e c7 ac 3d 8a be f1 3d 09 2a 05 3e
       -0.1805311 0.08436416 0.118039206 0.13004316
000080 7a 54 d4 3d 92 8d 85 3d c2 a2 ad 3d 29 f7 d9 bd
       0.10367675 0.06521143 0.08478309 -0.10642845
000090 a9 e0 8b 3f 1b 25 45 3f 45 66 9d 3f 7c cf 4a 3f
       1.0927936 0.77009743 1.2296835 0.79222846
0000a0 97 5d 5a 3f 7a 48 83 3f 77 46 cb 3e 93 5f 00 3f
       0.85299057 1.0256493 0.39702198 0.50145835
0000b0 fc 9b 4b 3f c0 01 06 bc c8 97 f6 3c ee f1 c7 3d
       0.7953489 -0.008179128 0.030101672 0.09762941
0000c0 11 fe 19 be 60 b0 10 bc 9c aa 1a be 0f 51 3e 3e
       -0.15038325 -0.008831114 -0.15104145 0.18585609
0000d0 74 99 0a be 14 c4 16 3d 50 5f 57 bd 72 06 e0 3d
       -0.135351 0.03680809 -0.05258113 0.10938729
0000e0 00 77 29 3a b8 8f 9e bc 3f 3e 10 3e 9d ff 33 3e
       0.0006464571 -0.01935564 0.14086245 0.17577977
0000f0 56 04 0f be 0e 14 3e be d0 64 83 3c 78 db 22 3f
       -0.13966498 -0.18562338 0.016039282 0.6361613
000100 df 94 f1 3e 94 91 43 3f 4a f2 11 3f 1f 09 90 3e
       0.47183892 0.7639401 0.5701033 0.2813196
000110 15 ba 7b 3e bc 7c 03 3f c2 88 08 3f 85 75 5d 3e
       0.24582703 0.51362205 0.53333676 0.21626861
000120 29 40 fc bd 6a f4 89 3d b5 ef 0c be a4 c0 3e bd
       -0.12316925 0.067360714 -0.13763316 -0.046570435
000130 f4 ea 42 be 2c a7 57 3d 8e 64 86 bd aa 82 dc bd
       -0.1903494 0.052649662 -0.06562148 -0.1076711
000140 ed a0 fa bd b9 af 8a bd 8a 31 bb 3d 90 88 32 3c
       -0.122377254 -0.06771798 0.09140308 0.010896817
000150 37 b4 29 3e 14 df 8c bd e4 af 66 bd 19 e2 40 3e
       0.16572653 -0.06878486 -0.056320086 0.1883625
000160 55 f9 3b be 90 25 9b bd 44 c1 c8 bd a6 c7 ab 3e
       -0.18356831 -0.07575524 -0.098024875 0.33550757
000170 c6 bb bf 3e 6b 5d f6 bc 84 76 a4 3b 9f ab 90 3e
       0.37447947 -0.030073842 0.005019011 0.28255937
000180 32 f7 a7 bd bb b6 e0 3d e1 23 c4 3c 54 e6 f3 bd
       -0.08201446 0.10972353 0.02394289 -0.11909166
000190 c0 cf 9d bb 72 6d e7 3d a9 d8 27 3e 34 39 2e 3d
       -0.0048160255 0.11300172 0.16391243 0.042535022
0001a0 9b 14 ea bd 86 0c ce 3d da a5 99 3d 6e 22 a8 3d
       -0.114297114 0.100609824 0.07502337 0.08209692

conv1.bias f4 [4]
000000 cb 0a 56 bb 66 ef 04 bc 40 e5 2d 3d 35 70 40 ba
       -0.0032660242 -0.008113718 0.042454958 -0.0007340939

conv2.weight f4 [8, 4, 3, 3]
000000 d5 b5 df 3d 5d c9 cf bd 4b 53 d6 3d 4e e9 84 bd
       0.109233536 -0.10145829 0.104651056 -0.06489812
000010 23 79 c9 ba 23 aa a0 bd 45 40 4d bd a1 19 e7 3d
       -0.0015371185 -0.07844951 -0.05011012 0.11284185
000020 60 72 11 3e f5 64 5f 3d 4f 02 04 be 88 c9 7b bd
       0.14203787 0.05453964 -0.12891506 -0.061471492
000030 4c 37 f5 3d 9d 0a 3c bd 2d 6c 0b be a4 32 2f 3d
       0.11973438 -0.04590856 -0.13615485 0.042772904
000040 f9 36 10 be 32 60 4c bb cb 7e 9d bc f7 b5 e5 b9
       -0.1408347 -0.0031185267 -0.019225499 -0.00043813858
000050 29 aa 23 bd 79 4d bc bc c0 66 cb bd 72 ec e1 bd
       -0.0399572 -0.02298616 -0.099317074 -0.110314265
000060 4a 90 49 3d 32 b6 1b 3e 34 29 09 be ee 1f 21 be
       0.04920987 0.15206221 -0.13394624 -0.15734836
000070 fc e8 b8 bd 1f 89 23 3e 97 c6 17 3e e6 5d 26 be
       -0.09028813 0.15970276 0.1482185 -0.16246757
000080 f7 75 24 3d 8e 10 c2 3c c1 cd 16 3e d9 c7 4d bd
       0.040151563 0.023689535 0.14726926 -0.050239418
000090 4f 11 40 3d 98 3a b5 bd 93 b2 26 be 93 41 b0 3b
       0.046891507 -0.088490665 -0.16279058 0.005378911
0000a0 5d c5 b1 bd 50 60 a5 3b 01 05 35 bd 44 e3 06 be
       -0.08680222 0.0050468817 -0.044194225 -0.13172632
0000b0 54 38 0d 3e 0b a2 9b 3d f5 df d1 3d 27 1d 8d 3d
       0.13791019 0.075992666 0.102477945 0.06890326
0000c0 0a 69 55 be e8 bd 16 be 02 92 03 3d 0a 1b 60 bc
       -0.2084085 -0.14720881 0.032121666 -0.013678322
0000d0 de c3 e6 bd 4e f8 55 3e dc 5f d0 bd b5 8b 62 3c
       -0.112678275 0.20895502 -0.10174534 0.013827254
0000e0 8d 98 08 be a7 20 16 3d d8 1a 91 3c ae 3f 1b 3e
       -0.13339444 0.036652233 0.017712995 0.1516101
0000f0 12 91 ea 3c 8d a0 c1 bd 32 7d 81 3e 94 f7 08 be
       0.028633628 -0.09454451 0.2529083 -0.13375694
000100 c3 b0 d4 3d ac b1 a3 bd 72 7f b8 3d 0f 2a 57 3d
       0.10385277 -0.079928726 0.09008683 0.052530345
000110 d0 e9 ad 3d 41 89 c3 bc 66 ac 31 3e 5d b8 53 3e
       0.08491862 -0.023869159 0.17350921 0.20675798
000120 c6 87 45 bd 2e 6a fd bc 25 6a 30 3c 87 5b b3 3d
       -0.048225187 -0.03093442 0.010767494 0.08757692
000130 a6 84 42 3e 34 e8 1b 3e ec 80 8e 3d ca 64 79 3d
       0.18995914 0.15225297 0.06958184 0.060887136
000140 39 fe e6 bd bb 96 3a be 2c 58 ca 3d 7d f8 8a be
       -0.11278958 -0.18221562 0.09880099 -0.27142707
000150 e8 79 89 bc f6 3c 43 3e cf 3d 4c be 6c 97 b0 bd
       -0.016781762 0.19066224 -0.19945453 -0.086226314
000160 e1 3c 95 bd a5 22 78 3d 04 dd fe 3c fe 93 2e 3e
       -0.07287002 0.060579915 0.031111248 0.17048642
000170 51 02 59 bd cd 7b 7d bd 16 5a 76 3e ec 1b c2 bd
       -0.052980725 -0.061885644 0.24057803 -0.09477982
000180 d2 b0 bf bd 9d ca 70 3e d4 45 52 3e 04 75 7d bd
       -0.09359898 0.23514791 0.2053445 -0.061879173
000190 fa af 22 be 4b 46 52 bc 01 d3 34 3d 48 51 74 3d
       -0.15887442 -0.012834142 0.04414654 0.05964783
0001a0 50 a3 be 3d e3 ea b0 3d d1 33 b5 bd 8f 27 24 bc
       0.09308493 0.08638551 -0.08847774 -0.010019197
0001b0 34 6a 80 3e ff b8 4b 3e 35 03 b8 3d 95 8f 1e 3e
       0.25081027 0.19894789 0.08984987 0.1548446
0001c0 9b 9f 08 3e ab ff e3 3d 1e be 5d 3e 20 bd 5d 3e
       0.13342135 0.11132749 0.21654555 0.21654177
0001d0 6f 54 a1 3e 49 68 2e 3f 2a ac ec 3e 6a 77 17 3f
       0.3150973 0.68127877 0.462251 0.59166586
0001e0 03 52 0e 3f 0c 35 02 3f ce ba 28 3f f4 cc 03 3f
       0.5559389 0.50862193 0.6591004 0.5148461
0001f0 c2 33 0c 3f b9 91 19 3f 13 a3 ab 3e e3 36 dc 3e
       0.54766476 0.5998798 0.33522853 0.43010625
000200 d1 c9 66 3e 7c 71 9e 3e 62 44 99 3e 9a 32 a8 3e
       0.22537924 0.30945957 0.29934984 0.32851106
000210 3f 0b e8 3d f2 f6 75 3e a4 09 a0 3e f9 89 84 bd
       0.1133027 0.24019983 0.31257355 -0.06471629
000220 b2 33 1c bd b1 4a 69 3e d2 16 31 bd af 20 86 bd
       -0.038135238 0.22782399 -0.043234654 -0.06549203
000230 f9 bc 27 3e dc af 42 3e 0e 87 ab bd 29 82 27 3e
       0.16380681 0.19012398 -0.08375369 0.16358246
000240 a5 6e b2 bd bb b3 37 3e 6e 81 d5 3c e1 a7 66 3d
       -0.0871251 0.17939655 0.026062693 0.056312446
000250 98 8b a7 3d 45 58 bc bd 36 c4 20 3e c4 3e 8e bd
       0.08180922 -0.091965236 0.15699849 -0.06945565
000260 f8 83 c2 bd f0 c7 3f 3e 93 be e8 3d 9e b2 8d 3e
       -0.09497827 0.18728614 0.11364474 0.27675337
000270 e0 91 ce bc ad 15 95 3c d1 89 76 3e f6 85 56 3e
       -0.025216043 0.018198812 0.2407601 0.2094954
000280 bc e5 81 bd cc c5 26 3e 77 b9 e2 3d 03 11 03 bd
       -0.063426465 0.16286391 0.11070531 -0.031998646
000290 fc 04 6d 3e 36 3b 95 3d a4 ab 7e 3b ee 33 16 3e
       0.23146433 0.07286684 0.003885963 0.14668247
0002a0 cd 43 0e 3e 23 df 4b 3e 73 07 0e 3e 62 de ad bd
       0.13893051 0.19909339 0.13870029 -0.08489682
0002b0 39 68 f5 3d f4 fd cb 3d 42 17 8f 3d 35 02 aa bd
       0.119827695 0.09960547 0.06986858 -0.08301202
0002c0 c5 cc 31 3c 02 56 53 3e c2 cb 90 3c 9b e0 82 bd
       0.0108520435 0.20638278 0.017675284 -0.06390496
0002d0 87 2e 94 bd 1d 44 c2 3d a9 36 22 3e 4c 11 bd 3d
       -0.07235437 0.09485648 0.15841164 0.09231815
0002e0 ee b2 12 3e ec 5b 0f 3e 1b 18 25 3e c1 70 5d 3e
       0.14326069 0.13999909 0.16122477 0.21625043
0002f0 be 91 93 3d 61 58 2c 3e bb 68 81 3e 48 8b 65 3e
       0.072055325 0.16830589 0.25275216 0.22416413
000300 52 6e ca 3e fc 3f 90 3e e6 07 86 3e 78 c1 94 3e
       0.39537293 0.28173816 0.261779 0.29053855
000310 bc 20 16 3d f4 73 03 3e 7f 19 87 3e da 89 ee 3d
       0.03665231 0.12837201 0.2638664 0.11647387
000320 2f 70 7c 3e 94 30 81 3e f2 78 90 3e ff a1 96 bb
       0.2465217 0.25232375 0.28217274 -0.004596948
000330 5a 03 24 3e bd 42 c2 3d ed f5 17 3e 35 aa 61 3e
       0.16016904 0.094853856 0.14839907 0.22037585
000340 f2 ce e0 3d 2b 67 e8 bd 35 f1 dd 3d 87 aa 0d be
       0.10976972 -0.11347803 0.10837022 -0.13834582
000350 99 c6 02 3e 00 f6 87 bd 15 74 44 3e 5a 92 c0 bd
       0.12771071 -0.06638718 0.19184907 -0.09402914
000360 7c 94 c4 3d ce 80 f7 3d 13 dd 8b 3d 24 0f 3c 3e
       0.09598634 0.120851144 0.06829276 0.1836515
000370 f4 5d 87 3d ee b3 15 be fe 73 07 be 97 32 4c 3e
       0.06609717 -0.14619419 -0.13227841 0.19941173
000380 18 b2 73 3d 7e 68 cd 3d e0 e6 1f 3d d0 30 c7 3d
       0.059496015 0.10029696 0.03903854 0.09726107
000390 3f 4e 05 3d 64 2a 03 3e f9 fc 96 bd f6 fa 23 3e
       0.032545324 0.1280914 -0.073724695 0.16013703
0003a0 2a f3 ac 3d 38 0d 56 3e 14 10 7d 3e 23 9e 0b 3e
       0.08444817 0.2090348 0.24713165 0.13634543
0003b0 7f c3 bb 3d f5 aa fa bd c1 17 e0 3c b8 a7 bf bd
       0.09168147 -0.12239639 0.027355077 -0.09358162
0003c0 60 9e bb bd 33 10 25 3e 47 47 d4 bd 35 8d 1f bc
       -0.09161067 0.16119461 -0.103651576 -0.009738256
0003d0 73 c0 f6 bc 1b 96 50 bd 17 3e ea bc ec 3a 4b bd
       -0.030121064 -0.0509244 -0.02859406 -0.04961674
0003e0 ce 72 06 3e 6e 50 2e 3e 5d b4 ca bd de 67 11 be
       0.13129732 0.17022869 -0.09897683 -0.14199778
0003f0 2d b1 82 3e fc 21 b5 3d cc 6f a3 3e de 8a 18 3e
       0.255258 0.08844373 0.31921232 0.14896724

conv2.bias f4 [8]
000000 e2 9e d7 bd 04 a1 c6 3e 9e 66 42 3f f8 b5 07 be
       -0.10528351 0.3879472 0.7593783 -0.1325301
000010 42 24 bf 3e 6d df aa bd 85 c0 82 bc bc e4 c3 bd
       0.3733235 -0.08343396 -0.015960941 -0.09565112

conv3.weight f4 [16, 8, 3, 3]
000000 5d ef 3b bd c1 1d 4f 3d 09 b1 a9 3d c0 c5 3f 3d
       -0.04588257 0.050565485 0.0828572 0.04681945
000010 8f 69 2c bd ad c7 9a bd 97 24 b7 3a 2e e1 e8 3c
       -0.042092856 -0.075576164 0.0013972697 0.028427687
000020 98 e9 d6 3d f3 a7 e2 bd ff 9d c5 3d b6 e7 df bc
       0.10493773 -0.1106719 0.09649276 -0.027332168
000030 1f 1e d6 3c dd 7d fc 3d 7c 3f 63 bd 47 c3 2a bd
       0.02613741 0.12328694 -0.055480465 -0.041690137
000040 a3 9f a4 bd a3 2d 63 bd 2d d5 b2 bd 1d 4c d3 bd
       -0.08038261 -0.055463444 -0.08732066 -0.10317252
000050 1c 6d a8 3c c0 76 c3 bd 62 5f 9b 3a 06 58 24 bd
       0.02055984 -0.09544134 0.0011853988 -0.04012301
000060 aa 33 a5 bc c0 cf c8 bd f4 f8 c8 3c 2d 07 a4 be
       -0.020166237 -0.0980525 0.024532773 -0.32036725
000070 57 0d 87 be 78 69 32 3e 08 91 5e bd 95 40 a3 3d
       -0.26377365 0.17423046 -0.05433753 0.079713024
000080 e7 97 ba 3e f6 61 12 bd 1a 03 da 3d 76 2a f9 3d
       0.36444017 -0.035737954 0.10645123 0.12166302
000090 56 e0 09 be af 30 c0 bd f9 32 ce bc ba 12 82 3d
       -0.13464484 -0.09384286 -0.02517079 0.06351228
0000a0 16 17 38 bd 0d 7c 97 3d 1f b6 61 bd b5 82 f2 bc
       -0.04494389 0.07396708 -0.055105325 -0.029603342
0000b0 bd 5a 5d bd 7f 48 23 be 35 05 12 be 08 37 cf bc
       -0.054041613 -0.15945624 -0.14259799 -0.025294796
0000c0 01 5c ee bd 40 ee bc bd 9c 46 0a 3e e2 79 19 3d
       -0.11638642 -0.0922513 0.13503498 0.037469752
0000d0 74 78 89 bd 88 95 2e 3e 4a e7 88 bd 7b b1 88 3c
       -0.06712428 0.17049229 -0.0668474 0.016686192
0000e0 23 d6 40 bd c6 82 cd 3b d3 50 85 3d 11 00 20 bc
       -0.047079217 0.006271693 0.065095566 -0.009765641
0000f0 ac 12 bf bd 50 8b 46 3d 01 3e 4d bb 64 fb 22 be
       -0.09329733 0.048472703 -0.0031317475 -0.1591621
000100 a0 d9 16 be 9d ce 46 3e 3d b4 9f bd f6 3e b4 3d
       -0.14731455 0.19414754 -0.077980496 0.08801071
000110 3c 65 a4 3e 7e e7 c5 3d 96 80 fd 3c 6c a4 15 3e
       0.32108486 0.09663294 0.030945104 0.14613503
000120 af 45 a9 3d f2 9a 21 3d 9c f1 2a bb be 5b e5 bc
       0.08265244 0.039454408 -0.0026083952 -0.027997848
000130 bb 37 cc bd 92 9c a4 bd 2b e8 0d 3c da e1 75 bd
       -0.09971567 -0.08037676 0.00866131 -0.060029842
000140 12 42 18 bd 5c 29 96 bc 44 81 c0 bd 9f 9a 82 bd
       -0.037172385 -0.018330269 -0.093996555 -0.06377148
000150 b5 ad 83 3d da f2 b7 bd a4 cb c9 bc 95 42 79 3d
       0.06429616 -0.08981867 -0.024633236 0.060854513
000160 8a 9c aa bd 9c 95 e8 bd 94 6b 9b 3c 8e 5d de bd
       -0.08330639 -0.11356661 0.018972196 -0.10857688
000170 a3 ca 02 bd 58 6f d5 bc 74 e9 5d bd ec 1a d5 3d
       -0.03193153 -0.02605407 -0.054177716 0.104055256
000180 c2 28 bc ba e8 9c bb bd 8b 6c 16 3d 3f 09 44 3b
       -0.0014355408 -0.09160787 0.03672461 0.0029912738
000190 10 41 cb bd 77 01 54 3d b5 ea 75 3d cb 5a 72 3d
       -0.09924519 0.05175921 0.060038287 0.05916862
0001a0 dc ac 80 bd 59 63 d8 bc 39 d1 8c 3e 4a 2f b2 3d
       -0.0628297 -0.02641456 0.27503374 0.08700426
0001b0 3b 4e 87 bd 3c 42 75 3d 73 28 c1 bd de b2 ca 3c
       -0.06606718 0.05987762 -0.09431543 0.024743494
0001c0 44 c0 61 bc c5 13 81 bd 70 e0 e2 bc c5 9e 28 3d
       -0.01377875 -0.06302599 -0.02769491 0.04116704
0001d0 2b 7e 89 bc 5d 25 08 be 18 fa 6d bb 61 21 ad bd
       -0.016783794 -0.13295503 -0.0036312398 -0.08453632
0001e0 ed c8 a0 bd 16 54 ca 3d 6d f7 8a bc 2b 32 f2 bd
       -0.078508236 0.09879319 -0.016963685 -0.11825975
0001f0 3d 1c 4c 3e 3b 10 9c 3d 02 bc a8 3d 72 5a 55 bd
       0.19932647 0.07620283 0.08238985 -0.05208821
000200 7c af 9f 3d 9c e5 75 bc 74 b7 e2 3d e3 3f 4f 3d
       0.07797143 -0.015008356 0.11070147 0.050598036
000210 6a a6 56 3d 6c 00 d2 3c 66 56 2d bd 06 56 eb bd
       0.0524048 0.025634967 -0.042318724 -0.11491017
000220 c5 0a 93 bd 91 85 59 bc 52 bf 08 3c 70 a4 9d bd
       -0.071797885 -0.013276474 0.008346396 -0.076973796
000230 08 dd c6 bd 0e 88 5b bd 17 b4 e3 3d 73 17 07 be
       -0.09710127 -0.05359655 0.11118334 -0.13192539
000240 d6 9c 66 bd 18 c7 4b bd 5b 87 87 bd 02 1f c8 bd
       -0.056301914 -0.049750417 -0.06617614 -0.09771539
000250 a1 20 30 bd 00 fe 18 3d e3 48 50 bd 67 e8 9f 3d
       -0.042999867 0.03735161 -0.05085076 0.07807999
000260 6c 25 aa bd 28 6a 6c bd a2 a0 58 bc 3d 80 c8 3d
       -0.08307919 -0.057718426 -0.013221892 0.097900845
000270 43 14 27 3e 30 8a f6 bd 2b d5 0b 3e 55 6b 3e bb
       0.16316323 -0.12038076 0.13655536 -0.0029055674
000280 fb 38 bc bd af ad 27 bc 36 36 bd bd c7 ee a1 3c
       -0.09190556 -0.0102342805 -0.092388555 0.019767178
000290 76 9e 30 bd e1 f6 b3 3d e2 a1 d6 bd 21 f1 65 be
       -0.04311987 0.08787323 -0.104800954 -0.22455265
0002a0 08 1d ff 3c dd 15 86 bd 04 b4 2a be a7 46 a5 bd
       0.031141773 -0.06547139 -0.16670233 -0.080701165
0002b0 59 0b 48 3d b5 da f1 3d 58 d0 d0 3e cc d8 33 3f
       0.048838947 0.11809293 0.40783954 0.7025268
0002c0 c3 19 0f 3f 30 bc 4d be 2f 5d c1 3d 3e 93 89 be
       0.55898684 -0.20091319 0.094416015 -0.2687015
0002d0 eb 28 90 3d b1 a1 11 3e 61 5c a0 3d c3 cf 2b 3c
       0.070390545 0.14221837 0.0783012 0.010486546
0002e0 bf 9b 7d 3e b4 c0 87 3d 5a 1e 3f bd b1 82 3d 3d
       0.24766444 0.06628552 -0.046659805 0.046267215
0002f0 5c e1 30 3c 15 5e 62 bd c8 68 3c bd 4a d6 5f 3d
       0.010795917 -0.055265505 -0.045998365 0.05464772
000300 9b 39 2d 3c 0e f1 f2 3e 38 d4 30 3e e4 72 fa bc
       0.010572816 0.47449535 0.17268455 -0.030572362
000310 b4 51 0b 3e 18 40 61 be 82 fc 27 3d 02 87 85 3c
       0.13605386 -0.21997106 0.041012295 0.016299728
000320 52 dc d2 3d 9f b1 0d 3e 87 ec 65 3d 31 7a 80 bd
       0.10295929 0.13837288 0.056133773 -0.06273306
000330 5c b3 0e be d6 31 a6 3d a9 c5 b8 bd 51 d2 7c be
       -0.13935608 0.08114974 -0.09022076 -0.24689604
000340 a8 0d e8 3c 01 ab 8c 3d a7 e9 8c 3e 18 68 2b 3f
       0.028326824 0.06868554 0.27522013 0.6695571
000350 6c 9d d2 3e 00 41 ec 3d ec 65 73 3e 1d 7a 3b 3d
       0.41135728 0.11535835 0.23769349 0.045770753
000360 fd e4 ca bd e0 37 61 3c d4 05 45 3d e5 45 af bd
       -0.09906957 0.013746232 0.04810126 -0.08558253
000370 2f 6c f0 3c 2e 92 46 bc ce 9b 49 3d 42 66 b3 bd
       0.029348461 -0.012119813 0.049220853 -0.087597385
000380 1a 1f e1 3d 61 d3 42 3c dc 8b f8 3c f9 1d 27 3d
       0.1099226 0.011891217 0.030340128 0.04080007
000390 97 f2 91 bc 7c ae 60 3c 9f c5 59 bd 0f 57 83 bd
       -0.017815871 0.013713475 -0.05316698 -0.064130895
0003a0 1b e4 ef bd 91 76 8a 3d 82 b8 b0 bd ce 48 66 bc
       -0.117134295 0.06760896 -0.08628942 -0.014055444
0003b0 c9 86 42 bb 86 9f ae bd d7 b3 b8 bd 17 04 8b 3d
       -0.002968239 -0.085265204 -0.09018677 0.067878895
0003c0 62 3d 5c 3d 16 07 e6 3d 46 09 17 3d 29 49 0a 3e
       0.053769477 0.1123182 0.03687408 0.13504471
0003d0 0e 9e f1 3e 1b 64 88 3e fd 2d b7 3d 77 b1 60 3e
       0.471909 0.26638874 0.089443184 0.21942697
0003e0 b8 9c ec 3d 75 1d 44 be 97 c2 af be 2d 9f 25 be
       0.11553329 -0.19151862 -0.34328148 -0.16174002
0003f0 c8 9a 53 3e 87 c8 05 3e 64 67 20 3e f3 4f 85 bd
       0.20664513 0.13064776 0.1566444 -0.0650939

conv3.bias f4 [16]
000000 36 7c b6 bd cc 36 e0 bd 4d 31 0a 3e b2 3e 7a bb
       -0.0891041 -0.10947952 0.1349537 -0.0038184342
000010 84 4c ed bd 99 c2 77 bd f7 8f 3b 3f d1 15 91 3d
       -0.1158686 -0.060488317 0.7326655 0.07084239
000020 2f 35 0f be 66 07 9e 3d 9e 7c 12 3d 14 6d f1 bd
       -0.13985132 0.07716255 0.035763375 -0.11788383
000030 35 d2 bc 3e b6 69 e7 bd e8 0c 83 bd 38 1e 8e bd
       0.36879125 -0.1129946 -0.06398946 -0.069393575

conv4.weight f4 [32, 16, 3, 3]
000000 8f 03 31 3b 4b 3c 00 3d cb d3 f3 bd dd b7 4a 3d
       0.0027010178 0.0313075 -0.11905631 0.049491752
000010 53 c2 4b 3d 11 ad 1e bd 00 99 90 3d 0b 23 b6 bd
       0.04974587 -0.038739268 0.070604324 -0.08893403
000020 8f c3 b1 bb e6 be ce 3c 45 df b5 3d a8 b5 d1 bb
       -0.0054249237 0.025237512 0.08880476 -0.006399829
000030 fc 3d c2 3d e6 e9 cc 3c a8 ea b5 bb 2c 72 47 bd
       0.09484479 0.025013875 -0.005551655 -0.048692867
000040 e4 64 a1 bd 78 4a 4e 3d db d3 cf 3d 24 97 40 3e
       -0.078805715 0.050363988 0.1014783 0.18807656
000050 e3 e6 6f 3b ac aa 33 3e 07 bd a6 3d a8 a9 82 bd
       0.0036606125 0.17545575 0.08141523 -0.063800156
000060 1e a0 ab be 33 c9 b6 be 9f a6 ba be 8c c0 0a 3e
       -0.33520597 -0.35700378 -0.36455247 0.13550013
000070 38 d2 55 bd 37 e2 e6 3c f8 c9 de bd 35 c4 8b bd
       -0.052202433 0.02818404 -0.10878366 -0.06824533
000080 39 04 c0 bc 02 06 9c bc fe 48 ce 3d 20 29 e9 bd
       -0.023439514 -0.019045833 0.10072516 -0.11384797
000090 3d 50 67 bd be 9f a6 bd ef c1 af 3d 4b 9d ea 3d
       -0.056473006 -0.08135937 0.08581912 0.114557825
0000a0 24 b7 0d 3d ff b2 20 bd b2 df 62 bc 91 c1 d6 3a
       0.034598485 -0.039233204 -0.013847278 0.0016384592
0000b0 ec 84 7b 3c 6f 47 0d 3e 5e 63 20 3d d9 aa 19 3a
       0.015351515 0.13796781 0.039157264 0.0005861945
0000c0 6d 97 c0 3d ae df c0 bc 57 64 23 bd f9 f9 d2 bd
       0.09403882 -0.023544159 -0.039890613 -0.10301585
0000d0 eb 54 dd ba d3 f5 42 bd e5 c8 4e be e0 9a e2 bc
       -0.001688627 -0.047597717 -0.20193823 -0.02766174
0000e0 37 f5 02 3e b9 d9 8e 3d fc 48 a1 bc ec 98 fd 3d
       0.12788855 0.06975121 -0.019688122 0.12382683
0000f0 86 b6 4b 3e f7 91 4e 3d 27 61 79 3e d9 cb 9f 3c
       0.19893846 0.05043217 0.24353467 0.019506382
000100 3a 52 02 3d d0 af 37 bb d0 d0 a1 3e 9b a3 d5 3d
       0.0318167 -0.0028028376 0.31604624 0.10431596
000110 a0 6f 48 be 5a 85 32 be b5 be de be fa 08 a0 be
       -0.19573832 -0.17433682 -0.43504873 -0.3125685
000120 1e 06 57 3c 0f b8 96 bd 47 cf 91 3d 6c b4 07 3d
       0.013124017 -0.07359325 0.07119613 0.033131048
000130 e2 aa d0 3d d7 9a 93 3d 52 a9 af 3d 33 c9 42 bd
       0.10188843 0.07207268 0.08577217 -0.04755516
000140 71 6e c4 3b c2 d0 09 3e 6d 9a 2c bd 7c 67 a2 bd
       0.005994611 0.13458541 -0.04213946 -0.07929894
000150 85 cf 02 3d 51 92 ac bd a8 25 03 bd bd cc 05 3e
       0.031936187 -0.08426345 -0.032018334 0.13066383
000160 ee 7c 2d 3e 52 d1 17 be 23 57 8e bd 44 9a b3 bb
       0.16942188 -0.14825943 -0.06950214 -0.0054810364
000170 dd 0d ab 3d b4 a2 83 bd 51 32 13 3c c4 d5 3e 3c
       0.083522536 -0.064275175 0.008984164 0.011647645
000180 91 10 50 bd b5 12 e8 3b 57 72 04 bd 1f 59 d8 3d
       -0.05079705 0.007082308 -0.032335605 0.105638735
000190 4a 62 eb 3c 4f 0e 80 3c 7e bb b4 3d 7d 66 25 be
       0.028733391 0.015631823 0.08824824 -0.16152377
0001a0 d6 7d c8 bc b2 77 e9 3d a6 59 fb bb 96 6b 0c 3c
       -0.024474066 0.11399783 -0.007670599 0.008570572
0001b0 9b ee 8c bd e5 7c 02 be d0 48 45 3d de 2d 37 bb
       -0.06881448 -0.12742956 0.048165143 -0.0027950923
0001c0 93 8e ce 3d 75 ac b3 bd 6d 5c b2 bc ba eb ac bc
       0.100857876 -0.08773128 -0.021772588 -0.021108497
0001d0 2d eb 6f bb c2 8a 0b 3c db d3 78 bd 05 7c 28 bc
       -0.0036608682 0.008516969 -0.060748916 -0.010283475
0001e0 30 d0 99 3b 6f 48 43 bd 54 09 a4 bd 2b ee cf bb
       0.0046940073 -0.0476765 -0.08009592 -0.0063455305
0001f0 f8 e7 51 3d ed 11 9c 3c fe 50 47 bd 9e 3b 79 3b
       0.051246613 0.019051516 -0.048661225 0.003802992
000200 d9 7f 0f bd 98 d8 a9 bd e9 c5 83 3d 04 99 34 3d
       -0.035034034 -0.08293265 0.06434233 0.04409124
000210 9c f8 97 3c 85 72 08 bd 9d 6c 20 bd d1 b2 fa 3d
       0.018551163 -0.03331234 -0.03916608 0.12241138
000220 e9 b3 a7 bd 58 c0 53 bd 0e 3f 20 3d ae 34 65 3d
       -0.08188612 -0.051697105 0.039122634 0.055958442
000230 3b 74 1f 3d 6a a4 84 3c 84 d9 98 3d 7c 9a c9 bd
       0.038929205 0.01619168 0.07463363 -0.09843919
000240 fb aa 8a 3d 18 03 92 bd 2e 5c 68 3d 8d be ac 3c
       0.06770893 -0.07129496 0.056728534 0.021086955
000250 32 b7 bf 3d 2b 57 dc bc d0 6a 97 bd b5 63 6c 3b
       0.093611136 -0.026897034 -0.0739342 0.0036070172
000260 12 56 1f 3c fb 0d 8a bd 84 a0 ab 3c f5 95 b4 ba
       0.009725111 -0.06740948 0.020950563 -0.0013777601
000270 aa 16 e1 3a 70 dd 2a 3d 11 c1 b9 bc a6 ff 9a 3d
       0.0017172892 0.041715086 -0.022675069 0.07568292
000280 8e fd 48 3d e0 6d e6 3c af f6 40 be 26 61 47 3b
       0.049069934 0.028128564 -0.18844102 0.0030422895
000290 ab 5a 6d 3d 00 49 50 3e 16 df bf 3e 9f d4 ba 3c
       0.057947796 0.20340347 0.3747489 0.022806464
0002a0 e1 1d 79 be fc be 09 bf db 37 60 bd 0f 45 15 be
       -0.24327804 -0.53807044 -0.054740768 -0.14577125
0002b0 e4 8e 86 bd dc 68 26 3d 3a 4c 36 bd 0a ec 53 3c
       -0.06570223 0.040627345 -0.04450629 0.012934694
0002c0 f7 77 99 3b de 41 ab bc 76 bc ac 3c eb 4f dd 3d
       0.0046834904 -0.020905431 0.021085959 0.10806259
0002d0 e2 22 ac bd 08 d1 48 bd 76 f5 d9 ba dc 5e 0a be
       -0.08405091 -0.049027473 -0.0016628939 -0.13512748
0002e0 25 85 0f bd 46 32 07 3d 75 fa 3b 3c b1 79 1c 3d
       -0.035039086 0.03300693 0.011473288 0.03820199
0002f0 96 b9 cd 3d 85 43 fb bc 6b db 59 bd 7d be 50 bd
       0.10045163 -0.030671844 -0.05318777 -0.050962914
000300 7f 60 88 bd 28 bd fc bc 8f 39 19 bd 3e 58 48 3d
       -0.0665903 -0.030851915 -0.037408408 0.04891228
000310 53 f9 10 3d f1 ea 98 3c 1d 25 09 3e 3b ec 82 3d
       0.035394024 0.018666716 0.13393064 0.06392714
000320 d5 91 a4 3d 5f 9f e1 3d ea b1 a6 3d 3f c6 4c 3c
       0.08035628 0.11016726 0.08139403 0.012498437
000330 42 83 0a bd ff 70 ed 3d 31 3a 48 bd c6 ed 65 be
       -0.033816583 0.11593818 -0.04888362 -0.22453985
000340 cd 83 17 3d d8 fc 13 3a ed 45 aa bb e4 09 24 3e
       0.03699093 0.00056452816 -0.005196324 0.16019398
000350 f1 ac 4e 3e 02 3d 27 be 1b 93 a3 be 6a 4e 7a bd
       0.2018316 -0.16331866 -0.3194817 -0.061109938
000360 42 73 fd bb 66 54 8a 3c f4 e4 a1 bd 81 eb fc bd
       -0.007734687 0.016885947 -0.079049975 -0.12349606
000370 fc ac 48 3d fd d9 56 3d a7 50 ec 3c 79 44 63 bd
       0.048993096 0.052453984 0.028847052 -0.055485222
000380 53 ec 7b bd fa 39 1e be 3f 4e ae 3c d3 45 22 bd
       -0.061504673 -0.15451804 0.021277545 -0.03961737
000390 32 b3 c9 bd 30 55 f5 bb 43 2a 36 bd b1 cd 59 3d
       -0.09848632 -0.007486962 -0.044473898 0.05317468
0003a0 2a 62 13 3e e6 49 8c 3d 63 32 3f bd ee e7 46 3d
       0.14392915 0.068500325 -0.046678912 0.04856103
0003b0 6d 44 6b bd 1b e1 9d 3d 88 66 8d 3a 50 12 0b 3d
       -0.057438303 0.07708951 0.0010788003 0.03395301
0003c0 42 1d 30 bd 48 6c 0d bd ed 1f a7 3c 56 59 a4 bd
       -0.042996652 -0.034527093 0.020400966 -0.08024852
0003d0 ee a2 0b 3d 13 16 8f bd e8 9c a5 bd 10 98 a3 bd
       0.03409093 -0.06986632 -0.08086568 -0.07987988
0003e0 77 69 66 3c 1a 0b bc 3d 87 7b f0 3d 51 a0 ad bd
       0.014063231 0.09181805 0.11742311 -0.084778436
0003f0 d3 f2 9f 3d 52 33 d1 3a 46 e1 74 bd 98 a2 84 3b
       0.07809987 0.0015960729 -0.05978515 0.004047703

conv4.bias f4 [32]
000000 f8 55 97 3d 5e 8f 8f bc 08 a4 47 3e fe 3f 4e 3c
       0.07389444 -0.017524417 0.19496167 0.012588499
000010 f8 01 c6 bc d7 24 5e bd f5 fb 12 bd 4f f5 82 bd
       -0.02417086 -0.054234352 -0.035884816 -0.06394445
000020 c3 18 fc 3c 6c 0c 8a 3d db 62 81 3d ab f7 8e bd
       0.030773526 0.067406505 0.06317683 -0.06980833
000030 77 8d 5b bd ae 81 91 3d d5 c8 8e 3d d5 1a 57 bd
       -0.05360171 0.071048126 0.069718994 -0.052515823
000040 fc d7 25 bd 21 e8 96 bc 7b 45 ce 3d b0 94 ed 3d
       -0.040489182 -0.018421235 0.10071846 0.116006255
000050 62 8e 2a 3a 34 0b 10 3e 66 ce 5a 3d dd 17 94 bd
       0.0006506202 0.14066774 0.053419493 -0.07231114
000060 9e 87 80 3e b5 8b 2d 3e e0 97 9e 3c 09 6c 4d bd
       0.25103468 0.16947825 0.019359529 -0.05015186
000070 39 01 c2 3c 58 f2 b6 3d 26 9d 81 bd 35 34 81 3d
       0.023682224 0.08932942 -0.06328802 0.06308786

conv5.weight f4 [10, 32, 3, 3]
000000 58 55 5c 3e 05 b4 48 3c 8f 08 ea 3c 82 e6 d1 bd
       0.21516931 0.012249951 0.028568534 -0.10249044
000010 ad 99 3f be 37 72 7b bd 7b 2e 1a 3e 6c dd 71 3e
       -0.18710966 -0.06138822 0.15056793 0.23619622
000020 5e b5 71 3e 82 68 95 bd 87 b4 14 be e2 86 27 be
       0.23604342 -0.07295324 -0.1452199 -0.16360047
000030 19 cb 45 bd 3a 23 e2 bc 07 99 d2 bd 01 a5 09 3d
       -0.048289392 -0.027604688 -0.10283094 0.033604626
000040 d3 36 8e bd e7 1d 61 bd 31 af 30 3b 9a ca f0 bd
       -0.06944051 -0.054960158 0.002695989 -0.11757393
000050 44 c8 dd 3d 6f 97 0c 3d 21 7a 65 bd e3 63 1b 3d
       0.10829213 0.034324106 -0.056024674 0.037937056
000060 36 76 10 3e 85 36 98 ba 6c 70 60 bd 7f b0 1c 3d
       0.14107594 -0.0011612928 -0.054794714 0.038254257
000070 c0 3d 74 be c5 3c 36 3e 2a 2d 03 3e c5 7d 92 bd
       -0.23851681 0.17796619 0.12810197 -0.07152895
000080 07 5d 1a bd 44 d3 6a 3e c5 26 d7 3c eb ef c1 3c
       -0.037686374 0.22932154 0.026263604 0.023673972
000090 1a c5 6b 3d d8 38 73 3d e7 2e 1f 3d 97 06 24 3e
       0.057561018 0.059380382 0.03886309 0.16018139
0000a0 57 36 5e be 71 58 98 bd 33 7d 92 be e2 44 a1 bd
       -0.21700417 -0.07438744 -0.28611144 -0.078744665
0000b0 3d bf c4 bd f5 4b 67 3e 64 f5 fa 3d bd 18 23 3e
       -0.09606788 0.22587569 0.12253836 0.15927406
0000c0 de ea 27 3b 31 e9 2f bd 98 37 6e 3d 27 99 26 3e
       0.002562217 -0.042946998 0.058158487 0.1626936
0000d0 44 51 e8 bd 8f bd 57 be b6 6f de 3e 28 68 74 3e
       -0.11343625 -0.21068405 0.43444604 0.23867857
0000e0 57 9d bd 3e 4a 1b 29 3e cc d1 0d be 0c 74 98 3d
       0.37034103 0.16514316 -0.13849562 0.07444009
0000f0 6d 25 4c 3e cd dc 00 be 7a 8b 97 3d 3a 60 f5 bd
       0.19936152 -0.12584229 0.0739965 -0.119812444
000100 b8 23 fe bd d6 3a 49 bb af e8 d0 bd 68 ec e3 bd
       -0.124091566 -0.0030705235 -0.10200631 -0.11129075
000110 1b 97 28 bd 85 58 1b 3e 23 93 b1 bd f1 32 6e bd
       -0.04115973 0.15170486 -0.08670642 -0.05815405
000120 75 9b aa ba f4 d4 99 bd 92 7c 95 3d 8f ec 28 3d
       -0.00130163 -0.07511321 0.072991505 0.041241225
000130 f8 2b 40 bd ab 8d 98 3d 94 e5 04 3e c5 97 0a bd
       -0.046916932 0.07448896 0.12978202 -0.033836145
000140 71 ec ac bd 32 47 29 3d 15 b3 92 3e 9c 1f 02 3e
       -0.08443535 0.041327663 0.28652254 0.1270737
000150 e2 d3 5d be 00 42 f5 bd 01 8c d0 bd 8b 8c c9 3d
       -0.21662858 -0.11975479 -0.101829536 0.098412596
000160 b0 fd 98 bc fd f0 a3 3d f6 43 67 be c5 f3 84 be
       -0.018675655 0.08004949 -0.22584519 -0.2596723
000170 3c ef c7 be ab 25 28 be b4 ff 58 bd 61 cf bc bd
       -0.3904971 -0.16420619 -0.052978233 -0.09219242
000180 91 ee 42 3e af 98 06 3d d2 5b b3 bc 5b 94 4e 3e
       0.19036318 0.032860454 -0.02189437 0.2017378
000190 88 f9 cb bd be 0a 05 3e 21 cf 3c 3d 33 7b 8b bc
       -0.09959704 0.12992379 0.04609597 -0.01702652
0001a0 d7 e6 50 3d bd aa bf 3b b2 d3 c6 3d 1b ef d2 3d
       0.051001396 0.005849211 0.097083464 0.10299512
0001b0 77 5e 69 bd 35 52 16 be 83 a3 be 3d 09 2a 5d bd
       -0.056974854 -0.14679797 0.09308531 -0.053995166
0001c0 66 35 d0 bd 66 0a 06 3e f3 62 58 3e 07 d6 1c 3d
       -0.10166435 0.13089904 0.21131496 0.03829005
0001d0 3b cb df 3d fd e9 ef 3c bb 63 8f be 1f 05 51 be
       0.10927435 0.029286379 -0.28005776 -0.2041211
0001e0 7e 3e 2c be 5e f9 39 be 2a c7 41 be 62 72 87 3e
       -0.16820714 -0.18161532 -0.18923631 0.26454455
0001f0 5d 05 03 3e 51 4b 04 be 53 7b a2 3d 3f f4 7e ba
       0.12795015 -0.12919356 0.079336785 -0.00097257266
000200 a0 e4 07 3f ce c7 af be 22 47 bd 3c 43 a0 85 3e
       0.5308323 -0.34332126 0.023105208 0.26098832
000210 9a 12 93 3d 89 5c ab bd eb ca f8 bd c8 72 a2 3e
       0.07181282 -0.08367259 -0.121480785 0.31728196
000220 e7 25 12 3e c6 3d d9 bd 6a 15 ee 3d ec 1d b0 3d
       0.14272271 -0.106074855 0.11625178 0.08599457
000230 fe 92 e3 bd 24 5b 8b bc 81 1b d2 3c 80 f7 8e 3c
       -0.11112021 -0.017011233 0.02564788 0.017452002
000240 53 71 9d bd ba 7d 83 3e 1f d4 30 be af 30 98 bd
       -0.076876305 0.2568186 -0.17268418 -0.07431161
000250 ce 4b 39 3d d0 e9 ce bc 91 4d 99 3c c1 35 81 bd
       0.04523831 -0.025257975 0.018713744 -0.06309081
000260 e9 1d 3a b9 9f 3f 3e be 6b 04 27 be c4 61 64 be
       -0.00017749485 -0.18578957 -0.16310279 -0.2230292
000270 f0 c2 31 3d 33 f7 ee bd 70 f4 82 bd 18 d5 96 3d
       0.043398798 -0.11668243 -0.06394279 0.07364863
000280 ce 23 5c 3d 36 85 03 bd 24 50 1c be 2d 52 fe be
       0.053745084 -0.03210946 -0.15264946 -0.4967207
000290 13 e9 a2 be f6 0b 3e be fb e1 2d bc 63 d9 21 3e
       -0.31818447 -0.1855925 -0.01061296 0.15805583
0002a0 a6 ab ca be b8 7f 44 3d 45 dc 16 be b6 2e 8b be
       -0.39584082 0.047973365 -0.14732464 -0.27184075
0002b0 09 cc 4a be 3d 9a 85 be 46 4d 86 3d 58 64 aa 3d
       -0.19804396 -0.26094237 0.065577075 0.0831992
0002c0 e3 59 6c bd be 8e 74 bd 85 5a 23 3e cc ed d5 bd
       -0.05770291 -0.059706442 0.15952499 -0.10445747
0002d0 07 80 8c be 9c 2e a5 bd d8 a8 94 3e d7 9e 9a bd
       -0.27441427 -0.08065531 0.29035068 -0.075498275
0002e0 28 2d 17 3c e5 6b 28 3e b4 df cb be db db 38 be
       0.009227075 0.16447408 -0.3981911 -0.18052618
0002f0 c7 df 2a be dc c7 88 3e e6 13 c5 bd 8b cd 86 be
       -0.16686927 0.2671498 -0.09622936 -0.26328692
000300 a6 a0 a4 3d 80 57 c0 bc 51 f1 f1 bc 11 c3 20 be
       0.08038454 -0.023479223 -0.029534014 -0.15699412
000310 08 11 ad bc af 89 a6 3c 71 00 54 3e cd 58 a6 3e
       -0.021126285 0.020329325 0.20703293 0.32489625
000320 e5 29 21 3e d0 71 87 3b 62 09 bd bd 9c d9 95 bd
       0.15738638 0.0041334406 -0.09230305 -0.07316896
000330 f1 1c e5 bd ba 82 fb 3d 33 09 77 bd 49 0b b2 bd
       -0.11187161 0.122807935 -0.060311507 -0.08693559
000340 b9 ec 9a 3c 68 29 12 3e 6d e5 79 3d 4c 7c 6e 3d
       0.018911706 0.14273608 0.061009813 0.058224007
000350 8d 2d ba 3c d6 8a 02 be 03 75 93 3d 48 d0 b1 bd
       0.022726798 -0.12748274 0.072000526 -0.086823046
000360 62 56 03 3e c9 c0 f0 3d 95 93 3b be 2f 30 a0 3d
       0.12825921 0.11755521 -0.18318017 0.0782169
000370 86 32 18 bd 93 7f 02 bd c0 ad a3 be 43 23 79 3c
       -0.037157558 -0.031859946 -0.31968498 0.015206161
000380 bd ec 24 3e 61 5f df bd 27 ee 41 bd 7f d1 2f 3e
       0.16105933 -0.10906864 -0.04734626 0.1716976
000390 d6 4d 50 be 62 d6 48 3d 52 5c 1b 3d 25 9d c3 3c
       -0.20342192 0.049032576 0.03792984 0.023878643
0003a0 c9 38 af 3d f6 ff 51 bd 84 3d 67 3d 1c 2e 18 3e
       0.08555753 -0.051269494 0.05645515 0.1486134
0003b0 b6 44 90 3e af 7e 4f be ec b1 03 3e 38 54 77 3e
       0.28177422 -0.2026317 0.1286084 0.2415322
0003c0 40 20 a6 be c2 d9 6b be 5d fc d6 bc 46 9e 00 3e
       -0.3244648 -0.23032287 -0.026243383 0.12560377
0003d0 29 35 77 3c 1c 21 e8 3d 69 e5 35 3e ad 13 07 3c
       0.015088358 0.1133444 0.17763294 0.008244437
0003e0 a4 ca 01 3e 8a 81 08 bc ab b4 b7 bd b9 fc 49 bd
       0.12674958 -0.008331666 -0.089700066 -0.04931328
0003f0 56 df 77 3e 75 7c 07 be 49 a2 36 3e 67 d2 37 3d
       0.2420629 -0.1323107 0.17835344 0.04487839

conv5.bias f4 [10]
000000 7a 80 1c bb 1d 0f c0 3d 69 7a 0e bd 51 f9 3d bc
       -0.002388029 0.09377883 -0.03478471 -0.011595086
000010 3e b9 29 3c b9 c7 c5 bd b0 95 13 bd 49 6b bf bc
       0.010359107 -0.09657235 -0.036031425 -0.023366587
000020 cb 15 ba bc f0 69 29 3b
       -0.02271547 0.0025850497
