GLmodels/BaseGLseed2.pt (torch_old, 38047 bytes, 10 tensors)

conv1.weight f4 [4, 3, 3, 3]
0.04414615 -0.045798168 0.05277534 -0.009829938 0.082212314 0.045817122 -0.022119194 -0.15558873
0.04393913 -0.17038465 0.02501222 0.012789816 -0.04231946 0.14099109 0.012562403 0.07980491
0.06535046 -0.113532394 -0.073984444 0.18508272 -0.18850052 -0.013070881 -0.015251622 0.13650666
-0.018296137 0.05067554 -0.009238318 -0.10776181 -0.10907883 -0.09349875 -0.17482252 -0.1248967
0.04529293 0.12666027 0.009480536 -0.088217154 2.3020015 0.19777454 -0.56735873 1.6859586
0.29751158 -0.5256684 1.5743201 0.86687016 0.068543635 0.09448938 0.08156647 0.008514583
0.020381525 0.014695719 0.10269092 0.12927772 0.13820718 0.11154516 -0.04692115 -0.008567423
-0.03911017 0.11195435 0.021373138 0.17811967 0.09760921 -0.16447923 0.056297854 0.8432538
-0.29881284 -0.3615969 0.595326 -0.47155753 -0.4490809 0.7073609 -0.38780406 0.1098353
-0.12655985 0.060857043 -0.0072858483 0.033913016 0.018645495 -0.17990859 -0.04133831 -0.12164983
0.16361223 -0.023623168 -0.19162595 0.046611205 0.08357535 -0.08615193 -0.018053353 0.083198175
-0.119743735 -0.10173228 -0.018564954 -0.13514885 0.114574455 0.015740722 0.1151437 0.09932419
-0.1483139 -0.11995303 -0.13163242 -0.061853632 -0.070325956 -0.031009585 -0.18617633 0.08127104
0.1091782 0.060993806 0.122293755 0.14457436
00000000: 98d2 343d dc96 3bbd f42a 583d c00d 21bc
00000010: ee5e a83d bcaa 3b3d 5033 b5bc a752 1fbe
00000020: 84f9 333d 5079 2ebe 6de6 cc3c 608c 513c
00000030: 2c57 2dbd f85f 103e 8ad2 4d3c c270 a33d
00000040: 76d6 853d ac83 e8bd 2885 97bd 5386 3d3e
00000050: 4806 41be 4027 56bc f0e1 79bc 67c8 0b3e
00000060: c8e1 95bc 2891 4f3d 505c 17bc 39b2 dcbd
00000070: b964 dfbd 467c bfbd ad04 33be d7c9 ffbd
00000080: 1485 393d 3bb3 013e 4054 1b3c 32ab b4bd
00000090: fe53 1340 6985 4a3e 6c3e 11bf 7ecd d73f
000000a0: 7053 983e 3492 06bf 5283 c93f 34eb 5d3f
000000b0: 9b60 8c3d a683 c13d 520c a73d c080 0b3c
000000c0: 28f7 a63c 50c6 703c 9e4f d23d 6161 043e
000000d0: 2f86 0d3e ca71 e43d 6430 40bd 605e 0cbc
000000e0: fc31 20bd 5248 e53d b816 af3c 0165 363e
000000f0: 56e7 c73d 3e6d 28be 9498 663d 7bdf 573f
00000100: fffd 98be 3b23 b9be 4967 183f fd6f f1be
00000110: efed e5be 9b15 353f 418e c6be 54f1 e03d
00000120: e898 01be 3c45 793d 20be eebb 60e8 0a3d
00000130: 70be 983c f539 38be 5c52 29bd 8c23 f9bd
00000140: f789 273e 6085 c1bc 9839 44be 64eb 3e3d
00000150: 8e29 ab3d 6c70 b0bd a0e4 93bc ce63 aa3d
00000160: 343c f5bd 0359 d0bd 8815 98bc 7664 0abe
00000170: 03a6 ea3d b0f2 803c 76d0 eb3d 7b6a cb3d
00000180: 99df 17be efa9 f5bd a6ca 06be 3c5a 7dbd
00000190: 0e07 90bd d007 febc 02a5 3ebe 6e71 a63d
000001a0: d298 df3d a4d4 793d 2675 fa3d 4d0b 143e

conv1.bias f4 [4]
-0.20635673 0.5358887 1.005384 -0.14317548
00000000: 2e4f 53be 0030 093f 6cb0 803f 989c 12be

conv2.weight f4 [8, 4, 3, 3]
-0.07420912 -0.008776963 -0.10368057 -0.03141363 -0.024628446 0.14849518 -0.010479808 0.09037866
0.12204592 0.1928162 -0.09748495 0.21349753 0.16983882 -0.07992339 -0.024290262 0.12750451
-0.14171931 -0.13354102 -0.08836623 0.07182772 -0.06440838 -0.13776515 0.0853493 0.071005255
0.06414294 -0.12892975 0.16411221 -0.012229699 -0.15900649 -0.02475194 0.109192975 0.07790063
-0.0016326497 0.1174932 -0.15101628 0.11577546 0.16580822 -0.10134413 0.035923354 -0.026653524
-0.14077793 -0.00081976503 -0.055853505 -0.14237182 -0.12143341 0.5272803 1.5632583 0.3269555
-0.20040889 1.1466541 0.30329716 -0.50932014 0.83233494 0.5055552 -0.5156612 0.45097372
-0.15591992 -0.75838095 0.13480498 -0.13539127 -0.4209583 0.2900693 -0.39764974 -0.003326614
-0.14115864 0.009677567 0.123793416 0.07113075 -0.101680875 -0.03508856 0.06461473 0.043173347
-0.15655427 -0.09716934 -0.058943257 0.061248362 0.14891715 0.07426894 0.062959954 -0.14142674
0.107844666 0.057717077 -0.074505776 -0.08551941 0.09114359 -0.07465384 0.06174543 0.12519874
-0.09595134 -0.10615027 -0.07056076 -0.1601685 -0.020181065 0.10880608 0.060626023 -0.0572564
-0.032298163 -0.072816506 -0.13758242 -0.045489788 0.011502251 -0.08470947 -0.124862656 0.048684016
0.02468384 -0.051843107 0.044958312 0.15399884 0.008437326 -0.11369105 0.1541918 0.11863416
-0.016642816 -0.074891366 -0.07105265 0.14499354 0.08695016 0.38890922 -0.12539984 -0.18699093
0.31361127 -0.14184797 -0.114513904 0.1249118 -0.12839347 0.011634774 0.27182066 -0.043374494
-0.00060268055 0.40584394 -0.14353715 -0.03319598 0.44951937 0.07162392 0.3710038 0.06806086
-0.07145705 -0.10620831 -0.11212609 -0.008710043 0.046791572 -0.15491062 -0.12785085 0.0975532
0.021370098 0.10993187 0.14845176 0.1013156 -0.035419762 -0.0741567 0.047162116 0.13557743
-0.15978616 0.039810106 -0.12897749 -0.1329978 0.051977664 0.081907146 0.056565113 0.04312717
-0.05290069 0.0035342507 -0.15030453 -0.10998514 0.0021408822 -0.041862343 -0.028151318 0.09347577
0.059931483 -0.0374836 -0.056121953 -0.12058898 0.0857829 -0.117160425 0.051673397 -0.030301943
0.1297638 -0.10634111 -0.10891652 0.019239083 0.005470113 -0.0708217 0.16515584 -0.14283279
0.090982385 0.0802555 -0.038416922 0.059183747 -0.0287626 -0.81546015 0.53936607 1.3747673
-0.48257586 0.6884994 1.4464477 -0.5320455 -0.01115506 0.82398736 -0.1054082 -0.33281136
0.6247264 0.09848633 -0.19577746 0.750874 -0.17373993 -0.38480416 0.44086683 0.09609236
-0.06609116 -0.10421609 0.06291267 0.039598245 0.034730688 -0.1388281 -0.058539856 -0.075643234
0.0017233491 0.14932258 -0.12101638 -0.0022227764 0.063922286 0.0938033 -0.16508079 0.006866351
0.13134255 -0.08573519 0.09174106 -0.032827336 0.19320917 -0.13325432 0.023112904 0.17104301
0.14689207 -0.07854704 -0.12597676 -0.0015718321 -0.085642286 0.1085653 -0.08547417 0.013972154
-0.13727829 0.004469938 0.14943464 0.08834542 0.070376396 -0.09793791 0.14246167 -0.08310068
0.15325926 -0.13767432 -0.08223721 -0.051241666 0.027914539 0.090604916 0.03563881 -0.06239575
00000000: f3fa 97bd 40cd 0fbc 7b56 d4bd 94ab 00bd
00000010: 98c1 c9bc 1f0f 183e 80b3 2bbc 7218 b93d
00000020: 36f3 f93d 9c71 453e 31a6 c7bd 199f 5a3e
00000030: 3aea 2d3e e0ae a3bd 5ffc c6bc 8b90 023e
00000040: de1e 11be fabe 08be 5bf9 b4bd 691a 933d
00000050: 8ae8 83bd 4f12 0dbe 9dcb ae3d 346b 913d
00000060: 605d 833d 2906 04be 080d 283e 135f 48bc
00000070: 99d2 22be 95c4 cabc 91a0 df3d 5e8a 9f3d
00000080: a2fe d5ba 46a0 f03d 03a4 1abe af1b ed3d
00000090: a1c9 293e 838d cfbd 5e24 133d 7e58 dabc
000000a0: 1728 10be 80e5 56ba a5c6 64bd ebc9 11be
000000b0: 14b2 f8bd d7fb 063f d918 c83f b666 a73e
000000c0: fd37 4dbe 90c5 923f c449 9b3e ce62 02bf
000000d0: e713 553f 116c 013f 5f02 04bf 07e6 e63e
000000e0: 79a9 1fbe 4125 42bf 510a 0a3e 02a4 0abe
000000f0: d987 d7be f783 943e bf98 cbbe 5203 5abb
00000100: e48b 10be a88e 1e3c 6787 fd3d 00ad 913d
00000110: 103e d0bd 06b9 0fbd ba54 843d 89d6 303d
00000120: c34f 20be b800 c7bd 7c6e 71bd 90df 7a3d
00000130: bd7d 183e 501a 983d 26f1 803d 2cd2 10be
00000140: aadd dc3d be68 6c3d 7c96 98bd cd24 afbd
00000150: 7ea9 ba3d 1de4 98bd c7e8 7c3d 1934 003e
00000160: 2382 c4bd 5065 d9bd 2982 90bd 3603 24be
00000170: c352 a5bc b9d5 de3d fe52 783d b085 6abd
00000180: 144b 04bd d220 95bd 68e2 0cbe 8053 3abd
00000190: f073 3c3c 297c adbd feb7 ffbd e468 473d
000001a0: c435 ca3c 7059 54bd 3526 383d dfb1 1d3e
000001b0: b63c 0a3c dad6 e8bd 75e4 1d3e 77f6 f23d
000001c0: 8456 88bc a560 99bd 0d84 91bd 3079 143e
000001d0: ed12 b23d 1c1f c73e d168 00be 8d7a 3fbe
000001e0: a891 a03e 9840 11be 4486 eabd c2d1 ff3d
000001f0: 9479 03be c79f 3e3c 142c 8b3e 74a9 31bd
00000200: 35fd 1dba c7ca cf3e 67fb 12be 82f8 07bd
00000210: 6727 e63e 90af 923d 36f4 bd3e 7e63 8b3d
00000220: 1358 92bd be83 d9bd 5da2 e5bd 91b4 0ebc
00000230: 85a8 3f3d e4a0 1ebe 55eb 02be f9c9 c73d
00000240: 5810 af3c f623 e13d bd03 183e 8e7e cf3d
00000250: 5014 11bd 78df 97bd 102d 413d cfd4 0a3e
00000260: fc9e 23be ec0f 233d ad12 04be 9330 08be
00000270: 88e6 543d efbe a73d d2b0 673d 1ea6 303d
00000280: 65ae 58bd e39e 673b 6ee9 19be e43f e1bd
00000290: 0b4e 0c3b d977 2bbd 989d e6bc 3970 bf3d
000002a0: b77a 753d 6788 19bd 22e0 65bd 5bf7 f6bd
000002b0: f2ae af3d cef1 efbd 7ca7 533d c83b f8bc
000002c0: cde0 043e 5ec9 d9bd a00f dfbd 489b 9d3c
000002d0: a23e b33b f80a 91bd 9d1e 293e c242 12be
000002e0: f954 ba3d ff5c a43d 105b 1dbd a86a 723d
000002f0: 8b9f ebbc ffc1 50bf e513 0a3f 60f8 af3f
00000300: 2f14 f7be 7f41 303f 3325 b93f 2234 08bf
00000310: b6c3 36bc d6f0 523f 41e0 d7bd 4066 aabe
00000320: 12ee 1f3f 33b3 c93d e379 48be 4739 403f
00000330: e1e8 31be 0d05 c5be 4cb9 e13e 12cc c43d
00000340: cd5a 87bd 3f6f d5bd 5cd8 803d c531 223d
00000350: c441 0e3d f428 0ebe 7dc7 6fbd d7ea 9abd
00000360: 00e2 e13a 05e8 183e 70d7 f7bd 00ac 11bb
00000370: b0e9 823d f21b c03d f00a 29be 20ff e03b
00000380: a97e 063e ee95 afbd bde2 bb3d f575 06bd
00000390: a0d8 453e d273 08be 4657 bd3c e625 2f3e
000003a0: e06a 163e 45dd a0bd 0d00 01be ef05 ceba
000003b0: 3965 afbd 7c57 de3d 150d afbd 76eb 643c
000003c0: ae92 0cbe 8f78 923b 6505 193e 72ee b43d
000003d0: 8021 903d ac93 c8bd 79e1 113e b030 aabd
000003e0: ffef 1c3e 7ffa 0cbe fb6b a8bd c8e2 51bd
000003f0: 08ad e43c 128f b93d 00fa 113d b092 7fbd

conv2.bias f4 [8]
-0.04847466 -0.4895575 0.011455568 0.78415346 -0.1621929 0.58982444 -0.111881755 -0.1501547
00000000: 5d8d 46bd 48a7 fabe 22b0 3b3c 48be 483f
00000010: e515 26be bcfe 163f 4322 e5bd 27c2 19be

conv3.weight f4 [16, 8, 3, 3]
0.10146615 0.021053797 -0.06032014 -0.118652076 -0.022107948 -0.026177544 -0.031000318 -0.021114415
0.034731086 0.029989906 -0.106585 -0.102813184 0.054809913 -0.09811333 0.16267073 0.15083972
0.06877864 0.012683742 0.053580504 0.015395528 -0.02907407 0.11231857 -0.106400475 0.10176903
0.07130562 -0.010537485 -0.037043013 0.044079967 0.032435626 -0.12967415 -0.123386964 -0.13739888
-0.069613755 -0.12245748 0.06192971 0.04020525 -0.105092615 0.060129415 0.041018404 0.03867257
-0.10817938 -0.07884087 -0.014149069 0.057072677 -0.027950935 -0.031251505 -0.018112797 0.0414979
-0.04828945 -0.0030406658 -0.110250495 0.31778973 -0.044433076 0.13494362 -0.10232034 -0.036256295
0.041271355 -0.075862564 0.0047655967 -0.06169874 -0.051215965 0.019817706 -0.096847124 0.03709077
0.07447133 -0.10344042 -0.007584676 -0.026238225 -0.106893726 -0.024883501 0.096787564 0.015295647
0.010329384 0.13065845 0.029579591 0.088053696 -0.075449765 0.0650038 0.0921488 0.070332855
-0.018135827 0.2503253 0.14782856 -0.013536141 -0.043813188 -0.1114769 -0.16387698 0.0520735
-0.02001962 -0.12766632 -0.08065179 -0.059995428 0.053903807 0.10961091 0.07075298 -0.051058847
-0.06949465 0.070926815 -0.070375465 -0.1640258 0.00992397 0.09595451 0.056461874 -0.05967561
0.09317024 -0.12660637 -0.008215609 -0.12464731 0.09856325 0.092961706 0.11188448 0.035071887
-0.04624133 0.06866317 -0.030860879 -0.111226186 -0.06433943 0.43489286 -0.22429663 -0.3342021
0.31255704 -0.19281116 -0.09831184 0.38805667 -0.028916502 -0.093146704 0.041372173 0.11274064
-0.08406696 0.060646 -0.038640227 -0.07496758 -0.006802445 0.07971364 -0.09608741 -0.027314939
-0.02959036 0.06700409 0.04405897 0.05922223 0.09100931 0.06433924 -0.046575263 0.014723636
0.1082641 0.07900304 -0.07967746 0.0007966394 0.043832544 0.042334795 0.0057416144 -0.012679642
0.048931956 -0.105977 0.32677963 -0.15917867 -0.13022642 -0.10081374 0.014982187 0.0007497344
-0.1844773 -0.0020327354 -0.10027602 0.055310916 0.07946152 -0.054726005 0.017993407 0.07416515
-0.016262354 0.043108735 -0.073925175 0.008518845 0.050916508 0.06658777 -0.05333261 -0.017666835
0.10923983 -0.047910377 0.03679434 -0.04431495 -0.056302097 -0.076975144 0.05758732 0.0848952
-0.10010067 0.0918869 0.06776223 0.0251675 0.083526365 0.14610574 0.109715976 -0.09215813
-0.11740099 0.18474795 -0.06765705 -0.011850511 0.036543448 -0.06092778 -0.01974709 -0.11028309
-0.050347395 0.018068168 -0.108016714 -0.09987433 0.037081193 0.029045692 -0.051030394 0.11116632
-0.04044027 -0.06921549 0.0226833 0.054744177 -0.060383115 0.029257186 0.031731717 0.04950612
0.012206413 -0.11653506 -0.108248636 0.09591769 0.059530746 0.10973823 0.07746276 0.045754965
-0.056116242 0.18774617 -0.10941031 -0.37124386 0.121186376 -0.27461514 0.0086766295 0.13145304
-0.3168506 0.20843709 -0.042266887 -0.09163478 -0.0031442128 -0.06563061 0.0110210525 0.0448455
0.0028203514 0.0022538698 -0.03205816 0.20316896 0.23019789 0.14767422 -0.05754095 0.16562434
0.17017472 0.20235036 0.15577546 0.07102439 0.08913131 0.07806228 -0.09362167 0.013656229
00000000: 7ccd cf3d 0379 ac3c 4012 77bd dcff f2bd
00000010: ba1b b5bc 4a72 d6bc 61f4 fdbc 23f8 acbc
00000020: 2f42 0e3d 64ad f53c 3d49 dabd b88f d2bd
00000030: 5c80 603d a4ef c8bd 2893 263e ba75 1a3e
00000040: d1db 8c3d 78cf 4f3c 3b77 5b3d 863d 7c3c
00000050: be2c eebc 4707 e63d 7ee8 d9bd 486c d03d
00000060: ae08 923d 6aa5 2cbc 6aba 17bd 328d 343d
00000070: 38db 043d 4dc9 04be 4eb2 fcbd 4bb2 0cbe
00000080: a891 8ebd fdca fabd 02aa 7d3d 43ae 243d
00000090: cc3a d7bd 434a 763d ea02 283d 2167 1e3d
000000a0: 278d ddbd 5277 a1bd 7fd1 67bc 0ac5 693d
000000b0: 5cf9 e4bc 9401 00bd 4a61 94bc b4f9 293d
000000c0: 29cb 45bd e845 47bb 03cb e1bd 56b5 a23e
000000d0: 75ff 35bd a92e 0a3e 548d d1bd 7b81 14bd
000000e0: 270c 293d d55d 9bbd b928 9c3b d1b7 7cbd
000000f0: d5c7 51bd be58 a23c c957 c6bd 7eec 173d
00000100: 6d84 983d 92d8 d3bd e088 f8bb 8cf1 d6bc
00000110: 19eb dabd 7cd8 cbbc 8f38 c63d 989a 7a3c
00000120: 943c 293c 54cb 053e e650 f23c 7f55 b43d
00000130: 6885 9abd b620 853d 83b8 bc3d ac0a 903d
00000140: 9691 94bc a32a 803e 5f60 173e b1c6 5dbc
00000150: 7575 33bd 004e e4bd 5ecf 27be 064b 553d
00000160: 3000 a4bc f6ba 02be c42c a5bd c4bd 75bd
00000170: 3dca 5c3d af7b e03d f0e6 903d 1523 51bd
00000180: 3653 8ebd 1442 913d 0321 90bd 61f6 27be
00000190: 2698 223c cc83 c43d 9144 673d 6a6e 74bd
000001a0: 0ad0 be3d 1aa5 01be c39a 06bc 1747 ffbd
000001b0: 87db c93d b562 be3d b123 e53d 8aa7 0f3d
000001c0: 8d67 3dbd 479f 8c3d f4cf fcbc 8eca e3bd
000001d0: 64c4 83bd 47aa de3e 04ae 65be 8a1c abbe
000001e0: 7a07 a03e 4a70 45be b857 c9bd 5daf c63e
000001f0: 4de2 ecbc b3c3 bebd de75 293d 91e4 e63d
00000200: 4c2b acbd f167 783d 3745 1ebd 9a88 99bd
00000210: 0be7 debb e840 a33d 7ac9 c4bd 94c3 dfbc
00000220: 7c67 f2bc 7139 893d 2e77 343d 0293 723d
00000230: 1763 ba3d 4bc4 833d b4c5 3ebd 683b 713c
00000240: 92b9 dd3d 59cc a13d f02d a3bd 91d5 503a
00000250: c189 333d 4067 2d3d 2724 bc3b 46be 4fbc
00000260: e06c 483d 780a d9bd a94f a73e bcff 22be
00000270: 135a 05be 6f77 cebd d977 753c d389 443a
00000280: 9ee7 3cbe a437 05bb 845d cdbd b38d 623d
00000290: b9bc a23d 6028 60bd e966 933c e6e3 973d
000002a0: a138 85bc c992 303d 1566 97bd a092 0b3c
000002b0: d48d 503d 2b5f 883d 4b73 5abd 0aba 90bc
000002c0: 22b9 df3d ac3d 44bd a9b5 163d 9883 35bd
000002d0: 079d 66bd 25a5 9dbd afe0 6b3d 89dd ad3d
000002e0: 9401 cdbd 332f bc3d edc6 8a3d 132c ce3c
000002f0: df0f ab3d be9c 153e c5b2 e03d 67bd bcbd
00000300: ee6f f0bd 912e 3d3e c88f 8abd a528 42bc
00000310: 95ae 153d 688f 79bd a6c4 a1bc 1adc e1bd
00000320: 1239 4ebd b203 943c de37 ddbd ea8a ccbd
00000330: 73e2 173d 3bf1 ed3c 3f05 51bd 2bab e33d
00000340: b2a4 25bd dac0 8dbd 54d2 b93c 6e3b 603d
00000350: 4954 77bd c4ac ef3c 1ef9 013d eec6 4a3d
00000360: 68fd 473c efa9 eebd 76b1 ddbd 7e70 c43d
00000370: 83d6 733d 70be e03d cca4 9e3d 8f69 3b3d
00000380: 25da 65bd 8840 403e 8312 e0bd ad13 bebe
00000390: 9030 f83d 5b9a 8cbe 6c28 0e3c a09b 063e
000003a0: 3e3a a2be 8870 553e 0b20 2dbd 04ab bbbd
000003b0: 230f 4ebb 5769 86bd a591 343c eaaf 373d
000003c0: a5d5 383b a9b5 133b 6b4f 03bd 860b 503e
000003d0: ffb8 6b3e e937 173e 0fb0 6bbd 6d99 293e
000003e0: 4842 2e3e ef34 4f3e 9a83 1f3e 3c75 913d
000003f0: 7a8a b63d 1edf 9f3d b8bc bfbd 60be 5f3c

conv3.bias f4 [16]
-0.09480622 -0.11257076 -0.10525576 0.105040915 -0.0638828 0.38291496 0.17570964 0.28471303
-0.020567268 0.17137444 0.13282466 -0.055447362 -0.07391587 0.0029224164 0.18470769 -0.09433706
00000000: c329 c2bd 808b e6bd 5590 d7bd b11f d73d
00000010: fcd4 82bd 6e0d c43e 3aed 333e e8c5 913e
00000020: b07c a8bc c87c 2f3e 3003 083e c61c 63bd
00000030: 3461 97bd 0386 3f3b 0324 3d3e ca33 c1bd

conv4.weight f4 [32, 16, 3, 3]
-0.04880259 0.03513877 -0.013047173 0.07237673 -0.07311657 0.09483609 0.03201382 0.01872541
0.06272598 0.065350145 0.019274358 0.08538349 0.053335283 -0.16315924 0.023417883 0.025906831
-0.082163155 -0.03471226 0.0375828 0.037308823 -0.05210065 0.012879719 -0.073475726 0.03343859
-0.038754195 0.020481257 -0.08611558 0.07892345 0.02412722 0.105610415 -0.02553664 -0.08140562
0.035517287 0.030363392 0.05639842 0.010183455 0.021731878 0.0073251342 -0.012662411 0.08167454
-0.006511795 0.008515341 0.07258108 0.083376005 0.06158582 0.039121103 0.23015237 0.3258527
-0.03300906 0.25604638 -0.08055408 -0.049942274 -0.19551755 -0.5354414 0.006853536 -0.03504073
-0.10545396 0.010505806 -0.059052102 0.29665327 0.10593966 -0.17690332 0.11367656 0.03654315
0.0300732 -0.036041964 -0.08252998 0.1784214 0.4157578 0.1877352 -0.14593844 -0.12206904
-0.05408172 0.0056048585 -0.05174975 0.0037615695 -0.04215394 -0.027866831 -0.02073267 -0.05461311
-0.06111493 -0.06047874 0.04921275 -0.04481306 0.091831 -0.09956616 -0.24246362 -0.22232558
0.05201101 0.056170393 -0.077222854 0.009201532 -0.016273614 0.117678314 -0.0911321 -0.15698071
-0.20092706 -0.121523775 0.160003 -0.029877592 0.024681887 0.085451216 0.0057239304 -0.075418636
-0.022609424 0.0072821504 0.050798003 -0.026081884 0.10641409 0.12336006 0.11628035 -0.11570709
0.023553386 0.044936974 0.049144097 -0.07259537 0.010359855 0.09723736 -0.042196132 0.171576
-0.06441254 -0.098276414 -0.21422385 0.03142838 -0.017067699 -0.08498152 0.10355052 0.058379225
0.21928605 0.070093594 0.14678985 -0.021918975 -0.20142378 -0.08599933 -0.097607635 0.022407249
-0.010424985 -0.018630479 -0.05942156 0.06574897 -0.23489141 -0.3092027 -0.10237221 -0.05225501
-0.05051773 -0.024316762 0.022761099 0.019842928 -0.06276993 -0.02471732 -0.016526474 -0.0725269
-0.006057789 -0.06629459 -0.069927715 -0.022608284 0.009933474 0.057112128 -0.020383744 0.06366616
0.019227022 0.0377666 -0.035780776 -0.036006767 -0.06384907 0.00429137 -0.018506989 0.00946047
0.06381671 -0.074110486 0.07806201 -0.014437018 0.0039511314 -0.002296517 -0.047620513 -0.06707724
-0.067635976 0.0738755 -0.028320247 0.016308326 -0.019448444 0.06255661 -0.05892235 -0.012903685
0.07041683 -0.005700864 -0.026373073 0.019104313 -0.06656655 -0.03195381 -0.07413194 0.053967386
-0.062957324 -0.058839902 -0.09884628 0.013127428 0.046012063 -0.034723155 -0.011546203 0.061730996
-0.007665342 -0.034996536 -0.022919228 -0.048067003 0.04849575 -0.049507566 -0.07573449 0.008300867
-0.041308876 -0.046656784 -0.076748796 -0.06369569 -0.1043269 -0.04127322 -0.012235531 0.08304909
0.075106874 -0.027180772 0.07146756 0.0076200804 -0.0004689788 -0.04978225 -0.013232017 -0.065176375
0.06180347 -0.08046418 0.02157721 0.006722538 0.07784875 -0.065963395 0.050761595 0.034726717
0.11405342 -0.084949344 -0.04674561 -0.046636034 -0.05978104 -0.01987262 -0.06188639 -0.048149038
0.009210245 -0.0122671025 0.031264633 -0.03300682 -0.049316507 -0.08208239 0.051940896 0.0484849
-0.060703658 0.05572668 0.025251295 0.06602372 0.004387607 0.060827088 0.064722836 -0.0625086
00000000: 3ae5 47bd aced 0f3d cfc3 55bc 403a 943d
00000010: 24be 95bd 6d39 c23d ec20 033d 0866 993c
00000020: 7b76 803d 4cd6 853d 42e5 9d3c 8add ae3d
00000030: 1976 5a3d 3713 27be dcd6 bf3c 903a d43c
00000040: 2845 a8bd 712e 0ebd 6cf0 193d 23d1 183d
00000050: 7e67 55bd 7505 533c 717a 96bd e7f6 083d
00000060: b8bc 1ebd 4fc8 a73c 5d5d b0bd 9ea2 a13d
00000070: 73a6 c53c 464a d83d 3732 d1bc fdb7 a6bd
00000080: 937a 113d a6bc f83c 0802 673d 82d8 263c
00000090: 0d07 b23c ae07 f03b 0076 4fbc fb44 a73d
000000a0: e560 d5bb ee83 0b3c 64a5 943d 0ac1 aa3d
000000b0: 6a41 7c3d 733d 203d 10ad 6b3e 2ad6 a63e
000000c0: 8234 07bd 8318 833e 8af9 a4bd 4590 4cbd
000000d0: c135 48be b012 09bf a093 e03b de86 0fbd
000000e0: 3ff8 d7bd 8b20 2c3c 9ee0 71bd f0e2 973e
000000f0: e4f6 d83d 2526 35be 42cf e83d 45ae 153d
00000100: 125c f63c bda0 13bd 7a05 a9bd 19b4 363e
00000110: 35de d43e a83d 403e e370 15be 55ff f9bd
00000120: cb84 5dbd f6a8 b73b 8cf7 53bd aa84 763b
00000130: 9ca9 2cbd fb48 e4bc 8fd7 a9bc ffb1 5fbd
00000140: a653 7abd 8eb8 77bd 4f93 493d e68d 37bd
00000150: e411 bc3d 58e9 cbbd 6248 78be 51a9 63be
00000160: 7f09 553d ed12 663d 0427 9ebd 06c2 163c
00000170: 3e50 85bc 5401 f13d 77a3 babd 8dbf 20be
00000180: d3bf 4dbe 75e1 f8bd d4d7 233e dac1 f4bc
00000190: ab31 ca3c 0c01 af3d cf8f bb3b 1675 9abd
000001a0: 6637 b9bc 1b9f ee3b 9111 503d ada9 d5bc
000001b0: a1ef d93d 33a4 fc3d 6424 ee3d d7f7 ecbd
000001c0: 08f3 c03c d50f 383d 524b 493d e2ac 94bd
000001d0: 62bc 293c 6224 c73d dad5 2cbd 9eb1 2f3e
000001e0: b9ea 83bd 2545 c9bd 7f5d 5bbe 0cbb 003d
000001f0: 8fd1 8bbc cb0a aebd 4c12 d43d 0e1f 6f3d
00000200: 868c 603e 3b8d 8f3d 1450 163e 6c8f b3bc
00000210: 0942 4ebe 6b20 b0bd 83e6 c7bd 688f b73c
00000220: 8ecd 2abc f29e 98bc 0664 73bd 65a7 863d
00000230: 6087 70be d14f 9ebe 85a8 d1bd 5909 56bd
00000240: aeeb 4ebd f233 c7bc 7c75 ba3c a38d a23c
00000250: 858d 80bd fa7b cabc 8762 87bc fc88 94bd
00000260: 6b80 c6bb 75c5 87bd 4336 8fbd 0235 b9bc
00000270: 02c0 223c 68ee 693d cffb a6bc 6763 823d
00000280: fd81 9d3c 26b1 1a3d dd8e 12bd d57b 13bd
00000290: 4dc3 82bd 9f9e 8c3b f89b 97bc 1600 1b3c
000002a0: 56b2 823d 3dc7 97bd fade 9f3d 3e89 6cbc
000002b0: 7e78 813b 2981 16bb ba0d 43bd cb5f 89bd
000002c0: bb84 8abd 0a4c 973d ddff e7bc 0a99 853c
000002d0: 5852 9fbc ae1d 803d 9058 71bd fa69 53bc
000002e0: b336 903d 50ce babb 580c d8bc a680 9c3c
000002f0: 0b54 88bd 00e2 02bd 7dd2 97bd e80c 5d3d
00000300: c5ef 80bd 1c02 71bd eb6f cabd 6c14 573c
00000310: 2577 3c3d de39 0ebd 492c 3dbc a4d9 7c3d
00000320: 8d2d fbbb 8758 0fbd 1bc1 bbbc e8e1 44bd
00000330: 7ba3 463d 72c8 4abd af1a 9bbd 5c00 083c
00000340: 7f33 29bd 2f1b 3fbd 792e 9dbd e372 82bd
00000350: 57a9 d5bd 1c0e 29bd 8977 48bc a415 aa3d
00000360: a2d1 993d 36aa debc 965d 923d deb1 f93b
00000370: 45e1 f5b9 79e8 4bbd 1acb 58bc 317b 85bd
00000380: a325 7d3d 67ca a4bd b0c2 b03c bc48 dc3b
00000390: 2a6f 9f3d d117 87bd 64eb 4f3d 9a3d 0e3d
000003a0: d794 e93d ecf9 adbd 5378 3fbd 6d05 3fbd
000003b0: f7dc 74bd e8cb a2bc 957c 7dbd ed37 45bd
000003c0: 91e6 163c f5fb 48bc 580f 003d 2932 07bd
000003d0: 1b00 4abd d01a a8bd fabf 543d 1a98 463d
000003e0: 66a4 78bd a941 643d cedb ce3c 7237 873d
000003f0: eac5 8f3b d325 793d 688d 843d 8204 80bd

conv4.bias f4 [32]
0.06346126 0.030942935 -0.039005302 0.018070513 -0.0038191716 -0.061507013 0.013193017 0.06016231
0.17309631 0.030405957 0.09645243 0.08681114 -0.048936304 0.0753997 0.18722638 0.10555681
0.020426847 -0.04033267 -0.038165852 0.03776766 -0.060526114 0.050451674 -0.04337933 -0.08605529
0.09904209 -0.041407727 -0.088247046 0.15583853 -0.005002596 -0.0392534 -0.037463143 -0.048583947
00000000: faf7 813d 0a7c fd3c 06c4 1fbd 9d08 943c
00000010: 114b 7abb c7ee 7bbd 8627 583c c16c 763d
00000020: 2940 313e ea15 f93c da88 c53d 0aca b13d
00000030: 6f71 48bd 286b 9a3d 46b8 3f3e 2b2e d83d
00000040: 3456 a73c df33 25bd cc53 1cbd 43b2 1a3d
00000050: 3bea 77bd 6aa6 4e3d 86ae 31bd c23d b0bd
00000060: 94d6 ca3d 269b 29bd deba b4bd 2394 1f3e
00000070: d1ec a3bb 2cc8 20bd f472 19bd f6ff 46bd

conv5.weight f4 [10, 32, 3, 3]
0.018427826 -0.23580506 0.054042175 -0.2326241 -0.09020177 0.084446676 0.06336956 0.16899765
0.020844534 0.016610185 -0.01691013 0.022965986 -0.0006523391 -0.024164855 -0.050553348 0.040869374
0.021173315 0.006041073 -0.16491275 -0.051753283 -0.086700045 -0.29778937 0.16800432 0.055082425
0.069567546 -0.03266867 0.047854062 -0.06775413 -0.12219712 0.15588847 -0.24021818 0.065242484
0.090856805 0.00905918 0.03817891 -0.08138814 0.13276021 -0.029953219 0.029328516 0.112634175
-0.007269453 0.035452645 -0.0010354335 0.059753895 0.16269964 0.033433918 -0.007283036 0.24511708
-0.17185651 0.22963998 -0.16163042 0.12619497 0.019208357 -0.05963187 0.1784737 0.15592778
0.07860364 0.08185394 0.040365074 0.09672084 -0.10950028 -0.21393026 0.09268215 0.019954715
-0.037473194 -0.050343007 0.01617514 0.023415834 -0.040274017 0.03754126 -0.026900483 0.046576712
0.018029623 -0.05015655 0.111091524 0.14276472 0.098595716 -0.063047566 0.014145947 0.027045907
-0.07178978 -0.032591954 0.15963285 -0.17068619 0.1064242 -0.20498998 -0.12690978 0.043689393
-0.011639114 -0.08315521 -0.0056724628 0.16021103 0.081812724 0.14918233 -0.14492866 0.13678837
0.009278067 0.10274621 0.039144367 0.03823473 0.038303394 0.12425962 -0.12555315 0.09368145
-0.0476178 -0.10812519 0.043639284 -0.18409275 -0.10778451 0.03045507 -0.016248738 -0.13832654
0.01196593 0.055333793 -0.04368345 0.029297719 -0.22586371 0.28157017 -0.22469412 0.025850931
0.11197181 -0.30688128 0.0834487 -0.1431917 -0.130453 0.042461656 0.054697204 0.015763933
0.18964297 -0.24916399 0.20224163 0.0053455858 -0.04714888 0.23386773 -0.15836522 0.11151639
0.11551268 -0.06673568 0.018326739 -0.105399504 0.028314667 0.07011727 -0.030912993 0.19766726
-0.015408817 -0.0026453633 0.00605517 0.027788732 0.033892594 -0.005876302 0.017300209 0.0138906315
-0.021210253 0.027489113 -0.036614943 0.106406376 -0.15940408 0.07914917 -0.003767957 -0.061642636
0.13108008 -0.29214218 0.118057474 -0.012722773 0.1144964 0.13042785 -0.0073479884 -0.08923268
-0.17299448 -0.02230821 0.011345143 -0.26715612 0.028545585 -0.0817438 -0.09545567 -0.058734667
0.19418627 -0.14808989 -0.14066227 0.09179857 0.04653641 -0.000880053 0.15738347 -0.014902831
0.10088432 -0.06710007 0.016504617 0.0012801765 -0.16781281 0.13049373 0.21074605 0.08417386
0.1602114 -0.20249182 -0.18074866 0.09890985 -0.012954111 0.003358109 0.027044822 -0.21431245
0.17810066 0.034163777 -0.29217616 0.04871759 -0.19847214 0.022099081 -0.01584956 0.06609954
-0.011939237 0.31769177 -0.046375733 -0.012390586 0.14992599 -0.044712506 -0.011264484 -0.11474793
0.2875445 -0.22860685 0.16658491 0.0068495194 -0.19642204 -0.10198766 -0.07053888 0.11452645
0.009394223 0.026795719 0.04973266 -0.005311932 0.013696369 0.033153597 0.04392273 -0.022799738
0.027461234 0.010766041 -0.030895868 -0.00884426 0.06985122 0.11102863 0.03623274 0.12199469
0.03341737 -0.17461707 0.050187908 0.11216174 0.10161967 0.018555451 0.18320626 -0.19940595
-0.1184049 0.1655489 -0.062008884 0.10324051 -0.11101278 0.23680688 -0.04975211 0.024173817
00000000: f4f5 963c e276 71be 545b 5d3d 0335 6ebe
00000010: b5bb b8bd 61f2 ac3d e6c7 813d b80d 2d3e
00000020: 28c2 aa3c 1512 883c 1d87 8abc 2a23 bc3c
00000030: bc01 2bba 60f5 c5bc 0711 4fbd a566 273d
00000040: a973 ad3c 31f4 c53b e3de 28be 40fb 53bd
00000050: cb8f b1bd d977 98be 5309 2c3e 1c9e 613d
00000060: 6e79 8e3d 95cf 05bd 9f02 443d adc2 8abd
00000070: 7c42 fabd 3aa1 1f3e c1fb 75be da9d 853d
00000080: 2213 ba3d f46c 143c 7d61 1c3d d3ae a6bd
00000090: 4bf2 073e 7460 f5bc 5b42 f03c bfac e63d
000000a0: 9734 eebb cb36 113d 62b7 87ba 80c0 743d
000000b0: bc9a 263e 01f2 083d 89a6 eebb f9ff 7a3e
000000c0: 27fb 2fbe be26 6b3e 7282 25be 4139 013e
000000d0: d85a 9d3c 8c40 74bd cfc1 363e 88ab 1f3e
000000e0: f2fa a03d 0aa3 a73d d955 253d 9315 c63d
000000f0: af41 e0bd 8910 5bbe 24d0 bd3d 1278 a33c
00000100: 7e7d 19bd 7834 4ebd ba81 843c 90d2 bf3c
00000110: 5ef6 24bd ddc4 193d 675e dcbc 39c7 3e3d
00000120: dcb2 933c f470 4dbd f483 e33d ea30 123e
00000130: 8dec c93d 151f 81bd 67c4 673c 618f dd3c
00000140: 8506 93bd 247f 05bd cb76 233e 5cc8 2ebe
00000150: eef4 d93d e5e8 51be a3f4 01be a6f3 323d
00000160: fbb1 3ebc 474d aabd 11e0 b9bb 5c0e 243e
00000170: 6e8d a73d 41c3 183e 2e68 14be 4012 0c3e
00000180: 0903 183c 9b6c d23d d855 203d 059c 1c3d
00000190: 05e4 1c3d d47b fe3d 0191 00be 0fdc bf3d
000001a0: e20a 43bd bd70 ddbd 1bbf 323d cf82 3cbe
000001b0: 20be dcbd e97c f93c 131c 85bc 79a5 0dbe
000001c0: c00c 443c b0a5 623d 6bed 32bd c501 f03c
000001d0: d148 67be f729 903e 3716 66be 55c5 d33c
000001e0: 7a51 e53d 8b1f 9dbe 27e7 aa3d d8a0 12be
000001f0: 7995 05be 46ec 2d3d 2d0a 603d 5d23 813c
00000200: c431 423e d824 7fbe 6e18 4f3e 062a af3b
00000210: 2f1f 41bd 067b 6f3e 7e2a 22be b562 e43d
00000220: e991 ec3d b7ac 88bd f521 963c b2db d7bd
00000230: 29f4 e73c a599 8f3d 3f3d fdbc 4969 4a3e
00000240: 4375 7cbc d55d 2dbb 736a c63b 32a5 e33c
00000250: f6d2 0a3d fe8d c0bb 2bb9 8d3c 8895 633c
00000260: 20c1 adbc d930 e13c 8df9 15bd 96eb d93d
00000270: d33a 23be f618 a23d d4ef 76bb fd7c 7cbd
00000280: db39 063e a993 95be 1ec8 f13d 2d73 50bc
00000290: 177d ea3d e18e 053e 65c7 f0bb a0bf b6bd
000002a0: 7725 31be b5bf b6bc fbe0 393c b0c8 88be
000002b0: 6ed8 e93c 4b69 a7bd 437e c3bd c393 70bd
000002c0: c4d8 463e e0a4 17be c509 10be e300 bc3d
000002d0: f69c 3e3d 5bb3 66ba 2229 213e 012b 74bc
000002e0: 709c ce3d c36b 89bd b134 873c 98cb a73a
000002f0: 1fd7 2bbe 26a0 053e d0cd 573e 5863 ac3d
00000300: 750e 243e 045a 4fbe 2d16 39be 3f91 ca3d
00000310: 7b3d 54bc b813 5c3b 1a8d dd3c b974 5bbe
00000320: 0560 363e 51ef 0b3d 1d98 95be 188c 473d
00000330: 483c 4bbe 2209 b53c f0d6 81bc 325f 873d
00000340: ca9c 43bc 7fa8 a23e 7bf4 3dbd e201 4bbc
00000350: 3386 193e 7624 37bd ac8e 38bc f600 ebbd
00000360: 0839 933e ea17 6abe 3c95 2a3e ef71 e03b
00000370: dc22 49be e8de d0bd b076 90bd d88c ea3d
00000380: 3aea 193c b282 db3c 79b4 4b3d b70f aebb
00000390: bc66 603c 11cc 073d 52e8 333d 84c6 babc
000003a0: 62f6 e03c 0d64 303c 5519 fdbc 84e7 10bc
000003b0: 280e 8f3d fa62 e33d c868 143d 5ad8 f93d
000003c0: a7e0 083d d1ce 32be d691 4d3d 0eb5 e53d
000003d0: f91d d03d 9a01 983c 6c9a 3b3e 1331 4cbe
000003e0: 457e f2bd a785 293e 07fd 7dbd c36f d33d
000003f0: ab5a e3bd 817d 723e dec8 4bbd 2b08 c63c

conv5.bias f4 [10]
-0.040503595 0.096391216 0.018601114 0.066691406 -0.088429086 -0.023890076 -0.027169865 0.002213683
-0.02778695 -0.027160762
00000000: 19e7 25bd c268 c53d 5d61 983c 8195 883d
00000010: 4f1a b5bd 1fb5 c3bc 5693 debc 7013 113b
00000020: 75a1 e3bc 3f80 debc
