GLmodels/BaseGLseed7.pt (torch_old, 38047 bytes, 10 tensors)

conv1.weight f4 [4, 3, 3, 3]
000000 90 3a 5c 3c 14 6d ed bd 64 01 7b 3d 74 58 77 3d
       0.013441697 -0.115930706 0.061280623 0.06038709
000010 54 a8 d2 bd 00 4a ec bc 9d e5 e6 bd 38 89 4c 3d
       -0.10286012 -0.02884388 -0.11274264 0.04993555
000020 04 56 54 bd f1 19 c9 3e 26 6f f7 3e b4 5d 02 3f
       -0.051839843 0.39277604 0.48326987 0.5092423
000030 41 f1 ac bc a4 47 10 be 24 50 ab 3e c1 0c c8 3d
       -0.021111133 -0.14089829 0.3345958 0.097680576
000040 cf 13 ab 3d f0 58 02 be 8d 36 39 3e 0e 96 1a be
       0.083533876 -0.1272924 0.18087216 -0.15096304
000050 13 e8 16 3e 3c e3 08 bd 76 bd ca 3d f2 97 99 3d
       0.14736967 -0.033419833 0.09899418 0.074996844
000060 40 fd 03 3c d8 fb 12 3d e1 a7 15 3e 30 ba 4a 3d
       0.008055985 0.03588471 0.14614822 0.04949397
000070 da 1b d1 3d c4 71 18 be 61 4a 0c 3e 6a a6 87 3d
       0.102103904 -0.14887148 0.13700248 0.06623538
000080 cc ab 47 3d 10 cb d9 3c ea 20 c0 3d 9f fe 34 3e
       0.048747823 0.026586086 0.09381278 0.17675255
000090 23 09 80 3f 68 56 55 3f 27 c8 23 bf 9d 35 cf bc
       1.0002788 0.8333497 -0.63977283 -0.02529412
0000a0 73 11 fb 3f 74 ba 0b be 34 2d 26 bf 52 c7 de 3f
       1.96147 -0.13645345 -0.64912724 1.7404578
0000b0 e4 cc b3 3f 68 53 b5 3c fc 7f 08 bd 40 82 cb bc
       1.4046903 0.022134498 -0.03332518 -0.024842381
0000c0 7e b6 ba 3d d0 04 38 be af 0d 21 be 93 6b 1d 3e
       0.09116839 -0.17970586 -0.15727876 0.15373068
0000d0 e9 8d 42 3e 80 5f 3b bc e9 b6 1b be 20 4e ac 3b
       0.18999447 -0.011436343 -0.15206493 0.0052583367
0000e0 4f 5c b7 bd 00 fa c1 b9 8a ea c0 3d 8e 79 ae 3d
       -0.08953153 -0.00036998093 0.09419735 0.085192785
0000f0 d0 df b8 bc 60 92 ad 3c b8 84 56 3d ed 9b af bc
       -0.02256766 0.021187961 0.052372664 -0.021436656
000100 d2 e7 1c 3f 1c e5 7e 3f 96 b8 ab bb b4 ac 02 3e
       0.6129123 0.99568343 -0.00524051 0.12761194
000110 55 98 8f 3f b7 62 1a 3f 6d cb 24 be e7 5f b4 3e
       1.1218363 0.60306877 -0.16093226 0.35229418
000120 ae cc d7 3d 12 0e d8 bd cc 06 39 bd b1 e8 39 3e
       0.105370864 -0.10549559 -0.045172498 0.18155171
000130 c0 2d 11 3d f0 2b 5e 3c a6 de 84 3d 64 39 40 bd
       0.03544402 0.01356028 0.06487779 -0.046929732
000140 af 9b 28 3e 8e bb 20 be 3c d6 58 bd 64 44 08 bd
       0.16465639 -0.15696546 -0.052938685 -0.033268347
000150 51 2d a2 bd 64 19 43 bd a6 44 f4 3d d2 42 d8 3d
       -0.079188 -0.047631636 0.11927156 0.1055962
000160 d0 52 2f 3c 19 af 2b 3e e4 73 01 bf 85 10 ee be
       0.010700896 0.16766013 -0.5056746 -0.46496978
000170 cb 93 cf be 1d 89 77 be f5 22 a4 be e4 54 1c bf
       -0.40542445 -0.24173398 -0.3205792 -0.6106703
000180 84 27 fa be dd c5 fa 3d a4 2c a9 be 4b 74 18 3e
       -0.48858273 0.12244771 -0.3304187 0.14888112
000190 51 b7 12 be aa 22 40 be 69 3b 01 be 70 a9 a8 3c
       -0.14327742 -0.18763223 -0.1262032 0.020588607
0001a0 ac b0 1b bd 14 60 f8 bd 09 76 0f 3e 20 35 7e bd
       -0.038010284 -0.121277004 0.1400987 -0.062062383

conv1.bias f4 [4]
000000 1e d8 fa 3d e9 4f 23 3f e2 3b 21 3e 43 d0 6e 3f
       0.12248252 0.6379381 0.157455 0.9328653

conv2.weight f4 [8, 4, 3, 3]
000000 19 89 20 3d c4 52 c1 3b 41 8b 11 3d 79 ce fc bd
       0.039193247 0.005899759 0.035533193 -0.12344069
000010 af 62 b7 bd 7f a5 9e bd 12 dc b5 bd b4 ba f0 3c
       -0.08954369 -0.077464096 -0.08879866 0.029385902
000020 a7 46 0c 3d e8 5d 6c bd b1 6f e6 3d 5b dd c9 bd
       0.034247067 -0.057706743 0.11251772 -0.09856673
000030 40 64 3f 3d e2 48 b4 bc 17 10 21 be 38 bb cd bd
       0.046726465 -0.02200741 -0.15728794 -0.10045475
000040 72 af ea 3d 93 25 8f 3d dc 41 ce bd 3d 70 5a bd
       0.11459245 0.069895886 -0.100711554 -0.053329695
000050 8b 01 1a be e1 c1 cb 3d f1 e3 0f 3e 5d 1e 74 3d
       -0.15039651 0.09949089 0.14051796 0.05959927
000060 be a4 ad bd aa d9 b6 3d de f9 0e 3e 9b 3e 07 bd
       -0.08478688 0.08928235 0.13962504 -0.03301869
000070 8d 28 ac bc a7 73 70 3d c0 6e 97 3c c1 b0 49 bd
       -0.02101543 0.058704045 0.018485427 -0.04924083
000080 5b 56 1e be 3e 25 fa bd 8f f2 fb 3b b5 1a 13 bc
       -0.1546263 -0.12214135 0.0076888273 -0.008978535
000090 f4 59 5f 3e 87 16 b9 3d 4f c5 60 bd 80 0d 38 be
       0.21811658 0.090375 -0.05487567 -0.179739
0000a0 6c 92 e1 bd 13 a6 d8 3d a1 66 b0 3e 08 36 d0 3d
       -0.11014256 0.10578551 0.344533 0.10166556
0000b0 91 e8 d7 bd c8 e0 96 3f 8d fc 8b 3e fa 6f b6 be
       -0.105424054 1.1787348 0.27341118 -0.35632306
0000c0 ee 38 21 3f 09 30 56 3f 95 fb d2 be 9e d1 05 bf
       0.6297749 0.83667046 -0.41207567 -0.52272975
0000d0 9f 63 7c 3f 06 c6 2a be 1c 75 34 bd 8a 72 11 bd
       0.9858951 -0.16677102 -0.044056997 -0.035509624
0000e0 28 b7 ca 3e b1 8a 9a 3e b9 71 68 bd 50 5e 71 3d
       0.39592862 0.30183938 -0.05674908 0.058927834
0000f0 a9 bd 25 3f 85 25 ba bd 7f e4 1c be f5 28 08 be
       0.64742523 -0.090891875 -0.1532154 -0.13296874
000100 88 17 2a be 7b 8a 3b bd a4 ca af bd 2e e1 f1 bc
       -0.16610539 -0.045786362 -0.085835725 -0.02952632
000110 f3 59 7b 3d 5e e4 2f be a6 e8 5b bd 10 18 39 3d
       0.06136508 -0.17176959 -0.053688668 0.045188963
000120 4f 1f 5a bd 1a b9 14 be 39 c4 3b be 76 09 0c 3e
       -0.053252514 -0.14523736 -0.18336572 0.13675484
000130 b8 43 da 3d 0e fa 1c bc bf 3e 5e 3d 17 66 4c 3e
       0.106574476 -0.009581102 0.054259058 0.19960819
000140 fa 7b d6 3d 23 f9 c6 be fd dc ae 3e 12 8f a4 bc
       0.104728654 -0.3886195 0.34152976 -0.020087752
000150 f1 d5 9b 3b 60 aa d5 3b 58 60 4b 3f 51 c9 06 3e
       0.0047557284 0.0065205544 0.79443884 0.13162734
000160 c9 32 9c be 5d b2 62 3f 06 a5 8e bd c2 ce 98 be
       -0.30507496 0.8855341 -0.069650695 -0.29845244
000170 6f 04 d6 be 9f 8d 88 bd 31 64 44 3e 34 67 80 be
       -0.41800258 -0.06667637 0.19178845 -0.25078738
000180 ae 9b d7 bd a2 06 d7 3e 2a ec 82 bd 5e 8d 3f 3e
       -0.105277404 0.41997248 -0.06392701 0.18706271
000190 10 0e 93 3d 10 22 02 3f 04 e1 82 3e 7e e9 a5 bd
       0.071804166 0.50833225 0.25562298 -0.08101176
0001a0 f3 59 a2 3e 2c e5 75 3e f9 d8 8f bc 07 f4 d4 3c
       0.3170925 0.24013203 -0.017559515 0.025995268
0001b0 10 e6 6b 3d 27 c9 1b 3d ac 0c b2 bd 6d b0 93 3c
       0.05759245 0.03803363 -0.08693823 0.018028462
0001c0 f1 5b 65 3d e4 f8 9b bd 03 bf 60 3d 0d 2c 48 bd
       0.055995885 -0.076158315 0.054869663 -0.048870135
0001d0 f6 73 0e be f8 1c df bd fd da 33 bd 88 37 b5 3d
       -0.13911423 -0.10894197 -0.043910015 0.08848482
0001e0 89 db b7 3d a0 fb 75 3e 0b bb 53 3e e7 6a bc 3d
       0.0897742 0.24021769 0.2067682 0.092000775
0001f0 1b ef d5 3d 19 ff 04 bd 0a 4a 5c 3e de ab 0f bd
       0.104459964 -0.032469843 0.21512619 -0.035076015
000200 fa ec 13 bd ba 33 95 bc 7b 4b b1 bd fc 17 f1 bd
       -0.03611467 -0.018213142 -0.08656975 -0.11772153
000210 04 ff ed bb 4b 96 32 3e e4 e1 b7 bd 35 24 53 be
       -0.0072630662 0.17440145 -0.08978632 -0.2061928
000220 ca 2f 8e bd 73 5b 00 3e 9b 4c 95 3c 9b a4 8e bc
       -0.06942709 0.12534885 0.018225005 -0.017412474
000230 aa cf 8c bd b8 81 09 3e 65 de 2d be c9 47 d0 3d
       -0.06875546 0.1342839 -0.16979368 0.10169942
000240 e0 dd 40 3e 53 5e 65 3e 44 4b 15 bc 75 94 3d 3d
       0.18834639 0.22399263 -0.009112183 0.046284158
000250 e0 b8 cc 3c c0 8a ac 3e 55 cd e9 3d 2b 3f bf bd
       0.024990499 0.33699608 0.11416117 -0.0933822
000260 84 b2 08 3e 66 58 11 3f 60 49 fc 3e 9a db 99 be
       0.13349348 0.5677551 0.4927473 -0.30050355
000270 0f 3b f9 bb ce 30 69 3f fb db 70 be 12 0b 89 be
       -0.0076059173 0.91090095 -0.23521416 -0.26766258
000280 d0 ec fa 3e 8f 63 b5 3e a6 a9 bf 3d 2d 43 10 bd
       0.490088 0.3542752 0.0935853 -0.035220314
000290 07 a4 66 3e 64 1b 89 3e f4 ac df 3d c9 d0 8a 3e
       0.22523509 0.2677871 0.1092166 0.27112415
0002a0 17 5f ce 3e 13 71 4d 3e 92 7d 0e be d0 9b 8b be
       0.40306923 0.20062666 -0.13915089 -0.27267313
0002b0 ae 30 8c be 84 06 87 be 35 a3 be be e5 33 8f be
       -0.2738089 -0.2637216 -0.37233892 -0.2796928
0002c0 6f 7a b7 bd 8d 9b 82 be ab 11 25 be a9 60 0d be
       -0.08958899 -0.255093 -0.16120021 -0.13806404
0002d0 58 e3 c8 bb 09 52 06 3e 66 9d bc 3d 82 2d 67 3e
       -0.006130617 0.13117231 0.09209709 0.22575954
0002e0 f2 97 36 3d a2 56 9c 3e b1 ec bb 3c 00 39 49 3e
       0.0445785 0.30534846 0.022940012 0.1965065
0002f0 b7 f4 ad 3e 83 0b a1 3e b1 99 e8 3e fc 9c 40 3f
       0.33975765 0.31454095 0.45429757 0.7523954
000300 a6 72 db bd 05 b2 80 3e ed bf e0 3d 85 1d ab be
       -0.10715227 0.25135818 0.10974107 -0.3342096
000310 db cc a0 3d 15 d1 8b be c7 38 df 3e 7f 6b 91 3d
       0.07851573 -0.27307954 0.43598005 0.071005814
000320 51 ab c3 3d ff c5 9e 3e 4c 9e 88 3e 6a 85 f4 3e
       0.095541604 0.31010434 0.2668327 0.47758037
000330 1e 5a c1 3c 35 ab 5e 3e 02 e7 b1 3e e8 2f ab be
       0.023602542 0.21744998 0.34746557 -0.33434987
000340 2f 63 0b be 77 ea a6 be 07 b7 07 be b6 9e 8b be
       -0.13612054 -0.32600757 -0.13253413 -0.27269524
000350 b2 ee ad be 65 7d 59 be 4b 29 c2 bc ce ee ff bd
       -0.33971173 -0.2123924 -0.02370133 -0.1249672
000360 00 ff 37 bb a8 fd 05 be 92 7d ad 3d 02 d6 cc 3d
       -0.0028075576 -0.13085043 0.08471216 0.10001756
000370 81 6e 17 be b6 00 12 be fc d8 1a bc 7d 78 a6 3d
       -0.14788248 -0.14258084 -0.009451147 0.0812845
000380 01 5a fa bd 39 5d af 3d c8 fa 18 3e 1b 15 34 be
       -0.12224198 0.08562703 0.14939415 -0.17586176
000390 7b 28 35 3e dd 9d b7 3e 8b 54 c5 3e 7b 61 ad bd
       0.17691223 0.35862628 0.38541064 -0.084658585
0003a0 e4 60 a6 bd 91 fd b5 3e 57 b9 e3 3d 3d 79 4a 3d
       -0.08123949 0.35545018 0.11119335 0.049432028
0003b0 0a f9 a7 bd 3c f0 58 3e 67 f3 57 bc cb e0 16 bd
       -0.08201797 0.21185392 -0.01318059 -0.036835473
0003c0 dc 2e c0 3b 23 8c 51 3e 7d d9 00 be 22 61 07 be
       0.005864961 0.20463614 -0.12582965 -0.13220647
0003d0 c8 b9 d7 b9 b2 7c 06 3e dc cc a9 bd ca 90 68 3d
       -0.00041146413 0.13133505 -0.08291027 0.056778707
0003e0 64 e9 0f 3e cb 11 25 bd 46 f1 3f be 3f b3 65 bd
       0.14053875 -0.04030017 -0.18744382 -0.056079146
0003f0 43 53 24 3e 9f 30 8a 3c e3 78 cd bd 70 39 85 3e
       0.16047387 0.016868887 -0.10032823 0.26020384

conv2.bias f4 [8]
000000 d6 43 0f bc 98 cf d3 3e f0 2c 8f 3e f7 8c 14 be
       -0.008744201 0.4136932 0.27963972 -0.14506899
000010 9f 10 8b 3e c3 28 dd 3e 22 af 5e 3b 6b e8 a7 3d
       0.27161118 0.4319516 0.00339789 0.08198627

conv3.weight f4 [16, 8, 3, 3]
000000 e6 61 3c 3b 44 69 81 3d b1 cf e1 3c 7b fd b2 bd
       0.0028744875 0.06318906 0.027564855 -0.08739754
000010 d0 5e b4 bd d6 b6 d2 3d a0 95 5d bd 86 83 d8 bd
       -0.088071465 0.102887794 -0.05409777 -0.10571961
000020 f5 4c d5 bd 47 20 93 be 77 d0 ca 3d 34 33 55 3c
       -0.10415069 -0.28735563 0.09903043 0.013012696
000030 32 c9 8e bc 15 be 3b ba 12 fd 8d bd 15 93 5b 3d
       -0.017429922 -0.00071618083 -0.06933035 0.053607065
000040 42 b3 0c 3e a4 6d 94 bd 7d 37 16 3e 54 f9 d0 3c
       0.13740256 -0.07247475 0.14669605 0.025509514
000050 a3 25 fe bc 5b 80 af 3d 61 83 0f be ac c2 9a 3c
       -0.031023806 0.08569404 -0.14014961 0.018891655
000060 91 c3 89 3d 88 63 b7 bc b0 e4 2b 3e 0d 2b 8e bb
       0.067267545 -0.022386327 0.16786456 -0.004338628
000070 74 df 8e 3d b4 b4 1c bd 0e 48 ac bd cb 7a 80 bc
       0.06976214 -0.03825827 -0.08412181 -0.015683552
000080 a9 fc 98 3d 13 22 23 bd c4 19 c6 bd 98 e4 5f bd
       0.07470066 -0.039827418 -0.09672883 -0.054661363
000090 01 de ef bd d7 67 e4 3d 9f ca 18 3d 19 d5 8d bd
       -0.11712266 0.111526184 0.03730261 -0.06925411
0000a0 a7 d8 e6 bc b0 8e 85 3d b5 22 17 bc d2 cd b8 3c
       -0.02817948 0.06521356 -0.009224583 0.02255908
0000b0 99 20 3c 3e 44 74 22 bc 92 35 83 3d 1d 48 c4 3d
       0.1837181 -0.009915415 0.06406702 0.09584067
0000c0 ae 8e 43 bd 49 f5 05 bd b1 fa 64 bd 10 c6 30 3e
       -0.04774349 -0.032704625 -0.05590314 0.17263055
0000d0 93 c7 a0 bd 0a 9a 8d 3e d0 e5 89 3d 39 bc 24 3b
       -0.07850566 0.27656585 0.067332864 0.0025136604
0000e0 aa 63 99 bd 30 53 03 bc 25 ee 53 bd f8 6f 65 3d
       -0.074897125 -0.008015439 -0.051740784 0.056014985
0000f0 74 be da 3d 22 92 70 3d 8c 67 a1 3d 27 f0 14 be
       0.10680857 0.058733113 0.07881078 -0.14544736
000100 b7 71 1f be 94 60 18 3d 9a ff 87 bd c6 0c 23 bc
       -0.15570723 0.03720148 -0.06640549 -0.009951776
000110 28 3e 5f 3e 25 6d 20 3e 79 5f fd bd 9f eb 5d 3e
       0.21801054 0.15666635 -0.123717256 0.21671914
000120 b3 ac 94 3d 72 da 15 3c b6 fe a4 3d fc bd e6 bd
       0.07259502 0.00914632 0.08056395 -0.112667054
000130 a2 c8 5d bc b1 70 6c bd 30 65 b7 3d 1c 76 50 3d
       -0.013536604 -0.05772466 0.08954847 0.050893888
000140 be 62 80 bc ad 09 03 be 68 69 20 bd c8 5a 96 3d
       -0.015672084 -0.1279666 -0.039163023 0.07341534
000150 e3 7a 9b bc a9 dc 27 3d 4e af 07 be 88 aa a6 3d
       -0.018979495 0.040981922 -0.13250467 0.08137995
000160 27 b1 0e 3e 51 78 14 be 56 17 f1 bd 27 3d 02 bd
       0.13934766 -0.14499022 -0.11772029 -0.0317966
000170 02 07 a3 bd 99 3b 19 be 9a b3 db bc c0 e9 db bd
       -0.07960321 -0.14964141 -0.02681904 -0.10737944
000180 f8 d1 d6 3b 56 d6 b8 bc e9 0a c1 3d 39 a6 97 3d
       0.006555792 -0.02256314 0.09425909 0.07404751
000190 81 9f e7 bd d6 d3 c7 bd 8c e4 bf 3d 65 e7 c3 bd
       -0.1130972 -0.097572014 0.09369764 -0.095656194
0001a0 b8 63 77 3d 27 fb 8c bd 7e b5 d7 3d 84 98 81 3d
       0.060397834 -0.06883841 0.10532664 0.06327918
0001b0 bf 0d 88 bd ef 6c bd bd 02 39 4b bd f5 d7 6b bd
       -0.06643247 -0.09249293 -0.049614914 -0.057579
0001c0 85 0c a3 bc 80 4a ac 3d b0 4a 2c 3d bf e6 2c 3d
       -0.01990343 0.08412647 0.042063415 0.042212244
0001d0 d8 96 d4 bb 8e 6e 6c 3d 5b d7 f1 3c 55 8e d9 bc
       -0.0064877085 0.05772262 0.029521635 -0.026557127
0001e0 b6 2a e5 3d 7f 5e be 3d 46 77 f9 3c 3d 6f ca 3d
       0.11189787 0.092953674 0.030452382 0.09884498
0001f0 7f 97 e8 3b 12 79 bf bd 47 b4 87 3d 04 aa 62 3d
       0.007098138 -0.09349264 0.06626182 0.05533792
000200 05 71 98 3c 1b a4 e9 bd 88 6c ad 3d 13 27 61 bc
       0.01860858 -0.11408254 0.08467966 -0.013742226
000210 4a cb 7d bd 97 7b d2 bd 6d 41 5d bd a6 76 15 3e
       -0.06196145 -0.10277479 -0.054017473 0.14596042
000220 22 e3 88 3d ab 00 35 bd 26 53 d4 3d 7d 22 cd 3d
       0.06683947 -0.04419009 0.10367422 0.10016344
000230 e9 d7 51 3d fb 48 86 3c ed 3c 1c 3e 00 39 a1 bb
       0.0512313 0.016392222 0.15257616 -0.004920125
000240 5b 61 47 bd a2 aa 66 3d d0 23 50 bd bf 29 b5 3d
       -0.04867683 0.056315072 -0.050815403 0.08845853
000250 17 3d 82 bd cb fa 2c 3d fd ed b8 bd e3 99 a5 bd
       -0.06359308 0.042231362 -0.09029768 -0.08085992
000260 25 d3 ce 3b 4d 13 0a 3e 5a 46 5c be 50 d3 5b 3e
       0.0063117915 0.13483925 -0.21511212 0.21467328
000270 79 c0 ce 3d 82 c2 3d be 63 1a 31 be b1 42 b1 bd
       0.10095305 -0.1853123 -0.17295222 -0.086552985
000280 17 6a 8d bd d3 29 f5 3e c3 62 12 3e be 7b 9d 3d
       -0.06905001 0.47883472 0.14295487 0.076896176
000290 2b 9f 49 bd 35 79 22 3e 6a 74 85 3e 68 ac 8b 3e
       -0.04922406 0.1586655 0.2606538 0.27279973
0002a0 c2 79 95 3e e7 7a 2f 3e 85 f9 5e bd 38 b0 83 39
       0.29194456 0.17136727 -0.05443718 0.0002511756
0002b0 62 2c c6 bd 5a 43 0c 3d 58 79 9d bd 59 45 11 3d
       -0.09676434 0.03424392 -0.0768916 0.035466526
0002c0 42 d2 97 3c ba 22 89 bd d4 de e5 bd 8f 97 fc 3b
       0.018532876 -0.06696077 -0.11224142 0.007708497
0002d0 37 1f 99 bd 49 86 5b be c5 45 7b bc c6 d2 0c be
       -0.07476657 -0.21437944 -0.015336459 -0.13752279
0002e0 bf 44 36 be 17 8b 3a be 6b 38 3f be 3b c6 20 be
       -0.17799662 -0.18217121 -0.18673865 -0.15700619
0002f0 57 a0 9d 3e eb c1 89 be 7b fb ff bc b2 bd 82 bd
       0.30786392 -0.2690576 -0.031247845 -0.06383838
000300 f3 c6 5c be 9e 45 24 be 52 08 b6 be 29 63 0c 3c
       -0.21560268 -0.16042182 -0.35553223 0.0085685635
000310 89 95 17 3d 0d 74 0b 3d 8f 2b 33 3d 3f 41 05 be
       0.037007842 0.03404622 0.043742713 -0.1301317
000320 ba fa 3d bd 0f 93 b9 3d 95 83 21 3e e8 5d 89 3c
       -0.04638169 0.09061252 0.15772851 0.01676841
000330 f9 fb 3e 3e 06 38 97 3d c7 c9 89 3d 75 44 90 be
       0.18650807 0.073837325 0.06727939 -0.2817723
000340 be 2a db 3b b8 77 a3 be 0f 23 96 be 9f db 56 bd
       0.006688445 -0.31927276 -0.29323623 -0.05245554
000350 db 59 a5 be 60 7c c5 3d 0a ea 88 3d e9 65 99 bd
       -0.32295117 0.09642863 0.066852644 -0.07490141
000360 73 c7 69 bb eb 43 e8 3d b4 a6 8e bd fd 37 9c bd
       -0.003567186 0.11341079 -0.0696539 -0.076278664
000370 bc 09 5a 3d a3 4a ac bd 26 45 e3 bd 04 25 83 3d
       0.05323194 -0.08412673 -0.110971734 0.064035445
000380 d0 e1 7b bc 42 d8 2e 3e ff 82 61 be 9b a4 11 3f
       -0.015373662 0.17074683 -0.22022627 0.56891793
000390 20 d4 76 3c a9 4e 35 3f 00 b5 c4 be ad 37 66 be
       0.015065223 0.7082315 -0.38419342 -0.22482176
0003a0 9a c5 a1 bd 83 c0 c1 3c dd 97 14 bd cd 63 20 be
       -0.07899018 0.023651367 -0.03627764 -0.15663071
0003b0 ba 0c 4e 3d 6a 55 02 be 03 0d 81 be 5d a4 45 bd
       0.050305106 -0.12727895 -0.2520524 -0.048252452
0003c0 6e 8a 5f bd 58 f7 a4 3e 34 18 8e be 08 cc ce bd
       -0.054575376 0.32219958 -0.2775284 -0.100975096
0003d0 61 a8 62 3d c9 ec 13 be f6 9e 1a bd 32 4d b2 3d
       0.05533636 -0.14445795 -0.037749253 0.0870613
0003e0 9a eb 38 bc 93 8a 5b bd b7 82 1f 3e 92 2e de bd
       -0.011286641 -0.05359895 0.15577208 -0.10848726
0003f0 e3 58 38 3e 0e 29 47 be cd 8e 5e 3e 5a 75 6c 3e
       0.18002658 -0.19449255 0.21734162 0.23091641

conv3.bias f4 [16]
000000 87 5b f0 bd ff 85 cd bd 92 eb 94 3e 82 55 e8 3d
       -0.117362075 -0.10035323 0.29085976 0.11344434
000010 e9 6a 93 bd 9a 3a 45 3e a9 18 74 bc 4a ff 47 bd
       -0.07198126 0.19260636 -0.014898458 -0.048827447
000020 2c a0 65 bd 56 ac 4a bd b7 7c e0 bd 1c 81 ce 3c
       -0.056060955 -0.04948076 -0.109612875 0.025208049
000030 0d 54 69 3e 6a b9 62 3e 40 47 29 3e 97 e0 29 3e
       0.22785969 0.22141042 0.16531086 0.1658958

conv4.weight f4 [32, 16, 3, 3]
000000 04 14 7c bd 36 6b f4 3c 6a 22 52 bd 44 1e 83 3c
       -0.061542526 0.029836278 -0.05130235 0.016005643
000010 85 fd ac bd 94 4f 87 3d ac 7b 3e bc 0b 9e 0a 3d
       -0.084467925 0.06606975 -0.011626165 0.033842128
000020 f4 e3 4c 3c 72 ff 02 bd 68 3d 66 3c f6 b9 1d 3c
       0.01250552 -0.031981893 0.014052726 0.009626856
000030 c4 e4 7a bd 2a 82 8a bc 1c 7b 91 3d 01 02 3f 3c
       -0.061253324 -0.01690777 0.071035594 0.011658193
000040 77 1c 3b 3d 29 53 62 3d 36 3f 9b bd 75 11 3e bd
       0.045681443 0.05525509 -0.07580416 -0.046403367
000050 ba 44 df ba 98 74 88 3d 15 ff 96 3d b8 27 e3 3c
       -0.0017034032 0.066628635 0.07372872 0.0277289
000060 48 e4 d4 3d 9e 8b 6c 3c ba ca 14 3e 3e b2 ad bd
       0.10395104 0.014437584 0.14530459 -0.084812626
000070 55 28 e0 bd 9c 7e 14 3e 25 7c 08 3d ba 48 3e bd
       -0.10945193 0.14501423 0.03332152 -0.046456076
000080 06 62 8f be 9e df 3b 3e e2 13 d9 3d b6 e2 89 3e
       -0.28004473 0.18347022 0.105994955 0.2693078
000090 95 16 3d 3d f5 a5 39 bd a5 4e 4d 3d 82 04 d3 bc
       0.046164114 -0.045324285 0.05012383 -0.025758985
0000a0 12 51 fa 3c d6 76 6d 3d e1 a6 4b 3b 0f d1 86 3c
       0.030556235 0.05797466 0.003107481 0.016457109
0000b0 70 7e 4c 3c 98 4e 59 bd 08 03 07 bd a0 19 21 be
       0.012481317 -0.05305347 -0.032961875 -0.15732431
0000c0 86 ec 21 bd 12 60 20 3e 08 35 9f 3d d9 8f 94 3d
       -0.039532207 0.15661648 0.07773787 0.07253999
0000d0 6c 0c c6 bc 69 b6 76 bd f3 73 0a be 23 12 5d 3b
       -0.024175845 -0.060232554 -0.13520794 0.0033732734
0000e0 34 ec a1 bd 6d d6 67 3d eb a6 84 bd 36 61 a6 bd
       -0.0790638 0.056600977 -0.064771496 -0.0812401
0000f0 1f ef 92 3c 1f a8 6c bd b9 4b fc bd a7 f6 aa bd
       0.017936287 -0.05777752 -0.123191305 -0.083478265
000100 fa e3 8c 3a 1a 02 5c be 82 28 b0 bd 60 50 27 bd
       0.0010749095 -0.21485177 -0.08601476 -0.040848136
000110 23 09 d6 bd e5 c7 44 3e 91 6e 48 3c 42 98 14 3e
       -0.104509614 0.19216879 0.012233392 0.14511207
000120 44 56 3f 3d 32 c2 65 3b b9 3d 2e 3a d9 ac 13 bc
       0.04671313 0.0035058376 0.00066467706 -0.009013378
000130 35 0a 84 bd 37 9d 38 bd bc e0 19 3d 89 6f 74 3d
       -0.06447259 -0.045071807 0.03756784 0.05967668
000140 b7 b2 25 3d d4 80 a3 bd c4 41 e9 bc 74 11 1b be
       0.04045364 -0.079835564 -0.028473742 -0.15143377
000150 1c f5 07 be 23 b3 80 bd 1f 28 fd 3b a0 d9 47 3d
       -0.13277096 -0.062841676 0.00772573 0.048791528
000160 42 38 79 3c 40 67 72 3d cb 43 ab bd 13 81 08 3e
       0.015211167 0.059180498 -0.0836254 0.13330488
000170 b2 05 f5 3d 81 c6 02 3e 8c 8a 73 bd 4e c9 9e bc
       0.11963977 0.12771036 -0.0594583 -0.019383099
000180 7f fd 6d 3c 2d df fc 3d e0 4c 56 3d 7f 94 0b be
       0.01452577 0.12347255 0.052319407 -0.13630866
000190 80 2c cf 3d 9b 6d 27 be 87 28 6c bd ea f8 c3 3d
       0.101159096 -0.16350405 -0.057655837 0.09568961
0001a0 26 ac bb 3d 85 6e 40 3d 7e 66 ae 3d cc 85 fd bc
       0.09163694 0.0469804 0.085156426 -0.030947588
0001b0 69 01 26 3e 6b 6b b7 be bd 6a f4 3d 5c a2 5a 3d
       0.16211475 -0.3582414 0.11934421 0.053377494
0001c0 8c 72 94 bd 2a 07 17 bd c8 83 4c be 82 71 a8 3d
       -0.072484106 -0.036872067 -0.19972146 0.08224775
0001d0 d8 15 50 3e c4 0b b8 bd 17 90 b1 bd da 1b 00 be
       0.20320833 -0.08986619 -0.08670061 -0.12510625
0001e0 15 3d 3a 3d 38 de 9a bd c8 3c c0 3b 9b 18 37 be
       0.04546841 -0.07561916 0.0058666207 -0.1788048
0001f0 0f 03 76 3d 97 de 2c be 2e 72 ed bd b0 c1 a3 3d
       0.06006151 -0.16881786 -0.11594044 0.07995927
000200 32 9f 94 3d d6 56 61 bc db d4 d4 bd c8 f3 11 be
       0.072569266 -0.013753613 -0.103921615 -0.14253151
000210 03 a5 b8 3d b7 56 88 3d eb 04 cd bc 4d 9b b9 3d
       0.090158485 0.066571645 -0.02502676 0.090628244
000220 a6 af d6 3d 69 34 fa bd 8c 70 d7 3d d0 c8 27 bd
       0.10482721 -0.12217028 0.105195135 -0.040962994
000230 cb e7 80 bd 83 41 16 3e b1 fd 96 bc d6 fe ef bd
       -0.06294211 0.14673428 -0.018431516 -0.11718528
000240 54 b9 8c 3c 8a 65 88 3d 3e 4f 4c 3d c1 77 e2 3b
       0.017178215 0.06659992 0.04988026 0.0069112484
000250 7a bf fc 3d 1e 21 b1 3d 81 7d 09 bc 6c 1c f9 bc
       0.12341209 0.08648895 -0.008391739 -0.03040906
000260 7a ab 46 bc a6 79 29 bd b9 59 3f bd 9d 1f f0 3c
       -0.012125844 -0.04137578 -0.046716426 0.02931195
000270 3d b7 05 3d d8 3f be ba f1 cd d2 bb 36 d0 83 3c
       0.032645453 -0.0014514877 -0.0064332415 0.016090494
000280 41 a4 a2 3d 17 59 7b 3d f9 b2 1c 3c 4b 57 6a be
       0.07941485 0.06136426 0.009564155 -0.22884862
000290 0a de cd bd a7 25 91 bd 12 af f3 bb 9b da 8f bd
       -0.10052116 -0.0708726 -0.0074366415 -0.070241176
0002a0 5f 2a f6 bb 55 76 dc bd 46 49 a1 3c 58 89 6d 3e
       -0.0075123752 -0.107647575 0.01968826 0.23196924
0002b0 7a 24 61 be e7 db 60 3e 8f d4 61 3d a3 17 21 be
       -0.21986571 0.21958886 0.055134352 -0.15731673
0002c0 08 bc 1b be b5 25 10 bc 77 b9 65 bd bf db 72 be
       -0.15208447 -0.008798053 -0.056085076 -0.23716639
0002d0 88 95 82 bd 9c 12 bb 3c b1 e7 15 bc ab d6 7d 3c
       -0.06376177 0.022836022 -0.009149478 0.015493075
0002e0 88 4c 23 bc 08 72 41 bc 68 4b a2 3d 5b c4 02 3e
       -0.009966977 -0.011806972 0.07924539 0.12770216
0002f0 bd 2e 63 bb a9 f1 9a 3d 8e fb 5c 3c ff ab 66 bc
       -0.003466531 0.07565624 0.01348771 -0.014079093
000300 50 23 8f bb de ec 29 bd 88 41 4d bd 14 d7 99 3d
       -0.0043682232 -0.04148566 -0.050111324 0.07511726
000310 38 5a c5 bc c8 80 7b bd c3 1b 12 3b 09 3a 87 bd
       -0.024090871 -0.061402112 0.002229438 -0.06602866
000320 d3 c8 e6 bd 8a 84 83 bd 86 d6 af bc d2 25 b3 bc
       -0.11268773 -0.06421764 -0.021464597 -0.02186862
000330 c7 20 0f 3d 78 24 e3 bd 05 7a 16 bd 3f 79 d9 bd
       0.03494337 -0.1109094 -0.03673746 -0.10618829
000340 fb d2 21 be 99 4e 2d 3c c0 b7 4c 3e df fc 97 3e
       -0.15803139 0.010577821 0.1999197 0.29685113
000350 02 1a 95 bd 01 e3 81 3e c6 37 84 be 7a 1f 12 bd
       -0.07280351 0.25368503 -0.25823802 -0.03567455
000360 b2 f5 81 3c c2 61 b2 3d 23 3d b5 3c 8f 53 76 bd
       0.015864227 0.08710052 0.022123879 -0.06013828
000370 a5 4a 27 3d f2 ec 6a 3b 9b 09 a9 bd 54 80 f9 bc
       0.04084267 0.0035846797 -0.08253785 -0.0304567
000380 12 85 84 bd 5a a4 1a bc 88 5c ba bc 49 e5 80 bd
       -0.06470694 -0.0094385985 -0.0227492 -0.06293733
000390 78 4a cb 3d 93 25 e7 3d 89 08 74 bd 57 89 9b 3d
       0.09926313 0.112864636 -0.059578452 0.07594555
0003a0 36 7a b9 3b b5 2a 6e bc 34 01 49 3d 1d 4b fd 3d
       0.0056603206 -0.014536549 0.049073413 0.12367842
0003b0 cb ed 26 3d e7 87 6e 3d 2e c1 f4 bd 1e 17 a0 3d
       0.04075412 0.058235075 -0.119509086 0.07816909
0003c0 a6 89 dc 3d e0 06 0c be 08 bf 83 bd 46 ac c1 bc
       0.10768442 -0.13674498 -0.06432921 -0.023641717
0003d0 b0 a6 d7 3d ab d2 12 be 0e 0f 17 3e b3 1c 5f 3d
       0.1052984 -0.14338176 0.14751837 0.05447073
0003e0 bc 18 8d 3d 9d 65 59 3e 68 f2 8a be 5e f0 67 bd
       0.06889483 0.21230169 -0.27138066 -0.056625716
0003f0 bf 18 e8 3c 7d a1 ee 3b dc 53 0b 3e 07 96 4a 3e
       0.028332112 0.0072824345 0.13606209 0.19783793

conv4.bias f4 [32]
000000 f7 43 cb bc c9 45 8f bd 34 0c ad bd 29 7b 23 bd
       -0.024812682 -0.06995732 -0.08449593 -0.039912377
000010 3c 81 41 3d 27 1a 7a bd fa 01 d7 3d 20 05 76 3d
       0.047242388 -0.061060097 0.10498424 0.06006348
000020 9c 91 83 3d 15 70 b4 3d 36 8d c2 3d d9 75 c1 bd
       0.06424257 0.088104405 0.0949959 -0.09446306
000030 f1 49 8f 3d 40 25 57 bd bd 1c db 3c f4 a5 a4 bd
       0.06996525 -0.05252576 0.026747102 -0.080394655
000040 84 3a 8b bd e0 87 75 3d 03 30 77 3d 17 b7 5e 3d
       -0.0679827 0.059944034 0.060348522 0.054373827
000050 fa 2d e3 3d 9a 8e 54 3d 52 88 08 bc 7d a6 96 bd
       0.11092754 0.051893808 -0.008333283 -0.07355974
000060 76 ae 44 bc 3d 9b 49 3e bc cf ae 3d 5b 8f 74 bd
       -0.012004485 0.19688125 0.08535716 -0.059707027
000070 74 49 ad 3d 8d bb 81 bd 30 b4 89 bc 77 be 12 bd
       0.08461276 -0.063346006 -0.016809553 -0.035826173

conv5.weight f4 [10, 32, 3, 3]
000000 0f 70 a3 3d 8c 27 b6 3d 4b ae a3 bd c3 bb 45 be
       0.07980358 0.08894262 -0.07992228 -0.19309907
000010 73 b7 14 3e ae e3 8d 3d cc 86 bd 3c 2d 38 5d be
       0.14523105 0.06928192 0.023135565 -0.2160346
000020 b9 c8 10 be 32 97 06 3e 5c cc ad bd 2f 45 d3 3d
       -0.1413907 0.13143614 -0.08486244 0.1031593
000030 9d f5 04 be af e8 0b bc 97 dd c7 3d 87 6e cb bd
       -0.12984319 -0.008539363 0.09759062 -0.09933191
000040 2b 35 28 bc 69 a6 41 be 19 ac 13 bd 2d 89 b0 3d
       -0.0102665825 -0.18911137 -0.036052797 0.08619914
000050 34 bb a7 3d 40 4b 6c bd 02 d0 4a 3c d2 9d 81 3d
       0.08190003 -0.05768895 0.0123786945 0.0632893
000060 b2 0c 95 3c 19 2c c0 bd 74 fc 12 be 4b 7d 9c 3d
       0.01819453 -0.09383411 -0.14354116 0.07641085
000070 70 aa cb bd 35 80 2e 3c af 47 a2 bd 66 06 b6 bd
       -0.09944618 0.010650684 -0.07923829 -0.08887939
000080 e9 b9 18 3d 91 90 5e 3e 04 9b ab bc 2a c3 e1 bd
       0.037286673 0.21734835 -0.02094794 -0.11023553
000090 1f d7 36 3e 51 50 b7 3d a1 72 87 bc e3 5f 2c 3d
       0.178555 0.08950866 -0.016534152 0.042083632
0000a0 27 0c b1 3d 63 5e 3b be 2f 96 85 3d a0 88 ba 3d
       0.08644896 -0.18297724 0.06522786 0.091080904
0000b0 84 8e 26 bd 9c a6 bf 3d eb 40 b2 bd 2c a9 49 3e
       -0.040663257 0.0935795 -0.08703788 0.1969344
0000c0 25 db 74 3d 10 6a ca 3c b1 1d 15 bd da c9 82 bc
       0.059779305 0.024708778 -0.03640527 -0.015965391
0000d0 c7 24 84 3d 6a 1c 29 be 41 bd e4 3d ab 03 5c 3b
       0.06452327 -0.16514745 0.1116891 0.0033571522
0000e0 c2 17 24 3e 40 e7 03 be 33 68 62 3d 38 c2 55 be
       0.16024688 -0.12881184 0.055275153 -0.2087487
0000f0 93 0a 13 3d a6 59 93 3c 4d 56 4a 3e 52 92 68 3e
       0.035898756 0.017987084 0.19759484 0.22712067
000100 40 6e db 3c 35 57 19 3d 9b 03 6a 3d 1a 49 c5 3d
       0.02678597 0.037436683 0.057132345 0.09633084
000110 ad a8 76 bd 5f fc 1d be b4 62 01 3e 5a 50 5a bd
       -0.060219456 -0.15428303 0.12635309 -0.053299285
000120 01 7f a6 bd 10 2e b6 bb 5c bf 86 be c8 4b 1e 3e
       -0.08129693 -0.0055596903 -0.2631787 0.15458596
000130 f5 51 83 3d a1 a9 2f 3e d4 18 0b 3d 97 3c 25 be
       0.064121164 0.17154552 0.033959225 -0.16136394
000140 f1 79 a2 bd e8 ab 08 3e 94 cf 02 3e 81 d6 09 be
       -0.07933415 0.13346827 0.12774497 -0.13460733
000150 49 30 b5 bd 6b f3 8a 3b d8 a4 84 bd 41 5f 69 3d
       -0.088471 0.0042404435 -0.06476754 0.056975607
000160 33 51 35 be d7 59 13 3e bc 46 83 3b 2f 9d 9e bd
       -0.17706756 0.1438974 0.004006235 -0.07744824
000170 a0 86 d1 3d 97 9e 0a be b2 cc c9 bd 5b 50 55 be
       0.10230756 -0.1353706 -0.09853496 -0.20831434
000180 90 63 5a 3e 28 bd 1d 3e de 52 2b 3e e4 98 e1 bd
       0.21327043 0.15404189 0.1673083 -0.1101549
000190 58 d4 ac 3b 34 80 f3 3d 73 8b 9e bc e8 f2 76 3b
       0.005274337 0.11889687 -0.019353604 0.0037681405
0001a0 f7 42 10 bd d7 9a 51 bd 76 9c c0 3d 45 f0 d5 bc
       -0.035220113 -0.051173057 0.094048426 -0.026115546
0001b0 8b 72 39 be e0 13 8c be d4 aa ac be cf d4 0b bc
       -0.18110101 -0.27358913 -0.33724082 -0.008534624
0001c0 70 f4 4a 3c 6e f1 1c 3e 05 fb 22 be 6c 77 7f 3b
       0.01238738 0.15326473 -0.15916069 0.0038981093
0001d0 78 f3 34 3d c1 64 57 3d 1c 9e a4 bc 08 38 04 bd
       0.044177502 0.05258632 -0.020094924 -0.032279998
0001e0 f1 e6 81 3d 73 f6 41 bd c2 fc a0 bd 3d 3e c2 3b
       0.06342877 -0.047354173 -0.0786071 0.0059278295
0001f0 39 90 ab bc 7e 6f 59 bd ae f7 01 3e 55 36 6c 3d
       -0.020942794 -0.053084843 0.12692139 0.057669003
000200 0f 32 e1 bd 97 18 d0 3d 67 ab 5b bd aa 88 37 be
       -0.10995876 0.1016094 -0.05363026 -0.17923227
000210 a7 c0 f5 3d f4 cb da 3d e4 4a b9 3d 76 c3 3c 3d
       0.11999636 0.10683432 0.090474874 0.046084844
000220 cb ef 40 bc 97 32 8d bd 8b ec ff 3c 5d 15 58 3d
       -0.011775921 -0.06894415 0.031240722 0.05275475
000230 d1 40 df 3d 26 75 24 be c3 98 b6 3d 99 5d 8e bd
       0.109010346 -0.16060314 0.08915856 -0.06951446
000240 33 60 7d 3d 10 8c 0e bd 04 e4 d0 3d 0b a5 f8 bc
       0.06185932 -0.034801543 0.101997405 -0.030352136
000250 26 5e f8 bd 5e d6 35 3e a5 7f b5 3d 1a 31 88 3d
       -0.121273324 0.17757556 0.08862237 0.066499904
000260 65 7e 3c 3d 0d 9b de 3d 58 be 74 3e 90 fd 56 3d
       0.046018977 0.10869417 0.23900735 0.05248791
000270 41 6d ba 3d 03 3b 88 3e 56 31 b3 bd e2 82 b3 bd
       0.0910287 0.26607522 -0.087496445 -0.08765198
000280 fd d2 da bd e5 80 1b bd 67 d8 1a 3d ce 5b 74 3d
       -0.10684774 -0.03796472 0.037804034 0.059657864
000290 52 13 94 be d1 fa a4 3e 35 c6 a6 3d d3 33 c6 3d
       -0.2892099 0.32222608 0.08143274 0.096778534
0002a0 6a de 64 3d 5d 57 9e 3e f7 cf 30 be c4 7a 22 be
       0.055876173 0.30926028 -0.17266832 -0.15867144
0002b0 a2 38 d5 3d 1a d3 cd 3d 8d e6 db bc 02 0d ad bc
       0.104111925 0.1005003 -0.026843334 -0.021124367
0002c0 d7 65 70 3d 2e b1 e2 3d 3c a3 33 be 7a ad 29 3e
       0.058690872 0.110689506 -0.17542738 0.16570082
0002d0 f3 bd 50 3d 2a 15 44 3e b6 fb 03 3d 90 8e 35 be
       0.0509624 0.19148698 0.032222472 -0.17730165
0002e0 dd 66 a6 bd d9 fa b5 be e6 9e 2d be 56 e2 a5 bd
       -0.08125088 -0.35542944 -0.16955146 -0.08099811
0002f0 53 61 0e be da 16 04 be e2 af 5d 3d 5e 4a c6 bb
       -0.13904314 -0.12899342 0.054122813 -0.0060513457
000300 b7 57 ba bc a5 c2 bd bd fb ed a1 bc 85 fc a5 bd
       -0.022746904 -0.09265641 -0.019766798 -0.08104805
000310 ab bc c7 3d fd e3 bb bd 2d 5a 14 bd 5d d5 93 3b
       0.097527824 -0.09174345 -0.03621881 0.004511519
000320 54 de e8 ba 84 e3 83 bc 44 f9 6a bc be d7 85 3b
       -0.0017766454 -0.016099699 -0.014341656 0.0040845564
000330 5c a7 89 bc 32 b6 a9 3d af 43 21 bd a1 5d 5a bd
       -0.016803436 0.08286704 -0.03937119 -0.053311948
000340 4b 10 5b bc e8 c4 ec bc e8 da 00 bd ea ee ea bd
       -0.013370584 -0.028902486 -0.031458765 -0.114713505
000350 eb 56 ee 3d cc cb 1e 3e ee 3c 31 bd 66 06 a3 3d
       0.11637672 0.1550743 -0.043270998 0.07960205
000360 5a 5c 34 3d 64 29 f9 3d 27 ee 5a 3e 75 4d 59 3d
       0.044033386 0.12166098 0.2137991 0.053052384
000370 e3 de 36 3d aa 7e c0 3d 85 de 14 3d 21 5e ca 3d
       0.044646155 0.09399159 0.036345024 0.09881235
000380 c8 1a 8b bd 74 fb 0d be df 36 e2 3c 04 0d 56 be
       -0.067922175 -0.13865453 0.027614055 -0.20903403
000390 4a f8 1e bd a4 17 71 bc 0f d8 65 3e ca ec 3e be
       -0.038811006 -0.014715109 0.22445701 -0.18645015
0003a0 fc f8 76 be 6d 9b 1d be 26 be 2a 3e 7c 38 d8 bd
       -0.24118418 -0.15391321 0.16674098 -0.105576485
0003b0 00 df 0a ba 90 d0 cb bd 93 b1 a1 3e b0 1c 19 3d
       -0.0005297512 -0.099518895 0.3158079 0.037380874
0003c0 8a 50 98 3d f9 2c da bd f6 3c dc 3d dc b3 67 3d
       0.074372366 -0.10653109 0.10753815 0.05656801
0003d0 31 b8 6f bb 0c fc 01 bd 0f f3 fd 3b 91 7d 86 3d
       -0.0036578292 -0.03173451 0.007749922 0.06566919
0003e0 fd bd 95 3d f2 14 4a 3e 4d 79 98 bc f9 05 19 be
       0.07311628 0.19734553 -0.018612528 -0.14943685
0003f0 aa 88 76 be 35 30 52 3e 53 23 ad bc 65 7b a0 bd
       -0.2407557 0.20526202 -0.021135008 -0.07836036

conv5.bias f4 [10]
000000 98 0c 63 3d b5 fe 0d 3d b5 80 3a bd a2 72 27 3d
       0.055431932 0.034666736 -0.0455329 0.040880807
000010 16 c0 d5 bb 23 81 11 3c 5f 8c fb 3b 15 e5 47 bd
       -0.0065231426 0.008880886 0.0076766456 -0.048802454
000020 e4 4e b5 3c 7d 7f b0 3d
       0.022132345 0.086180665
