GLmodels/BaseGLseed5.pt (torch_old, 38047 bytes, 10 tensors)

conv1.weight f4 [4, 3, 3, 3]
000000 2d 2a 02 3e 23 5d 13 be 65 99 20 3e ce 30 fc 3d
       0.12711401 -0.14390998 0.15683515 0.12313996
000010 21 94 25 3e 38 18 17 be a7 46 04 be ca 8b bb 3d
       0.16169788 -0.14755332 -0.12917577 0.09157522
000020 42 f5 37 be 4a da 3f 3f 57 e7 24 3f 36 93 61 3f
       -0.17964652 0.7494246 0.64415497 0.8811525
000030 1b b5 9a 3e 50 d2 3e 3f fc 2b 62 3f 58 84 a7 3e
       0.30216298 0.7453966 0.88348365 0.32718158
000040 b9 de 38 3f 52 9d 27 3f 52 bf 2e be f7 94 25 3e
       0.7221485 0.65474427 -0.1706517 0.16170107
000050 4a d2 85 3d 61 06 bc bd 80 05 35 be ce af e0 3d
       0.0653425 -0.09180904 -0.1767788 0.10971032
000060 6f 47 3b 3e f8 75 21 be b0 51 2c 3c de 67 8d 3d
       0.18288969 -0.15767658 0.010517523 0.06904577
000070 8a 20 ba bd 08 7b 2c bd ba 96 03 be f4 55 ba bd
       -0.090882376 -0.04210952 -0.12850466 -0.090984255
000080 48 a9 33 be 00 27 92 bb c6 b1 e9 3d b2 b2 bf 3d
       -0.17545044 -0.0044602156 0.11410861 0.09360255
000090 9e f8 15 3f 54 a6 05 3e 24 36 e9 3e 33 bb 0b 3f
       0.58582485 0.1305173 0.4554912 0.5458252
0000a0 03 fd de 3e 8f f1 b9 3e e1 21 ad bd 55 0b b0 3e
       0.43552408 0.36317107 -0.084537275 0.34383646
0000b0 d7 40 06 3f 3f 06 1e 3e 5b fa 24 3e 8c 53 1a 3d
       0.5244269 0.1543207 0.16111128 0.037677333
0000c0 61 75 0c 3e a8 6b 46 bd 1b 0b 20 3e 08 e3 86 bc
       0.13716651 -0.048442513 0.15629236 -0.016465679
0000d0 8c 8e 22 bd da eb c3 bd e6 d9 d1 3d 62 78 9f 3d
       -0.039686725 -0.095664695 0.10246639 0.07786633
0000e0 2a b4 fa 3d 89 e1 fb bd 1c 90 d1 bd b5 7d 3a 3e
       0.12241395 -0.12298877 -0.10232565 0.18212016
0000f0 41 c3 da bd a8 c8 e0 bd 58 e9 52 bd 0b 7f ab 3e
       -0.10681773 -0.10975772 -0.051492065 0.33495364
000100 9f 0b cc 3e 52 f3 76 3f ed 69 c6 3e e8 e4 2c 3f
       0.39852616 0.9646503 0.3875269 0.67536783
000110 9b 37 68 3f 4a fe 12 bb cc 69 28 3f 14 ea df 3e
       0.9070985 -0.00224294 0.65786433 0.43733275
000120 40 00 fb bc e5 22 15 3e 47 b1 35 3e 5d ff 2c 3e
       -0.030639768 0.14564092 0.17743407 0.16894288
000130 de ad e2 3d 2f 2b 37 3e 8e 02 8e bd f0 b0 48 bc
       0.11068319 0.17887567 -0.06934081 -0.012249216
000140 c0 ce 86 bd 70 bf 67 bc e8 b2 bf bc fa 93 d2 3d
       -0.06582403 -0.014144763 -0.023400739 0.102821305
000150 31 74 07 3e 72 e9 0d be 87 a4 d9 bd 00 70 72 bd
       0.13227917 -0.13858584 -0.10627084 -0.059188843
000160 20 c0 d2 3c 46 ff 98 bd 3f cf 9e be 0e 7b 6b be
       0.025726378 -0.074705645 -0.3101749 -0.2299616
000170 af 38 d8 be 9a 23 1c be 3a 81 60 be a6 b3 62 be
       -0.42230746 -0.15247956 -0.21924296 -0.22138843
000180 c3 53 9c be cd 68 0b be 2b 2c 9a bc fd 38 01 3e
       -0.30532655 -0.13614197 -0.018819889 0.12619396
000190 74 61 7e bd 60 ad 34 be fe f5 0c be 26 30 17 be
       -0.062104657 -0.17644262 -0.13765714 -0.14764461
0001a0 18 96 95 bc 2b 08 af bd aa b8 09 be a0 c6 2e 3d
       -0.018260047 -0.0854648 -0.1344935 0.042669892

conv1.bias f4 [4]
000000 35 66 23 3e e4 fe a0 3d 85 97 bd bb 18 9b 24 3f
       0.15956958 0.078611165 -0.005785885 0.64299154

conv2.weight f4 [8, 4, 3, 3]
000000 24 27 17 be bd 2c 7e bb 07 0f 7a 3d fe 24 20 3e
       -0.14761025 -0.003878399 0.061049487 0.15639111
000010 39 fa 10 be 82 d8 1e bd 95 57 3f 3e 0f 53 00 3d
       -0.14157952 -0.038780697 0.18685754 0.03132921
000020 16 04 1d 3d 97 fd 89 bd 61 c6 ed 3d cd 48 93 bd
       0.038333975 -0.067378215 0.116101034 -0.0719162
000030 c6 99 85 bd 11 20 18 3e 9b 0a 1f 3d 3f 61 27 3d
       -0.065234706 0.14855982 0.038828474 0.040864225
000040 66 bd e7 bd f9 54 2e bd 84 c8 ff bd 2f fd e7 bd
       -0.11315422 -0.042561505 -0.12489417 -0.11327588
000050 a1 5e 24 bd 72 b2 4f 3d 19 a1 0e be 39 49 15 3e
       -0.040129308 0.050707288 -0.13928641 0.14578713
000060 75 82 1e 3e a3 6d 1e be c3 25 b7 3d c4 13 d0 bd
       0.15479453 -0.1547151 0.08942749 -0.1016002
000070 05 bb 00 be 6d b8 2d 3e 36 c2 99 bd 9b 28 49 bd
       -0.12571342 0.16964884 -0.07507746 -0.04911099
000080 af 0b 10 3d ef 55 b2 3d cd 86 8b 3c 4d e8 f1 bc
       0.035167392 0.08707797 0.017032051 -0.029529715
000090 76 2d c0 3e 82 10 4c 3e b9 2b 29 3e e8 46 c3 3e
       0.37534684 0.19928172 0.16520585 0.38140035
0000a0 a0 23 91 3e 3e 95 a8 3e a5 6f 45 3e 00 bf 64 3c
       0.28347492 0.32926363 0.1928087 0.013961554
0000b0 9d fb c1 3d 38 0b b2 3b 2a a6 24 3e ce 8f 8c 3e
       0.094718195 0.0054334663 0.16079012 0.27453464
0000c0 78 d0 3d 3e 3a e0 87 3e 45 a9 4d 3e d8 bf 38 3e
       0.18536556 0.2653826 0.20084102 0.18041933
0000d0 1d aa 8d 3e a0 fc 05 3e 87 f3 a0 3e cd a3 b8 3d
       0.2766885 0.1308465 0.31435797 0.090156175
0000e0 8c 8e 95 3e 9c c5 d2 3e af 65 32 3d 6d 40 b7 3e
       0.29210317 0.4116639 0.043554004 0.3579134
0000f0 58 63 84 3e fe 75 b1 3d 6c c5 71 bd b7 19 71 be
       0.25857043 0.08665083 -0.059026167 -0.23544966
000100 6f dc 49 be 86 89 41 be ce a8 27 be 1e c0 ce bd
       -0.19712995 -0.18900117 -0.16372988 -0.10095237
000110 c9 89 3a be 71 df 4a be f4 75 84 bd ee 64 2d be
       -0.18216623 -0.19811799 -0.0646781 -0.16933033
000120 e1 87 fd bc 6b 94 30 3d 8d ca dc 3c 9a 79 c7 3d
       -0.030948581 0.043110292 0.026952052 0.097399905
000130 92 15 ea 3d d5 f7 d5 bd a1 6b 7c bd e8 4e 8d 3c
       0.114298955 -0.10447661 -0.06162608 0.01724954
000140 e2 e5 d0 3d b8 c7 96 3d 23 3c b4 bd 5f 13 bd bc
       0.10200097 0.07362312 -0.08800533 -0.023080526
000150 a9 df f8 3c 41 e4 80 3d 6b d4 9e bd 6a a9 14 be
       0.030380087 0.06293536 -0.07755359 -0.14517751
000160 c7 b4 b8 bd bd 54 93 bc 82 af f1 bd 4e 58 8f 3d
       -0.090188555 -0.017984742 -0.118010536 0.06999265
000170 74 f9 d3 3d 97 2b 58 bb b4 58 e8 3d 60 ae db 3d
       0.10350314 -0.0032984966 0.11345044 0.10726619
000180 73 e0 d9 3d f3 4e 0b be 6a 7c fb 3d 3b d1 01 3d
       0.106385134 -0.13604335 0.122795895 0.03169368
000190 06 7f 3b be 04 b4 ee 3c 98 12 02 be 99 ed 09 3e
       -0.18310174 0.029138573 -0.12702405 0.13469543
0001a0 ff 64 f0 3d c9 3f f6 bd 18 ed 10 be d2 d1 c9 3b
       0.117380135 -0.12023885 -0.14152944 0.0061590457
0001b0 90 c7 06 3f a1 0a 29 3f 9c a2 32 3f 63 6c 20 3f
       0.5264826 0.66031843 0.6977937 0.62665385
0001c0 58 04 20 3f c4 54 43 3f 72 76 71 3e 51 df 0b 3f
       0.6250663 0.7630122 0.2358034 0.5463763
0001d0 66 2b 32 3f 1d 85 f6 3e 3f 87 3a 3e 8d ff ca 3e
       0.6959747 0.48148432 0.18215655 0.39648095
0001e0 01 d1 a4 3e bc dc f5 3e 69 2d a5 3e 3b 3f 8d 3d
       0.32190707 0.4801997 0.32261208 0.06896826
0001f0 62 b8 e3 3d 8d 38 05 3f 5c 17 cf 3e f2 ec 02 3f
       0.111191526 0.52039415 0.4044751 0.511428
000200 cf 5e 39 3f 79 e9 f7 3e 93 a3 02 3f fc 57 37 3f
       0.7241029 0.48420313 0.51030844 0.7161863
000210 a3 ab 9e 3e 55 e3 05 3f 6b 26 d4 3e be 75 12 be
       0.30990323 0.52300006 0.4143556 -0.14302728
000220 96 11 12 be 6d 2e fe be 4c 9c 4c be 4b ea 9c be
       -0.14264521 -0.49644795 -0.19981498 -0.306475
000230 3f e2 a4 be 82 5f 0f be 0b bf 0c be 12 18 e0 be
       -0.32203862 -0.14001277 -0.13744752 -0.43768364
000240 e8 d4 0e be 6d e7 ec 3d 02 37 a3 bc 97 ac ac bd
       -0.13948405 0.115675785 -0.01992369 -0.084313564
000250 3e 8f 1d bd 48 20 11 3c 50 a1 f9 bd c7 24 24 be
       -0.038466685 0.008857794 -0.12188971 -0.16029654
000260 d0 29 e0 bd 1f 36 07 3e ea fe 45 3d 06 e3 29 be
       -0.10945475 0.1320424 0.048338808 -0.16590509
000270 89 fc b7 bd 16 71 01 3e fb af 23 3e 72 ba 07 3d
       -0.08983714 0.12640795 0.159851 0.033136792
000280 8b cd bd 3d f1 e1 e0 3c 37 a7 c6 3d 8f 71 05 be
       0.0926772 0.027451487 0.096998625 -0.130316
000290 00 7d e4 3c df 4e 17 be 3e dc 27 be ec 68 0f 3e
       0.027891636 -0.1477618 -0.1639261 0.14004868
0002a0 01 08 84 3c cd e3 8e 3d ef b2 b6 bc 83 03 0d be
       0.016117098 0.06977043 -0.022302119 -0.13770871
0002b0 5a 8f 01 3e 86 58 1b be cb f4 df bd f5 cb 5b 3d
       0.1265234 -0.15170488 -0.109353624 0.053661305
0002c0 d3 8d 7d bd b1 d2 37 3d d3 5a 1d be ff fc 7f 3d
       -0.061902832 0.044878665 -0.15366678 0.062497135
0002d0 8b a4 01 be 6f e2 a3 3d 5f 75 b0 bc 6f b7 18 be
       -0.12660424 0.08002173 -0.021540342 -0.14913724
0002e0 7f c5 34 bd 25 4a d0 bc 76 3b c8 3d 20 bd 7b bd
       -0.04413366 -0.02542598 0.09776966 -0.06145966
0002f0 dd b0 dd 3c 53 ff b0 bd 8f 7c ce b9 eb eb 0e 3e
       0.027061874 -0.08642449 -0.00039384185 0.13957183
000300 23 c7 87 3d ff 45 18 3d 93 c2 1e be bb cc c2 3d
       0.06629779 0.03717613 -0.15503912 0.095117055
000310 4d 5d 2e 3e d2 5c 47 3d 79 eb f6 3d 93 f0 88 3d
       0.17027779 0.048672505 0.120566316 0.06686511
000320 b0 53 23 3e 96 54 00 bd 80 ac 80 bd bb 4e c1 3d
       0.15949893 -0.031330667 -0.06282902 0.09438845
000330 54 2e 55 bd 6d aa ce bb 18 2e 98 bb b3 fa 71 bd
       -0.052046135 -0.0063069374 -0.0046441667 -0.059076976
000340 fa b9 fa 3c 1d 3d 0e bd 9c 91 d9 bd 9e fc 1c 3e
       0.030606259 -0.03472625 -0.10623476 0.15330741
000350 cb 89 25 be df 67 b7 bd d1 8b 1a 3e 53 ea db bd
       -0.16165845 -0.08955359 0.15092398 -0.10738053
000360 76 1a a4 bd 5d f5 5e 3e 6f d9 aa 3e a1 dd 0d 3e
       -0.080128595 0.21773286 0.33369014 0.13854076
000370 c3 d9 9d bb ea 09 11 bd fa c4 3a be 4d 3a 33 3d
       -0.004817219 -0.035409845 -0.18239203 0.04375677
000380 30 78 0d 3e 81 27 0e 3d 6d a0 db 3d b8 1b 33 3c
       0.13815379 0.034705643 0.10723958 0.010931902
000390 43 a8 3a 3c 0b 2f 53 3e 4f f7 a5 3c 3a ac 21 be
       0.011392656 0.20623414 0.020259527 -0.15788355
0003a0 2c 9f 0e 3e d8 70 23 3e 75 c7 69 3e 27 40 7a 3e
       0.13927907 0.15961015 0.22829993 0.24438535
0003b0 51 97 fb 3d a7 1e 00 3e 26 54 10 3e 87 c5 2c 3e
       0.12284721 0.12511693 0.140946 0.16872226
0003c0 ca f9 1f bc af a1 22 3e 20 66 91 3c 43 50 91 bc
       -0.009764144 0.1588199 0.017748892 -0.017738467
0003d0 66 56 94 3d f2 2b 0c 3c cf e4 13 3e b5 c4 49 bd
       0.07243042 0.008555399 0.14442752 -0.04925986
0003e0 a8 5b a3 bd 95 2f bf bd bd 9c ac bd a8 c0 4f be
       -0.079764664 -0.093352474 -0.08428333 -0.20288336
0003f0 34 c2 1b 3e 43 b4 d1 bd 00 f1 54 bd 0c 98 44 3d
       0.15210801 -0.1023946 -0.051987648 0.047996566

conv2.bias f4 [8]
000000 47 61 17 be 45 19 c2 3e 34 6c 00 be 44 50 35 3e
       -0.14783202 0.37909904 -0.12541276 0.177064
000010 7d 6f 03 bd e7 88 0c be 75 30 d9 3c 7f b0 14 be
       -0.032088745 -0.13724099 0.026512364 -0.14520453

conv3.weight f4 [16, 8, 3, 3]
000000 bd 5e 8c bd d6 ac ac 3d e7 7c ab bd 3c 21 29 3d
       -0.068540074 0.08431403 -0.083734326 0.04129146
000010 61 47 15 bd 96 e3 f5 3c 31 98 ab bc 58 bd 97 3d
       -0.036445025 0.030015748 -0.020946594 0.07409161
000020 5b 06 cc 3d de fa 60 3e 55 b7 9b 3d 1c b6 0b 3e
       0.0996215 0.21970698 0.07603327 0.13643688
000030 5e 4a 2e 3e 35 fc 6e be da 3a ae bd 21 22 8b 3e
       0.17020556 -0.23338397 -0.08507319 0.27174476
000040 1c 7c 01 be 44 36 44 3e d9 96 7a 3d c6 bf bc bc
       -0.12645 0.19161326 0.061179016 -0.023040663
000050 93 e6 26 bc a4 b7 b4 bc 33 2c d9 bd e2 05 b5 3d
       -0.010186809 -0.022060223 -0.106041335 0.08839013
000060 04 20 8e bd bc 38 24 3d ec fe eb 3d 25 98 59 3d
       -0.069397 0.04009317 0.11523232 0.053123612
000070 a9 97 95 bd ca d1 14 3f a4 90 75 3d 3a 0e f7 be
       -0.073043175 0.5813261 0.059952393 -0.48253042
000080 c1 d9 38 3e 40 f2 9f 3e 17 be b9 be c2 ee e2 3e
       0.18051817 0.3123951 -0.3627784 0.44322783
000090 22 17 ea 3d 91 36 e4 3d 43 9a 8c 3d c8 b4 01 3c
       0.114301935 0.1114322 0.068653606 0.007916637
0000a0 07 4c 3d 3d fc e9 22 bd 64 23 93 3c 0b 69 6e bd
       0.046215083 -0.039773926 0.017961212 -0.058205646
0000b0 91 ac ac 3d 89 7f 2a bd 52 c6 72 bd 3c 2f 81 bc
       0.08431352 -0.041625533 -0.059271164 -0.015769593
0000c0 ca 72 ba 3c c6 ed 82 3c 9f 72 8a bd ba 25 9f bd
       0.022759814 0.01598252 -0.067601435 -0.07770868
0000d0 db 35 ce bd d7 d4 5e bd 75 74 0d 3b 2c 2e c1 3d
       -0.10068866 -0.0544022 0.0021584306 0.09432635
0000e0 6e 4d 51 3d 22 86 9d bc b0 93 01 be 64 4d d4 bb
       0.051099233 -0.019228999 -0.12653995 -0.0064789522
0000f0 48 f5 86 bd 33 35 36 be 67 65 39 bc 7c 48 18 bc
       -0.065897524 -0.17793731 -0.01131568 -0.009294625
000100 7a de 9b 3c 57 69 3b 3d 0e 1a a4 bd b0 ad 00 be
       0.019026984 0.045754757 -0.08012782 -0.12566257
000110 e2 c2 8e bd e5 1c 36 bd 12 d0 88 bd 64 31 89 3d
       -0.06970765 -0.04446115 -0.06680311 0.06698874
000120 12 34 fd 3c 71 25 a0 bb ee 99 ae bd 68 91 90 bd
       0.030908618 -0.004887276 -0.085254535 -0.07058984
000130 f9 74 d1 3d e3 60 c4 bd fc c3 69 bb be 28 dc bd
       0.10227389 -0.09588792 -0.0035669794 -0.107499585
000140 44 a9 e8 bd 51 ac 74 3d 7e aa c8 bb b1 31 f1 bd
       -0.1136041 0.059734646 -0.00612384 -0.11777056
000150 a4 89 03 be 75 ab 00 3e 1a 1e 0e be 7c af f2 3d
       -0.12845474 0.12565406 -0.1387867 0.11849877
000160 e0 0b a0 3e af 8d 87 bd 50 9d 75 bc d9 95 c5 3d
       0.3125906 -0.06618821 -0.0149911195 0.09647722
000170 bb 37 1d bd 4b cf 1c 3d d7 c0 e3 3d 2f 45 e7 bd
       -0.038383227 0.038283627 0.11120766 -0.112924926
000180 de b4 fa 3c 53 ff f4 3d eb 3a 55 bd 24 e8 63 bd
       0.030603822 0.11962762 -0.05205814 -0.05564131
000190 97 05 88 3c 40 c6 02 be 20 47 00 bd 39 35 b7 3d
       0.016604228 -0.12770939 -0.03131783 0.08945698
0001a0 d0 c5 36 be b1 66 24 3e c2 2f 12 3f d1 f2 32 be
       -0.17848897 0.16054799 0.5710412 -0.1747544
0001b0 00 a5 62 bb 04 04 2b bd 33 06 1d 3d f0 8b 94 bd
       -0.003458321 -0.041751876 0.03833599 -0.072532535
0001c0 44 31 b4 bd 10 31 f4 3b 2b cf 69 bd 4e d2 66 3d
       -0.08798459 0.007452138 -0.057082336 0.056352906
0001d0 ff af 94 3d 20 1f 65 bd b1 1d f5 bc b6 ba 22 bc
       0.07260131 -0.055937886 -0.029921385 -0.009932211
0001e0 f0 aa 67 bd 1a 2e a3 3a 4b 30 cd bd fc fb bd 3d
       -0.056559503 0.0012449652 -0.10018977 0.09276578
0001f0 c3 c7 b8 3d e7 db 2b 3d 60 11 f3 3d 89 1e 1b 3d
       0.090224765 0.041957762 0.118685484 0.037870917
000200 cf c3 93 bd 84 9c 90 bd ef a4 27 bc 55 db 77 3d
       -0.07215082 -0.07061103 -0.010232194 0.060511906
000210 53 02 56 3d e0 16 00 3e 70 fd ad bd d9 bd 73 3d
       0.05224831 0.12508726 -0.08495605 0.059507225
000220 c7 17 e5 3d cd 3f c7 bd 62 3f f2 bd 9e e0 14 bd
       0.11186176 -0.09728966 -0.118284956 -0.036347024
000230 ba 39 81 bd 7f 00 b7 bd f3 13 23 3d 07 ae 90 bd
       -0.063098386 -0.089356415 0.039813947 -0.07064443
000240 40 95 d7 3d 3e a7 b9 bc c1 31 64 bc 3b 20 b7 3d
       0.10526514 -0.022662755 -0.013927878 0.08941694
000250 74 b8 2e bd 70 d5 98 bd 60 65 4b 3c b1 cf 86 3d
       -0.042656377 -0.07462585 0.012414306 0.06582583
000260 98 72 72 bd f3 fd 51 bd 70 fd c0 bd 5f 98 8f bd
       -0.059191316 -0.051267575 -0.09423339 -0.07011484
000270 0a ee ae 3d e1 9d 37 bd b2 5a eb 3c 7a 3c 75 3d
       0.08541496 -0.0448283 0.02872977 0.059872128
000280 cd e2 11 3e 9e 65 4a 3c 68 11 72 3d 9f 54 4f 3c
       0.14246674 0.012353329 0.05909863 0.012654453
000290 0c 2a 2b 3d 57 ea 85 3d 10 6d b7 bd 3d cf cf 3d
       0.041788146 0.065388374 -0.08956349 0.101469494
0002a0 0a 11 a5 3b 2b 48 5f 3c b9 7e de bd 98 d0 c7 3d
       0.0050374316 0.013628046 -0.10864014 0.09756583
0002b0 dd 9f b0 3c 38 05 49 3e 67 25 9b bd 1e f6 0e be
       0.021560604 0.19630897 -0.07575493 -0.13961074
0002c0 46 de e4 bd 3e 40 94 3e cf 3f b2 3b 60 07 4f be
       -0.11175208 0.28955263 0.0054397355 -0.20217657
0002d0 c3 56 b0 3d d1 16 8a 3d ec bc b1 3c 71 8a a9 3d
       0.086102985 0.06742633 0.02169653 0.08278359
0002e0 49 d4 e5 bd b2 7d 3c 3d 00 f3 4d 3b da 53 1a bd
       -0.11222131 0.04601831 0.0031425357 -0.037677623
0002f0 5b f1 88 3d a5 2b e0 bd 37 43 dc 3d 52 ee 90 bd
       0.0668666 -0.109458245 0.10755008 -0.07076706
000300 31 9c df 3d 3a 6b 98 bc 1e 9b bd bd 5e f4 87 bd
       0.10918463 -0.018605817 -0.09258102 -0.06638406
000310 4e ce 38 3d 26 d0 eb 3c 87 61 a6 3d 64 f4 97 3d
       0.045118622 0.028785776 0.081240706 0.07419661
000320 50 3b 1e bd 85 f1 c8 bd cb 38 66 bd 32 f3 c6 bd
       -0.038630784 -0.09811691 -0.056206506 -0.097143546
000330 74 db 8f bc d7 ae 65 bd 7b 43 f4 bd 97 62 ac bb
       -0.017560698 -0.056074943 -0.119269334 -0.0052607763
000340 8b 7b b0 bd 7f 77 07 bd 3c 45 22 3d 77 2a 37 bd
       -0.08617314 -0.033072945 0.03961681 -0.044718232
000350 1f 7c 99 bd 4a 65 0f bd 82 97 0a 3d e6 f4 c1 bb
       -0.07494377 -0.035008706 0.033835895 -0.0059190867
000360 60 51 99 3d 36 90 9d 3d 72 72 d4 3d 90 e0 cc 3d
       0.07486224 0.07693522 0.10373391 0.100037694
000370 e5 27 12 bd 9c e9 86 3c 74 99 f7 3d 36 25 b6 bd
       -0.035682578 0.016468816 0.12089816 -0.08893816
000380 ac a9 17 3d fc 1e 09 be 70 1a ee bd 61 0f 2d be
       0.037027046 -0.13390726 -0.11626136 -0.16900398
000390 bf 8e bd 3c 91 c5 00 be 48 48 9c 3b 3a e6 0f 3c
       0.023139356 -0.12575366 0.004769359 0.008782918
0003a0 b0 db 26 3e 3c 00 22 3d 58 f8 53 bc e3 90 4e bd
       0.16294742 0.039551005 -0.012937628 -0.050431143
0003b0 ab 62 80 bd 55 33 28 3d 32 5e ed bd 01 59 9f 3d
       -0.062688194 0.04106458 -0.11590232 0.07780648
0003c0 f7 40 8e bd 77 15 c5 bd d3 29 e1 39 ff 7c c6 bd
       -0.06945985 -0.09623235 0.00042946506 -0.0969181
0003d0 6d bf c2 be 1a 4c d1 be 60 5e 50 be 16 a1 67 3b
       -0.3803667 -0.40878373 -0.20348501 0.0035343817
0003e0 83 5c ac bd fe 43 d1 3e 02 df 10 3f a5 82 57 3e
       -0.08416083 0.40872186 0.5659028 0.2104593
0003f0 bc b3 72 bd 8f b1 83 3d 9a 29 42 3d be 08 02 3d
       -0.05925344 0.06430351 0.047402956 0.03174662

conv3.bias f4 [16]
000000 d2 33 c9 b9 b9 a8 bc bc e8 5b fe bb 18 d7 46 bd
       -0.00038376317 -0.023029672 -0.007762421 -0.048544973
000010 75 85 ca ba 08 d8 47 bd e5 4f 83 bd 19 02 88 bd
       -0.001545115 -0.048790008 -0.06411723 -0.06641025
000020 f1 76 3b 3f 1a 56 18 bd fd cd 3d b9 32 4d 99 3f
       0.73228365 -0.037191488 -0.00018101181 1.1976683
000030 a1 ba 14 3e bb ff 21 3f b5 d1 17 ba 96 a4 c2 bc
       0.14524318 0.6328084 -0.00057914417 -0.023760121

conv4.weight f4 [32, 16, 3, 3]
000000 6c c1 11 be 62 0b 1e 3d 1b cb b6 3d 36 af d3 3d
       -0.14233941 0.038585074 0.08925458 0.10336153
000010 ac 85 10 3c 6c 1c 9a bd 15 fe d8 bd b5 cf d1 bd
       0.008820932 -0.07524952 -0.10595337 -0.10244695
000020 4b ad e8 3d eb b0 c8 ba 6d 07 c3 bc 00 74 09 3d
       0.11361178 -0.0015311515 -0.023807252 0.03355789
000030 d4 67 d8 3d 39 db 5c bd 96 b9 65 3d a9 31 89 3d
       0.10566679 -0.053920005 0.05608519 0.06698925
000040 3a 0c 9e 3d 4c a3 d0 bc cf e3 b7 3c 96 97 88 3d
       0.07717176 -0.025468491 0.022447495 0.06669538
000050 58 45 c8 3d 88 88 93 3d 4d a3 1a bb 13 45 c3 bb
       0.09778851 0.07203776 -0.002359587 -0.005959162
000060 be bc 59 bd 16 a1 44 bd d8 f3 e1 3d 60 3a fe bd
       -0.053158514 -0.048005186 0.11032838 -0.12413478
000070 ca 64 f7 bc d6 77 53 3d 1a 76 f1 3c de 1e 25 bd
       -0.030199427 0.051627956 0.02947526 -0.04031264
000080 32 07 1b 3e 30 30 aa bd 8d a3 c7 3c 61 73 3f 3e
       0.15139464 -0.08309972 0.02436998 0.18696357
000090 28 43 9c 3d f2 bb 48 3d da 0e 36 3c 4b 8a 9d 3e
       0.076299965 0.049007364 0.011111939 0.30769572
0000a0 4a 3b 9a be 68 4b 46 bd fc f6 1d 3e 6d 2c f3 bd
       -0.3012336 -0.048411757 0.15426248 -0.11873708
0000b0 0f 08 17 3c ad 61 94 bd 76 84 96 3c 82 91 2a 3c
       0.00921823 -0.07245193 0.01837371 0.010410668
0000c0 c9 d1 a8 bc 3c ca 1a bd dc 42 a1 3d 78 86 6f bd
       -0.020607846 -0.037790522 0.078740805 -0.05847785
0000d0 87 d2 a1 ba e7 db 62 3c ec fa c3 3c 6e 9e 94 ba
       -0.0012346067 0.013846374 0.02392336 -0.001133872
0000e0 43 1f 49 bd 2d a2 bd bd 9f c2 92 bd dc 02 03 3d
       -0.04910208 -0.09259448 -0.07166027 0.03198515
0000f0 bd 8a 90 3d d8 31 2f bd 39 1b 4c bd 76 c2 36 bd
       0.07057712 -0.042772144 -0.04983065 -0.044619046
000100 5a 34 27 bd 50 f1 99 3d bc 33 58 3d 59 84 2a 3c
       -0.04082141 0.0751673 0.052783713 0.010407531
000110 3e ac 7a 3d e2 be 49 3d 95 0d 94 bd 63 ff 4d 3d
       0.06119942 0.049254306 -0.07229153 0.050292384
000120 20 78 d1 3c 76 53 f7 bd a7 5f a2 3c 44 df b7 3c
       0.025569975 -0.12076466 0.019821001 0.022445329
000130 8a 70 37 bd e1 7e ef bc ab 46 71 3d cb fe 65 bd
       -0.04478506 -0.029235305 0.058905285 -0.056151193
000140 64 37 20 3c 1a cd f2 bc a3 02 83 3c 7c f4 2c bc
       0.009778831 -0.029638816 0.015992468 -0.0105563365
000150 81 b0 99 3d 9f f5 32 bc f1 de 9c 3d f8 3f 1c 3d
       0.075043686 -0.010922818 0.0765971 0.038146943
000160 f8 6a 8b bc 54 00 18 3d 18 3f 33 bd a0 7f 28 b8
       -0.01701878 0.037109688 -0.043761343 -4.017318e-05
000170 91 55 94 3b 3c 45 74 3e fb 7a 3e 3e fb f8 7b bb
       0.004526802 0.23854536 0.18601601 -0.0038447964
000180 24 f4 f2 3b b6 ba 6c bc c8 7d 83 bd 9d dd 20 bd
       0.0074143577 -0.014448812 -0.06420475 -0.039273847
000190 68 a0 c3 3c d5 b9 40 3c 6d df 32 bc bd af bb bc
       0.023880199 0.011763056 -0.010917527 -0.022910947
0001a0 d5 92 ef bd 67 55 2a bc bb e2 ef 3c 62 4a 81 bd
       -0.11697928 -0.010396338 0.029282918 -0.063130155
0001b0 3a f5 94 bd 25 56 15 3d 99 eb 99 bd 86 4d 35 3d
       -0.07273336 0.036459107 -0.0751564 0.044263385
0001c0 52 23 39 3e 2e 75 8a 3d 69 31 c2 3c fe 8c 08 be
       0.1807988 0.067606315 0.023705201 -0.13335034
0001d0 2e 40 66 bd 53 91 60 bd 5f 03 6e bc a2 2d aa bb
       -0.05621355 -0.054826092 -0.014527171 -0.005193428
0001e0 37 ed 47 bd 0c 40 2a bd 10 cc ab bd fc a5 3b bd
       -0.04881021 -0.041564986 -0.08388531 -0.045812592
0001f0 6c a0 01 bc 40 54 84 3d f9 f9 89 3d 8d 21 20 bb
       -0.007911783 0.06461382 0.067371316 -0.002443406
000200 fb 96 ee 3c 3a 07 be 3d 16 fb 8d bd 0a af 31 bd
       0.029124727 0.09278722 -0.069326565 -0.04337982
000210 25 99 b0 3d 61 c6 a4 3d 0d 13 a5 bd 42 4a 02 bd
       0.0862296 0.0804565 -0.08060274 -0.0318091
000220 72 e5 74 be 76 09 ec bd 1b 9c 71 be 4b 69 ef bd
       -0.23915651 -0.11525242 -0.23594706 -0.11690005
000230 14 78 db 3c f5 bc a2 3d e7 bb a5 3d fc 01 27 be
       0.026790656 0.07946197 0.0809248 -0.1630935
000240 92 0f e5 bc fe 3e 35 bd 33 01 4e bd 7a da 01 be
       -0.027961526 -0.044249527 -0.050294112 -0.12680998
000250 d2 3a f9 3c 6f ec 0f 3c a1 96 92 bc 02 f3 ad 3d
       0.030423556 0.0087843975 -0.017894091 0.08493616
000260 d5 82 04 bd 93 8d 0e 3d c5 e5 6d bc f5 19 0a 3e
       -0.032351334 0.034802984 -0.014520113 0.13486464
000270 0f 31 60 3c b2 8e 84 3d 0b 9f 80 ba f9 56 20 3d
       0.0136835715 0.064725295 -0.0009813023 0.039145444
000280 b7 a8 b4 bc a2 4e d4 3d 69 44 80 bd 57 3f 8b 3d
       -0.022053106 0.103665605 -0.06263048 0.067991905
000290 95 a2 54 bd e4 01 e1 3d 49 81 f3 3c 49 a6 9a 3d
       -0.051912863 0.10986689 0.029724734 0.075512476
0002a0 e6 72 a8 3d 6b 48 88 bd f1 0e df 3d 41 d0 e6 39
       0.0822504 -0.06654438 0.10891522 0.0004402418
0002b0 21 47 bb bb db 58 87 3d b3 ce e0 3d fd 7c 94 3c
       -0.0057152663 0.06608745 0.10976925 0.018126005
0002c0 63 0d fc 3c 3a 74 d0 bb a9 37 98 bd 8e 7a 39 bd
       0.030768102 -0.0063615115 -0.07432491 -0.045282893
0002d0 1e 90 2e bf 7d be 9d be 18 56 2c bc 7d 7f a5 bd
       -0.68188655 -0.30809394 -0.010518573 -0.08080957
0002e0 4b eb a0 bd 6c 94 a0 bd 32 63 5f 3e 4f a7 33 3d
       -0.078573786 -0.07840809 0.21815184 0.04386073
0002f0 28 d3 ce 3e 09 ff 2d bd 30 18 73 bd d1 60 bf bd
       0.40395474 -0.04247955 -0.05934924 -0.09344638
000300 79 bd da bc 49 bc f5 3c ac 54 b3 3c 56 d2 e4 3c
       -0.026701676 0.029997008 0.02189096 0.027932327
000310 b9 2c 27 3d 78 90 a4 bc c2 59 bc bd e8 f0 e0 3c
       0.040814135 -0.02008842 -0.091968074 0.027458623
000320 71 51 e5 3d 4b c0 b1 3c 43 81 de bd 9e 73 9e 3d
       0.11197174 0.021698138 -0.108644985 0.07736896
000330 8e af 29 3b 93 16 10 3d ab 3a 4a 3c ca 0b 04 bd
       0.0025891992 0.03517778 0.012343089 -0.032237805
000340 b5 c6 89 3d 2e d5 85 bd df 58 e7 bb f2 ac a4 3d
       0.067273535 -0.065348014 -0.007060155 0.08040799
000350 2a 9a 9b 3d 2c 0d 7e bc 51 20 df bd c6 bc a9 bd
       0.07597764 -0.01550607 -0.10894836 -0.08287959
000360 2f 3d 9f 3d 10 75 45 3d 94 fe 14 bd cd 7f 8a 3d
       0.07775342 0.048207343 -0.036375597 0.06762657
000370 e3 37 df bd 36 34 39 3d c0 c7 23 bd a0 4e 9f 3d
       -0.108993314 0.045215808 -0.03998542 0.077786684
000380 64 73 48 bc c2 44 07 3c 13 d8 83 3c 08 c4 11 3d
       -0.0122345425 0.008256139 0.016094243 0.03558734
000390 3b d4 2b 3c 43 2e a0 bb 93 e6 a0 3d 0c bf 56 3c
       0.010487611 -0.0048883273 0.078564785 0.013107073
0003a0 0a bc 91 bb ec f5 bf 3d b6 d0 59 be b5 b3 51 bd
       -0.004447465 0.09373078 -0.21271023 -0.051196773
0003b0 0a 7c 24 be 4d eb 8c bd 0b 86 ca 3d 04 cc 2e 3e
       -0.16062942 -0.068808176 0.09888848 0.17070013
0003c0 ae b9 03 bd 02 b4 03 3e 19 14 0b 3e 07 48 bc bc
       -0.0321595 0.12861636 0.13581885 -0.022983564
0003d0 48 0b 52 3d c0 14 e1 3d 7d ee a7 bb 24 c3 87 bc
       0.05128029 0.10990286 -0.0051248656 -0.016572542
0003e0 f9 c9 fe bd 21 0f 67 bd 32 12 bd bd b7 0a 48 bd
       -0.12440867 -0.056410912 -0.09231986 -0.048838343
0003f0 cc a0 a9 bc 64 d3 44 3d d4 e6 9d bd f5 64 e0 bd
       -0.020706557 0.04805316 -0.077100426 -0.10956756

conv4.bias f4 [32]
000000 23 d3 aa bd 38 9c 43 3c 9b 4e f7 3c 1e 37 70 bc
       -0.083410524 0.011939101 0.03018885 -0.014661578
000010 82 56 3f bd 75 c5 a8 bc 94 fb bd 3e c7 e9 b6 bd
       -0.04671336 -0.020601967 0.37106 -0.08931308
000020 b1 c0 ca bc 5d 53 8a bd d4 0b 5d bd c0 36 13 bd
       -0.024750086 -0.067541815 -0.05396636 -0.035940886
000030 71 cd 12 3c 03 79 7e bd 23 4f 0e 3e 97 15 90 3c
       0.008960114 -0.062127125 0.13897376 0.01758842
000040 5a b3 4a bd c1 d3 91 bd d1 ce 19 bd 7f 2a fa bc
       -0.04948745 -0.07120467 -0.03755075 -0.030537842
000050 ef 0c 39 3d d6 34 dc 3d 9c ea 86 3e 37 06 82 3d
       0.04517835 0.10752265 0.26350868 0.06348842
000060 18 e7 82 bd 0c 4a af bd 99 d4 7a 3d 7f 0a 99 bd
       -0.06391734 -0.08559045 0.061237905 -0.07472705
000070 e0 fb 53 bd 51 bd 16 3e 87 f3 2a 3e 74 93 01 3d
       -0.05175388 0.14720656 0.16694461 0.031634763

conv5.weight f4 [10, 32, 3, 3]
000000 9c cc b9 bd e3 a2 d8 bc 28 bb 13 3c fa 48 13 be
       -0.09072229 -0.026444858 0.0090167895 -0.14383307
000010 9e 74 9c bd 01 3a 48 3e b1 d4 71 3e 32 4c d1 3d
       -0.076394305 0.19553377 0.23616292 0.10219611
000020 c4 cd a0 3d d1 e2 1a 3e 95 7e 86 3e 00 2b 4e 3e
       0.07851747 0.15125586 0.2626845 0.2013359
000030 c9 b5 57 3e 17 4a ca 3d cc 6b 4f 3d 60 13 11 3d
       0.2106544 0.09877413 0.050639912 0.035418868
000040 94 a9 bc be f4 ec 5a 3d 9a 34 2a bb cd a2 56 3d
       -0.36848128 0.053448632 -0.0025971294 0.052401353
000050 c1 17 a3 bd 10 8b 6a 3d cc 51 71 bd 3e 2e 74 bc
       -0.07963515 0.057261527 -0.0589159 -0.014903603
000060 83 c5 54 be b4 50 f0 bc 8e 0c af 3b 63 37 5d 3d
       -0.2077847 -0.029335357 0.005342073 0.0540079
000070 15 d3 0d bd 00 e0 35 3d e4 4a 1f 3e 3a 48 09 be
       -0.03462513 0.044403076 0.15555912 -0.13406458
000080 b9 28 d8 3c 04 05 39 3c 59 b9 8a 3c 57 b0 12 be
       0.026386606 0.0112927 0.016934084 -0.14325081
000090 2b a5 db bc 34 bb bc 3c 71 1c fb bc 64 84 1c 3e
       -0.026812157 0.023038484 -0.03065321 0.15284878
0000a0 99 24 c2 bd c2 8c 6e be f0 10 b8 bd 4a ce 84 bb
       -0.09479637 -0.23295882 -0.089876056 -0.004052912
0000b0 2b fe 1e bd 2f a5 ba bc 43 e6 29 be 7a 19 15 3e
       -0.038816612 -0.022783844 -0.16591744 0.145605
0000c0 b7 09 68 3d fe 53 0b 3e 3a c1 47 3e 67 d8 2a be
       0.05664989 0.13606259 0.19507304 -0.16684113
0000d0 e7 16 a3 3d 58 1d b2 3c 4e 7a a5 3d e5 89 03 3e
       0.07963353 0.021742508 0.080799684 0.12845571
0000e0 47 83 0b bd f8 53 07 3d 9e 2d 3c be 8e bd ea bd
       -0.034060743 0.033039063 -0.18376777 -0.11461936
0000f0 43 4d 08 be 29 80 f9 bd 9f 04 54 be dc af 39 3d
       -0.13310723 -0.12182648 -0.20704888 0.04533373
000100 c5 f2 a3 3c 30 ed 28 3d b2 2b 84 3d a8 7b 11 3d
       0.020013222 0.041241825 0.06453647 0.03551832
000110 85 48 b7 bc e8 1b 3b 3e 21 3f bd 3d eb 1f 96 3e
       -0.022373447 0.18272364 0.092405565 0.29321226
000120 c8 31 e6 bd 2b 66 df 3d 49 6b 94 3d bc 8a 95 3e
       -0.11239964 0.10908159 0.072470255 0.29207408
000130 a8 8b 28 be 81 fc 0d 3c 0e b0 28 3e 04 c0 5c bc
       -0.16459525 0.008666159 0.1647341 -0.0134735145
000140 77 3e af bd 9f b8 e0 3b dd 81 72 3d 65 54 fe 3b
       -0.08556836 0.006857946 0.05920588 0.0077615255
000150 a9 b5 55 3d 93 bb d1 3c f7 41 ac be 16 eb e4 3d
       0.052175198 0.025602138 -0.33644077 0.111776516
000160 da 9c 3f be 53 9e 70 be d6 46 85 3a 2a 4e 52 3d
       -0.18712178 -0.23497896 0.0010168205 0.051344074
000170 b0 59 18 be 3d 56 20 3c f0 58 8d 3c 59 55 34 be
       -0.14877963 0.009786186 0.017254323 -0.17610683
000180 7d ab 26 bd 6e 16 cf bd 11 76 36 be 14 5d 92 bd
       -0.040690888 -0.101117 -0.17818476 -0.071466595
000190 76 c6 4d bd ef 70 a8 bc 8f 2c 4e 3d a7 83 00 bd
       -0.050238095 -0.020561663 0.050335463 -0.031375553
0001a0 8c 6d 39 3d 8f c5 a0 bc a7 5b 13 3e 13 99 d6 3d
       0.045270488 -0.019625453 0.14390431 0.10478415
0001b0 4f c1 81 3d 2b 59 fe 3b fd b6 16 bc 17 3c 84 3d
       0.06335699 0.0077620945 -0.009198901 0.06456774
0001c0 53 4d a9 3c a2 6e b9 3d ae e2 07 3e 6c df 1c bd
       0.020666754 0.09054305 0.13270065 -0.03829901
0001d0 be 46 25 be b8 3b 25 be 61 8b 40 3d 98 db 46 be
       -0.16140267 -0.16136062 0.047007922 -0.19419706
0001e0 56 cc f8 bd cd 47 2f bc 8a 9b 0f 3d 46 97 47 3d
       -0.12148349 -0.010698271 0.035060443 0.04872825
0001f0 ad 2e 10 be 01 ff 98 3e 63 eb 27 be f5 d2 03 bd
       -0.14080305 0.29882053 -0.16398387 -0.032183606
000200 2e a1 32 be 18 dc 38 bd 54 0d 10 bd b9 73 76 3e
       -0.17444298 -0.045131773 -0.03516896 0.24067582
000210 31 f3 ef 3e 98 71 d5 bd c4 1f b1 be 78 e0 c1 3b
       0.46865228 -0.10422057 -0.34594548 0.0059166513
000220 35 d0 4f ba cf e2 9f bd d0 6b d0 bc 3b 01 96 3c
       -0.00079274486 -0.07806932 -0.025442034 0.018311134
000230 4f 36 82 bd aa 74 66 be 46 ee ca bc 30 8f 30 3e
       -0.06358015 -0.22505441 -0.02477182 0.17242122
000240 e2 64 e2 3d 53 32 27 3e 5a 2a 89 3c a1 49 21 3e
       0.11054398 0.16327791 0.016743828 0.15750743
000250 2b 31 21 3e 54 20 05 be db c0 56 3e 5a fc 2f 3e
       0.15741412 -0.13000613 0.20972006 0.17186108
000260 97 6b 35 3e b6 e2 e3 bd 61 1a 17 be 85 85 e4 bc
       0.17716824 -0.11127226 -0.14756157 -0.027895698
000270 55 06 58 bd bc e2 f1 3d 3b 4b 65 3e 41 8b 9c bb
       -0.052740414 0.11810824 0.2239198 -0.0047773425
000280 f5 1d c4 bd 81 96 81 bb d1 f3 03 be 45 ee 00 be
       -0.09576026 -0.003954709 -0.12885977 -0.12590893
000290 c4 ab 42 3e dc 0e ad 3c 74 c8 41 3c 7e 3f b3 be
       0.19010836 0.02112525 0.011827577 -0.35009378
0002a0 f6 01 99 be 10 25 1f 3e 50 e2 27 3d 79 5a 9b bd
       -0.2988431 0.15541482 0.040987313 -0.07585616
0002b0 b6 16 13 3e be 68 c3 3c ea 88 8d 3d e8 fa e0 bc
       0.14364132 0.023853656 0.0691088 -0.027463391
0002c0 23 49 39 be 5b 6f af 3b 6f b5 69 bd 8b 1f 4b 3d
       -0.18094306 0.005353851 -0.057057794 0.04959063
0002d0 df f2 3a 3d 30 53 39 3e 67 cf 19 be da 20 24 be
       0.045641776 0.1809814 -0.15020524 -0.16028157
0002e0 50 88 c9 bd ad 9c b7 be 9b 30 75 be 73 b0 15 be
       -0.09840453 -0.35861722 -0.23944323 -0.14618091
0002f0 0f 4c 51 3e 76 39 85 bc da 05 7f 3e 2b bc cb bc
       0.2043917 -0.016262751 0.24904576 -0.024869999
000300 ad 68 d3 bd ca 49 7c 3e 85 49 8f 3d 2f c8 a8 3e
       -0.103227 0.24637523 0.069964446 0.32965228
000310 19 0c 34 3d 39 12 29 bd b9 5b 23 3e 76 7d 37 3e
       0.04395685 -0.041277144 0.15952958 0.17918953
000320 3e 85 23 be 4b 82 f8 3c 47 3e 90 3c ef 90 cf bd
       -0.15968797 0.030335566 0.017607821 -0.10135066
000330 b3 57 0a 3e f8 be 4e bc 7f f1 93 be 56 23 54 be
       0.13510017 -0.012618773 -0.28895184 -0.20716605
000340 d5 6f 12 be ee c2 da 3b 4d 1e 85 bd 24 11 35 bb
       -0.14300473 0.0066760695 -0.0649992 -0.0027628625
000350 36 82 37 3e 67 d0 a4 bd d0 13 70 3d 0a 03 43 3e
       0.17920765 -0.08047562 0.058612645 0.19044128
000360 67 75 06 be 9e 1e 05 3d b9 2b ac bd 9d a3 46 be
       -0.13130723 0.032499902 -0.08406777 -0.19398351
000370 3b 55 d0 3d 85 2d 3c 3e d7 1a 1f 3a 2e 2b 6e 3d
       0.101725064 0.1837674 0.0006069368 0.058146648
000380 2e 1f 52 3e 6d 9b b3 3d 0b 6a e1 3d 75 df 85 3d
       0.20519707 0.087698795 0.11006554 0.06536762
000390 79 d0 35 3e 54 f3 dc bd b3 12 2a bd 15 63 6f 3d
       0.17755307 -0.10788599 -0.04152174 0.0584441
0003a0 43 d2 d1 bd 9d dc 16 be b9 fb 0b bd 1f 3b 61 be
       -0.10245182 -0.14732595 -0.03417561 -0.21995209
0003b0 b1 7f 69 bd 01 b2 ec 3d 6b 6d f4 bc 03 39 14 3c
       -0.05700654 0.11557389 -0.02983733 0.009046796
0003c0 3f f9 12 bb 18 e2 2f 3d c2 08 01 3d a3 b3 57 bd
       -0.0022426394 0.04294023 0.031502493 -0.05266155
0003d0 79 26 84 3a bc 64 34 3d 74 5e bf 3b 00 c8 80 3c
       0.0010082267 0.04404138 0.005840117 0.015720367
0003e0 f7 f2 71 bd 77 fa 6b bc dd 1d 90 3b 99 ae 81 bd
       -0.0590696 -0.014402977 0.004398091 -0.0633213
0003f0 98 18 3d 3d bf cb 3f bd 33 d9 86 3d 6f 31 19 3e
       0.046166033 -0.046825167 0.06584396 0.14960264

conv5.bias f4 [10]
000000 4d 62 8f bd 05 0c 0b bd 07 8a df bb 5a 21 df bb
       -0.07001171 -0.03394701 -0.006821874 -0.0068093957
000010 88 54 30 bd 4b 6d 17 bd 40 1a 45 3d ef 72 17 3d
       -0.043049365 -0.036969464 0.048120737 0.036974844
000020 5d d8 a6 3d 35 9f cb 3d
       0.08146737 0.09942476
