GLmodels/BaseGLseed8.pt (torch_old, 38047 bytes, 10 tensors)

conv1.weight f4 [4, 3, 3, 3]
0.03769222 0.13290454 0.17182337 -0.07831552 0.0053123385 0.055558756 0.15359671 -0.1870273
0.03019604 -0.14556654 0.15577725 0.064146265 -0.115463406 -0.14929897 -0.19170015 0.17383839
0.09411376 -0.094424315 -0.012201846 -0.12769875 -0.12653303 0.0039716214 -0.15133503 0.03508222
0.11133881 -0.15957694 -0.050848976 -0.009202838 0.053353682 -0.02000755 -0.16185284 -0.06933186
-0.19121557 -0.029343441 -0.07430831 0.17430927 0.5018063 1.0088384 0.6957831 0.3845491
0.99232024 1.1224817 0.30080387 0.48152375 1.023076 0.17636652 -0.013285384 0.104660705
-0.13033949 0.07639189 0.015821338 0.1668043 0.10412978 0.18175073 -0.033439517 -0.004345387
-0.023797393 -0.025309145 -0.15555473 -0.1319642 -0.05565442 -0.1326377 -0.1804051 0.61767775
0.9367608 0.5650769 0.6937045 1.1178025 0.7183113 0.32778108 0.89718866 0.7566113
0.08230661 -0.14031754 -0.13190144 -0.072328255 -0.16538836 -0.06879528 -0.042671934 0.07510395
0.032590747 -0.15962282 0.012696236 -0.06503989 0.06431143 0.13732044 -0.11774509 -0.026019916
0.036427826 0.12904505 -0.0059297676 0.310258 -0.099069655 0.2736432 0.13204765 0.26824188
0.26736313 -0.036911193 0.03785711 0.11431353 -0.12618437 0.010299459 0.010102183 -0.14497638
-0.14574014 0.13742806 0.057098746 0.00014352798
00000000: 2863 1a3d 2118 083e 77f2 2f3e e363 a0bd
00000010: 2013 ae3b 9491 633d 7548 1d3e 1684 3fbe
00000020: b05d f73c 650f 15be 1284 1f3e 1e5f 833d
00000030: 1478 ecbd d4e1 18be 0b4d 44be b102 323e
00000040: b7be c03d 8961 c1bd 40ea 47bc 76c3 02be
00000050: e091 01be 6024 823b 92f7 1abe 60b2 0f3d
00000060: 9a05 e43d 2368 23be 0447 50bd 80c7 16bc
00000070: 6489 5a3d e0e6 a3bc c0bc 25be ddfd 8dbd
00000080: 04ce 43be a861 f0bc f52e 98bd 217e 323e
00000090: 6176 003f 9e21 813f d71e 323f 9fe3 c43e
000000a0: b308 7e3f 7bad 8f3f f702 9a3e 488a f63e
000000b0: 28f4 823f 6d99 343e f0aa 59bc 5a58 d63d
000000c0: b777 05be 5a73 9c3d c09b 813c bfce 2a3e
000000d0: fe41 d53d dd1c 3a3e e0f7 08bd c063 8ebb
000000e0: c0f2 c2bc 2055 cfbc bd49 1fbe a021 07be
000000f0: e4f5 63bd 2dd2 07be 1dbc 38be 2120 1e3f
00000100: 8ecf 6f3f e1a8 103f 9e96 313f 2714 8f3f
00000110: 40e3 373f ecd2 a73e 28ae 653f 47b1 413f
00000120: 5e90 a83d 67af 0fbe 2c11 07be d620 94bd
00000130: 915b 29be 8ae4 8cbd c4c8 2ebd 1ad0 993d
00000140: e07d 053d 2a74 23be e003 503c a233 85bd
00000150: b6b5 833d bb9d 0c3e 5624 f1bd b827 d5bc
00000160: 5835 153d 6324 043e 7f4e c2bb 23da 9e3e
00000170: 08e5 cabd f61a 8c3e 8037 073e 0057 893e
00000180: d2e3 883e 3130 17bd 0f10 1b3d 361d ea3d
00000190: 7a36 01be 10bf 283c a083 253c b074 14be
000001a0: e73c 15be f1b9 0c3e 60e0 693d 0080 1639

conv1.bias f4 [4]
-0.1009662 -0.011300146 -0.010777678 0.04434578
00000000: 5ec7 cebd 3f24 39bc dc94 30bc eca3 353d

conv2.weight f4 [8, 4, 3, 3]
-0.09524851 -0.02059115 0.0375436 -0.028728623 0.0053848806 0.16576466 0.16178192 0.11868198
0.010484505 0.42545563 0.26865757 0.4822642 0.33730498 0.24329375 0.38971308 0.23143876
0.1566648 0.2933137 0.17154174 0.32968035 0.2880951 0.12452778 0.29617617 0.37867093
0.077071294 0.13931683 0.3279088 -0.14216748 -0.0047524595 0.21698423 0.052748285 0.028342443
0.05272614 -0.09579651 0.07181524 0.20095645 0.047149498 -0.13628206 -0.061688997 -0.048632476
0.12474323 -0.050656088 0.07483851 -0.049063373 0.00021716396 -0.035845418 0.0300998 -0.147324
0.24562418 -0.113874115 -0.14858074 0.19261941 0.051525183 0.092443116 0.26104712 0.09254886
-0.025852041 0.2935008 0.12494464 0.15578076 0.18820575 -0.009371529 -0.11674892 0.07855436
-0.00091059797 0.15336725 -0.077982105 0.081246704 0.106428996 0.11792951 0.06374293 -0.07675273
0.14813082 0.030568138 -0.025325384 0.118440814 -0.00022638805 -0.024318501 -0.017315984 0.10166828
-0.022220774 0.12358456 0.056636862 0.06780873 -0.13456187 0.096165225 0.11843572 -0.009065486
-0.0065287263 -0.043186083 -0.089848086 -0.08991534 0.12902267 -0.09914523 -0.12636538 -0.047982853
0.015505152 0.10497976 -0.15987036 -0.017348183 -0.018838827 0.015225082 -0.11439016 -0.14453013
-0.107013345 0.1629712 -0.07478352 0.11486108 0.0002769319 0.12362047 -0.111019775 0.05871096
-0.040509418 -0.040114142 -0.09282553 0.04770291 -0.108976744 0.16738018 0.20393655 0.04727989
0.2626116 0.22519457 0.2698454 0.28801006 0.18923922 0.10402854 0.4276836 0.35780135
0.08865773 0.19109374 0.22723493 0.017306883 0.07290449 0.22932613 -0.08786547 0.06475337
-0.044242714 0.12995437 0.17436059 0.17127407 -0.12021294 -0.08029453 -0.058805283 -0.15832771
-0.0873958 -0.0014018489 -0.12749423 -0.07156079 -0.023865985 -0.12216709 0.02317881 -0.0751623
0.11511404 0.3289998 0.90712446 0.9544067 0.12055511 0.87377226 0.928469 -0.05818755
0.4306868 0.65068626 0.26944694 0.6627845 1.0518798 -0.16277844 0.6702394 1.049555
-0.22357842 0.27159068 0.7858565 0.06221192 0.08027238 0.31002522 0.07421937 0.2174084
0.0833019 -0.092493795 -0.0022377775 0.0071424805 0.031114923 -0.13326694 -0.090119526 0.018466806
-0.03552832 -0.16484842 0.078276075 -0.023343982 0.06501811 -0.030139823 -0.046325997 0.07124671
0.17030485 0.03379692 0.18428026 -0.033839926 0.05619677 0.05674008 -0.06108868 0.016605303
-0.10972482 0.10581039 0.053322732 0.086336285 0.016046038 0.18522285 0.034260266 -0.0111669805
-0.07495767 0.050333943 0.13677637 0.14785217 -0.13757256 -0.018862015 0.16380996 0.17915139
-0.11106211 0.07927979 -0.089491986 -0.15162821 0.08225627 -0.07051353 0.06672362 -0.05673264
0.0060197758 0.020566208 -0.10959295 -0.004967413 0.058098786 -0.046347972 -0.1490481 -0.16035739
0.15363546 0.007492368 0.00176304 -0.1623184 0.009834084 -0.06640748 0.121189184 0.012499072
-0.12816541 -0.089657955 0.20153278 0.14215304 -0.023091976 0.08908923 -0.005673701 -0.102997825
0.11290369 0.15585461 -0.14842771 -0.008044822 -0.15040176 0.060481664 0.12472472 -0.11164523
00000000: a711 c3bd c5ae a8bc 51c7 193d 4a58 ebbc
00000010: a773 b03b 36be 293e 29aa 253e 8a0f f33d
00000020: 34c7 2b3c 52d5 d93e 7c8d 893e 55eb f63e
00000030: 3db3 ac3e ff21 793e 7988 c73e 48fe 6c3e
00000040: bd6c 203e 372d 963e a3a8 2f3e ddcb a83e
00000050: 3381 933e 6c08 ff3d 67a4 973e 28e1 c13e
00000060: 8ed7 9d3d 12a9 0e3e aae3 a73e 5a94 11be
00000070: 85ba 9bbb 1d31 5e3e 960e 583d 692e e83c
00000080: 5df7 573d f630 c4bd de13 933d 87c7 4d3e
00000090: d51f 413d 868d 0bbe 9aad 7cbd d932 47bd
000000a0: 6179 ff3d c27c 4fbd ef44 993d adf6 48bd
000000b0: 82b6 6339 a5d2 12bd db93 f63c 1adc 16be
000000c0: e884 7b3e d536 e9bd 8d25 18be 063e 453e
000000d0: 120c 533d d152 bd3d f8a7 853e 428a bd3d
000000e0: a9c7 d3bc bd45 963e fae2 ff3d fe84 1f3e
000000f0: 02b9 403e 0b8b 19bc 0f1a efbd 1ce1 a03d
00000100: 32b5 6eba 4e0c 1d3e 15b5 9fbd ac64 a63d
00000110: 72f7 d93d 0785 f13d a78b 823d 8930 9dbd
00000120: 9baf 173e 086a fa3c 2e77 cfbc 1991 f23d
00000130: 9462 6db9 9837 c7bc 40da 8dbc 7637 d03d
00000140: 5708 b6bc e719 fd3d 0efc 673d 4edf 8a3d
00000150: 96ca 09be 46f2 c43d 6d8e f23d 6787 14bc
00000160: edee d5bb e4e3 30bd 4602 b8bd 8925 b8bd
00000170: 851e 043e a80c cbbd ed65 01be ab89 44bd
00000180: 5209 7e3c a1ff d63d 0eb5 23be c71d 8ebc
00000190: e253 9abc 9f72 793c 6345 eabd b5ff 13be
000001a0: d029 dbbd ece1 263e 1a28 99bd 493c eb3d
000001b0: 2c31 9139 bb2c fd3d 565e e3bd e77a 703d
000001c0: 34ed 25bd ba4e 24bd 501b bebd 2064 433d
000001d0: 332f dfbd b665 2b3e bed4 503e 8fa8 413d
000001e0: 0775 863e 6899 663e 2d29 8a3e 0e76 933e
000001f0: edc7 413e ea0c d53d 58f9 da3e bd31 b73e
00000200: 2f92 b53d 14ae 433e 46b0 683e 2ac7 8d3c
00000210: f34e 953d 78d4 6a3e d0f2 b3bd 6a9d 843d
00000220: d937 35bd c212 053e 958b 323e 7862 2f3e
00000230: 3432 f6bd 7571 a4bd cfdd 70bd a920 22be
00000240: 92fc b2bd 3ebe b7ba d98d 02be 778e 92bd
00000250: 9982 c3bc bd32 fabd 7de1 bd3c b1ee 99bd
00000260: e9c0 eb3d a972 a83e 4f39 683f ff53 743f
00000270: 99e5 f63d 8aaf 5f3f 25b0 6d3f 1256 6ebd
00000280: fb82 dc3e 6093 263f f3f4 893e 3fac 293f
00000290: ffa3 863f 64af 26be cf94 2b3f d157 863f
000002a0: bef1 64be ef0d 8b3e e42d 493f edd1 7e3d
000002b0: d865 a43d a0bb 9e3e 5300 983d 4fa0 5e3e
000002c0: 309a aa3d 636d bdbd ada7 12bb 780b ea3b
000002d0: b9e4 fe3c 2177 08be 9690 b8bd b347 973c
000002e0: 2586 11bd 06ce 28be 354f a03d e13b bfbc
000002f0: 3728 853d cae7 f6bc 54c0 3dbd cce9 913d
00000300: 6564 2e3e a46e 0a3d f7b3 3c3e bc9b 0abd
00000310: 962e 663d 4968 683d 2038 7abd d807 883c
00000320: 68b7 e0bd 1eb3 d83d f068 5a3d 14d1 b03d
00000330: fb72 833c 0fab 3d3e 7e54 0c3d b6f5 36bc
00000340: 6883 99bd f72a 4e3d 1b0f 0c3e 8f66 173e
00000350: d2df 0cbe 8384 9abc ccbd 273e 7673 373e
00000360: 8874 e3bd 715d a23d 9347 b7bd 6d44 1bbe
00000370: fa75 a83d 6669 90bd 65a6 883d 7c60 68bd
00000380: 8a41 c53b 777a a83c 4572 e0bd aec5 a2bb
00000390: fef8 6d3d 5fd7 3dbd 11a0 18be ba34 24be
000003a0: 9d52 1d3e 8a82 f53b ce15 e73a cb36 26be
000003b0: 231f 213c a500 88bd 0932 f83d e8c8 4c3c
000003c0: cb3d 03be 979e b7bd 9c5e 4e3e 9190 113e
000003d0: 622b bdbc 6a74 b63d 74ea b9bb 86f0 d2bd
000003e0: 0d3a e73d 5a98 1f3e 6ffd 17be 6ece 03bc
000003f0: eb02 1abe 9fbb 773d ad6f ff3d 41a6 e4bd

conv2.bias f4 [8]
0.025685852 -0.021751624 -0.1384282 -0.0056766816 0.08680701 -0.09724717 0.008601509 -0.08428865
00000000: 236b d23c 7630 b2bc 1fc0 0dbe 7503 babb
00000010: e0c7 b13d 8629 c7bd 58ed 0c3c 879f acbd

conv3.weight f4 [16, 8, 3, 3]
0.0953284 0.317267 0.19818093 0.034815107 -0.0052330233 -0.013046642 -0.23561783 0.104911216
-0.0822654 0.07613594 -0.004403641 0.03935032 0.00528325 -0.048233427 -0.05129889 0.0824763
-0.011652539 0.11635814 -0.053401217 -0.054577656 -0.09573401 -0.039903678 0.021665065 0.106420785
-0.04386467 0.10492455 0.10333581 -0.10436235 0.044451877 0.19098946 -0.09599035 -0.0690662
-0.10329039 -0.18691324 -0.110772744 -0.0070180977 0.28242382 0.5909912 0.42173302 -0.0698222
0.32382146 -0.31670043 -0.4295063 0.3428839 -0.4254965 0.033874996 0.032380085 -0.0545612
0.0113964975 0.0154805295 0.02403491 -0.10998902 -0.118702516 0.10111544 0.0061927075 -0.06783023
-0.052059527 -0.117659695 0.10435955 0.06995094 -0.067583494 0.053007185 -0.043961525 -0.10536377
-0.080261596 0.1478888 0.055320356 0.095251486 -0.022578761 0.0018756264 0.10340485 -0.07777751
-0.020181295 -0.05327579 -0.021381564 -0.09225093 0.16178675 -0.091130145 -0.1260078 0.23851098
-0.052593328 -0.06357715 0.051601894 0.09298013 -0.07354933 -0.060274143 0.07898874 0.0892611
-0.002178737 0.012580637 0.09822075 -0.045331046 -0.011917907 0.09601621 -0.07468831 -0.11634253
-0.03452031 -0.076819584 0.09201643 -0.0047923266 -0.12873276 -0.12023228 -0.03579091 -0.0044291895
-0.09674158 -0.006713437 0.091374785 -0.019262055 -0.2383957 0.061622776 -0.24637447 -0.24344823
0.58668077 -0.23723216 -0.14459318 0.47574195 -0.16273671 -0.040352356 -0.017362643 -0.054182015
-0.119440295 0.07199893 0.040841535 -0.07613275 -0.0780277 -0.06414746 0.006467991 0.08914029
0.11331855 0.075511865 0.12704483 0.10627203 0.059707053 0.10415141 0.065585956 -0.061570928
0.07650875 0.056482233 -0.11255691 0.059063926 -0.027820641 -0.112949505 0.052086312 0.059599113
-0.11283805 0.13447173 -0.08783773 -0.034434486 -0.09596153 0.18845716 0.015699008 -0.06741129
0.107856594 0.0072749914 -0.054229323 0.11471834 -0.10807377 -0.12087594 -0.054017335 0.038967308
0.038465876 0.0568201 0.09501651 0.015378065 -0.05572571 0.11442871 -0.11679979 -0.030028285
0.0036985278 0.025540425 -0.020227816 0.0070720026 0.055057894 0.11722938 -0.10098481 -0.10675706
0.117533684 0.041964326 -0.16038577 0.17360362 0.026594618 0.21769086 -0.015061452 -0.40067238
0.10727533 0.29332843 -0.24092677 -0.08951972 0.53533703 -0.095314465 -0.106468976 0.0897627
-0.08107146 0.05183547 0.03581617 -0.10088264 -0.024380632 -0.022284715 -0.092079036 -0.10133152
-0.055975966 0.082659364 -0.012638178 0.12019371 0.10490333 -0.091294035 0.014823978 0.041093938
-0.04994692 0.04896992 0.007929201 -0.08627244 0.05371486 0.05894991 0.040232867 -0.06728172
-0.08035342 0.14620143 0.11362997 -0.15208127 -0.06612986 0.03390431 -0.10343111 0.017078973
-0.109125555 -0.061412755 0.035673276 -0.040173832 -0.122863464 -0.027827779 -0.052134063 0.07271485
-0.04613421 0.035676796 -0.068230286 0.11058685 0.039054308 -0.029046876 0.11320638 0.007678821
-0.09357375 -0.08257656 0.11729141 -0.08674581 0.10589488 0.13882285 0.0026359742 -0.08108937
0.012524296 -0.032074235 -0.0173293 -0.0972113 0.12017755 0.14607495 0.2640764 -0.18810007
00000000: 893b c33d d270 a23e f1ef 4a3e 499a 0e3d
00000010: c879 abbb 95c1 55bc cd45 71be b1db d63d
00000020: c37a a8bd 29ed 9b3d 6b4c 90bb cd2d 213d
00000030: 1d1f ad3b 6a90 45bd c91e 52bd 56e9 a83d
00000040: 4aea 3ebc 2d4d ee3d 3cbb 5abd d28c 5fbd
00000050: 3110 c4bd 0a72 23bd ef7a b13c 24f3 d93d
00000060: 71ab 33bd afe2 d63d baa1 d33d eebb d5bd
00000070: 2c13 363d be92 433e 9796 c4bd 9472 8dbd
00000080: e989 d3bd 2f66 3fbe d2dc e2bd 12f8 e5bb
00000090: db99 903e 334b 173f 64ed d73e f1fe 8ebd
000000a0: edcb a53e 8f26 a2be 40e8 dbbe 7b8e af3e
000000b0: adda d9be 82c0 0a3d fba0 043d 917b 5fbd
000000c0: 60b8 3a3c 0ca2 7d3c dce4 c43c ec41 e1bd
000000d0: 4e1a f3bd 9d15 cf3d 32ec ca3b 93ea 8abd
000000e0: 5f3c 55bd 91f7 f0bd 76ba d53d 7042 8f3d
000000f0: 3769 8abd 101e 593d 0011 34bd f6c8 d7bd
00000100: 3160 a4bd 2970 173e 9997 623d 3613 c33d
00000110: 18f7 b8bc 94d7 f53a ecc5 d33d d149 9fbd
00000120: 3e53 a5bc b737 5abd 6428 afbc 0eee bcbd
00000130: 6dab 253e 71a2 babd 3008 01be 393c 743e
00000140: 1a6c 57bd bd34 82bd 825c 533d 5e6c be3d
00000150: 08a1 96bd 05e2 76bd d9c4 a13d 86ce b63d
00000160: 24c9 0ebb 041f 4e3c f627 c93d 0cad 39bd
00000170: 5343 43bc 26a4 c43d 2ff6 98bd fe44 eebd
00000180: 2b65 0dbd 9653 9dbd 1c73 bc3d f308 9dbb
00000190: 85d2 03be 573c f6bd 7d99 12bd bc22 91bb
000001a0: 7320 c6bd 64fc dbbb b422 bb3d 75cb 9dbc
000001b0: 011e 74be 2a68 7c3d 9749 7cbe 7e4a 79be
000001c0: b630 163f fdec 72be 3c10 14be 7394 f33e
000001d0: 74a4 26be 8348 25bd 1a3c 8ebc f6ed 5dbd
000001e0: 1d9d f4bd 2d74 933d 7449 273d 7deb 9bbd
000001f0: fdcc 9fbd be5f 83bd 71f1 d33b 2f8f b63d
00000200: 8e13 e83d f7a5 9a3d 0a18 023e 26a5 d93d
00000210: 628f 743d 564d d53d ee51 863d cc31 7cbd
00000220: 9fb0 9c3d ea59 673d 3d84 e6bd 04ed 713d
00000230: 1de8 e3bc 1252 e7bd 7558 553d 331e 743d
00000240: a317 e7bd f5b2 093e 45e4 b3bd 2d0b 0dbd
00000250: 7b87 c4bd eafa 403e 359b 803c ee0e 8abd
00000260: ebe3 dc3d 0d63 ee3b 911f 5ebd 73f1 ea3d
00000270: c855 ddbd ce8d f7bd 4841 5dbd 2f9c 1f3d
00000280: 658e 1d3d 31bc 683d 0498 c23d 48f4 7b3c
00000290: a440 64bd 9959 ea3d ba34 efbd e1fd f5bc
000002a0: 0063 723b 273a d13c ceb4 a5bc 42bc e73b
000002b0: 6384 613d f515 f03d 20d1 cebd 72a3 dabd
000002c0: 80b5 f03d c9e2 2b3d 2b3c 24be 26c5 313e
000002d0: f5dc d93c 5aea 5e3e 4fc4 76bc ee24 cdbe
000002e0: 2bb3 db3d 252f 963e 82b5 76be 1d56 b7bd
000002f0: d90b 093f 3b34 c3bd 680c dabd 82d5 b73d
00000300: cb08 a6bd 6e51 543d fab3 123d 8f9b cebd
00000310: e4b9 c7bc 6f8e b6bc ef93 bcbd e686 cfbd
00000320: 0e47 65bd 5049 a93d 5c10 4fbc 1f28 f63d
00000330: 8fd7 d63d 5ef8 babd 45e0 723c 1e52 283d
00000340: 2495 4cbd af94 483d 7be9 013c 9baf b0bd
00000350: 1d04 5c3d 7675 713d 38cb 243d 00cb 89bd
00000360: 5590 a4bd d4b5 153e d4b6 e83d 31bb 1bbe
00000370: 186f 87bd 3fdf 0a3d b1d3 d3bd 34e9 8b3c
00000380: 387d dfbd f18b 7bbd 241e 123d 518d 24bd
00000390: d79f fbbd 15f7 e3bc 878a 55bd 86eb 943d
000003a0: 3af7 3cbd d521 123d 52bc 8bbd 5c7b e23d
000003b0: 69f7 1f3d b7f3 edbc bfd8 e73d 9f9e fb3b
000003c0: 98a3 bfbd e61d a9bd 7b36 f03d caa7 b1bd
000003d0: 6adf d83d 9427 0e3e 4fc0 2c3b 2f12 a6bd
000003e0: b432 4d3c 4660 03bd 2df6 8dbc b816 c7bd
000003f0: a61f f63d ac94 153e 0635 873e 4e9d 40be

conv3.bias f4 [16]
0.68695575 0.28985354 -0.091707505 -0.028161936 -0.12548079 0.34210244 -0.22789359 0.43438122
0.4342955 -0.10877376 -0.013488378 -0.09708947 -0.1464938 0.1263141 0.31195718 -0.022475189
00000000: 55dc 2f3f af67 943e 25d1 bbbd dcb3 e6bc
00000010: 097e 00be 0d28 af3e f05c 69be 3767 de3e
00000020: fb5b de3e c7c4 debd 5cfe 5cbc d8d6 c6bd
00000030: 7902 16be 7c58 013e dab8 9f3e e31d b8bc

conv4.weight f4 [32, 16, 3, 3]
-0.28705263 -0.030769186 0.17934702 -0.10303989 -0.054647133 0.0108048 0.11034729 -0.10031112
-0.123877876 -0.15816939 -0.014683048 0.015407595 -0.06503038 0.1280912 0.14411108 -0.071903996
-0.10250084 -0.22676529 -0.012484318 0.006774692 -0.12013596 -0.052790374 0.01962624 -0.075674996
-0.22420925 -0.018430052 0.02932029 0.04726078 -0.104935005 -0.110570334 0.011458082 0.009778199
0.04081697 0.052763596 -0.054495703 0.102805376 -0.009866613 -0.014552509 -0.0917607 0.097069554
0.07186778 0.16752985 -0.19314279 -0.009645689 0.10488027 -0.15061799 -0.06637146 0.12537354
-0.007713734 0.07277545 0.19401945 -0.04809733 -0.11325707 -0.20391883 -0.02019182 0.028233008
-0.11918431 0.04113719 0.2293002 0.10279919 -0.2689615 -0.2741155 0.054179396 0.012022902
0.019277098 -0.006528397 -0.14462948 0.07152984 0.058805484 0.042861372 -0.022021975 -0.20811395
-0.093328685 -0.06953647 -0.010311009 -0.09183924 0.12677673 0.114026494 -0.09858686 0.054348614
-0.10868224 -0.010731969 -0.0067761424 -0.06399654 -0.013796889 -0.08645403 -0.038453843 0.06663491
0.017298834 0.0037585888 0.15472777 0.17828205 0.07997411 0.013905186 -0.04301 -0.0015416634
-0.11213815 -0.12736689 -0.14904876 -0.003888456 -0.08021256 -0.05973451 -0.069083646 0.0524111
0.12318808 -0.19724685 -0.0697849 -0.06781387 0.06227903 -0.0042304704 -0.010990721 0.09704579
0.28473535 0.2727249 -0.031792156 -0.17418168 -0.30313098 0.072581366 -0.025176907 -0.008464072
-0.08676916 0.028729016 0.074801505 0.054305367 -0.007751741 0.07030721 -0.08993338 -0.0652032
0.084030546 0.08307108 -0.007654399 -0.055579476 -0.07589439 0.080348834 0.09610646 0.04736217
0.003739795 -0.072886944 -0.047053456 -0.042712633 0.063728906 0.0429663 -0.05580568 0.09939092
-0.09316001 -0.028077483 0.03017042 -0.20198265 -0.18522425 0.036547206 -0.098872654 -0.20060492
-0.21944241 -0.067568585 0.10493079 -0.09597946 -0.15486862 0.083534956 0.14263442 -0.047502667
0.022272237 -0.13712376 0.083438314 -0.022051448 0.01797293 0.04833791 -0.1732712 -0.029638449
0.056854706 0.003414829 -0.14779423 -0.030307665 -0.042477645 0.033887368 -0.044160116 0.07882085
-0.029920602 0.0056896727 0.1049785 0.14872281 -0.02371548 -0.026073229 -0.061445866 0.23036875
-0.022908613 0.12083009 -0.09833364 0.030660287 0.0780574 -0.17119882 -0.08672109 0.012279411
0.038506918 -0.18351977 0.107811496 -0.026823897 0.0018312728 0.050363418 -0.029962236 0.046304554
-0.070517704 0.14673832 0.14778335 0.0030433754 0.075915486 0.1484986 0.046161003 0.038319696
0.029570768 0.07765533 0.020939229 -0.17914055 0.13224494 0.042802993 -0.10477576 -0.003008545
-0.23620278 0.11738228 -0.093842395 -0.16941456 -0.22871506 0.016710924 -0.04217178 -0.07587893
-0.043753892 -0.07278473 -0.021464473 0.035807 -0.044097833 -0.037866227 0.022026127 0.078587346
-0.06365383 0.0034320387 0.019213516 0.015797598 0.06450504 0.1271875 0.26374695 0.33592683
-0.015053082 -0.04915384 0.05191795 0.08527946 -0.0312767 0.046145264 -0.004268798 -0.11018297
-0.015333602 -0.04890548 -0.0068432824 0.04507304 0.22514534 -0.06731563 0.048795663 0.18103357
00000000: 90f8 92be a90f fcbc bfa6 373e 9406 d3bd
00000010: acd5 5fbd 9e06 313c c3fd e13d eb6f cdbd
00000020: afb3 fdbd 28f7 21be 2b91 70bc 2370 7c3c
00000030: a62e 85bd 572a 033e db91 133e 6742 93bd
00000040: f6eb d1bd 2935 68be 068b 4cbc 3cfe dd3b
00000050: d809 f6bd b83a 58bd 35c7 a03c 7efb 9abd
00000060: 1c97 65be 9ffa 96bc 1b31 f03c 8594 413d
00000070: 2ae8 d6bd b372 e2bd aeba 3b3c bd34 203c
00000080: b22f 273d a41e 583d e336 5fbd a08b d23d
00000090: 93a7 21bc a66d 6ebc 09ed bbbd 67cc c63d
000000a0: 6a2f 933d f28c 2b3e 39c7 45be f408 1ebc
000000b0: 78cb d63d 9a3b 1abe c3ed 87bd ec61 003e
000000c0: 7ec3 fcbb 4c0b 953d 09ad 463e b501 45bd
000000d0: 53f3 e7bd 19d0 50be 5169 a5bc e948 e73c
000000e0: e716 f4bd 787f 283d accd 6a3e 6288 d23d
000000f0: 52b5 89be de58 8cbe 37eb 5d3d b5fb 443c
00000100: 01eb 9d3c 2aec d5bb c019 14be 3d7e 923d
00000110: 05de 703d 688f 2f3d 6e67 b4bc d31b 55be
00000120: 1c23 bfbd 2369 8ebd 82ef 28bc 3616 bcbd
00000130: c2d1 013e b986 e93d e8e7 c9bd a79c 5e3d
00000140: cb94 debd 24d5 2fbc 670a debb 9e10 83bd
00000150: 590c 62bc cf0e b1bd c781 1dbd e277 883d
00000160: 49b6 8d3c a852 763b f570 1e3e 928f 363e
00000170: 77c9 a33d 94d2 633c 412b 30bd a411 caba
00000180: b0a8 e5bd 776c 02be 3da0 18be 77d5 7ebb
00000190: 7c46 a4bd 2cac 74bd ba7b 8dbd 06ad 563d
000001a0: 084a fc3d 14fb 49be 63eb 8ebd 00e2 8abd
000001b0: 4c18 7f3d c29f 8abb 6d12 34bc f1bf c63d
000001c0: d5c8 913e 99a2 8b3e 7e38 02bd af5c 32be
000001d0: fc33 9bbe 8aa5 943d cd3f cebc e4ac 0abc
000001e0: 08b4 b1bd 1d59 eb3c 8831 993d 4e6f 5e3d
000001f0: 5102 febb 3afd 8f3d fe2e b8bd 4189 85bd
00000200: 3518 ac3d 2c21 aa3d c1d1 fabb 4ea7 63bd
00000210: 856e 9bbd ee8d a43d 77d3 c43d d6fe 413d
00000220: 5917 753b c045 95bd 20bb 40bd 71f3 2ebd
00000230: 4d84 823d 6efd 2f3d 7f94 64bd 778d cb3d
00000240: adca bebd c002 e6bc f527 f73c 8ad4 4ebe
00000250: 6dab 3dbe 86b2 153d bf7d cabd 606b 4dbe
00000260: 83b5 60be 6661 8abd f4e5 d63d e190 c4bd
00000270: e195 1ebe 6014 ab3d c20e 123e 2892 42bd
00000280: 4474 b63c 2c6a 0cbe b5e1 aa3d 3da5 b4bc
00000290: f73b 933c f9fd 453d 016e 31be 55cc f2bc
000002a0: 7be0 683d 53cb 5f3b 5f57 17be c847 f8bc
000002b0: 0afd 2dbd 7bcd 0a3d 3de1 34bd d36c a13d
000002c0: 0d1c f5bc 6f70 ba3b f8fe d63d cb4a 183e
000002d0: f746 c2bc 8697 d5bc a9ae 7bbd c9e5 6b3e
000002e0: d8aa bbbc c475 f73d 2663 c9bd 482b fb3c
000002f0: 8fdc 9f3d be4e 2fbe d49a b1bd 952f 493c
00000300: 6eb9 1d3d 9bec 3bbe 46cc dc3d cabd dbbc
00000310: 5207 f03a df49 4e3d 5d73 f5bc d8a9 3d3d
00000320: 966b 90bd 9242 163e 8554 173e 5e73 473b
00000330: 9479 9b3d 0410 183e 5213 3d3d 1df5 1c3d
00000340: 653e f23c c209 9f3d bf88 ab3c 9f70 37be
00000350: 386b 073e 3152 2f3d ac94 d6bd 022b 45bb
00000360: 24df 71be 1f66 f03d 7130 c0bd 037b 2dbe
00000370: 4834 6abe 59e5 883c 51bc 2cbd 6a66 9bbd
00000380: 4837 33bd 2910 95bd 43d6 afbc 5caa 123d
00000390: ee9f 34bd 9e19 1bbd 2370 b43c 67f2 a03d
000003a0: f05c 82bd 0eec 603b aa65 9d3c f769 813c
000003b0: 381b 843d 713d 023e d709 873e 9afe ab3e
000003c0: 34a1 76bc 8955 49bd eba7 543d ffa6 ae3d
000003d0: ff1b 00bd d102 3d3d 46e1 8bbb 9ca7 e1bd
000003e0: ca39 7bbc 1d51 48bd 9d3d e0bb 829e 383d
000003f0: 808c 663e c7dc 89bd f6dd 473d dd60 393e

conv4.bias f4 [32]
0.060425736 0.05315978 -0.012258545 -0.03895612 0.0030134164 -0.004355855 0.008786205 -0.074996874
0.021426583 0.093531676 -0.025133397 -0.08740769 0.06947869 -0.016414862 0.3336776 -0.07523208
-0.0023395938 0.11583463 -0.05171334 0.058584146 -0.130006 -0.04229574 0.15556668 -0.0617095
-0.061519794 -0.11021158 -0.07299446 0.050410863 0.0894007 -0.03690252 -0.1380929 0.10603147
00000000: fa80 773d 12be 593d 10d8 48bc 7490 1fbd
00000010: bd7c 453b 8fbb 8ebb 04f4 0f3c f697 99bd
00000020: cd86 af3c 898d bf3d 8ee4 cdbc ce02 b3bd
00000030: d84a 8e3d 7678 86bc cad7 aa3e 4713 9abd
00000040: df53 19bb b53a ed3d 5ed1 53bd eef5 6f3d
00000050: 4b20 05be 4c3e 2dbd df4c 1f3e 1ac3 7cbd
00000060: 2efc 7bbd 9cb6 e1bd 1f7e 95bd 9f7b 4e3d
00000070: b717 b73d 1927 17bd 3a68 0dbe 0727 d93d

conv5.weight f4 [10, 32, 3, 3]
0.018782353 -0.1626034 0.01331925 -0.13633029 0.11052104 0.16228238 0.10666945 0.011286202
0.084564015 0.16491598 0.08864625 0.24471115 -0.18884784 0.16435532 -0.047541045 0.21556138
0.06582229 -0.0520378 0.08024131 0.102420196 -0.010042778 -0.047328237 0.091651484 -0.0025722156
0.08528267 -0.02977558 -0.037628703 0.11690895 0.1872901 0.066775836 0.058112986 0.024217222
0.0022252754 -0.036168493 0.08529867 -0.021737508 0.32263008 -0.06291253 0.1438796 -0.013163344
-0.017903425 0.084898025 -0.009867081 0.12533136 -0.11632802 0.017826868 0.0054304376 0.024838844
-0.25182548 0.07560321 0.13175207 -0.06266112 0.0591295 0.0153942425 0.113870725 -0.19333635
0.1816054 0.021994624 -0.14634366 0.17563838 -0.006102194 0.0829894 0.07799974 -0.014247492
0.09080733 0.24612504 0.007866221 -0.015707996 0.09113657 0.039543584 0.0122513585 -0.17197207
0.326766 -0.2270526 0.07392284 0.096841775 -0.06444396 0.115285434 0.04930792 0.16658877
-0.13716659 0.09450927 0.09034221 0.096365474 0.07735385 0.041518327 0.028545555 0.034677498
0.07275007 0.056758408 -0.20094743 0.14615878 -0.08411156 -0.17901403 -0.038704876 -0.2125255
0.24209352 0.08017779 -0.1475525 0.10450587 0.21407385 0.13378267 -0.13742164 -0.005486897
0.095192134 0.0066690906 -0.0023893386 0.23108001 -0.018514732 0.13836381 0.10745831 -0.026442677
0.13874581 -0.27124083 0.40053567 -0.07707281 -0.038507838 -0.0419948 0.068876415 -0.085257225
-0.1442484 0.14098236 0.1264292 -0.04413346 0.118139744 -0.16411261 0.017657049 -0.027231315
-0.2633525 -0.21303356 -0.087430984 -0.117427155 -0.15092508 -0.03791814 -0.28601342 -0.122751005
-0.04222643 0.06124322 0.18773438 0.07621123 0.12913251 0.100506246 0.068360515 -0.095543236
-0.04044277 0.035309426 -0.10887623 -0.25569022 -0.0643432 0.030277709 -0.01975961 -0.04313058
0.06142979 -0.041512907 -0.019571992 -0.073057026 -0.1125673 -0.118450165 -0.055915557 -0.07965111
0.17063294 0.0991208 0.1927638 -0.15623075 -0.019902509 -0.066384375 -0.03002268 -0.211186
0.028491119 0.19002368 0.19841969 0.08944269 -0.106329165 0.37414187 -0.17246443 -0.014318812
0.2002197 -0.30770355 0.098544784 -0.32579812 -0.063677885 -0.026715348 0.18411623 -0.05543947
-0.01934449 -0.027407711 0.032674532 0.03839251 -0.05469724 -0.009712554 0.042297326 0.04764016
-0.007299824 -0.0926536 0.06689767 -0.18223636 -0.009253012 -0.04936959 -0.17967848 -0.1535114
0.118232146 -0.0710321 0.13800001 -0.26844972 0.035212863 -0.16524686 -0.031756904 0.090575956
-0.059555396 0.059481796 -0.04614353 0.028540336 -0.013804276 -0.15957773 0.13202794 -0.023015888
-0.06417135 0.0099136075 -0.030396482 -0.008524319 -0.02134586 0.029546173 0.16036616 0.04844239
0.123772584 0.18790828 0.13150297 0.08310154 -0.05058926 -0.27889943 0.08091227 0.0304495
-0.14178434 -0.039339088 -0.09817844 -0.045802694 -0.016956957 -0.113291845 0.03212632 -0.011406167
-0.040433876 -0.07366268 -0.0073993965 -0.2029788 -0.21062994 0.21740834 -0.04523437 -0.2381721
-0.02923805 0.08551609 0.36039615 0.07240299 -0.0460288 0.0024073569 0.007354132 -0.2790083
00000000: 73dd 993c 8181 26be fc38 5a3c 2b9a 0bbe
00000010: db58 e23d 5a2d 263e 8375 da3d c3e9 383c
00000020: e62f ad3d bcdf 283e 2a8c b53d 8f95 7a3e
00000030: 5461 41be c34c 283e 66ba 42bd 1fbc 5c3e
00000040: d6cd 863d 9725 55bd 8e55 a43d aec1 d13d
00000050: 778a 24bc 41db 41bd c6b3 bb3d 9e92 28bb
00000060: aea8 ae3d ebeb f3bc 8e20 1abd f66d ef3d
00000070: fac8 3f3e c5c1 883d e207 6e3d 3263 c63c
00000080: edd5 113b 6a25 14bd 12b1 ae3d dc12 b2bc
00000090: c52f a53e 49d8 80bd 2d55 133e 11ab 57bc
000000a0: 34aa 92bc 04df ad3d 8aa9 21bc dd56 003e
000000b0: 633d eebd a709 923c d0f1 b13b d57a cb3c
000000c0: 45ef 80be dbd5 9a3d 04ea 063e 7954 80bd
000000d0: c631 723d 2238 7c3c 0e35 e93d f7f9 45be
000000e0: c4f6 393e 122e b43c 1ddb 15be 8cda 333e
000000f0: eaf4 c7bb 59f6 a93d 54be 9f3d 506e 69bc
00000100: 32f9 b93d 3408 7c3e 52e1 003c 0eae 80bc
00000110: cfa5 ba3d 74f8 213d ecb9 483c 7219 30be
00000120: e04d a73e 7a80 68be dc64 973d fb54 c63d
00000130: 32fb 83bd c51a ec3d 1af7 493d 3f96 2a3e
00000140: 6675 0cbe 138e c13d 5605 b93d 435b c53d
00000150: b26b 9e3d 1f0f 2a3d 5ed8 e93c fe09 0e3d
00000160: fdfd 943d 817b 683d 2ac5 4dbe a6aa 153e
00000170: ae42 acbd 744f 37be 0189 1ebd 49a0 59be
00000180: 5de7 773e 4134 a43d 0118 17be 2c07 d63d
00000190: 2d36 5b3e 53fe 083e 42b8 0cbe 6ecb b3bb
000001a0: 18f4 c23d 6388 da3b 7396 1cbb 3da0 6c3e
000001b0: 35ac 97bc 3eaf 0d3e 1a13 dc3d 509e d8bc
000001c0: 6213 0e3e 14e0 8abe 0313 cd3e 59d8 9dbd
000001d0: 65ba 1dbd bd02 2cbd 140f 8d3d 579b aebd
000001e0: dab5 13be ae5d 103e a876 013e 49c5 34bd
000001f0: 40f3 f13d 230d 28be 84a5 903c 3514 dfbc
00000200: 24d6 86be 7825 5abe 040f b3bd a67d f0bd
00000210: 1b8c 1abe 0d50 1bbd 5a70 92be e164 fbbd
00000220: 9ff5 2cbd 2cda 7a3d 713d 403e a214 9c3d
00000230: 503b 043e 38d6 cd3d 9900 8c3d 2cac c3bd
00000240: 51a7 25bd 9ea0 103d 80fa debd d4e9 82be
00000250: 5ec6 83bd f508 f83c e8de a1bc b1a9 30bd
00000260: ce9d 7b3d 7009 2abd 7155 a0bc ec9e 95bd
00000270: af89 e6bd 0096 f2bd b607 65bd 1f20 a3bd
00000280: 67ba 2e3e d9ff ca3d e063 453e f4fa 1fbe
00000290: 960a a3bc 88f4 87bd 20f2 f5bc 2541 58be
000002a0: 3566 e93c 9195 423e 882e 4b3e bb2d b73d
000002b0: 1bc3 d9bd 868f bf3e 849a 30be 7399 6abc
000002c0: 6506 4d3e 528b 9dbe d9d1 c93d 03cf a6be
000002d0: 8d69 82bd 25da dabc f788 3c3e 7f14 63bd
000002e0: 5678 9ebc 2386 e0bc bbd5 053d 7741 1d3d
000002f0: 370a 60bd 6721 1fbc f63f 2d3d 5422 433d
00000300: 5d33 efbb 2cc1 bdbd a501 893d 2b9c 3abe
00000310: f299 17bc c437 4abd a3fd 37be 1832 1dbe
00000320: b223 f23d 4779 91bd e04f 0d3e 3e72 89be
00000330: 5d3b 103d 7936 29be 8713 02bd e37f b93d
00000340: 5cf0 73bd 2fa3 733d 0001 3dbd 6ccd e93c
00000350: 542b 62bc 5868 23be 5532 073e d18b bcbc
00000360: 456c 83bd af6c 223c 0b02 f9bc 96a9 0bbc
00000370: 83dd aebc d10a f23c 0737 243e 876b 463d
00000380: 7b7c fd3d 076b 403e b7a8 063e 2431 aa3d
00000390: af36 4fbd e8cb 8ebe 55b5 a53d 3b71 f93c
000003a0: ea2f 11be 0622 21bd c711 c9bd 9b9b 3bbd
000003b0: 51e9 8abc 8e05 e8bd e396 033d efe0 3abc
000003c0: fe9d 25bd 76dc 96bd a376 f2bb add9 4fbe
000003d0: 60af 57be 4ba0 5e3e ad47 39bd 63e3 73be
000003e0: a384 efbc 0f23 af3d d885 b83e 0548 943d
000003f0: b288 3cbd bfc4 1d3b eefa f03b 2dda 8ebe

conv5.bias f4 [10]
0.057965897 0.1588235 -0.018557515 -0.08879583 -0.027927868 0.0190039 0.08741737 0.013710387
-0.02969744 -0.029628271
00000000: a66d 6d3d a1a2 223e ee05 98bc 97da b5bd
00000010: fcc8 e4bc 11ae 9b3c e107 b33d 88a1 603c
00000020: 0c48 f3bc fdb6 f2bc
