R7models/BaseR7seed2.pt (torch_old, 38047 bytes, 10 tensors)

conv1.weight f4 [4, 3, 3, 3]
0	0x3d34d298	0.04414615
1	0xbd3b96dc	-0.045798168
2	0x3d582af4	0.05277534
3	0xbc210dc0	-0.009829938
4	0x3da85eee	0.082212314
5	0x3d3baabc	0.045817122
6	0xbcb53350	-0.022119194
7	0xbe1f52a7	-0.15558873
8	0x3d33f984	0.04393913
9	0xbe2e7950	-0.17038465
10	0x3ccf33f8	0.025293335
11	0x3c518c60	0.012789816
12	0xbd2d572c	-0.04231946
13	0x3e212483	0.15736584
14	0x3c526d90	0.012843505
15	0x3da370c2	0.07980491
16	0x3da6cc0a	0.08144386
17	0xbde883ac	-0.113532394
18	0xbd978528	-0.073984444
19	0x3e3d8653	0.18508272
20	0xbe410648	-0.18850052
21	0xbc562740	-0.013070881
22	0xbc79e1f0	-0.015251622
23	0x3e0bc867	0.13650666
24	0xbc95e1c8	-0.018296137
25	0x3d4f9128	0.05067554
26	0xbc175c50	-0.009238318
27	0x3e059254	0.13044101
28	0xbf74e352	-0.95659363
29	0xbf9cd97b	-1.225387
30	0x3f2eace3	0.68232554
31	0xbeb5abed	-0.3548273
32	0xbf2c3093	-0.6726162
33	0x400f4340	2.2384796
34	0x3f57338e	0.8406304
35	0xbf0af732	-0.5428344
36	0x3dad3792	0.08457865
37	0xbd974c78	-0.07387632
38	0xbd2e9e30	-0.042631328
39	0xbdd811b7	-0.10550254
40	0xbd778540	-0.06042981
41	0xbe369a9f	-0.17832421
42	0x3da82cb2	0.0821165
43	0x3d99413e	0.07483147
44	0x3d1c93f8	0.03822705
45	0x3dc183a6	0.09448938
46	0x3da70c52	0.08156647
47	0x3c0b80c0	0.008514583
48	0x3ca6f728	0.020381525
49	0x3c70c650	0.014695719
50	0x3dd24f9e	0.10269092
51	0x3e046161	0.12927772
52	0x3e0d862f	0.13820718
53	0x3de471ca	0.11154516
54	0x3f4b995e	0.79530895
55	0xbadb25c0	-0.0016719624
56	0x3e9d5ccc	0.3073486
57	0x3fcea1ec	1.6143165
58	0x3f1e0439	0.61725193
59	0x3fc6078a	1.5471051
60	0x3ed88f7c	0.4229697
61	0xbf7caa6e	-0.98697555
62	0x3e970cb1	0.2950187
63	0x3e3d5bc1	0.18492033
64	0x3e2f0b95	0.17094262
65	0xbb463380	-0.0030243099
66	0x3d82c1ba	0.06384607
67	0xbe38dc5d	-0.18052812
68	0xbd7b4d90	-0.061353266
69	0x3dc03272	0.09384622
70	0xbe3385c0	-0.1753149
71	0x3e2bafe3	0.16766314
72	0xbe0198e8	-0.12655985
73	0x3d79453c	0.060857043
74	0xbbeebe20	-0.0072858483
75	0x3d0ae860	0.033913016
76	0x3c98be70	0.018645495
77	0xbe3839f5	-0.17990859
78	0xbd29525c	-0.04133831
79	0xbdf9238c	-0.12164983
80	0x3e2789f7	0.16361223
81	0xbcc02de0	-0.023459375
82	0xbe443998	-0.19162595
83	0x3d3eeb64	0.046611205
84	0x3d988514	0.07447258
85	0xbdb0706c	-0.08615193
86	0xbc93e4a0	-0.018053353
87	0x3d97bf54	0.0740954
88	0xbdf53c34	-0.119743735
89	0xbdd05903	-0.10173228
90	0xbc981588	-0.018564954
91	0xbe0a6476	-0.13514885
92	0x3df23c86	0.1182795
93	0x3c80f2b0	0.015740722
94	0x3debd076	0.1151437
95	0x3dd300fe	0.103029236
96	0xbe17df99	-0.1483139
97	0xbdf5a9ef	-0.11995303
98	0xbe06caa6	-0.13163242
99	0xbd7d5a3c	-0.061853632
100	0xbd90070e	-0.070325956
101	0xbcfe07d0	-0.031009585
102	0xbe3ea502	-0.18617633
103	0x3da6716e	0.08127104
104	0x3ddf98d2	0.1091782
105	0x3d79d4a4	0.060993806
106	0x3dfa7526	0.122293755
107	0x3e140b4d	0.14457436

conv1.bias f4 [4]
0	0xbe428aa3	-0.18998198
1	0x3fc1bd8d	1.5135971
2	0x3f2cec2a	0.6754786
3	0xbe1823e3	-0.1485744

conv2.weight f4 [8, 4, 3, 3]
0	0xbd97faf3	-0.07420912
1	0xbc0fcd40	-0.008776963
2	0xbdd4567b	-0.10368057
3	0xbd00ab94	-0.03141363
4	0xbcc9c198	-0.024628446
5	0x3e180f1f	0.14849518
6	0xbc2bb380	-0.010479808
7	0x3db91872	0.09037866
8	0x3df9f336	0.12204592
9	0x3b2b4bd0	0.0026137717
10	0xbeb4c794	-0.35308516
11	0x3d978151	0.07397712
12	0x3ea49bb5	0.32150045
13	0xbea87a35	-0.32905737
14	0xbe8b19eb	-0.2716821
15	0x3ec8a41d	0.39187708
16	0xbe50781e	-0.20358321
17	0xbe984f66	-0.29748076
18	0xbe00a9bc	-0.12564749
19	0x3ec7cd1a	0.39023668
20	0x3ddab5f2	0.106792346
21	0xbd4c01f3	-0.049806546
22	0x3ec2764c	0.37980878
23	0x3e892d1f	0.26792237
24	0x3e7f929b	0.2495827
25	0x3cdb4572	0.026766513
26	0x3eca3f6c	0.39501512
27	0xbc4e0790	-0.012575045
28	0xbe226fb2	-0.15862921
29	0xbccd89f8	-0.025090203
30	0x3ddef17e	0.10885905
31	0x3d9d31a6	0.07675485
32	0xbae97780	-0.0017812103
33	0x3df0a046	0.1174932
34	0xbe1bb677	-0.15206324
35	0x3decca8f	0.115620725
36	0x3e2969a9	0.16544212
37	0xbdcf8d83	-0.10134413
38	0x3d126dc0	0.035749197
39	0xbcdc2b38	-0.026876077
40	0xbe101338	-0.14069831
41	0xbabf8380	-0.0014611334
42	0xbd64c6fc	-0.05585383
43	0xbe11c626	-0.14235744
44	0xbdf8b810	-0.12144482
45	0x3ebf84ce	0.3740601
46	0x3f66a325	0.9009269
47	0x3ee5322f	0.4476485
48	0xbd6ccb87	-0.057811286
49	0x3f8af0d6	1.0854747
50	0x3f1de2a8	0.61673975
51	0xbf431bf9	-0.7621456
52	0x3e43b392	0.1911147
53	0x3f2043f5	0.62603694
54	0xbd5e8b25	-0.054331917
55	0xbe5945fe	-0.21218106
56	0xbea0a3ec	-0.31375062
57	0xbd32cdf7	-0.043653455
58	0x3c9787b4	0.018497325
59	0xbd1733b2	-0.036914535
60	0x3ed5682b	0.41681036
61	0x3e9dc584	0.30814755
62	0xbe4030e8	-0.18768656
63	0xbabaff80	-0.0014266819
64	0xbe146f92	-0.14495686
65	0x3c206790	0.009790316
66	0x3dfd127a	0.1235704
67	0x3d91ad00	0.07113075
68	0xbdd0ac6f	-0.10189139
69	0xbd16bbaa	-0.036800064
70	0x3d88adc0	0.06673765
71	0x3d39bf9b	0.045348745
72	0xbe204fc3	-0.15655427
73	0xbdc700b8	-0.09716934
74	0xbd716e7c	-0.058943257
75	0x3d7adf90	0.061248362
76	0x3e187dbd	0.14891715
77	0x3d981a50	0.07426894
78	0x3d80f126	0.062959954
79	0xbe10d22c	-0.14142674
80	0x3ddcddaa	0.107844666
81	0x3eac7d1b	0.33689198
82	0x3ca9d028	0.02072914
83	0x3d4d00a5	0.050049443
84	0x3ddfc2c7	0.10925823
85	0xbe14b7a3	-0.14523177
86	0xbb25d878	-0.0025306027
87	0x3d47af75	0.048751313
88	0xbe16920d	-0.14704151
89	0xbd908d5e	-0.07058214
90	0x3e45e818	0.19326818
91	0xbd490d09	-0.049084697
92	0x3d8cadea	0.06869109
93	0x3ed433bd	0.41445723
94	0x3eb47118	0.35242534
95	0x3e191e83	0.14953046
96	0xbd385e15	-0.0450116
97	0xbd7e200e	-0.06204229
98	0xbe9273f6	-0.28604096
99	0xbd3a5380	-0.045489788
100	0x3c3c73f0	0.011502251
101	0xbdad1938	-0.08452076
102	0xbdffb7fe	-0.124862656
103	0x3d4768e4	0.048684016
104	0x3cc91d88	0.024550214
105	0xbd545970	-0.051843107
106	0x3d3aebfc	0.04563521
107	0x3e1dbb5f	0.15403508
108	0x3c151c00	0.009100914
109	0xbde9f193	-0.1142303
110	0x3e1dd1d1	0.1541207
111	0x3df5a22a	0.11993821
112	0xbc825040	-0.015907407
113	0xbd9a2e7e	-0.07528399
114	0xbd900648	-0.07032448
115	0x3e14d1a1	0.14533092
116	0x3db24efe	0.08706473
117	0x3e5d3993	0.21603994
118	0x3d669fef	0.05630487
119	0x3bec6066	0.00721364
120	0x3f715fc4	0.9428675
121	0x3eed9830	0.46405172
122	0x3ed31aae	0.41231292
123	0x3eba8f3f	0.36437413
124	0x3d55d4dd	0.052204955
125	0xbe2fee94	-0.17180854
126	0xbf0a0e8b	-0.5392844
127	0xbf2aefc2	-0.6677209
128	0xbebb2f72	-0.36559635
129	0xbca2a825	-0.019855568
130	0xbed554c9	-0.41666248
131	0xbf08e992	-0.534814
132	0x3f7d41af	0.9892835
133	0x3f57883c	0.8419225
134	0x3f2571b6	0.64626634
135	0x3d94a75d	0.072584845
136	0xbd81bf39	-0.06335301
137	0xbdd7122f	-0.10501515
138	0xbde8ad3e	-0.11361168
139	0xbc2c8f6a	-0.010532239
140	0x3d292ef7	0.041304555
141	0xbe1f20e6	-0.15539894
142	0xbe030591	-0.12795092
143	0x3dc036dd	0.09385464
144	0x3caf1058	0.021370098
145	0x3de123f6	0.10993187
146	0x3e1803bd	0.14845176
147	0x3dcf7e8e	0.1013156
148	0xbd111450	-0.035419762
149	0xbd97df78	-0.0741567
150	0x3d412d10	0.047162116
151	0x3e0ad4cf	0.13557743
152	0xbe239efc	-0.15978616
153	0x3d53a335	0.05166932
154	0xbe15f91d	-0.1464581
155	0xbe196d4f	-0.14983104
156	0x3e74f28b	0.23920648
157	0x3e03b8ad	0.12863417
158	0x3d73aa1a	0.059488393
159	0x3e36a85b	0.1783766
160	0xbc4f38b4	-0.012647796
161	0x3d026b21	0.031840447
162	0xbe4f7b86	-0.20261964
163	0xbdefc236	-0.11706965
164	0x3c83e74e	0.016101506
165	0xbd1d5137	-0.03840753
166	0xbca4f1f0	-0.020134896
167	0x3df87d0f	0.12133228
168	0x3e534076	0.20630059
169	0x3c60fb5b	0.013731803
170	0xbd183d7f	-0.037168022
171	0xbdf6f75b	-0.12058898
172	0x3dafaef2	0.0857829
173	0xbdeff1ce	-0.117160425
174	0x3d53a77c	0.051673397
175	0xbcf83bc8	-0.030301943
176	0x3e04e0cd	0.1297638
177	0xbdd9c95e	-0.10634111
178	0xbddf0fa0	-0.10891652
179	0x3c9d9b48	0.019239083
180	0x3ba078e0	0.004897222
181	0xbd92d27b	-0.07169052
182	0x3e2a741d	0.16645856
183	0xbe120784	-0.1426068
184	0x3db8f826	0.090317056
185	0x3da62b56	0.081137344
186	0xbd1d813c	-0.038453326
187	0x3d71d724	0.059043065
188	0xbce55ea0	-0.027999222
189	0x3de4da9e	0.111745104
190	0x3ed43314	0.4144522
191	0x3f8c0d50	1.0941563
192	0x3e04a1e9	0.12952389
193	0x3f0771ee	0.5290822
194	0x3f9f3a69	1.24397
195	0xbf51e83f	-0.81995004
196	0xbf214c17	-0.6300673
197	0x3f9587c5	1.1682059
198	0x3f7d9fb6	0.99071825
199	0xbf3966ff	-0.72422785
200	0xbe3d7c03	-0.18504338
201	0x3f068e70	0.5256109
202	0xbf1d42d9	-0.61430126
203	0x3ec4eb00	0.3846054
204	0x3f21eee7	0.6325516
205	0xbf05619b	-0.5210206
206	0x3e67967b	0.22615997
207	0x3dbb474d	0.09144459
208	0xbd700780	-0.058600903
209	0xbdc434bf	-0.09580373
210	0x3d826be1	0.063682325
211	0x3d5c7d07	0.053830173
212	0x3d300a4e	0.042978577
213	0xbe1dd279	-0.1541232
214	0xbd4d3394	-0.050098017
215	0xbd783245	-0.060594816
216	0x3ae1e200	0.0017233491
217	0x3e18e805	0.14932258
218	0xbdf7d770	-0.12101638
219	0xbb11ac00	-0.0022227764
220	0x3d82e9b0	0.063922286
221	0x3dc01bf2	0.0938033
222	0xbe290af0	-0.16508079
223	0x3be0ff20	0.006866351
224	0x3e067ea9	0.13134255
225	0xbe5f6012	-0.21813992
226	0x3e24784e	0.16061518
227	0xbd0c8534	-0.03430672
228	0x3eaae9a4	0.3338138
229	0xbe1deca0	-0.15422297
230	0xbd8e80d8	-0.06958169
231	0x3edcd232	0.43129116
232	0x3e37d8ee	0.17953846
233	0xbe10ddf4	-0.14147168
234	0xbe6786bd	-0.22609992
235	0x3e0866fc	0.13320535
236	0x3d8049e0	0.062640905
237	0x3e198a16	0.14994082
238	0xbca17f66	-0.019714069
239	0x3e329bb5	0.1744221
240	0x3cd85903	0.026409632
241	0xbd143905	-0.03618719
242	0x3e5fb4d4	0.21846324
243	0x3db4ee72	0.08834542
244	0x3d9049ba	0.07045312
245	0xbdc88490	-0.09790909
246	0x3e11e179	0.14246167
247	0xbdaa30b0	-0.08310068
248	0x3e1ce691	0.15322329
249	0xbe0cfa7f	-0.13767432
250	0xbda86bfb	-0.08223721
251	0xbd4fd6c6	-0.050741933
252	0x3ce4ad08	0.027914539
253	0x3db98f12	0.090604916
254	0x3d11fa00	0.03563881
255	0xbd7f92b0	-0.06239575

conv2.bias f4 [8]
0	0x3d7a5edf	0.061125632
1	0x3ea5a328	0.3235104
2	0x3e213615	0.15743287
3	0x3ea61780	0.32439804
4	0xbe1aed2a	-0.15129533
5	0x3ee07c8c	0.43845022
6	0xbdb3b983	-0.08775618
7	0xbe192579	-0.14955701

conv3.weight f4 [16, 8, 3, 3]
0	0x3e00da5b	0.12583296
1	0x3be8a246	0.0070994226
2	0xbd5babe1	-0.053630713
3	0xbde28537	-0.11060565
4	0xbbb7ce11	-0.005609282
5	0xbd0513d9	-0.03248963
6	0x3c6b255d	0.01435217
7	0xbd2d4e8b	-0.042311233
8	0x3d12c9f8	0.035837144
9	0x3dc22161	0.09479023
10	0xbd8a20b0	-0.06744516
11	0xbd3cb481	-0.04607058
12	0x3e1b5d4d	0.1517231
13	0xbe0c5213	-0.13703184
14	0x3dedff4f	0.11620962
15	0xbd57c2eb	-0.052676123
16	0x3da3f107	0.08004957
17	0xbd75c856	-0.06000551
18	0x3d9b9c03	0.07598116
19	0xb9c8688b	-0.00038224863
20	0xbd24a5d3	-0.040197205
21	0x3dfc2af4	0.1231288
22	0xbdf0710c	-0.11740312
23	0x3dc89386	0.09793763
24	0x3dbeecfe	0.093225464
25	0xbd013dee	-0.0315532
26	0xbd6f68e4	-0.05844964
27	0x3e336f08	0.17522824
28	0x3d3ee692	0.046606608
29	0xbdb6bbc6	-0.08922534
30	0xbdb13c90	-0.086541295
31	0xbdeab760	-0.11460757
32	0xbce3756b	-0.02776595
33	0x3c9ef47a	0.019403685
34	0x3dc0a2f1	0.094060786
35	0x3e00e9bc	0.12589163
36	0xbdbc685f	-0.09199595
37	0x3d6a10d7	0.057144966
38	0x3d4089b3	0.04700632
39	0x3d202809	0.03910068
40	0xbdda5ce0	-0.10662246
41	0xbd9865a2	-0.0744126
42	0xbc06d63a	-0.0082297865
43	0x3d7582b3	0.059939098
44	0xbc935bf1	-0.017988177
45	0xbdb600c8	-0.08886868
46	0xbc8e7a2b	-0.017392239
47	0xbcf9e8de	-0.030506548
48	0x3b40465f	0.002933882
49	0xbd3ad28b	-0.045610946
50	0xbd2cf245	-0.042223234
51	0x3ddc9c6d	0.10772023
52	0x3cc4839b	0.023988536
53	0x3dbfbebd	0.09362552
54	0xbdb00e2a	-0.085964516
55	0xbd3f7287	-0.04674008
56	0x3d63d56e	0.055623464
57	0xbdab19e5	-0.08354548
58	0x3c958d66	0.0182559
59	0xbd8a8bd7	-0.067649536
60	0xbcb6a636	-0.022296052
61	0x3bda1802	0.006655694
62	0xbdaac815	-0.08338944
63	0x3d17a221	0.037019853
64	0x3d98846d	0.07447133
65	0xbdd3d892	-0.10344042
66	0xbbf4ae17	-0.007467042
67	0xbcd614dc	-0.026132993
68	0xbddb4431	-0.10706366
69	0xbcc9ecb5	-0.024649004
70	0x3dc645d4	0.096812874
71	0x3c79f3ea	0.015255908
72	0x3cad72ff	0.021172998
73	0x3e24cf60	0.16094732
74	0x3d58d2ca	0.0529354
75	0x3e114f47	0.14190398
76	0xbca52971	-0.020161362
77	0x3df5bffc	0.11999509
78	0x3df0cbba	0.11757608
79	0x3d54ae21	0.051923875
80	0x3d0ebcba	0.034847952
81	0x3e463000	0.19354248
82	0xbd6334bf	-0.055470224
83	0x3e653f9f	0.22387551
84	0xbce92a77	-0.028462632
85	0xbdd010e6	-0.10159473
86	0xbddaedba	-0.10689874
87	0xbdd57dcd	-0.10424385
88	0xbc49d758	-0.012319408
89	0xbe7e5288	-0.2483617
90	0xbdb740b5	-0.08947889
91	0xbd8e4d6d	-0.069483615
92	0x3d36581d	0.044517625
93	0x3e1fa137	0.15588842
94	0x3d9f023e	0.077640995
95	0xbd0cdfa4	-0.034392968
96	0xbd48fc62	-0.049068816
97	0x3d85e38b	0.06537541
98	0xbd961612	-0.07328428
99	0x3d4e7ac2	0.05041004
100	0x3d851f2d	0.06500087
101	0x3e9276e8	0.28606343
102	0x3e28a37a	0.16468611
103	0xbdbee542	-0.09321071
104	0x3dbda678	0.09260267
105	0xbdfdfd0e	-0.12401782
106	0xbd84c6ee	-0.06483255
107	0xbe3deba6	-0.18546924
108	0x3df70a78	0.12062544
109	0x3dcef2c0	0.10104895
110	0x3df9ef81	0.12203885
111	0x3d432051	0.04763824
112	0xbd2609d9	-0.040536735
113	0x3d83179b	0.06400987
114	0xbd2c40e3	-0.04205407
115	0xbddd82df	-0.10815977
116	0xbd819f81	-0.06329251
117	0x3dbc85a4	0.092051774
118	0xbdef3eae	-0.11681877
119	0x3d4c90b3	0.049942683
120	0x3e62ce49	0.22149004
121	0xbe52164f	-0.20516323
122	0x3d819ac1	0.06328345
123	0x3e2ee30d	0.170788
124	0x3d039a77	0.03212973
125	0xbe5a9de5	-0.21349294
126	0x3d957cf8	0.072992265
127	0x3e13b571	0.14424683
128	0xbda90631	-0.08253134
129	0x3d96ae01	0.07357407
130	0xbcb958f7	-0.02262543
131	0xbda77e0e	-0.0817834
132	0x3a9fef93	0.0012202136
133	0x3da78884	0.08180335
134	0xbd98296c	-0.074297756
135	0xbcdfbf23	-0.02731282
136	0xbcf26fee	-0.029594388
137	0x3d8938a9	0.0670026
138	0x3d347966	0.044061087
139	0x3d7284c9	0.059208665
140	0x3db9f990	0.090808034
141	0x3d840140	0.06445551
142	0xbd3decac	-0.046368286
143	0x3c71eb8d	0.014765632
144	0xbc6c0ad3	-0.014406878
145	0x3dc08c11	0.094017155
146	0xbde3a0bf	-0.11114644
147	0x3e30ec92	0.17277744
148	0x3d00bc1c	0.031429395
149	0x3da3d0db	0.079988204
150	0xbc15170d	-0.009099734
151	0x3a92e31e	0.0011206602
152	0x3daddd27	0.08489447
153	0x3e23c96b	0.15994804
154	0x3dd2231b	0.10260602
155	0xbd44efdc	-0.04808031
156	0xbe849a4b	-0.25898966
157	0x3e54cf33	0.20782165
158	0x3c88582c	0.016643606
159	0x3da994c9	0.08280332
160	0xbe3b2af6	-0.18278107
161	0xbc9d0f20	-0.019172251
162	0xbe01607f	-0.12634467
163	0x3d27bfab	0.040954273
164	0x3d3733e1	0.04472721
165	0xbd931cad	-0.07183204
166	0xbb0df1f9	-0.002165912
167	0x3dc2f913	0.095201634
168	0x3d516d4e	0.05112963
169	0x3d4f9732	0.0506813
170	0xbd6b657d	-0.057469834
171	0x3d9585f7	0.073009424
172	0x3e41a5a2	0.1891084
173	0xbc74a2c5	-0.014931385
174	0x3d3d4c23	0.046215188
175	0x3de56499	0.11200828
176	0x3e82f926	0.2558071
177	0xbd4649c6	-0.0484102
178	0xbda95ebc	-0.08270022
179	0xbe01110a	-0.12604156
180	0xbdc5bc36	-0.09655039
181	0xbd7e9a71	-0.062159006
182	0x3d77cece	0.06049996
183	0x3df4fd14	0.11962333
184	0xbdc816e4	-0.09769991
185	0x3ddcc9e8	0.10780698
186	0x3da1ee4d	0.079067804
187	0x3c6c4af6	0.014422169
188	0x3d92e415	0.071724094
189	0x3e85474b	0.26030955
190	0xbdc37069	-0.09542925
191	0x3e0cd1ca	0.13751903
192	0xbe76308f	-0.24041961
193	0x3ec56d59	0.38559988
194	0x3b162b6f	0.0022914072
195	0x3e4e0ce2	0.20122102
196	0xbd1d7602	-0.03844262
197	0xbe5ca3c1	-0.21546842
198	0xbdbb7bc3	-0.09154465
199	0xbdc22c18	-0.094810665
200	0xbd5bc44a	-0.053653993
201	0x3e037317	0.12836872
202	0xbdfe06d3	-0.12403645
203	0xbd88e820	-0.06684899
204	0x3c65b95f	0.014021247
205	0x3cff323a	0.03115188
206	0xbd63dee3	-0.055632483
207	0x3de398ce	0.111131296
208	0xbd262a3d	-0.040567625
209	0xbd8eace8	-0.06966573
210	0x3cb9a894	0.022663392
211	0x3d60e5e7	0.054906752
212	0xbd762b28	-0.06009975
213	0x3cf0f1b7	0.029412134
214	0x3d027929	0.03185383
215	0x3d4ba925	0.049721856
216	0x3d90e3cc	0.07074699
217	0xbe329f58	-0.17443597
218	0xbdfff11c	-0.1249716
219	0x3ea5cd88	0.3238337
220	0x3df21ec7	0.118222766
221	0xbc4a4410	-0.012345329
222	0xbd8e9221	-0.069614656
223	0x3e06558f	0.13118576
224	0xbd205282	-0.039141186
225	0x3e2532f8	0.16132724
226	0x3dce00c4	0.1005874
227	0xbea8fda9	-0.33006027
228	0xbe007fc6	-0.12548742
229	0xbe14755e	-0.14497897
230	0x3f08b688	0.5340352
231	0x3e8facf2	0.28061634
232	0xbec774f2	-0.3895641
233	0x3dfdb180	0.12387371
234	0xbdf35a2d	-0.11882434
235	0xbddbf6f5	-0.10740463
236	0xbdc923b4	-0.09821263
237	0x3d527bbc	0.051387534
238	0x3d408b65	0.047007937
239	0xbd1c593b	-0.038171034
240	0x3d0a5544	0.033772722
241	0xbc99ea82	-0.01878858
242	0x3c5763b5	0.013146331
243	0x3ec44bc0	0.38339043
244	0x3e943843	0.28949174
245	0xbd0f37fa	-0.034965493
246	0x3e227259	0.15863933
247	0x3d428308	0.047488242
248	0x3ee3dfe1	0.44506744
249	0x3c8a2fcf	0.0168685
250	0xbe26d74c	-0.16293067
251	0xbdb438e0	-0.087999105
252	0x3dd5afef	0.10433947
253	0x3dfaf2e1	0.12253357
254	0xbdda063c	-0.1064572
255	0x3dc4ef3f	0.09615945

conv3.bias f4 [16]
0	0xbdb2b2db	-0.0872552
1	0xbdc50261	-0.09619594
2	0xbd8e4b83	-0.069479965
3	0x3d8c9ac8	0.0686546
4	0xbd83acfd	-0.06429479
5	0x3e5eabf0	0.21745276
6	0xbd762371	-0.060092393
7	0x3e9e9688	0.3097422
8	0x3bab0e93	0.0052202432
9	0x3e0fdc6f	0.14048932
10	0x3e456a20	0.19278765
11	0xbd0c7491	-0.034290854
12	0xbc3995d3	-0.011327225
13	0xbc8b1ffb	-0.016983023
14	0x3df8ce77	0.12148755
15	0xbdc75923	-0.09733798

conv4.weight f4 [32, 16, 3, 3]
0	0xbd849e85	-0.06475548
1	0x3d77c259	0.06048808
2	0xbd4b9fe3	-0.049713027
3	0x3d51b66f	0.051199373
4	0xbd8d41c4	-0.068973094
5	0x3db8020c	0.089847654
6	0x3d639542	0.055562265
7	0x3c84af82	0.01619697
8	0x3d84e410	0.06488812
9	0xbcf4d79b	-0.029887965
10	0xbd914981	-0.07094098
11	0x3da91944	0.08256772
12	0x3d4f5885	0.05062153
13	0xbd495e15	-0.04916199
14	0x3d74cf27	0.05976787
15	0x3dd159b8	0.102221906
16	0x3b8786d5	0.0041359463
17	0xbdc5417b	-0.0963163
18	0xbdb122f0	-0.08649242
19	0xbdaf7952	-0.08568062
20	0xbe303bbf	-0.17210291
21	0x3e027ccd	0.1274292
22	0xbd263f6d	-0.04058783
23	0xbcde0936	-0.027104001
24	0xbc54ad84	-0.0129808225
25	0x3da3781c	0.079818934
26	0x3d8ee6a1	0.06977583
27	0x3e33fd82	0.17577174
28	0xbe36d9f2	-0.17856577
29	0xbda7c271	-0.08191384
30	0x3c18db31	0.009329603
31	0x3df52e3a	0.11971708
32	0xbc0f52f5	-0.008747806
33	0xbe3982fc	-0.18116373
34	0xbd86e3b9	-0.065864034
35	0x3d99a26c	0.07501683
36	0x3cb437f4	0.021999337
37	0x3bd93af0	0.0066293404
38	0xbc51f580	-0.012814879
39	0x3da7548b	0.08170422
40	0xbbd5ca10	-0.006524332
41	0x3c115548	0.00887043
42	0x3d937af9	0.072011895
43	0x3da946a9	0.082654305
44	0x3d7edd9a	0.062223054
45	0x3e637dca	0.22215953
46	0x3ece3fc9	0.4028304
47	0x3e2f9da5	0.1714998
48	0x3bedd6b9	0.007258263
49	0xbe2d9a45	-0.1695338
50	0xbdbc5615	-0.09196106
51	0xbce71aef	-0.028211085
52	0x3e147691	0.14498354
53	0xbe382372	-0.17982271
54	0x3d870e82	0.06594564
55	0x3cdbe42d	0.026842201
56	0x3a662a67	0.0008780122
57	0x3ced3287	0.028954757
58	0x3d875e68	0.066098034
59	0x3d840c9e	0.06447719
60	0xbcebf5fb	-0.028803816
61	0xbd08ada7	-0.033368733
62	0x3d9c78a1	0.07640196
63	0xbe85f1c7	-0.26161024
64	0x3da88081	0.08227635
65	0xbee80dac	-0.4532293
66	0x3e543f7f	0.20727347
67	0x3dff6a92	0.124714985
68	0x3e465be2	0.19370988
69	0x3dcba032	0.09942664
70	0xbe062fdb	-0.13104193
71	0x3e3825e7	0.17983209
72	0xbdf9868b	-0.12183865
73	0x3ce5b217	0.028039021
74	0xbccfd38f	-0.025369434
75	0x3d971019	0.07376117
76	0xbdc7acc1	-0.09749747
77	0xbda9fec4	-0.08300546
78	0xbb27b276	-0.0025588549
79	0xbcd6b19a	-0.026207734
80	0xbdfc628c	-0.12323484
81	0xbce68172	-0.028137896
82	0xbe962b70	-0.29330015
83	0xbf1483d5	-0.5801366
84	0x3ed437cd	0.41448823
85	0x3e16ebc3	0.14738373
86	0x3df417bf	0.11918592
87	0x3c908361	0.017640771
88	0xbd9a7f9f	-0.07543873
89	0xbc0660a1	-0.008201749
90	0x3b746f29	0.0037297702
91	0x3e20ad50	0.15691113
92	0xbdc71fd1	-0.097228654
93	0x3e117c40	0.14207554
94	0x3eb69768	0.3566239
95	0x3c8625e0	0.016375482
96	0x3de675a8	0.1125291
97	0xbe0a4f13	-0.13506727
98	0x3c394720	0.011308461
99	0xbd7a534d	-0.061114598
100	0x3cf8ab32	0.03035507
101	0x3adfee56	0.001708458
102	0x3e114db4	0.14189798
103	0xbe2cb987	-0.16867648
104	0xbe62c0cc	-0.22143859
105	0x3df87378	0.12131399
106	0x3df7deda	0.121030524
107	0x3d64e6f5	0.05588432
108	0x3d11aeac	0.03556697
109	0x3e24b663	0.160852
110	0x3e034831	0.12820508
111	0xba9eb13b	-0.0012107262
112	0x3d41e160	0.047334075
113	0x3cfad14b	0.030617377
114	0x3e12b92d	0.14328451
115	0xbe45fe65	-0.19335325
116	0xbd2b2405	-0.041782398
117	0xbd0720af	-0.032990154
118	0x3c7b4b32	0.015337752
119	0x3dcdaef5	0.10043136
120	0xbb775682	-0.0037740772
121	0xbd4e5e3f	-0.05038285
122	0xbd030e0d	-0.03199582
123	0x3e1cfff1	0.15332009
124	0x3c4a0aed	0.0123317065
125	0xbdb1e8b5	-0.086869635
126	0xbd6dcaf2	-0.05805487
127	0xbe3084cc	-0.17238158
128	0xbe172333	-0.14759521
129	0x3c76f996	0.015074154
130	0x3d5cf079	0.05394027
131	0x3ab92642	0.0014125782
132	0x3c4402f5	0.011963596
133	0xbd3ab2d6	-0.045580707
134	0x3d09e4a2	0.033665307
135	0xba6025b9	-0.0008550543
136	0xbd670bc6	-0.056407712
137	0xbd3467c2	-0.044044264
138	0x3cbee9d4	0.023304857
139	0x3cfaeca1	0.030630412
140	0xbd210ca1	-0.039318684
141	0xbd952db0	-0.07284105
142	0xbcf8ead0	-0.030385405
143	0xbd865c22	-0.06560542
144	0xbd54986a	-0.051903166
145	0xbc8405eb	-0.016116103
146	0x3d1f268c	0.03885512
147	0x3c9ede00	0.019392967
148	0xbd626547	-0.055272367
149	0xbc96df8b	-0.01841714
150	0xbcd45d3d	-0.025923366
151	0xbd9a7abb	-0.0754294
152	0x3984fbff	0.00025364754
153	0xbdae6480	-0.085152626
154	0xbcfc2781	-0.030780556
155	0xbaa6e5cb	-0.0012733279
156	0x3c5cb930	0.0134718865
157	0x3da2d3b5	0.07950536
158	0xbca9fcff	-0.02075052
159	0x3d976883	0.07392981
160	0x3bdf58b6	0.006815995
161	0x3d982c39	0.0743031
162	0xbcb75732	-0.022380445
163	0xbd8bfed8	-0.06835717
164	0xbd981f18	-0.07427806
165	0xbd1bdf4b	-0.038054746
166	0xbcc55257	-0.024087114
167	0xbbeb3095	-0.0071774223
168	0x3d4dbd7d	0.05022954
169	0xbddad25c	-0.10684654
170	0x3ddf4bde	0.109031424
171	0xbb9c48b5	-0.0047694095
172	0xbb1e2082	-0.0024128263
173	0xbc840d51	-0.016119631
174	0xbdefd70d	-0.117109396
175	0xbd7a5820	-0.0611192
176	0xbd92cb50	-0.07167685
177	0x3dd8d2c1	0.10587073
178	0xbd2fa6e7	-0.04288378
179	0x3c810387	0.015748752
180	0xbc9f9d94	-0.019484319
181	0x3d801daf	0.06255662
182	0xbd715890	-0.05892235
183	0xbc525ea8	-0.012839951
184	0x3d903693	0.07041659
185	0xbbbace50	-0.005700864
186	0xbcd80cf6	-0.026373368
187	0x3c9c8084	0.01910425
188	0xbd883f56	-0.06652705
189	0xbcd66ff3	-0.026176428
190	0xbde83e75	-0.11340038
191	0x3e0daeb7	0.1383618
192	0xba20574a	-0.00061165227
193	0xbd1fb991	-0.03899533
194	0xbd8f9a68	-0.070118725
195	0xbce3dd82	-0.027815584
196	0x3d5765fb	0.05258749
197	0xbdb8395b	-0.08995315
198	0xbcac33a4	-0.021020718
199	0x3d853011	0.065033086
200	0xbca92fc0	-0.020652652
201	0xbcf58796	-0.029971879
202	0xbcf6319e	-0.030052956
203	0xbd33ae32	-0.043867297
204	0x3cf57f41	0.029967906
205	0xbd05d808	-0.032676727
206	0xbda83aff	-0.082143776
207	0x3d27ee48	0.040998727
208	0xbe13a151	-0.14417006
209	0xbdd4d486	-0.10392098
210	0xbdb34d93	-0.087550305
211	0xbde8cbc7	-0.113669924
212	0xbe0de114	-0.13855392
213	0xbdda763f	-0.10667085
214	0xbc974886	-0.018467199
215	0x3e16884f	0.14700435
216	0x3d98e67c	0.074658364
217	0xbcb75c7c	-0.022382967
218	0x3d8b360b	0.06797417
219	0x3af034b3	0.0018326252
220	0xbaf9a21f	-0.0019045508
221	0xbd35b6fd	-0.044363964
222	0xbcb4e080	-0.022079706
223	0xbd7974f3	-0.060902547
224	0x3d843002	0.06454469
225	0xbde39311	-0.11112035
226	0x3e2b2719	0.16714133
227	0x3db34a18	0.08754367
228	0x3d6890d3	0.05677874
229	0xbdbff96f	-0.093737476
230	0x3daebb2d	0.08531795
231	0x3e0607b3	0.13088875
232	0x3dd5e016	0.104431316
233	0xbda9cc85	-0.08290962
234	0xbda77121	-0.081758745
235	0xbd5d346e	-0.05400508
236	0xbd99a4e9	-0.07502157
237	0x3d27d0a6	0.040970467
238	0xbd3cd780	-0.046103954
239	0xbd3323b2	-0.043735214
240	0x3d35ad9e	0.044355027
241	0xbcc9b76f	-0.0246236
242	0x3e28f591	0.16499926
243	0x3cded1d9	0.027199673
244	0xbde40052	-0.111328736
245	0xbdf90ded	-0.12160859
246	0x3bacfe08	0.0052793063
247	0x3d76b704	0.06023313
248	0xbd8822b1	-0.06647242
249	0xbccf2869	-0.025287824
250	0x3c3dfe77	0.011596314
251	0x3d635ee3	0.055510413
252	0x3c16f886	0.009214526
253	0x3ddf4e7e	0.10903643
254	0x3d47aaf2	0.04874701
255	0xbd1a41f3	-0.03766055

conv4.bias f4 [32]
0	0x3da65023	0.081207536
1	0x3d01bf5a	0.031676628
2	0xbd226e24	-0.03965582
3	0x3ce8a9fd	0.02840137
4	0x3c9673c9	0.018365758
5	0x3cc723ff	0.024309156
6	0xb94d6649	-0.00019588428
7	0x3d40a532	0.047032543
8	0x3d8ce1e6	0.06879024
9	0x3dda991a	0.10673733
10	0x3d4168cf	0.047219094
11	0x3e630ddd	0.22173257
12	0xbcc73519	-0.024317311
13	0x3db0af9b	0.08627244
14	0x3e22a552	0.15883377
15	0x3d943279	0.072361894
16	0x3ca93c54	0.02065865
17	0xbd74dce6	-0.059780978
18	0x3c3d29ed	0.01154564
19	0xbcd8b1a9	-0.026451902
20	0xbd5db2b5	-0.054125506
21	0x3d651877	0.055931535
22	0xbd5ed7cb	-0.054405015
23	0xbd8a77e3	-0.06761148
24	0x3d95c02b	0.07312044
25	0xbd28caf7	-0.041209187
26	0xbd910eec	-0.07082924
27	0x3db08145	0.08618406
28	0x3b46303a	0.0030241148
29	0xbd1253f7	-0.035724606
30	0xbd58839d	-0.05285989
31	0xbd43ab04	-0.047770515

conv5.weight f4 [10, 32, 3, 3]
0	0xbc42c30c	-0.011887323
1	0xbda1369f	-0.07871746
2	0xbe8f2956	-0.27961224
3	0xbd87bad9	-0.06627435
4	0x3d11fcfb	0.03564165
5	0xbe1f9fa5	-0.15588243
6	0x3d01ba74	0.031671956
7	0x3dcf1996	0.10112302
8	0xbb4fa2a8	-0.0031682644
9	0xbbd0fce4	-0.006377803
10	0xbce2c590	-0.027682096
11	0xbd368866	-0.044563673
12	0xbc10bf4a	-0.008834669
13	0xbc762bf5	-0.015025129
14	0xbd6a7cc0	-0.057247877
15	0x3ca90215	0.020630876
16	0x3d3e5496	0.046467386
17	0xbc9558bc	-0.018230788
18	0x3d3d8f62	0.04627932
19	0xbdb6b285	-0.08920769
20	0xbd41b4f1	-0.0472917
21	0xbc8e5e44	-0.017378934
22	0xbd1541d2	-0.036439724
23	0x3d66502c	0.0562288
24	0xbbf51dea	-0.0074803727
25	0xbdaa190b	-0.08305558
26	0x3d8834ee	0.066507205
27	0xbd85afe2	-0.065276876
28	0xbcced387	-0.025247348
29	0x3e135948	0.14389527
30	0xbe1be387	-0.15223514
31	0xbd9ffe28	-0.07812148
32	0x3d1626ca	0.036658086
33	0x3e05c7dd	0.13064523
34	0x3b98b7bf	0.004660576
35	0xbd58a9d2	-0.05289633
36	0x3c4ac071	0.012374983
37	0x3d8b2d92	0.06795801
38	0xbe8346f7	-0.2564008
39	0xbd29b14f	-0.04142886
40	0xbbb5e81c	-0.0055513512
41	0x3cbbc10c	0.0229192
42	0xbe155439	-0.1458291
43	0x3dcc4fbf	0.09976148
44	0xbe25002f	-0.16113351
45	0x3d91b95b	0.07115432
46	0xbd9f0bdb	-0.07765933
47	0x3df05bac	0.11736235
48	0x3ca0586a	0.01957341
49	0x3d542789	0.051795516
50	0x3e5e9721	0.21737339
51	0xbd341fa5	-0.04397549
52	0x3d1cc63a	0.03827498
53	0xbdeef1d5	-0.116672195
54	0x3dd9b444	0.10630086
55	0xbbce528c	-0.0062964614
56	0x3dce45d1	0.1007191
57	0xbd743556	-0.059621178
58	0xb8942e4f	-7.0658156e-05
59	0xbd90f721	-0.07078386
60	0x3e147d02	0.14500812
61	0xbe028645	-0.12746532
62	0xbd28f579	-0.041249726
63	0x3ca3780f	0.01995471
64	0xbd197d7e	-0.037473194
65	0xbd4e6a46	-0.05039432
66	0x3c83b677	0.016078217
67	0x3cc401ba	0.023926605
68	0xbd25486f	-0.04035228
69	0x3d19c4dd	0.03754126
70	0xbcdc5d64	-0.0269
71	0x3d3ec2ef	0.046572622
72	0xbd121d77	-0.03567263
73	0xbd90f19e	-0.07077335
74	0xbe62ffac	-0.22167844
75	0xbe7e540f	-0.24836753
76	0xbd8ccf44	-0.0687547
77	0xbd19a0f7	-0.037507024
78	0x3e3935ae	0.18086883
79	0x3de95da6	0.11394815
80	0x3e0fdcfb	0.14049141
81	0x3e76734b	0.24067418
82	0x3e6450fe	0.22296521
83	0x3cd93df0	0.026518792
84	0x3ba37de5	0.004989373
85	0xbe00787c	-0.12545961
86	0xbed23992	-0.41059548
87	0xbcdc820f	-0.026917486
88	0xbe27454d	-0.1633503
89	0x3c5401b9	0.012939864
90	0xbe0c4e53	-0.13701753
91	0xbc99c2bd	-0.018769616
92	0xbe46efd2	-0.19427422
93	0x3ca3cff7	0.019996626
94	0x3e25171c	0.16122097
95	0x3cef0e56	0.02918164
96	0xbdfad891	-0.12248338
97	0xbce9f432	-0.028558824
98	0xbe8537ea	-0.26019222
99	0xbdf73c1f	-0.12072014
100	0xbd802b0c	-0.062582105
101	0xbe5b0407	-0.21388255
102	0xbcafc336	-0.021455389
103	0xbea007c3	-0.31255922
104	0xbbfd0ef4	-0.00772273
105	0x3def4d2b	0.116846405
106	0xbb85b10c	-0.0040799435
107	0x3e5e8804	0.21731573
108	0x3d76e20c	0.06027417
109	0xbe267c03	-0.16258244
110	0x3e379416	0.17927584
111	0xbdfdd90b	-0.12394913
112	0x3e9ab4da	0.30216104
113	0xbda28aef	-0.07936656
114	0x3dbb1cb8	0.09136337
115	0xbd936b73	-0.07198229
116	0x3e1842b6	0.14869198
117	0x3dd3c184	0.103396446
118	0xbe6a72e7	-0.22895394
119	0x3e3795c4	0.17928225
120	0xbe684b01	-0.22684862
121	0x3d3b8a74	0.045786336
122	0x3ddf3f13	0.10900702
123	0x3d0ebaaf	0.034846004
124	0xba906751	-0.0011017119
125	0xbd321e0a	-0.04348568
126	0xbdd4418a	-0.10364063
127	0xbe6a15a4	-0.22859818
128	0x3e871238	0.26381087
129	0xbd2df3e2	-0.042468913
130	0x3d4733db	0.048633438
131	0x3db0bcda	0.086297706
132	0x3d8e193f	0.06938409
133	0xbe96562f	-0.29362628
134	0x3d3ef10f	0.04661661
135	0xbe25f377	-0.16206156
136	0xbd997673	-0.074932955
137	0x3bb45cbd	0.0055042193
138	0x3e361a76	0.17783532
139	0xbd4b01f8	-0.049562424
140	0x3e1019af	0.14072298
141	0xbdd68929	-0.1047538
142	0xbd904c68	-0.07045823
143	0xbd908254	-0.07056108
144	0xbc226c4d	-0.009913516
145	0xbb5dbfc0	-0.0033836216
146	0x3c91d818	0.017803237
147	0x3c7fd79f	0.015615373
148	0x3cfce7f4	0.030872323
149	0xbc650282	-0.013977649
150	0x3c93f647	0.01806177
151	0x3c6312a4	0.013859425
152	0xbcb313ec	-0.021860085
153	0xbcee353e	-0.029078122
154	0x3ec8f356	0.3924815
155	0xbe92d18f	-0.28675506
156	0xbd852c08	-0.06502539
157	0x3e6a4e62	0.22881463
158	0xbe575ef1	-0.21032311
159	0x3e350036	0.17675862
160	0xbe14d64e	-0.14534876
161	0x3d4875f5	0.048940618
162	0xbe029ccb	-0.12755124
163	0x3d526cdc	0.051373348
164	0xbebb78ce	-0.36615604
165	0x3dea5a23	0.114429735
166	0x3e38b617	0.18038212
167	0x3d52e663	0.051489245
168	0xbb8cb20e	-0.0042936867
169	0xbe73120a	-0.2373735
170	0xbd052bf0	-0.032512605
171	0xbc9259d0	-0.017865092
172	0x3e871f63	0.26391134
173	0x3dbd4ed0	0.09243548
174	0x3d95063b	0.07276579
175	0x3e5b6718	0.21426046
176	0x3d2e0764	0.042487517
177	0xbcbd5c8a	-0.023115415
178	0xbe48d8a9	-0.196139
179	0xbe2b6763	-0.16738658
180	0x3cd1c56f	0.025606839
181	0x3e40d995	0.18833001
182	0x3d6ef9d2	0.058343716
183	0xbc244db4	-0.0100282915
184	0x3e286862	0.16446069
185	0xbc227811	-0.009916321
186	0x3dff84a8	0.12476474
187	0xbd449a78	-0.047998875
188	0x3c754c8d	0.014971864
189	0xbdc0b459	-0.094093986
190	0xbd87314d	-0.066012
191	0x3d712b28	0.058879048
192	0x3dde9821	0.1086886
193	0xbe35b8f6	-0.17746338
194	0x3c11692a	0.008875171
195	0xbceaa3c6	-0.028642546
196	0x3c3db167	0.011577941
197	0x3d1f4d79	0.038892243
198	0xbc193d65	-0.0093530165
199	0x3c6b7790	0.014371768
200	0x3db95ca0	0.0905087
201	0xbdc095cf	-0.09403574
202	0xbb09247a	-0.0020926283
203	0xbd091239	-0.033464644
204	0x3b967787	0.0045918855
205	0x3ca4bc19	0.020109223
206	0xbe0dfc08	-0.13865674
207	0xbc83d52a	-0.016092855
208	0xbdb99c20	-0.090629816
209	0x3cb411fc	0.021981232
210	0xbe0365e6	-0.1283184
211	0x3d87ca88	0.06630427
212	0xbdda817c	-0.106692284
213	0x3e172f8a	0.14764228
214	0x3d0200b3	0.031738948
215	0xbb81b589	-0.0039584083
216	0x3d477479	0.04869506
217	0xbe410201	-0.1884842
218	0xbd880881	-0.06642247
219	0x3c9edc1f	0.019392071
220	0xbe196c0a	-0.1498262
221	0xbdf0801b	-0.11743184
222	0xbdd11757	-0.1020953
223	0x3e3fb40e	0.18721029
224	0xbe2f14fa	-0.17097846
225	0x3cdb83ff	0.02679634
226	0x3d4b50a7	0.049637463
227	0xbbac97d1	-0.0052671214
228	0x3c536987	0.012903578
229	0x3d0d0496	0.0344282
230	0x3d33f5df	0.043935653
231	0xbcbae8ef	-0.02281615
232	0x3ce0f662	0.027461234
233	0x3c305cc7	0.010764307
234	0x3cac6aa5	0.021046946
235	0x3d6e2c27	0.058147576
236	0x3e0dedab	0.13860194
237	0x3cb98122	0.022644583
238	0xbdb58137	-0.088625364
239	0xbdaa8e48	-0.08327919
240	0x3d278080	0.04089403
241	0x3d0e8151	0.034791294
242	0x3c6a64bc	0.0143062435
243	0x3d5a2510	0.053258
244	0x3deace01	0.114650734
245	0xbe6f0d38	-0.23344886
246	0x3e2df5fc	0.16988367
247	0x3c88a067	0.016678048
248	0xbd2fe05b	-0.04293857
249	0xbc5ffde4	-0.013671372
250	0xbddb6360	-0.10712314
251	0xbcdeb4f1	-0.027185889
252	0xbe57f3d2	-0.21089104
253	0xbc8e3498	-0.017359063
254	0x3b99e9fd	0.004697083
255	0x3e8bb4df	0.2728643

conv5.bias f4 [10]
0	0xbcf32c74	-0.029684283
1	0x3bb7c54d	0.005608237
2	0xbd116db1	-0.035505
3	0x3cb2f1bf	0.02184379
4	0xbd7f165f	-0.062277194
5	0xbd538b5b	-0.05164657
6	0x3d3435b4	0.043996528
7	0xbd207106	-0.039170288
8	0xbd8f796f	-0.070055835
9	0xbcff4135	-0.031159023
