R7models/BaseR7seed10.pt (torch_old, 38047 bytes, 10 tensors)

conv1.weight f4 [4, 3, 3, 3]
000000 d3 4b bc 3d 58 24 49 bc 90 cd 93 bd 27 c8 bc 3e
       0.0919415 -0.012276731 -0.07216942 0.36871454
000010 aa 2b d7 bc b0 02 0b bd c1 ed dc 3e 5f c8 f8 3e
       -0.026265938 -0.03393811 0.43150142 0.4859037
000020 fc a0 31 3d e8 b7 85 bd a0 2a 97 3c 10 b0 b0 bc
       0.043366417 -0.06529218 0.018452942 -0.021568328
000030 ae e1 a0 3d 60 84 b4 3c ba 64 9a 3d f3 20 3f 3e
       0.07855545 0.022035778 0.07538743 0.18664913
000040 b2 aa a3 bd a0 df de bb b0 4a 35 3d 80 c4 a4 ba
       -0.07991542 -0.0068015605 0.04426068 -0.0012570769
000050 90 fe 96 bc 31 66 2e be 42 fe 29 be 9b 55 31 be
       -0.018431932 -0.1703117 -0.16600898 -0.17317812
000060 52 d4 40 be 3d 8a 37 be b9 4a 15 be a8 d6 92 3e
       -0.18830994 -0.17923827 -0.14579286 0.28679395
000070 1c f6 06 3e 70 47 0e 3f a6 d9 4c 3f c4 2c 31 3f
       0.13179821 0.55577755 0.80019605 0.6920893
000080 d7 16 24 3f 7e 50 0d 3f 25 eb 54 3f b1 3b e7 3e
       0.6409735 0.55200946 0.831713 0.45162728
000090 61 6e 31 3e c0 72 59 bc 0f 08 2a 3e e4 a9 71 3d
       0.17327262 -0.013271987 0.16604637 0.05899991
0000a0 c1 3f 1a 3e 8b 33 1d 3e e8 b2 24 bd b4 44 65 bd
       0.15063383 0.15351693 -0.04020968 -0.055973724
0000b0 a0 38 ed 3c c0 01 06 bc c8 97 f6 3c ee f1 c7 3d
       0.028957665 -0.008179128 0.030101672 0.09762941
0000c0 11 fe 19 be 60 b0 10 bc 9c aa 1a be 0f 51 3e 3e
       -0.15038325 -0.008831114 -0.15104145 0.18585609
0000d0 74 99 0a be 14 c4 16 3d 62 04 35 3f f9 6a b6 3f
       -0.135351 0.03680809 0.7070981 1.4251395
0000e0 21 6c 6e 3f f6 fa ce bc 80 d4 98 3f 86 8b e1 3f
       0.9313374 -0.025266152 1.193985 1.7620704
0000f0 1b e1 bf be 10 34 25 3c 8d a9 8f 3f 3c 4c 78 3d
       -0.3747643 0.010083213 1.1223618 0.060619578
000100 4c e8 33 3d 15 09 36 3e 7e eb b0 3d 50 51 b5 bd
       0.043922707 0.17776902 0.086386666 -0.088534
000110 8d f4 06 be d7 e3 18 3e 69 e0 3c 3e 2a 08 bb bd
       -0.13179226 0.14930664 0.1844498 -0.091324165
000120 29 40 fc bd 6a f4 89 3d b5 ef 0c be a4 c0 3e bd
       -0.12316925 0.067360714 -0.13763316 -0.046570435
000130 f4 ea 42 be 2c a7 57 3d 8e 64 86 bd aa 82 dc bd
       -0.1903494 0.052649662 -0.06562148 -0.1076711
000140 ed a0 fa bd ad 5a 7c 3b 43 da 4c 3e 67 7d 55 be
       -0.122377254 0.0038506195 0.20005135 -0.20848618
000150 7b 8c 48 3f 86 31 a8 3d bf 1a cf be bb c0 86 3f
       0.78339356 0.08212571 -0.40450093 1.0527567
000160 b9 9f 09 3e 4b 27 bc be 07 84 f4 bd 4b 9b 3d 3e
       0.13439836 -0.36748728 -0.11939245 0.18516271
000170 f6 d5 d1 3d 72 0f 84 bd 5d 52 a7 bd 4c c0 71 3d
       0.10245888 -0.064482585 -0.081700064 0.05902128
000180 22 3c 85 bd 5c be 74 3d 63 be c9 bd 54 e6 f3 bd
       -0.0650561 0.059751853 -0.098507665 -0.11909166
000190 c0 cf 9d bb 72 6d e7 3d a9 d8 27 3e 34 39 2e 3d
       -0.0048160255 0.11300172 0.16391243 0.042535022
0001a0 9b 14 ea bd 86 0c ce 3d da a5 99 3d 6e 22 a8 3d
       -0.114297114 0.100609824 0.07502337 0.08209692

conv1.bias f4 [4]
000000 16 41 73 bb 6c c6 0b bc dd 8e 80 3d 77 a6 d0 3e
       -0.0037117652 -0.008531194 0.06277249 0.40752003

conv2.weight f4 [8, 4, 3, 3]
000000 a6 f2 ea 3d 9e ab c8 bd d0 b6 e3 3d e6 22 76 bd
       0.11472063 -0.097983584 0.11118853 -0.060091875
000010 f9 48 9a bb 2a c3 96 bd d3 8c 59 bd 42 f2 e7 3d
       -0.004708406 -0.07361443 -0.053112816 0.11325504
000020 89 12 11 3e 10 7b a9 3d 4e f8 d5 bd 98 ed 45 bd
       0.14167227 0.082754254 -0.10447751 -0.04832229
000030 7e ef 08 3e 09 27 3c bd 1d da 05 be d9 e7 28 3d
       0.13372609 -0.045935664 -0.13071485 0.041236732
000040 15 04 12 be 5b fd 5f 3b 9c 60 23 3d 02 cd d1 3c
       -0.1425937 0.0034178111 0.039887056 0.02561045
000050 d0 81 1e bd 83 75 5f 3c 0c e4 81 bd 48 12 dc bd
       -0.038698018 0.013638857 -0.063423246 -0.10745674
000060 0a e5 6d 3d 40 3b 3c 3e 5f 2c f1 bd 5e 25 01 be
       0.058079757 0.18381977 -0.11776041 -0.1261191
000070 b4 85 ad bd 89 ec 48 3e c6 55 23 3e 4c dd 1d be
       -0.084727675 0.19621481 0.15950689 -0.1541645
000080 7f 4f 80 3d 21 5c 6f 3b 11 66 30 3e 10 a1 52 bd
       0.06265163 0.003652342 0.17226435 -0.051423132
000090 57 10 5e 3d 63 e6 00 be ae d8 12 be b2 83 cf 3d
       0.0542148 -0.12587886 -0.14340469 0.10132541
0000a0 e6 de c5 bd 2c 12 3e bd ae 4d 07 3d fe 85 c0 bd
       -0.09661655 -0.04640405 0.033033065 -0.09400557
0000b0 e0 e4 96 3d 26 3a b4 3d 27 10 f6 3d 54 4e a0 3d
       0.07367873 0.088001534 0.120147996 0.0782744
0000c0 7d 25 8a bd 40 23 d4 bd fd 0f 7c 3d 30 16 ca 3d
       -0.067454316 -0.10358286 0.061538685 0.09867513
0000d0 5d f2 d5 bd 7d fa 19 3e a2 0f 3f be 4a f1 6f 3e
       -0.10446618 0.1503696 -0.18658307 0.23431888
0000e0 6a be a7 3d d7 35 1c be 5c 47 a2 3d d9 38 11 3f
       0.081906155 -0.15254913 0.07923767 0.5672737
0000f0 e0 be 13 bd 01 bd 6b be e3 65 d7 3e c6 11 d1 bc
       -0.036070704 -0.23021318 0.4206992 -0.02552117
000100 25 a9 54 3d c5 ef 14 be 25 c3 b4 3e 98 0a e0 3d
       0.05191912 -0.1454459 0.35305133 0.109395206
000110 9f 53 5d bc 7d 67 00 3e 5a 4a ab 3e dd 23 40 3e
       -0.013508706 0.12539478 0.33455163 0.18763681
000120 b0 b8 bf bd 3c 42 6a bd d5 ee b9 3d d9 68 70 3d
       -0.09361398 -0.057192072 0.09078757 0.05869374
000130 25 c0 00 3e 30 d5 72 3e 88 cd d5 3d fa 38 99 ba
       0.12573297 0.23714137 0.104395926 -0.0011689954
000140 00 20 c9 bd 78 99 37 be 01 63 46 3e f2 b4 fa bd
       -0.09820557 -0.17929637 0.19373704 -0.12241544
000150 b9 89 b5 bc e3 13 81 3e 90 c2 1b bd a6 5c 81 bd
       -0.022160398 0.25210485 -0.038027346 -0.063164994
000160 93 03 01 bd 73 f3 44 3e 15 7d a5 3e 8f a5 f6 3e
       -0.03149755 0.19233494 0.32321993 0.48173186
000170 50 94 54 be 46 c7 1d 3d 20 08 28 3f b6 97 41 bd
       -0.20759702 0.03852012 0.656374 -0.047263823
000180 85 84 01 be 4a 10 0d 3f 74 f8 d6 3e c9 32 3b be
       -0.12648208 0.5510298 0.4198643 -0.18281092
000190 71 74 58 be bf e1 70 3e ff 07 4a bc 6c 6e ae bd
       -0.21138169 0.23523615 -0.012331008 -0.08517155
0001a0 55 e8 88 3e 73 46 ca 3d f1 f2 24 be 12 79 17 3e
       0.26739755 0.09876718 -0.161083 0.14792278
0001b0 60 c0 1e 3e bd a5 3c 3e d6 22 7e 3d 16 ec 45 bd
       0.15503073 0.18422599 0.06204494 -0.048320852
0001c0 4c 18 99 3d 4b 86 c7 3d 08 38 79 3d 50 e6 9d 3d
       0.074753374 0.09742411 0.06084445 0.07709944
0001d0 c8 d4 43 3e b6 41 d7 3e 1c 26 f2 3e 69 b5 90 3d
       0.19124138 0.4204232 0.472947 0.07065851
0001e0 df b3 8d 3e 42 8a 19 3f 00 f8 b0 3e ce f9 17 3e
       0.27676293 0.5997659 0.3456421 0.14841387
0001f0 b3 b5 d1 3e 55 36 1f 3e 32 8a 04 3f 81 5f 38 3f
       0.40958938 0.1554807 0.5177337 0.7202073
000200 01 a9 bc be 3c af 24 3f 43 c3 6b 3f 07 d1 a1 3d
       -0.3684769 0.64329886 0.9209482 0.07901197
000210 a2 e0 aa 3e 56 4d 55 3f 50 2c 83 3e 4c 23 be be
       0.33374506 0.8332113 0.25619745 -0.37136304
000220 40 82 c7 bd 08 aa bb 3e 0b 77 dd be c7 e3 3c be
       -0.0974164 0.3665316 -0.43254885 -0.18446265
000230 1c 4b c1 3e 5e 60 11 be 8c e0 a1 be f3 4d 6b 3e
       0.37752616 -0.14196917 -0.31616628 0.22978954
000240 80 56 a1 bd e6 c7 a7 3e 98 97 ad 3c f3 c3 fb bd
       -0.07877827 0.32769698 0.02119045 -0.12293234
000250 25 b3 d5 3d 77 a6 df bb 3b 78 b8 3c 3c 28 38 be
       0.1043456 -0.006825264 0.022518268 -0.17984098
000260 a3 bc dc bd e4 b9 52 3e f0 98 87 3e 7a 08 26 3e
       -0.10778167 0.20578724 0.2648387 0.16214171
000270 89 3f 37 be 49 bb a4 3d ee 48 65 3e a5 1a c3 bb
       -0.1789533 0.08043534 0.22391102 -0.005954104
000280 ab 38 11 be ca 4b 8b 3d 5c 18 ed 3e 18 a8 dd be
       -0.14181773 0.06801565 0.46307647 -0.43292308
000290 75 00 c4 bd ff 01 49 3f 16 15 26 3e fa 23 9e be
       -0.095704 0.7851867 0.16218981 -0.30886823
0002a0 bd f9 e8 3e e7 d2 31 3f 26 4c 80 3d df 0c 35 be
       0.45503035 0.69462436 0.06264524 -0.17680691
0002b0 af a5 e6 3e 9a d2 9b 3e 95 bf 3f be 8c 6b 03 bd
       0.45048282 0.30434114 -0.18725426 -0.032084987
0002c0 b0 30 8c 3e ad 89 b6 3d fd 3e 03 be 12 f8 08 bd
       0.27380896 0.08912978 -0.12816997 -0.033439703
0002d0 b7 b3 dd bd ec f3 c1 3d 45 c7 c6 3d f7 16 b9 bc
       -0.108252935 0.094703525 0.097059764 -0.022593958
0002e0 4a 03 bb 3d 85 24 17 3e 52 12 e3 3d 66 5a 04 3e
       0.09131487 0.14760025 0.11087479 0.1292511
0002f0 bc 6c ef 3c 9a 9c 6b 3c f4 9d 23 3e 74 c9 fe bc
       0.029226653 0.014380598 0.15978223 -0.03110192
000300 6e 0d 3d 3e 40 8e 40 3e 87 5e 19 3e 0a eb f8 3d
       0.18462154 0.18804264 0.14977466 0.12154205
000310 68 04 dd bd 5d f6 e8 3b fe 47 ce 3e 59 b9 ce bd
       -0.10791856 0.007109447 0.402893 -0.10093946
000320 02 ce 5f bd 9c 27 eb 3e 50 bb 98 3e f1 e5 85 be
       -0.054639824 0.45928657 0.29830408 -0.26151994
000330 2c 86 5b 3e f1 08 89 3e 58 ae 91 3d a5 a4 14 3e
       0.21437901 0.26764634 0.071133316 0.14515932
000340 6d 3b 46 3e 2a 9d 68 bd 36 30 e6 bc c2 18 28 be
       0.19358607 -0.05679051 -0.02809916 -0.16415694
000350 34 bb 60 3e 35 53 11 be fc 88 d4 3d 3d a4 04 be
       0.21946412 -0.14191897 0.1037769 -0.12953277
000360 92 91 7e 3d 57 d2 9b 3d a7 e5 5c 3d 0a b8 30 3e
       0.062150545 0.076084785 0.05392995 0.17257705
000370 e1 3e ef 3c f5 10 25 be eb a7 0d be da 21 2f 3e
       0.029204788 -0.1611975 -0.13833587 0.17102757
000380 85 86 f2 3c d8 73 45 bd 1f ed 0b bd 37 59 70 3d
       0.02960516 -0.04820618 -0.034161683 0.058678832
000390 3e 74 d1 bc a0 7f 66 3d fc f7 c4 bd fe 8c f0 3d
       -0.025568124 0.056274056 -0.09617612 0.11745642
0003a0 52 98 dc bc 0c 95 f3 3d 12 92 0e 3e 25 c9 9d 3d
       -0.0269281 0.11893663 0.13922909 0.07704381
0003b0 3f 5d a5 3d 65 c7 2f be 08 d1 c3 bc 5b 90 b0 bd
       0.08074426 -0.17165907 -0.023903385 -0.086212836
0003c0 f5 0b 00 be ad e9 b7 3d 9c 7c 14 be f3 97 b0 bc
       -0.12504561 0.08980117 -0.1450066 -0.02155683
0003d0 fb fd 14 bd d4 01 48 bd b5 b8 99 3b da b7 0d bd
       -0.036375027 -0.04882987 0.0046912082 -0.034599163
0003e0 e4 68 15 3e ca fb 3d 3e 85 20 b9 bd 12 9b 14 be
       0.14590794 0.18553081 -0.09039406 -0.1451228
0003f0 ef 62 c0 3e 99 6c bb 3d 04 44 25 3e 56 05 19 3e
       0.3757548 0.09151573 0.16139227 0.14943442

conv2.bias f4 [8]
000000 22 4c 66 bd 9f 77 73 3e 15 92 d1 3e 13 21 9f bd
       -0.05622495 0.237761 0.40931764 -0.0776998
000010 03 09 4f 3e c5 68 17 be ed 47 0b bd db 6a 8f bd
       0.20218281 -0.1478606 -0.03400414 -0.07002803

conv3.weight f4 [16, 8, 3, 3]
000000 c2 cc 09 bd e4 0f 36 3d 17 5c c3 3d a3 51 69 3d
       -0.033642538 0.04444875 0.09539049 0.05696262
000010 83 a8 47 bd 6a f7 79 bd 41 d7 af ba 67 30 fe 3c
       -0.04874469 -0.061026968 -0.0013415591 0.03102894
000020 2a 3c e9 3d 15 0c b0 bd 4f c8 5e 3d d3 20 73 bd
       0.113884285 -0.085960545 0.054390248 -0.059357475
000030 e5 16 a2 3c e2 18 45 3e 16 c3 d6 bd 5c b8 d5 bd
       0.019786308 0.19247773 -0.104864284 -0.104355544
000040 a6 9f 5e 3c 0d 0c 8f bd 52 10 35 be 2f a4 be bd
       0.013587868 -0.069847204 -0.17682007 -0.09308659
000050 9f a5 54 bd cd 3c 74 be fe a7 2b 3e 0a 0b f0 bd
       -0.05191576 -0.23851319 0.16763303 -0.117208555
000060 bd 4f 83 3c 4d 1c 5e bd c5 d0 1f 3d fe 0e 81 be
       0.016029233 -0.05422621 0.039017458 -0.2520675
000070 d3 d3 ef bd c2 8d 6a 3c 61 f2 03 bd f9 ee 8d 3e
       -0.11710324 0.014316024 -0.032213572 0.27721384
000080 00 19 8c 3e 43 40 0a 3e 34 03 e6 3d 89 57 26 3e
       0.27362823 0.13501076 0.1123108 0.1624433
000090 f0 a7 dd bd db e5 96 bd 5b 1e 0f be f2 fe 90 3d
       -0.10823047 -0.0736806 -0.13976423 0.07079877
0000a0 b4 a5 63 bd dd 0d 3f 3e fd 9a c9 3d ec 32 d6 bd
       -0.05557795 0.18657632 0.09844015 -0.10458931
0000b0 29 73 65 3d 7d df 92 bd af e2 6f bd ac 72 89 bd
       0.05601803 -0.07171533 -0.05856579 -0.06711325
0000c0 90 35 43 bd d7 84 c4 bd 81 e8 ec 3d d8 20 19 3e
       -0.047658503 -0.0959565 0.11567784 0.14953935
0000d0 c6 d8 f8 bd eb 5c 54 3e 34 f2 d7 bc f4 9d 34 3d
       -0.12150721 0.2073857 -0.026360609 0.04409595
0000e0 66 d7 83 bd e2 f8 96 3c 0f 1e 7f 3d 8e 27 39 bd
       -0.06437568 0.018429223 0.062284525 -0.045203738
0000f0 ed fe b2 bd 90 e2 4e 3d 81 a7 07 bd 5f 34 6b bd
       -0.087400295 0.050509036 -0.03311873 -0.05742299
000100 f3 6c ac bd fe 92 8b 3d 10 bd 5f 3e 03 8c ca 3d
       -0.08419218 0.06815146 0.21849465 0.09889986
000110 71 5b f8 3e 3f c6 55 3e f4 5b 65 bd bd 9b 74 3d
       0.48507264 0.20876406 -0.055995896 0.059718836
000120 b7 d7 aa 3d 62 c4 21 3d 00 07 28 bb 24 06 e4 bc
       0.083419256 0.039493926 -0.0025638938 -0.02783496
000130 74 bb cb bd 0e 13 a1 bd f8 cd 24 3c 49 1e 73 bd
       -0.09947863 -0.078649625 0.010058872 -0.059355054
000140 6e e5 27 bd 7c b5 98 bc 04 7d bf bd 80 5c 8b bd
       -0.040990286 -0.018641226 -0.09350017 -0.06804752
000150 5a 68 61 3d 70 be b6 bd f4 80 f5 bc da e1 24 3d
       0.055031158 -0.08923042 -0.029968716 0.04025445
000160 84 cc a2 bd 12 7b d6 bd dc d4 83 3c fc fc dd bd
       -0.079491645 -0.104726925 0.01609271 -0.108392686
000170 1c a6 03 bd 72 1a 07 bd 3a a8 89 bd df 23 d9 3d
       -0.032140836 -0.032984205 -0.0672154 0.10602545
000180 20 5c 24 3b a7 45 d8 bd e2 72 16 3d 2a c1 43 3d
       0.0025079325 -0.1056016 0.036730655 0.047791637
000190 60 a6 81 bd da 7c 1d 3d 89 57 8d 3d 42 fa 15 3d
       -0.06330562 0.038449146 0.06901462 0.036615618
0001a0 24 2d 13 bd 08 61 26 bd c5 42 b2 3d ff 56 c3 3d
       -0.03593172 -0.04061988 0.087041415 0.095380776
0001b0 db 0e 68 bd ab 97 80 3d a6 9a d0 bd fc 00 ef 3c
       -0.056654792 0.06278928 -0.10185747 0.029175274
0001c0 e8 d2 84 bc 7c 72 88 bd be b6 2f bd 90 68 99 3b
       -0.01621385 -0.06662461 -0.042898886 0.0046816543
0001d0 70 97 80 bc da b7 e4 bd 48 cf 48 3c 41 ad b4 bd
       -0.015697211 -0.111678794 0.012256451 -0.08822108
0001e0 4e c3 83 bd 51 b0 b5 3d 90 e3 d0 bb bb 3d f0 bd
       -0.06433736 0.0887152 -0.006374784 -0.11730524
0001f0 b5 94 e0 3d 95 0c 8b 3d 3f e9 b5 3d be eb 40 bd
       0.109658636 0.06789509 0.08882379 -0.04709982
000200 37 a5 97 3d 08 72 77 bc 65 f2 d5 3d 06 57 78 3d
       0.07404559 -0.015102871 0.10446624 0.060629867
000210 42 99 79 3d 00 dc df 39 a8 50 26 bd f6 b6 92 bd
       0.060937174 0.00042697787 -0.040604264 -0.07163803
000220 da 21 33 bd 9e 45 0a bd ec 98 8c 3c 39 79 91 bd
       -0.043733455 -0.0337578 0.017162763 -0.071031995
000230 cb 71 9d bd be 0c aa bd a9 97 7b bd 6f 38 e4 bd
       -0.0768772 -0.08303212 -0.06142393 -0.11143576
000240 3b 1f 54 bd dd 13 0d bd 55 ec 39 bd 14 a4 38 bd
       -0.051787596 -0.03444277 -0.0453914 -0.045078352
000250 00 26 8c bc 96 ae 10 3d 48 3a 34 b8 13 37 c4 3d
       -0.017107964 0.035322748 -4.2969623e-05 0.09580817
000260 01 2a c6 bd 03 08 26 be 5a 51 4f bc bc e9 01 bc
       -0.0967598 -0.16213994 -0.012653673 -0.007929262
000270 df a3 7a 3e 61 34 7a be ac b5 20 3e ae de 85 bd
       0.24476574 -0.24434043 0.15694302 -0.065366134
000280 9f 14 b7 bd 95 75 02 be 43 6d 96 3d 1b 74 3a 3c
       -0.0893948 -0.12740166 0.07345059 0.011380221
000290 7d 75 6f 3d ce 22 1c 3e 7d 85 11 3e b8 44 5d be
       0.058461655 0.15247652 0.14211078 -0.21608245
0002a0 34 3c f7 bd 69 94 4e 3e 0f 66 9f be 95 7e cb 3e
       -0.1207203 0.20173801 -0.31132552 0.39745012
0002b0 9d d6 5f 3d fd 79 79 3e 10 fd b8 3d 3d 5c 5e 3f
       0.05464803 0.24362941 0.09032643 0.86859494
0002c0 79 22 e2 3c 0f 4c f1 bd b7 44 dc 3e 8c a9 5b be
       0.027604328 -0.11782085 0.43021175 -0.21451396
0002d0 bd df 3b 3e 5a 99 fb bd 9b ec 41 3e bf 84 fd bd
       0.18347068 -0.12285109 0.18937914 -0.12378835
0002e0 d8 4b ad 3e 82 64 5f be 59 32 42 be d7 58 8f bd
       0.33846927 -0.21815684 -0.18964519 -0.06999367
0002f0 de 6e a5 3c f9 0c ed 3d f6 60 e7 bd 85 31 4c 3e
       0.020194467 0.1157474 -0.11297791 0.19940765
000300 8f 32 a4 bd 63 d7 b8 3e 43 cd be bc 4c 5b 11 3e
       -0.08017456 0.36101827 -0.023291236 0.14194983
000310 23 0a 69 3d c4 07 7b bd 2c f2 94 3d cd e0 af bc
       0.056894433 -0.061286703 0.07272753 -0.021469498
000320 10 3e c7 3d 25 20 0c 3e 45 a0 46 39 1f a8 5b bd
       0.09728634 0.13684137 0.00018942457 -0.05362713
000330 87 d6 a5 bd e0 77 95 3d e9 8a c8 bc 73 38 da bc
       -0.080975585 0.07298255 -0.0244803 -0.026638245
000340 33 05 de 3d 45 33 b0 3d 1a 7f 41 be 93 d8 28 3f
       0.108408354 0.08603529 -0.18896142 0.65955466
000350 8b 6c 3f bc a4 87 8d 3e 8e b3 fa 3d 93 4e 1a 3e
       -0.0116835935 0.27642548 0.122412786 0.15069036
000360 d6 f9 ba bd 62 13 93 3c 4a 8e 7f 3d 06 d2 af bd
       -0.09129684 0.017953578 0.062391557 -0.08584981
000370 95 75 db 3c 9c 3a af bc 24 2b 6a 3d c2 b2 a4 bd
       0.026789466 -0.021390252 0.05717005 -0.08041908
000380 96 ea fa 3d a7 d1 52 bd a1 fd c3 3d bc 13 1d 3d
       0.12251775 -0.05146947 0.0956986 0.0383489
000390 21 28 0b bd 3c 4a 47 3b 68 d7 71 bd f2 c8 40 bd
       -0.033973817 0.0030409237 -0.059043318 -0.047066636
0003a0 aa b2 93 bd f8 be 55 3c 80 b8 2c bd 67 d1 83 bb
       -0.07211812 0.013046019 -0.04216814 -0.0040227654
0003b0 b0 11 93 3e 48 fa ae bc 06 8b 05 be d5 72 fd 3d
       0.28724432 -0.021359578 -0.13041314 0.12375418
0003c0 6e 39 a1 3d aa 11 0d 3e ef 5b a8 3d a2 3f 0e 3c
       0.07872282 0.1377627 0.0822066 0.008682163
0003d0 40 7c d5 3c 3d a1 0b 3f 81 98 49 bc 22 2d 84 bb
       0.026060224 0.54542905 -0.012304426 -0.0040337006
0003e0 a7 58 4c 3c a7 37 03 3d db 39 00 be ae 61 5d 3e
       0.012472308 0.032035496 -0.1252207 0.21619293
0003f0 0c 6d 8d 3e 8e af 9e 3a d2 5d 92 3e fa 9f 7a be
       0.2762226 0.0012106763 0.28587204 -0.24475089

conv3.bias f4 [16]
000000 94 7b ac bd 4f 3f ec bd d9 0e 42 3d 1b 5a f6 3c
       -0.08422008 -0.11535513 0.04737744 0.030072263
000010 f3 90 90 bd cc 59 8d bd 75 d6 ae 3e 52 de de bd
       -0.07058897 -0.06901893 0.34147993 -0.10882248
000020 e7 69 2a be 42 ae 38 3e 22 b0 23 3d 33 f1 02 be
       -0.16641961 0.18035224 0.039962895 -0.12787323
000030 bf 55 9a 3e 47 e4 f1 bd 8a 89 82 bd b1 72 ac bd
       0.30143544 -0.118111186 -0.0637389 -0.08420313

conv4.weight f4 [32, 16, 3, 3]
000000 19 8b 74 3d 91 9b da bd 1b b0 69 3d 90 f2 e7 bc
       0.059702966 -0.10674203 0.057052713 -0.028313905
000010 57 bd d1 3d d0 72 f6 3d a1 ba 9e 3d dd 3c 16 be
       0.10241192 0.120336175 0.077504404 -0.14671655
000020 f2 75 4e bd 00 9d f6 bb 20 2b ee 3c 00 7c 4a 3a
       -0.05040545 -0.00752604 0.029073298 0.0007724166
000030 4f d0 90 3d 82 b0 51 3d c0 06 96 3a c6 28 f5 bc
       0.07070982 0.05119372 0.0011446103 -0.029926669
000040 6b 16 84 bd a4 f7 db 3c 28 d8 3f 3d 6c 3a 26 3c
       -0.064495884 0.026851483 0.046837002 0.010145765
000050 4b 59 93 be 2f f9 8a 3d 0a 48 09 3e 2c 48 ac be
       -0.28779063 0.06785809 0.13406387 -0.33648813
000060 d0 59 be be c8 81 f5 be 66 b3 4a be 36 20 6c 3c
       -0.37177896 -0.47950578 -0.19794998 0.014411977
000070 9f 06 01 3c 8c ed 1e 3b c6 f6 b6 bd be b1 50 bd
       0.007875114 0.0024250476 -0.08933787 -0.05095076
000080 a6 03 58 be f2 bb 97 bd 02 b5 46 be 9c 88 de 3d
       -0.21095142 -0.074088946 -0.19404987 0.108659
000090 17 ca ba 3b a5 97 e2 3d 22 5b 1a 3c f9 df 66 3d
       0.0057003605 0.1106408 0.009421142 0.05636594
0000a0 e8 7e 1b 3c 79 63 4f bd 51 4c 4b 3c 5f 7a 29 bd
       0.009490706 -0.050631974 0.012408332 -0.041376468
0000b0 95 79 e4 3c fe b6 02 3e fa 48 ab 3d fe 99 24 3d
       0.027890006 0.12765118 0.083635285 0.04018592
0000c0 4b 1e db 3d 40 03 0b bd 7c 0b 29 bd c5 60 fc bc
       0.10699137 -0.033938646 -0.041270718 -0.030807862
0000d0 49 1c 16 bd cc a6 e1 bd f3 82 66 3c 7d 08 cb 3c
       -0.03664807 -0.11018142 0.014069307 0.024784321
0000e0 fc bf bc 3d 10 c9 52 3e b7 2a 79 bb 75 6a 5f 3e
       0.092163056 0.20584512 -0.0038019845 0.21817954
0000f0 bd 91 c2 3e 20 3f 27 bd c1 57 25 bd 91 19 9f bd
       0.38001814 -0.040831685 -0.04036689 -0.07768548
000100 30 1e 8b 3e 34 62 d2 bd 75 66 5d 3e f3 74 28 3e
       0.2717147 -0.10272637 0.21621116 0.16450863
000110 55 a1 9c bd 68 6f 38 be 87 7b f7 bd 0e ac a2 be
       -0.07647959 -0.18011248 -0.12084108 -0.31771892
000120 66 e5 84 bd 86 10 74 bd 0f ef 09 be bc f5 b6 3d
       -0.06489067 -0.05958607 -0.134701 0.08933589
000130 12 a2 32 3e 7a c3 a5 3c 9a 26 84 3d ff 6b 0b be
       0.17444637 0.020234812 0.06452675 -0.13615416
000140 43 cc 23 be 15 d5 4d 3e 34 fd b5 bd 7b ab ba 3e
       -0.15995888 0.20100816 -0.08886185 0.36458954
000150 db 32 b3 3d bb d3 80 3c 29 20 b1 bd 33 f0 cc 3d
       0.08749934 0.015725961 -0.08648712 0.10006752
000160 6d e3 6e 3e f1 c9 ce bc a7 1c 92 bd 33 2a c3 bb
       0.23328944 -0.025242778 -0.07134371 -0.0059559583
000170 dd b1 aa 3d 00 af 84 bd 8b 0d 1b 3c 52 bc 5b 3c
       0.08334706 -0.06478691 0.009463678 0.013411598
000180 8a a3 4d bd 46 e0 ee 3b 47 51 04 bd b6 6c c3 3d
       -0.05020479 0.007289919 -0.032304075 0.09542219
000190 3c fc 2c 3e 85 9c d0 3d 6a be 57 3e a9 2f 33 be
       0.16893095 0.10186104 0.21068731 -0.1749865
0001a0 32 3c a2 bd 9d 58 52 3e 0a 09 3b be 7c e5 96 bd
       -0.079216376 0.20541616 -0.18265167 -0.073679894
0001b0 2b 7e b3 bd 5d 47 9b bd ea cc 6c be 12 80 79 be
       -0.08764299 -0.07581971 -0.23125044 -0.24365261
0001c0 f0 35 75 3d a5 46 7c bd 18 75 88 bd 10 4f 51 bd
       0.059865892 -0.06159081 -0.06662959 -0.05110079
0001d0 0a 33 a2 3d 39 bc 74 3d 09 2d 16 bd ee c8 c8 bc
       0.07919891 0.059749816 -0.036664043 -0.024509873
0001e0 8d 39 ce 3d a4 64 70 bd eb 64 2b be 69 ac 8b 3c
       0.10069571 -0.05868973 -0.16737716 0.017049985
0001f0 85 dc a0 b8 fe 0d 21 3d 82 84 93 bc 98 2a de 3b
       -7.6704695e-05 0.039319985 -0.01800752 0.00677998
000200 11 12 2c 3c 66 25 9d bd 6c d2 9a 3d f4 ee 7a 3d
       0.010502354 -0.07673149 0.07559666 0.06126304
000210 ff 77 09 3d fc 4c e3 bc 2b 01 57 bc e0 9d 12 3e
       0.033561703 -0.02774667 -0.013122837 0.14318037
000220 39 24 76 3c 94 2b 11 bd d4 9d da bc 4b 89 09 3d
       0.015023285 -0.03544195 -0.026686586 0.0335782
000230 03 3e 7f 3d d7 55 b7 3d a4 33 5c bd 85 86 5d be
       0.062315 0.089519195 -0.053760186 -0.21633346
000240 fc 59 c4 3c df aa 18 bd 08 35 2d bd 23 5f 04 3d
       0.02396869 -0.03727233 -0.042286903 0.032317292
000250 5b 44 01 3e db 60 8b 3d 97 bd 6c bd b8 71 d8 3c
       0.12623732 0.06805583 -0.057797994 0.026421413
000260 b4 06 0e be 60 a3 6c bd f4 0e a3 3c 20 c2 5c 3b
       -0.13869745 -0.057772994 0.019904591 0.0033685043
000270 80 7f f6 3b 6a d0 34 3d 40 6d bf bc 21 94 9f 3d
       0.0075225234 0.04414407 -0.023367524 0.07791925
000280 fd 8f 88 3d d8 c7 07 3d 38 1f 91 bd ce 2f 98 be
       0.066680886 0.03314957 -0.07086033 -0.29723972
000290 1b 5d 71 be aa 22 b1 bc bd 31 5a 3e 70 8d 87 3d
       -0.23570673 -0.021622974 0.21308036 0.06618774
0002a0 57 ae 09 bd d2 84 99 be 41 7a ea bb 55 43 71 3d
       -0.03361353 -0.29984146 -0.007155687 0.058902103
0002b0 75 9f 19 3b 32 e3 a2 bc a0 66 4d 3c cf 2d 1d 3e
       0.002344099 -0.019883726 0.012536675 0.15349506
0002c0 a1 a1 a5 3d ec 38 23 bd 90 c8 cd bb 1f a4 9c 3d
       0.08087469 -0.039849207 -0.0062800124 0.07648491
0002d0 a2 be d6 bd ae db f4 bc 18 7c 1e bd 23 5e e1 bd
       -0.10485579 -0.029889908 -0.038692564 -0.11004283
0002e0 3e b9 06 bd e9 64 e2 3d 37 8a 3c 3d 09 a8 65 3d
       -0.032891504 0.11054403 0.04603025 0.056068454
0002f0 e8 2a 89 bc 66 ab 21 bd 56 d4 2d bd 92 3f 24 3d
       -0.016744092 -0.0394701 -0.042438827 0.040099688
000300 46 d4 71 bd f5 dc 45 bd ee 9f 15 3d 01 0f 71 3d
       -0.05904033 -0.048306424 0.036529474 0.0588522
000310 64 b4 a0 3c 9c 70 8c 3d ac 11 64 3d 66 ce 93 3d
       0.019617267 0.06857416 0.055680916 0.07217102
000320 a8 f5 1a 3e 76 c9 90 3c ef fe d3 bd 82 91 c7 bc
       0.15132773 0.017674189 -0.10351359 -0.024361376
000330 ee e7 58 bc d3 0c 4a 3d fb b2 12 be 8d 63 2c bd
       -0.01323889 0.049328636 -0.14326088 -0.042087127
000340 85 f4 d8 bc d9 25 8b bc 18 ef fb bc d6 96 f1 bd
       -0.026483783 -0.01698582 -0.030753657 -0.11796348
000350 71 e6 23 bd 05 98 9a 3d fa 11 3c be 08 c8 94 be
       -0.040014688 0.07548527 -0.18366233 -0.29058862
000360 50 0a 9e 3c 4e f0 d8 bd b0 cd 49 bc c2 9e 0d be
       0.019292027 -0.105927095 -0.012317106 -0.13830093
000370 ab 48 51 3d 4b b8 f8 3c 80 f5 44 3d e8 18 55 bd
       0.051094692 0.030361315 0.04808569 -0.052025706
000380 7c 99 b9 bd 13 37 87 3d 50 c0 62 3e 33 6d ad 3d
       -0.09062478 0.066023014 0.22143674 0.08468094
000390 4f 32 1d 3e 4b 7a a8 bc ae 1c 25 be e7 2e 03 3e
       0.15351222 -0.020566126 -0.16124222 0.1281086
0003a0 0e 3a 15 3e 76 b3 d3 3d 40 e4 3d bd a5 fa 47 3d
       0.14572927 0.10336964 -0.046360254 0.048823018
0003b0 fe 58 6d bd 07 15 9d 3d a8 56 b2 3a d3 cf 0f 3d
       -0.057946198 0.07670026 0.0013606148 0.035110306
0003c0 82 f7 2d bd e7 8f 0b bd a3 b7 ab 3c c1 0c 31 bd
       -0.04247237 -0.034072783 0.020961588 -0.043225054
0003d0 db e7 02 3d 33 47 63 3d 90 ca c8 3c 0c 3b 39 3d
       0.031959396 0.055487823 0.024510652 0.045222327
0003e0 9d c1 09 3e 58 33 5b 3e af 81 b7 3d d1 f4 01 bd
       0.13452764 0.21406305 0.08960282 -0.031727616
0003f0 76 13 1b 3d 80 0b c1 bd bf 76 02 be c2 d0 72 bd
       0.037860356 -0.094260216 -0.1274061 -0.05928112

conv4.bias f4 [32]
000000 fa 3c de bb 46 24 97 bd 4d cc 20 3e 94 a8 61 3c
       -0.0067821713 -0.073799655 0.15702935 0.013773102
000010 3b 7f bd bc 29 5a 57 bd 69 e6 9c bd 52 8e 7f bd
       -0.023131957 -0.052576218 -0.07661135 -0.062391587
000020 15 77 d5 bc 0e 19 45 3e 8d 40 c6 3d 4e dc 83 bd
       -0.02605776 0.19247839 0.09680281 -0.06438504
000030 cd 4e c5 bd e0 e2 69 3d 75 73 87 3c bb 25 8c bd
       -0.09634171 0.05710113 0.016534546 -0.06843134
000040 45 e4 db bc 45 9b 1e bd 06 03 e3 3c d7 03 b3 3d
       -0.026842246 -0.038722295 0.027711403 0.08740967
000050 7d f9 06 3d 33 2f da 3b 55 ff 93 3d d9 20 53 bc
       0.032952774 0.0066584586 0.07226435 -0.012886249
000060 fa eb 13 3e 05 2a 33 3e 3e 2e 6a 3d b6 af 22 bd
       0.14445487 0.17496498 0.057173006 -0.039718352
000070 86 69 77 3a 7a bb ec 3c 9a 90 7d bd 9a 4c ea 3d
       0.00094380265 0.02889799 -0.06190548 0.11440392

conv5.weight f4 [10, 32, 3, 3]
000000 8b 0e 6b bd 07 47 0d 3d af 68 cf bd 5e a5 85 3c
       -0.057386916 0.034491565 -0.10127389 0.016314205
000010 a2 80 47 bc 31 34 97 be 33 7a 43 bc a3 4c 7a bd
       -0.012176665 -0.29532006 -0.01193099 -0.061108243
000020 d2 fa 4b 3e f5 10 91 bd 39 81 15 bd 3a c2 99 3c
       0.19919899 -0.070833124 -0.03650019 0.018769372
000030 10 fd a4 3d dc 33 5e 3d 88 58 30 bd d5 5c 16 3e
       0.0805608 0.054248676 -0.04305318 0.1468385
000040 ba 0f 3e 3d 67 02 48 be 3a a4 a7 bd df 9c 9e 3d
       0.046401717 -0.19532166 -0.081856206 0.077447645
000050 e4 15 ad 3c f6 58 3b bd e0 74 c4 3c c7 ce a3 3e
       0.021128602 -0.045739137 0.023981512 0.31993696
000060 6f 1c 84 3e d0 56 e4 3b d8 19 5b be f6 8f 91 bc
       0.25802943 0.0069683567 -0.21396577 -0.017768841
000070 44 f1 42 3e c9 3c 81 3d 1d 0b 56 bd 78 7d 41 3d
       0.19037348 0.06310422 -0.052256692 0.047238797
000080 9a f7 6a bd 10 dd 8d ba de d7 f4 3c ca 6e 54 3e
       -0.057365038 -0.0010823328 0.02988809 0.20745388
000090 19 bc 09 bd 6d 4c b0 bd e6 88 2a be f9 54 27 be
       -0.03362665 -0.08608327 -0.16653785 -0.16341008
0000a0 06 88 4d bd 32 87 46 bc 7d cd 6c bd 55 98 b8 3c
       -0.05017855 -0.012117194 -0.057813156 0.022533575
0000b0 41 72 e0 bd be 10 de 3d 46 c1 ed 3d ac 4e 9e bd
       -0.10959292 0.10843037 0.116091296 -0.07729849
0000c0 42 29 47 3e 66 88 8c bd 53 3a 2e be 46 c2 eb 3c
       0.19449332 -0.068619534 -0.17014436 0.02877916
0000d0 57 cc 0b 3e 79 fa 46 3e 89 53 e4 bd be 0e 5e 3d
       0.13652168 0.19431485 -0.111487456 0.054213278
0000e0 0a 05 02 3e c3 44 67 3d f3 f9 4a 3e 5e b4 09 3e
       0.12697235 0.05646206 0.1982191 0.13447711
0000f0 c5 4b 0e 3e 6d 0d d4 bd bf 74 aa 3e 2f 9f 53 bd
       0.13896091 -0.10354123 0.33292195 -0.05166548
000100 77 17 2b 3d ec 15 00 be 7e bb 65 be ad 46 3c 3e
       0.041770425 -0.12508363 -0.22434804 0.18386336
000110 ef e4 17 3e b6 c8 0e 3d 6d 0f 04 3d f4 65 c3 3d
       0.14833425 0.03485938 0.032241274 0.095409304
000120 8e fe b2 bc d1 b3 1c 3d a1 e5 7c 3e 19 2c 15 3e
       -0.021849897 0.038257424 0.24696971 0.14567603
000130 19 02 c4 bd 9a 9a 88 3d 8c 89 ad 3d d6 26 a2 be
       -0.095707126 0.06670113 0.084735006 -0.31670254
000140 27 2a f7 bd 35 5e 80 be aa be 99 bb 1b aa e3 ba
       -0.12068587 -0.25071874 -0.0046919184 -0.0017369421
000150 7b 3e 3f be bd 0a 89 3d 3b aa 73 3d 0f c8 06 3e
       -0.18676178 0.06691501 0.059488516 0.13162254
000160 78 d6 26 3d 87 4f e3 bd 9e 4f 96 3d 39 38 2a 3d
       0.040731877 -0.11099153 0.073394045 0.041557524
000170 ed 06 97 3c 13 1c 81 3d ac 85 09 3e 61 23 4b 3b
       0.01843592 0.06304183 0.13429898 0.003099643
000180 64 e4 73 bd fc 03 4b be e9 02 b2 bd e9 32 f3 bc
       -0.059543982 -0.19825739 -0.08691961 -0.029687362
000190 6a 3c 32 3e 69 05 04 bd 46 fe 54 bd ec bd 6e 3d
       0.17405859 -0.032231722 -0.052000307 0.058286592
0001a0 ad 2a 50 3e b1 9b 9f 3d c7 a3 e8 3d 54 f6 6b 3e
       0.2032878 0.07793368 0.11359363 0.23043185
0001b0 32 4f 0d 3d 01 0e b9 3d 22 98 dc 3c 2c 60 00 bd
       0.034499355 0.09035874 0.026928011 -0.031341717
0001c0 6e c0 38 3d e6 33 c2 3c 5d 87 a2 bd 4b 03 88 be
       0.04510539 0.023706388 -0.07935975 -0.26565012
0001d0 72 e3 aa bd 25 d2 09 3e 38 e3 19 3e e0 e5 5b be
       -0.08344163 0.1345907 0.15028083 -0.21474409
0001e0 28 bd 06 be 91 e8 07 3e 83 23 c0 bd 22 c8 db bd
       -0.13158095 0.13272311 -0.09381773 -0.10731532
0001f0 18 71 b9 be d8 db 02 3d 44 a4 01 be 7d 23 ec bc
       -0.36219096 0.03194794 -0.12660319 -0.028825516
000200 80 f8 e9 bd da 69 cb 3c 2f bd 0d 3d db c2 f3 3b
       -0.11424351 0.024830747 0.034604248 0.007439
000210 d3 cf ec 3c 91 aa 6f 3e e6 d8 90 be 3f df 97 bd
       0.028907692 0.2340491 -0.2829048 -0.07415628
000220 9c cb f1 bd 41 2c b0 3d 17 d2 ad 3c c1 f2 c8 bd
       -0.118064135 0.08602191 0.021218343 -0.09811927
000230 8c ea b0 3d ab ff d7 3d 89 10 e3 3c 91 32 3b be
       0.08638486 0.10546812 0.027717846 -0.18281008
000240 52 a5 ca bc 8d d2 2c 3e 33 18 00 3d 29 c5 53 3d
       -0.024737034 0.16877194 0.03127308 0.0517017
000250 a2 ce 8d 3c 0c 60 78 bb a6 43 44 bb 0a f8 31 be
       0.017310444 -0.0037899045 -0.0029947548 -0.17379776
000260 6d 68 1c 3e fa ae ac bd 92 6f ec bc 14 24 d1 3d
       0.1527421 -0.08431812 -0.028861795 0.102119595
000270 c6 ba 48 be 92 5a 64 bc 6c c0 17 3d 80 9b f7 ba
       -0.19602498 -0.013937609 0.037048742 -0.0018890947
000280 d1 73 c8 bd e2 59 a8 3d 6a 81 cf 3d 70 3b 0c be
       -0.09787715 0.08220269 0.10132106 -0.13694549
000290 3a 3b 4a be 6a ae 18 3e 19 60 29 3e d8 06 d2 bd
       -0.19749156 0.14910284 0.16540565 -0.102552116
0002a0 a8 75 1b be 93 ad 43 bd a4 01 91 3c 58 4b 9d bd
       -0.15181601 -0.047772955 0.017700978 -0.07680386
0002b0 e6 fa c5 3d 84 f8 b3 bc 6d 70 31 3d b7 2a df 3c
       0.09666996 -0.021969087 0.04332011 0.027242048
0002c0 19 22 86 3d d6 13 a3 bd d4 5c 4d bd 72 31 1f 3d
       0.06549472 -0.07962768 -0.050137356 0.038865514
0002d0 50 74 86 3b 73 cb 3f 3c 00 e6 16 3d 12 bb e8 3c
       0.004103221 0.011706221 0.03684044 0.028409515
0002e0 4a de a8 3b d3 1c e8 3d d6 a9 fc 3c b4 dc d5 3d
       0.005153452 0.11333623 0.030842703 0.104424864
0002f0 28 39 c5 bc e0 29 b1 bd 6e 9b 11 be 5d ba d0 bd
       -0.024075106 -0.08650565 -0.14219448 -0.10191796
000300 cc 0b f7 3d 59 43 79 be a0 77 ca 3d f2 2a 5b be
       0.12062797 -0.24342097 0.09886098 -0.21403101
000310 e5 07 5b 3d 4f d6 96 3e 57 df 79 3d de c7 10 bd
       0.053474326 0.2946038 0.06100401 -0.03534686
000320 aa 68 fd bd 0a eb 54 bd fa 34 a7 3e 01 26 ae 3d
       -0.12373479 -0.051981963 0.32657605 0.085033424
000330 e2 66 86 bd db 05 90 bd 3d 44 06 be 11 0b 18 3d
       -0.06562592 -0.07032367 -0.13111968 0.03711993
000340 f8 34 67 bd 4a 34 29 be ee 8f 99 bd 8a 3b 1e 3e
       -0.056447 -0.16523853 -0.074981555 0.154524
000350 27 4f 14 3e fb c1 ec bd 9f 87 81 3d 3e 69 86 bd
       0.14483319 -0.11560436 0.06324696 -0.06563042
000360 a2 e9 bb 3d 7b 7d ae bc c4 91 db bd cd fd f5 3d
       0.09175421 -0.021300068 -0.10721162 0.12011299
000370 97 9f e9 bd 56 08 07 bf 50 43 92 bd 70 cf 8a be
       -0.114073925 -0.52747095 -0.07141745 -0.27111387
000380 d3 a0 5a 3e 48 90 32 bd 60 b7 36 be 40 74 0b 3d
       0.21350412 -0.04359463 -0.1784339 0.03404641
000390 2c 9f 31 be 0e 97 81 be 4f 5c 07 be 26 32 5f bc
       -0.17345876 -0.25310558 -0.13218807 -0.013622796
0003a0 64 64 64 3d 03 70 dd 3d e0 28 32 bd e4 a6 7b 3d
       0.055759802 0.1081238 -0.043496013 0.061438456
0003b0 ab f9 60 3d ed 90 e7 3d cf 85 91 be 0f eb 2a bd
       0.054925602 0.11306939 -0.284224 -0.041728076
0003c0 40 fc 04 3b fd c3 b1 3e 44 f5 4a 3d ab 75 26 3d
       0.0020291954 0.3471984 0.04955031 0.04063956
0003d0 8f f6 50 bd d8 84 29 be 37 2b 07 3e 4d 75 09 ba
       -0.051016387 -0.16554582 0.13200079 -0.00052436144
0003e0 8e 54 31 3e af 64 11 be 08 46 f8 bc 4b 30 b6 3e
       0.17317411 -0.14198564 -0.030306831 0.3558372
0003f0 1f 7a cb 3d 5f c5 34 be a7 f9 f3 bc e4 69 81 3c
       0.09935402 -0.17653416 -0.02978213 0.015797563

conv5.bias f4 [10]
000000 88 9a cc bc 26 f0 9d 3d 3e 64 ab bd 50 6b 73 bd
       -0.02497603 0.0771182 -0.08368729 -0.059428513
000010 65 b3 75 3d d8 41 1b bd 52 53 12 3d 04 98 17 3b
       0.059985537 -0.03790459 0.03572399 0.002313138
000020 5c 6a 96 bd dc ac 99 3c
       -0.07344505 0.018759184
