R7models/BaseR7seed7.pt (torch_old, 38047 bytes, 10 tensors)

conv1.weight f4 [4, 3, 3, 3]
00000000: 903a 5c3c 146d edbd 6401 7b3d 7458 773d
00000010: 54a8 d2bd 004a ecbc 9de5 e6bd 3889 4c3d
00000020: 0456 54bd b972 0a3e 81e5 0b3e 989a a03c
00000030: 9407 a8bd 5280 e7bd e822 adbc c8d7 5dbd
00000040: 72b8 ad3d c046 28be 8d36 393e 0e96 1abe
00000050: 13e8 163e 3ce3 08bd 76bd ca3d f297 993d
00000060: 40fd 033c d8fb 123d e1a7 153e d299 be3f
00000070: 2cea 5a3f cf47 b0bd 75f8 d53f 7d83 6f3f
00000080: 7ab6 ff3e fb00 a43f b261 693f 0d5a 503f
00000090: 6c67 2fbd b393 dbbd ac53 46bd 7738 f0bd
000000a0: 6699 bd3d 79cc c2bd d859 d2bd 5509 2a3e
000000b0: 4355 343e 6853 b53c fc7f 08bd 4082 cbbc
000000c0: 7eb6 ba3d d004 38be af0d 21be 936b 1d3e
000000d0: e98d 423e 805f 3bbc e5bb 3e3e b8e9 ce3e
000000e0: 4669 653d bc1a d23e 643a fb3e 9d15 ac3e
000000f0: 820b 933e 6bf9 a03e 5dc4 ae3e 9c77 1abe
00000100: d2a0 85bd 20e9 f63b 0ee6 e0bd 2d22 acbd
00000110: ce61 843d 62d6 e23d c0b8 303b 4650 99bd
00000120: aecc d73d 120e d8bd cc06 39bd b1e8 393e
00000130: c02d 113d f02b 5e3c a6de 843d 6439 40bd
00000140: af9b 283e eef4 66be 197f c2bd b890 1839
00000150: 82de 49be a343 a9bd b83c 883e 534c 3a3d
00000160: b2eb a9bc 1b85 903e 0124 0bbe 1e06 ebbd
00000170: f213 b23d a07a 29bc 2e96 33be 3f67 08be
00000180: 55f0 efbd c72d 183e ce7d b23d 4b74 183e
00000190: 51b7 12be aa22 40be 693b 01be 70a9 a83c
000001a0: acb0 1bbd 1460 f8bd 0976 0f3e 2035 7ebd
0.013441697 -0.115930706 0.061280623 0.06038709 -0.10286012 -0.02884388 -0.11274264 0.04993555
-0.051839843 0.13520326 0.13661768 0.019604966 -0.082045704 -0.11303772 -0.021134809 -0.054160863
0.08482446 -0.16433239 0.18087216 -0.15096304 0.14736967 -0.033419833 0.09899418 0.074996844
0.008055985 0.03588471 0.14614822 1.4890692 0.8551357 -0.086074464 1.6716448 0.9356001
0.49943906 1.2812799 0.91164696 0.81387407 -0.04282324 -0.10721531 -0.04841964 -0.1172952
0.09257774 -0.09511656 -0.102710426 0.16605122 0.1761065 0.022134498 -0.03332518 -0.024842381
0.09116839 -0.17970586 -0.15727876 0.15373068 0.18999447 -0.011436343 0.18626364 0.40412688
0.0560086 0.41036022 0.49067986 0.3361024 0.28719717 0.3144029 0.34134188 -0.1508469
-0.06524815 0.007535115 -0.109813794 -0.08404956 0.06463967 0.110760465 0.0026965588 -0.07486014
0.105370864 -0.10549559 -0.045172498 0.18155171 0.03544402 0.01356028 0.06487779 -0.046929732
0.16465639 -0.22554371 -0.09496898 0.00014549762 -0.19713786 -0.08264854 0.26608825 0.045482945
-0.020742271 0.2822655 -0.13587953 -0.11475776 0.086952105 -0.0103441775 -0.17537758 -0.13320635
-0.117157616 0.14861213 0.087154016 0.14888112 -0.14327742 -0.18763223 -0.1262032 0.020588607
-0.038010284 -0.121277004 0.1400987 -0.062062383

conv1.bias f4 [4]
00000000: def5 e3bd 09eb 3bbc b885 8b3d b26e 003f
-0.1113088 -0.011469611 0.06812614 0.5016891

conv2.weight f4 [8, 4, 3, 3]
00000000: f0b1 223d 80bc 863b 844f 0f3d f43d 00be
00000010: e0a1 b6bd a36c a0bd 3024 c1bd 401b f23c
00000020: 9462 083d d82a 8ebd c95c db3d f2d8 afbd
00000030: d827 153d 81b5 2dbd 1fee 0cbe 1407 c9bd
00000040: 73d5 b83d 25da b73d 7dd5 d3bd a325 53bd
00000050: 2b23 1cbe 7806 ba3d 93f7 153e 9d42 683d
00000060: f437 c9bd 9ea0 c53d 5286 143e 3610 f3bc
00000070: cfd4 b8bc a60c 813d b9e8 da3c e448 4dbd
00000080: c5e2 19be 44fa dfbd 9288 853c aa9f bfbb
00000090: 33ee 0c3e e0e8 ba3b 8cc6 2fbd e4c1 26be
000000a0: 70ea 1cbe 48ca 8d3d 5f03 183e 40ba 25bb
000000b0: c88a 18be f9c7 683e 8aca 9d3e c610 87bd
000000c0: 6e22 933d 71cd 2c3e f60f 98bd f27a 97bd
000000d0: 0817 633e d09a 43bd 68a8 0e3c 0bc6 74bd
000000e0: 18a8 003e 96d3 af3d 02b9 df3d 5b84 03be
000000f0: 3942 403e 11ef 5f3d aecf babd 8cee b4bb
00000100: f9aa 09be e031 d23b 2e05 f13d 1655 aebd
00000110: 2737 233e aa49 dd3d d783 21bd 72e1 793d
00000120: 6087 fbbc a4a9 1ebd c6f0 dfbd 76e3 c63d
00000130: 6ee6 cc3d 80bf 693d a2df c93d f380 2a3e
00000140: 95b3 203e cd2e 73be cebe b23d 9034 c13d
00000150: 913d fd3d 77ab b13e 9739 ce3e ab7c 9bbe
00000160: a9c7 f63e fb62 133f ec55 1dbc 9a70 cabd
00000170: 9118 f2bd 5aa5 623d 6e10 063e acc5 b93d
00000180: bce7 863d 499c 9a3e 0a0d 7a3d 0124 803e
00000190: 650c b23c 23f6 923e 0c43 913e f46c b73d
000001a0: 015a 743e a4b9 893e a9b1 0f3e 66de 963c
000001b0: 38ae ab3c 303a 433c e86c c7bd c04c 1c3b
000001c0: fc12 153d e32c cabd 78e2 f33c f698 62bd
000001d0: 02fd 0dbe 866c bebd d718 48bd 7e67 843d
000001e0: 1670 213e c658 9c3e eb8b 633e b0a0 8d3d
000001f0: 5403 763e cd15 483d 5977 1f3e 335c 3dbd
00000200: 81db 1bbd 9aa5 e9bb 56d7 9abd 8ee3 e5bd
00000210: 9c86 34bc 2385 313e b91f 99bd 0b5e 13be
00000220: 9143 57bd c5d2 243e fcda 383d 504e 3dbd
00000230: 69ae 29bd bbd1 163e 8f85 42be 8ab8 9d3d
00000240: f05a 393d e2f8 d53d 38d6 c5bd 50d5 5fbd
00000250: 5872 8fbd 139a 253e a84c b0bc 16bd 22be
00000260: ee26 ab3d 6735 813d 7e8c 3c3d 8633 dabd
00000270: bc32 eebd d543 453e b6f8 cbbd e937 823c
00000280: 4945 1b3d f0ef 1b3e b935 0ebe b705 c7bd
00000290: 19ac b2bd 433e 8cbd ddb9 e33d b6d2 e03d
000002a0: 540a c63d 6f6c 1e3e c8db c9bd e8d2 aa39
000002b0: 2796 02be 28ef 6a3c 0719 06be c33a 1bbe
000002c0: 038b f43d a3cc 6abd c86c 04bc b78a 0ebd
000002d0: 4c5d 07be f835 88bc a0b0 c93c 015e 083e
000002e0: 2633 91bd df9b 223e e00a 9ebd 827c da3d
000002f0: 5512 153e dbe6 d6bd 1b06 08be 4553 7b3d
00000300: c586 eabd 9054 a7bd c8f8 58bd 8773 82be
00000310: 96b3 84bd bb69 3ebe 0aa2 af3d df93 41be
00000320: 3c0c 1bbe 1dd0 ad3c 5913 b83d 1eb7 1d3e
00000330: 543c 24be e35a e13d 2d11 b03d d06c 43bc
00000340: 15df 233e 0c44 f83c 4af4 133e 13e7 a3bd
00000350: b1cb bcbc b48a a5bc aa82 173c 8489 683d
00000360: 000b 6bbb eea3 c9bd 4a96 a83d 2a65 ad3d
00000370: 5eb6 15be be31 1ebe acb1 12bd f4e6 3d3d
00000380: 17fd 01be cd33 5d3f ea2d c63e 95e2 5c3d
00000390: 1c60 8d3f 9688 153f 4fc9 e23e 8854 323f
000003a0: a7ed 943e 0904 d73e 2202 9c3e 857b 1e3e
000003b0: de28 9bbd 7689 b63e 6b74 043d 6a91 543d
000003c0: f03b 133e d84d 523e 9511 6abd adc5 edbd
000003d0: ea23 c2bb 2409 3b3e 6d83 a2bc 0429 003e
000003e0: a607 6b3e f2d0 943c ef39 cebd d8b6 583d
000003f0: d6ce 843d fc62 11bd 08a2 26be 4624 cb3d
0.039720476 0.0041118264 0.03498794 -0.12523633 -0.08917594 -0.07833221 -0.0943073 0.02955401
0.033297136 -0.069417655 0.10711057 -0.08586301 0.03641495 -0.042409424 -0.13762711 -0.09815803
0.09025087 0.08977155 -0.10343454 -0.051549565 -0.1524779 0.09083265 0.14645223 0.056704152
-0.09825125 0.09649776 0.14504364 -0.029670816 -0.022562413 0.063012406 0.026722299 -0.050118342
-0.15027912 -0.10936406 0.016300473 -0.005847891 0.13762741 0.0057040304 -0.04291396 -0.16284901
-0.15323806 0.06923348 0.14845036 -0.0025288016 -0.14896691 0.22732534 0.30818588 -0.06594996
0.07184301 0.16875245 -0.07424919 -0.07396497 0.22176754 -0.047755063 0.008707143 -0.05975918
0.12564123 0.08585279 0.10923959 -0.12843458 0.18775262 0.05467135 -0.09121643 -0.005521601
-0.13444127 0.006414637 0.11768566 -0.085123226 0.15939008 0.10805066 -0.039432373 0.061006017
-0.0307042 -0.038736 -0.10934596 0.097113535 0.100048885 0.057067394 0.09857108 0.16650753
0.15693505 -0.23748322 0.08727799 0.094338536 0.123652585 0.3470113 0.40278313 -0.30368552
0.48199204 0.5757291 -0.009603005 -0.09884758 -0.11821092 0.055333473 0.13092205 0.09070906
0.065871686 0.3019736 0.06104759 0.2502747 0.021734426 0.28703412 0.28371465 0.08956328
0.23862459 0.26899445 0.14032616 0.018416595 0.020957097 0.011915728 -0.09737569 0.0023849458
0.036395058 -0.09871843 0.029771075 -0.055321656 -0.13866046 -0.09298043 -0.048851814 0.06465052
0.15765414 0.3053648 0.22221343 0.06915414 0.24024707 0.048848916 0.15572871 -0.046230506
-0.038051132 -0.007130337 -0.07560603 -0.11225043 -0.0110184215 0.17335944 -0.07476754 -0.14391343
-0.05255467 0.16096027 0.045130715 -0.046217263 -0.041426096 0.14728443 -0.18996261 0.07701214
0.04525274 0.10447861 -0.096599996 -0.05464679 -0.07004231 0.16172056 -0.021520928 -0.15892443
0.083570346 0.06309014 0.04603242 -0.106543586 -0.116307706 0.19264157 -0.09959547 0.0158958
0.037907872 0.15228248 -0.13887681 -0.09717887 -0.08724231 -0.06847813 0.11119435 0.1097769
0.09669939 0.15471052 -0.09856373 0.00032582064 -0.12752591 0.014339246 -0.13095485 -0.15159135
0.11940577 -0.057324063 -0.008082576 -0.034800258 -0.13219184 -0.016627297 0.024620354 0.1331711
-0.07089834 0.15879773 -0.07716918 0.10668279 0.14557774 -0.10493251 -0.13283579 0.06135871
-0.114514865 -0.08170426 -0.05297163 -0.25478765 -0.06479566 -0.1859502 0.085758284 -0.18904065
-0.15141386 0.0212174 0.08988065 0.15401885 -0.16038638 0.110036634 0.08597026 -0.011927798
0.16003068 0.030305885 0.14448658 -0.08003058 -0.023046346 -0.02020774 0.009247461 0.05677177
-0.003586471 -0.0984572 0.0823179 0.08466561 -0.14620349 -0.15448663 -0.035813972 0.046362832
-0.12694202 0.86407167 0.38706905 0.053927023 1.1044955 0.5841154 0.4429421 0.69660234
0.29087564 0.41995266 0.30470377 0.15476806 -0.07576154 0.3565175 0.032337587 0.05189649
0.14378333 0.20537508 -0.057145674 -0.11609969 -0.0059246914 0.18265206 -0.01983806 0.12515646
0.22952136 0.01816604 -0.10069644 0.05290875 0.06484763 -0.03549479 -0.16272748 0.09919028

conv2.bias f4 [8]
00000000: 4411 3f3c 9e27 083e 09e7 f53e a914 3fbe
00000010: abba f23d cace f03e 0358 173e 1c1d a03c
0.011661831 0.13296363 0.48027828 -0.18660225 0.1185201 0.47032768 0.14779668 0.01954513

conv3.weight f4 [16, 8, 3, 3]
00000000: ebef fa3a 5aac 7f3d e4bb f13c 22bd b3bd
00000010: 20b4 b6bd ea3c d63d 0032 5ebd ff7f d2bd
00000020: 71dc d8bd f569 01be 73f9 8e3c 1e25 263c
00000030: 4ba1 b9bd 164e 3cbd 6412 383d 8350 2c3d
00000040: 3885 c83c abe6 61bd 40e3 813d 2663 093e
00000050: 8237 64bd b2fd 8f3d 0606 acbd 4a2c 6f3d
00000060: a76f 64bc 92ff 90ba 44a7 5b3e 08e0 bfbc
00000070: aa56 a63d 2b8b 01bd 7ed7 c9bd 0cfc b1bc
00000080: f4ff cf3d 14cf 39bd be43 ecbd b4a3 3dbd
00000090: 6a2b 933c b26e e73d 4e48 c43b 99cb c4bd
000000a0: 087c 68bd 6633 923d 8b8a 2bbd 0c3c 8ebc
000000b0: 4e66 af3d 909f 503d 8d0f a03d ffdb d13d
000000c0: 23dd 23bd 3d21 ac3c 3f0b d3bd 9a18 f33d
000000d0: 23b6 7ebd db2f cf3d 678b 083c f49f e5bc
000000e0: 23a8 a9bd 8927 c3bd ae11 00be 34f7 553e
000000f0: 3d56 863d 44cb c4bc 013c 0c3e 8d2b 6abe
00000100: 79b0 2bbe 99f7 9f3d 1d4f 2fbe 3409 28bb
00000110: 6f12 b93e b77c 9b3c ae16 4abe 0c84 493e
00000120: a6c1 963d f83f 173c 8928 a93d 6f8b e4bd
00000130: cf02 61bc 78c2 6fbd 9d7c b43d 1698 4d3d
00000140: c95e 8bbc 90ea eebd ac50 4aba 1002 8a3d
00000150: 1251 fdbc 059c 303d 93d1 0bbe 9100 a53d
00000160: f47c 0b3e 7776 e1bd 0a97 bbbd acf7 c3bc
00000170: 511d 6ebd 67d3 d9bd 97d6 093c e23a 8dbd
00000180: 38a6 213d 0212 553c 773e 883d d03c 9d3d
00000190: aa42 bdbd 00b6 bfbd 8c25 a93d d880 95bd
000001a0: ecba 5f3d b549 71bd 6ccf e43d 5add 7e3d
000001b0: 2523 a8bd 7fda bdbd b957 49bd a717 69bd
000001c0: 3c6e 7abd 3adc 9a3d e379 d63c 7f4a cebb
000001d0: 5011 24bc 3e35 b13c 1706 fa39 edc8 89bc
000001e0: 58da a33d 81ec 7b3d 5360 40ba 0042 7f3d
000001f0: a8b3 33bd 9dbf aebd 1db2 1d3e 2d41 fd3d
00000200: 2596 82bd 8851 e9bd f0c9 783e c7cc aabd
00000210: 1f5c 8ebc d79d fd3c 07ab 09be 2b82 513e
00000220: a453 cb3d 754c 0cbe 1995 043e 12c7 933e
00000230: 055f a1bc 1295 853d 4eee 903e a510 f0bd
00000240: a563 59bd 6e20 613d 4e94 54bd 2665 b13d
00000250: 57f1 76bd 8441 223d ffe4 afbd 7945 a5bd
00000260: 6bab ee3b 1822 e53d faee f0bc 765e 67bb
00000270: 3cec 8a3d 1a62 9dbc db20 01be f747 de3b
00000280: b8e2 2fbc c3f1 123d 8947 fe3d 83c9 e33c
00000290: c877 be3c 78f3 4f3e 533b 16be a30a 4c3d
000002a0: 3956 513e 7064 073e ef49 c03c c62b 4d3d
000002b0: ec46 39bd 72e7 a43d 9443 5dbd bce6 d9bb
000002c0: 81c2 17bd 9477 58bd cc23 a5bd e986 463a
000002d0: 1cd2 6c3d b362 f5bc c759 15bd a17f 91bd
000002e0: 6406 c1bd 8845 a2bc 782c 15bd 1df2 1e3d
000002f0: 4397 eb3d c1f2 a9bc 5760 6ebc eb62 ac3d
00000300: 1fcc 31bc b3df 8c3c e734 9cbc eca0 053e
00000310: 6b05 d03b 0bff 503d 6082 883d dfc6 fa3d
00000320: 0511 463e 5daf afbd e63e 20bd fd48 0fbe
00000330: d752 f33d 6139 863e 300d 153d bf40 68bd
00000340: 8f43 a03e 9fa2 8a3e 464c abbe 0eca 58be
00000350: 9060 84be 0ad8 e03d 8b9a 133e 05b2 4bbd
00000360: 2c3e 033b 62cb e73d 4e55 82bd 2338 99bd
00000370: ccd9 423d 91fa a2bd ad9b d8bd 3c19 8d3d
00000380: 3c31 65bc f0ee 6d3d a1b7 28bc 64c6 1d3e
00000390: d529 19bd 11f2 013e c727 1e3d 60ac 35bd
000003a0: f08f 063e ef8a 823d 94fc 84be aabc 9b3d
000003b0: e72c 843d 3a99 a1be 92ad 543e 4a6e a53e
000003c0: b269 bfbe 4e9b b63d 5fed 45be 6c5c 31be
000003d0: a37a bebc fc8b 13be cc07 bcbd 14df f53d
000003e0: c698 8c3d 018e 2bbe 6a0b a43d 3009 3dbe
000003f0: fd6f 183d 4eda 68bd fdb4 3abd 7415 b13c
0.0019144987 0.062420227 0.029508539 -0.087763086 -0.08921075 0.10460837 -0.054246902 -0.102783196
-0.10588921 -0.12638076 0.017452931 0.010140685 -0.09063967 -0.045972906 0.044939414 0.04206897
0.024477586 -0.055151623 0.063421726 0.13416728 -0.055717 0.070308104 -0.083995864 0.058391847
-0.013942636 -0.0011062494 0.21450526 -0.023422256 0.081219986 -0.03162686 -0.09855555 -0.02172663
0.10156241 -0.0453635 -0.11536358 -0.046298698 0.017965037 0.1130041 0.0059900647 -0.09609146
-0.05675891 0.0713871 -0.04188017 -0.017362617 0.08564435 0.05093342 0.07815466 0.10247039
-0.040005814 0.021011943 -0.103048794 0.11869927 -0.062185418 0.101165496 0.008334017 -0.028030373
-0.08284023 -0.09529025 -0.12506744 0.20895082 0.065594174 -0.024022706 0.13694765 -0.22868176
-0.16766538 0.078108974 -0.17120023 -0.002564025 0.36146876 0.018980367 -0.19735214 0.19679278
0.07361154 0.00923156 0.082596846 -0.11159407 -0.01373358 -0.05853507 0.088128306 0.05019387
-0.01701297 -0.11665833 -0.00077177095 0.06738675 -0.030922446 0.04311754 -0.13654165 0.08056749
0.13621885 -0.110089235 -0.09159668 -0.02392181 -0.058133427 -0.10636025 0.008412979 -0.06895997
0.03946516 0.013004782 0.06652539 0.07677615 -0.09241231 -0.093608856 0.082591146 -0.072999656
0.054621622 -0.058908183 0.11172375 0.062222816 -0.08209828 -0.092701904 -0.049155924 -0.056907322
-0.061140284 0.07561536 0.026181167 -0.0062955017 -0.010013893 0.021631833 0.00047688253 -0.016819442
0.0800063 0.061504845 -0.0007338572 0.062318802 -0.043872505 -0.08532641 0.15399976 0.12365947
-0.06376294 -0.11392504 0.24295783 -0.083398394 -0.017377911 0.030959053 -0.13444148 0.20459811
0.099280626 -0.13701041 0.12947501 0.28862816 -0.01969863 0.065225735 0.28306812 -0.11721925
-0.053073544 0.054962568 -0.051899247 0.08661871 -0.060288753 0.03961326 -0.085885994 -0.080698915
0.007283618 0.111881435 -0.029410828 -0.0035304106 0.067833394 -0.019211818 -0.1261019 0.006783481
-0.010735206 0.035875093 0.12415988 0.02780605 0.023250476 0.2030772 -0.14671068 0.04981483
0.20443048 0.13221908 0.023472754 0.050090574 -0.045233652 0.08051957 -0.054019526 -0.00664982
-0.037050728 -0.052848414 -0.08063468 0.0007573204 0.057817563 -0.02995429 -0.03646257 -0.071044214
-0.09425047 -0.019808546 -0.03641936 0.038805116 0.1150346 -0.020745637 -0.014549336 0.084173046
-0.010851889 0.017196512 -0.019068195 0.13049668 0.006348302 0.051024478 0.06665492 0.12244963
0.1934243 -0.0857837 -0.039122485 -0.13992687 0.11881035 0.26215652 0.03638953 -0.05670237
0.31301543 0.27077195 -0.3345663 -0.21170828 -0.2585492 0.10978706 0.14414422 -0.04973032
0.002002607 0.11318089 -0.06363927 -0.0748141 0.04757099 -0.07957948 -0.10576568 0.06889579
-0.013988789 0.058089197 -0.010297687 0.15407711 -0.03739341 0.12689997 0.038612153 -0.044353843
0.13140845 0.06374156 -0.25973952 0.07604344 0.06453877 -0.31562215 0.20769337 0.32310706
-0.37385327 0.08916341 -0.19328831 -0.17320412 -0.023251837 -0.14408869 -0.09181175 0.120054394
0.06865077 -0.16753389 0.080099896 -0.18460536 0.037216175 -0.056848817 -0.04558276 0.021616675

conv3.bias f4 [16]
00000000: fe8e 01be 4904 f7bd c116 903e bcf3 ac3d
00000010: df4a 9ebc 07f8 b33e 87ef 2f3d 0093 76bd
00000020: 993e 63bd 84d5 a8bd d5f6 8cbc aafd 69bc
00000030: 60d0 463e f591 523e 5aaa 213e f4e9 3b3e
-0.12652203 -0.12061364 0.2814236 0.08444926 -0.01932281 0.35150167 0.04295304 -0.060198784
-0.05547962 -0.0824385 -0.017207542 -0.01428167 0.19415426 0.2056349 0.1578764 0.18350965

conv4.weight f4 [32, 16, 3, 3]
00000000: 95cd 6dbd 8a69 9e3d bbab d63b 2f69 b43d
00000010: a45f b7bd dae7 0f3e d195 903c ece0 593c
00000020: 5b48 0c3e eee1 26bd 0b7d 123d b9b5 00bd
00000030: 39b4 42bd eace 1ebc 159c d23c a8f9 e2bc
00000040: 11d6 573d b957 1fbc bb5f 9b3d e476 38bd
00000050: 3ad1 a9bb 7a16 e23c 7c7a 863d 9848 8b3c
00000060: 8d43 e63c 136a d8bc 8096 f93c 409d c1bd
00000070: 93e7 d4bc fbbe 28bd 11e9 613e 5086 50be
00000080: 9671 e3bd 3c95 1d3e 0b04 a43c 9daa 5d3d
00000090: a6e9 42bd 9892 62bd 5765 0d3d 5290 063c
000000a0: b97d 773d 6618 9b3d 07d6 fc3b e539 313d
000000b0: 40dd 8d3c 94c0 2fbd 723b 253c 9331 10be
000000c0: 1f1e c3bd 762c 533e 2c71 bb3d 6b70 0cbe
000000d0: a65d 713c dc37 21be 7fa0 f13b fc61 60bd
000000e0: 9f16 0fbd 8f53 163d a93d eebd 9e2b f7bd
000000f0: e9e9 6a3d d26d 9abd 264b 6e3d 06e4 76bd
00000100: 04c4 63bd 16fc 33bd 6308 ce3d c289 e1bd
00000110: be46 97bd f114 963c 2b98 febd 415f 53bc
00000120: 1368 1a3d 6292 21bb 1020 a4bb 4f3d d7bc
00000130: 0805 73bd 3a48 46bd 882f 493d 8340 843d
00000140: 7006 4a3d 1b7b b2bd 5e75 0cbd 3069 80bc
00000150: 157d f23d 8d0e 3bbe 41ee e13d 4fcc 99bd
00000160: e06c 943c 77fc a5bc 9f12 19bd 0d7b 8abd
00000170: 6727 61bd a228 663e 1f74 16be 6da5 223c
00000180: 5b4a 403c 415a e6bd 237e 8b3d cea3 e43d
00000190: bbff 6a3d 04bf 023d a524 92bd 0819 0c3e
000001a0: 98b5 74bd 4e6a ffbb 0022 053d 06dc 66bd
000001b0: 1304 ba3d cec4 d2bd 3b95 173e c4c5 453d
000001c0: e419 14be bfda 6cbd f4a6 9b3b 2a24 a33d
000001d0: 369f 1a3e 51b3 b8bc 9f16 6b3c 3b97 dfbd
000001e0: 22c7 9dbd a556 50bb 2269 a3bd 7ea9 14be
000001f0: b1a3 623d bb66 ddbd bbb0 d6bc a423 98bd
00000200: 69b5 fc3d 7347 143c 1566 30be 6ff5 e03c
00000210: 0fc2 243d df51 a43d 406d 323e 763f eb3d
00000220: d334 17bc 2fde dbbb 7cda cc3d 6273 523d
00000230: 23ed 07be 1c15 013e 9775 77bc e83f c3bc
00000240: cee4 e33d 2cef 963d aec1 713d cff5 8c3b
00000250: 44c9 9e3d de0a 1f3d 08ea 3e3d 6d16 25bc
00000260: 3680 a03c 28e4 d1bc bc72 063b 1786 6bbb
00000270: d10a 013a 4248 5dbd 8473 52bd 0040 363c
00000280: 6d58 a93d 4db3 193d 3688 86bd ac78 a5bd
00000290: 745a 0dbe fa12 87bb 9dcd cdbc f580 69bd
000002a0: 3f25 1e3b d5f3 12be e3f0 c13d ebf4 b6bd
000002b0: 4bbb d13d 0a06 3d3e 96b5 f2bd 139f 3abe
000002c0: 5775 06be 3c40 833e 81f5 df3c b1db 01be
000002d0: e3a8 70bd 1a04 93bd 4672 3fbc 9eb4 2d3c
000002e0: 1d60 09bd f54f 5c3c 107f ae3d f9dd bd3d
000002f0: 5be9 3a3c 17e0 553e b689 f23d f13f 4ebc
00000300: d314 54bb 7e1a 61bd ab21 ddbd 9d43 a83d
00000310: b983 fbbd 72dd 28bd 4f1b f1bd db56 14bc
00000320: 0ade 2cbd 2af2 59bd 8761 0ebe 5397 abbd
00000330: 31bf d23d 1c4a 25bd f683 11bd 3d82 873c
00000340: 5a48 993d 844d 26bb 0754 14bd 2314 33bd
00000350: 2b06 04be a662 3c3e 2bd7 96bd 627b ad3b
00000360: 8dff 063b 289b a73d 41e5 373d 9844 33bd
00000370: 9627 273d ccae 0a38 0b14 85bd 83a0 46bd
00000380: 63ef 6ebd e816 483e 1321 5a3e 00d8 d9bc
00000390: 9626 c9bc 5594 493c b816 9bbd 042d 293e
000003a0: 5dac abbd 5bda e63d 1f66 c23c 6caa 433e
000003b0: 86f3 873c 10dd 15be dc21 81be 4f7b d9bd
000003c0: 1dc0 673e 146b 35be 4943 d7bd 637a 9bbd
000003d0: 0b91 1c3d 540c 0cbe 71c2 c43d 8987 e4bd
000003e0: d4f3 68bd 9703 92bd 89c8 d7bc d0e6 813d
000003f0: b94a dabd 9e90 abbd 1a7d f33a 0747 543e
-0.058057386 0.07734974 0.0065512336 0.08809125 -0.08953789 0.14053288 0.017649563 0.013298254
0.13699476 -0.040742807 0.03576378 -0.031423304 -0.047535155 -0.009692887 0.025709191 -0.027706936
0.052694384 -0.009725505 0.075866185 -0.045035258 -0.0051824125 0.027598608 0.06566331 0.017002389
0.028108383 -0.026417768 0.030467272 -0.09453821 -0.02598933 -0.04119776 0.22061564 -0.20363736
-0.11105649 0.1538896 0.02002146 0.054117788 -0.047586106 -0.055315584 0.034520473 0.00821312
0.060422633 0.07573013 0.0077159437 0.043268103 0.017317414 -0.042908266 0.010084974 -0.14081411
-0.095272295 0.20622429 0.09152445 -0.13714759 0.0147318 -0.15743965 0.007373869 -0.054780945
-0.034933683 0.03670078 -0.116328545 -0.12068866 0.05735198 -0.07540478 0.058177136 -0.060276054
-0.055606857 -0.04394158 0.100601934 -0.11012603 -0.0738654 0.018320533 -0.124313675 -0.012901128
0.03769691 -0.0024653901 -0.005008705 -0.026274351 -0.05933097 -0.048408724 0.049117595 0.06457617
0.049322546 -0.08714887 -0.034291618 -0.015675157 0.11840264 -0.1826727 0.110317715 -0.07509672
0.018118322 -0.020261986 -0.037371274 -0.06761751 -0.054969218 0.22476438 -0.14692734 0.009927136
0.011736478 -0.11247683 0.06811168 0.11164056 0.05737279 0.031920448 -0.07135896 0.13681424
-0.059743494 -0.007794655 0.032503128 -0.056362174 0.09082808 -0.10291444 0.1480302 0.048284307
-0.14463001 -0.0578258 0.004750127 0.07965882 0.15099797 -0.022546442 0.014348655 -0.10917517
-0.07703997 -0.0031789925 -0.07979037 -0.14517781 0.05533189 -0.1081061 -0.026207319 -0.07428673
0.12339289 0.009050238 -0.17226441 0.027460782 0.04022413 0.08023428 0.17424488 0.114867136
-0.009228903 -0.006709836 0.1000261 0.05137957 -0.13274054 0.12605709 -0.015103719 -0.023834184
0.111276254 0.07369837 0.059022598 0.0043017636 0.07753232 0.038828723 0.04660991 -0.0100761475
0.019592386 -0.025621489 0.0020515164 -0.0035938078 0.0004922571 -0.05402399 -0.051379696 0.011123657
0.08268819 0.03752451 -0.06568949 -0.08079657 -0.13804036 -0.004122135 -0.025122458 -0.05700775
0.0024131087 -0.14350827 0.094697736 -0.08933433 0.102408014 0.18459335 -0.11851041 -0.18224744
-0.13130699 0.25634944 0.027338745 -0.12681462 -0.058754813 -0.07178517 -0.01168496 0.0106021445
-0.033538926 0.013446798 0.08520329 0.092708535 0.011408175 0.20886265 0.118426725 -0.012588487
-0.0032361045 -0.054956906 -0.10797437 0.08216021 -0.122809835 -0.04122681 -0.11772787 -0.009053911
-0.04220394 -0.05320946 -0.13904391 -0.08378472 0.10290373 -0.04035388 -0.03552624 0.016541595
0.07484503 -0.0025375793 -0.036212947 -0.043720376 -0.12892978 0.18397006 -0.07365259 0.0052942494
0.0020599097 0.081838906 0.044896368 -0.043766588 0.040809236 3.3064556e-05 -0.064979635 -0.04849292
-0.058333766 0.19539988 0.2130168 -0.026592255 -0.024554532 0.0123034315 -0.07572693 0.16521078
-0.08382485 0.11272117 0.023730336 0.1910798 0.016595613 -0.1463511 -0.25221145 -0.106192224
0.22631879 -0.17716628 -0.105108805 -0.07591703 0.03822426 -0.13676578 0.09607399 -0.11158664
-0.056873158 -0.07129591 -0.02634074 0.06342852 -0.106587835 -0.08377193 0.0018576712 0.2073022

conv4.bias f4 [32]
00000000: dbc5 93bc 1117 93bd 85df 8fbd 2acd 6bbd
00000010: 0a7f 903d 2559 bfbd 3e93 fb3d 42e1 61bc
00000020: b962 763d a4bd e53d 1b9e f63d 6b31 b5bd
00000030: df4c f13d dcb2 45bd f7c9 943d 4ca4 bdbd
00000040: b87e 65bd cde8 b43d f036 293d 9c21 3c3c
00000050: f3e3 1b3d 3172 ea3d 3f09 11bc ec9b 70bd
00000060: 9cde 88bc 40ac 3d3e 047c f93d 2595 aebd
00000070: 8e51 d13d 85f9 27bd 479d 903c 7da8 37bd
-0.01803868 -0.07182134 -0.07025055 -0.057568707 0.07055481 -0.09343175 0.122839436 -0.013786616
0.060152743 0.11217812 0.12041875 -0.08847316 0.1178224 -0.048266277 0.07265084 -0.09259853
-0.05602905 0.08833466 0.041312158 0.0114826225 0.038059186 0.114475615 -0.008852302 -0.05874245
-0.01670771 0.1852274 0.12181857 -0.08524541 0.102206334 -0.041009445 0.01765312 -0.044838417

conv5.weight f4 [10, 32, 3, 3]
00000000: 8a8f 6d3e 5b65 373e 9901 89bc 6421 a3bd
00000010: eb07 97bd 6019 ae3d aa68 203d 430b 99bc
00000020: c475 dcbd e3b2 7ebb cc5d 01be ddee 4e3b
00000030: d220 17be 7e66 a2bb c63c 093e 2573 ba3d
00000040: 3971 e63d 33a0 393d 836f 0e3e 4433 5ebc
00000050: 5c05 943d 7143 87bd 9a2a e5bc 9d9c c83b
00000060: d572 843d f84c 90bd 7db9 853d cd59 193d
00000070: 28f1 5dbd 90cb ec3d 2cc8 f2bd 5c2d c9bd
00000080: 39f7 9f3e 99bc 72bd 22bf 7e3e c8d3 51be
00000090: 10ab 0b3e b850 59be 981e 7c3d d80d e1bd
000000a0: 2a48 b3bd 26d3 533d 78c8 8d3e c17b ce3c
000000b0: 5e25 99bd e3b6 c53c 6370 80bd 3a33 913e
000000c0: 14fc 9bbd 473a c1bd df70 c83d e4e4 06bd
000000d0: 028e c5bd d7ef c5bc c2e8 65be 2e89 34bd
000000e0: 279a a03d 8283 0f3d 8d15 4f3d 96d1 12bd
000000f0: 753e 443e 0a51 01bd 0cf9 bbbd 4fa3 d8bd
00000100: b07c 1bbe 9c1d c23d e2b0 a9bd 6d98 cd3d
00000110: 7e51 2b3d d9b1 01be 25b3 2b3d 30b1 96bb
00000120: 6e1d 25bc a1fb f13d 89e0 9ebd 3169 b9bd
00000130: 4ee9 efbd 1fe3 b53d 2fbd 6fbe a2cb 9bbd
00000140: 74f7 df3d 4e18 633d 26ee 65be 1ebc f7bc
00000150: 84a2 6ebe 4c6b 9b3e 39a8 333e de59 15bd
00000160: ac0a 303d 61bd 363d 67ff c93d 8c12 3cbe
00000170: c14d 0e3f e4b8 2dbd f916 60bc 5d68 b53d
00000180: 7311 26bd 8e70 7e3d bc27 86bd dbb9 03be
00000190: c0ae 05be fc1e 5e3e 766e 6ebe dcc9 f83c
000001a0: 63ed 143d 027f b23c a04d 63bc 935b e6bd
000001b0: 10c7 41be b473 4abe 8ad8 7fbe 68fb 06be
000001c0: 1b56 c23c e2a1 b13d 8dfb 83be 8b7b 693e
000001d0: 2b71 f73d b5be 3e3d ac32 94bc 21e2 f6bc
000001e0: b0e4 1d3d 17a5 6ebd e420 c3bc f88f 3e3d
000001f0: c3f6 e9bc 3a90 85bd b731 0bbe c012 683e
00000200: 7e91 113d aeae ffbd c33e 60bd bacf 91be
00000210: 5c28 273e 198d a6bd d843 9a3e 8763 fdbd
00000220: b8b6 473d bfd9 303e e4e1 33be c275 683d
00000230: 8241 203e 43e4 283e e98d 54be 4ae6 99be
00000240: f450 c13d 889c 7fbd 72be 753d 90af d3bd
00000250: 132a 8a3d eac0 293e d651 223d 55a4 183e
00000260: 738c f73d 3e86 b33e 861c 4ebe e228 053e
00000270: d18a 8a3e 72fb 9fbe 5ece 13be d4cb 483e
00000280: d000 513d d630 69be 022c 393e a79b 88bd
00000290: dd5b 613e e12b 7ebc 30d4 d8bd 1186 353e
000002a0: 4272 cd3d b4f7 2abd 7c6b 22be a276 bebd
000002b0: 0a63 11be b7b3 023d 4980 aebe 6a3e 23bd
000002c0: fc9d cc3d 42dc 913e 0f75 dd3d bc88 b0bd
000002d0: 8a8f e63e 41f0 7e3c aca8 61be 66a7 2d3d
000002e0: d736 06bd 6144 e9bc ec28 47be c066 003d
000002f0: cfc1 303d 2477 a8bd 42db 9d3d fcf1 02be
00000300: 813d ffbc 9b70 2cbe 8d6f 0abb f4b3 293e
00000310: 46fb b53e a74e e83d 4a75 80bd a133 5abd
00000320: 5bc1 bf3d 21b9 60bd cccf 0a3e 57b6 183b
00000330: d1ab 5ebe 6daa 75bd 8ad3 b33c f013 983d
00000340: 852a 56bd 5b95 42be 188b 92bd ee54 4ebe
00000350: 02ea aa3d 2da8 40bd 8621 44be b568 d2bd
00000360: 3196 b7bd 6c25 f6bd 79bc 74bd d676 30be
00000370: 7b3e 28bb d397 a13a d9bb 883d b17f 0d3e
00000380: 0371 dcbb 4156 4fbe 6053 8e3e d4f6 693e
00000390: 5e59 bbbd f615 5dbd 8fcb 0f3e fe41 7abe
000003a0: 89ad 263d bfe0 9abd 7567 8d3e c578 2d3e
000003b0: 3d65 393e fcbe 993d e743 253d 70d2 23bc
000003c0: 30b4 84bd 5a3e 00be 1b31 7b3d 6ff2 7a3d
000003d0: a3dd cf3c 1b4a b7bd a848 8abd 7b08 063e
000003e0: aeeb 33bd 73e1 683e e2ff e03d 1162 9abc
000003f0: 79df 83be 9b4b 1dbe add9 46be 428e 54be
0.23199287 0.17909758 -0.016724395 -0.07965353 -0.07374557 0.08500934 0.039162315 -0.018682128
-0.107646495 -0.003886395 -0.12633437 0.003157548 -0.14758614 -0.0049560657 0.1340209 0.09103993
0.11252064 0.045318794 0.13909726 -0.013562027 0.07227585 -0.0660466 -0.027974416 0.0061221854
0.06467215 -0.070459306 0.0652952 0.037439156 -0.054185063 0.11562264 -0.11854586 -0.09823105
0.31243303 -0.059261892 0.24877599 -0.20490944 0.13639474 -0.21222198 0.061552614 -0.109889686
-0.087539986 0.05171504 0.27692008 0.025205495 -0.0747783 0.024135059 -0.06271436 0.28359395
-0.076164395 -0.09434944 0.097871535 -0.03293313 -0.096462265 -0.024162216 -0.22452071 -0.044076137
0.07841902 0.035037525 0.05055766 -0.035844408 0.1916445 -0.031571425 -0.09178361 -0.10578024
-0.15184283 0.09478304 -0.08285691 0.100388385 0.041825764 -0.126655 0.041918892 -0.004598759
-0.010077817 0.118155725 -0.077576704 -0.09053267 -0.11714421 0.088812105 -0.23412012 -0.07607199
0.1093587 0.0554431 -0.22454128 -0.030241068 -0.23304182 0.303553 0.1754464 -0.036462657
0.042978927 0.0446142 0.09863167 -0.1836645 0.55587393 -0.042412654 -0.013677352 0.08857796
-0.040543985 0.06211906 -0.065505475 -0.12863867 -0.13054943 0.21691507 -0.23284325 0.030369692
0.036359202 0.021789078 -0.013873488 -0.11247935 -0.18923593 -0.197707 -0.24984947 -0.13181841
0.023722699 0.08673455 -0.25777856 0.22801034 0.12082132 0.04656859 -0.018090568 -0.030137124
0.03854817 -0.05826291 -0.023819394 0.046524018 -0.028560048 -0.0652165 -0.13593183 0.22663403
0.035539143 -0.124844894 -0.054747354 -0.28478795 0.1632399 -0.08132381 0.30129886 -0.12372499
0.04875824 0.17270564 -0.17566639 0.056752928 0.15649989 0.16493325 -0.2075726 -0.3005851
0.09439269 -0.06240514 0.059996076 -0.1033622 0.06746306 0.16577497 0.039628826 0.14906438
0.120873354 0.35063356 -0.20128068 0.13003877 0.27059034 -0.31246525 -0.14434192 0.19609004
0.051026165 -0.22772536 0.18083194 -0.06670313 0.220077 -0.015513391 -0.105873466 0.17726924
0.100315586 -0.041740134 -0.15861315 -0.09299971 -0.14197937 0.03190967 -0.3408225 -0.039854445
0.09991071 0.28488356 0.10813343 -0.0861983 0.45031387 0.015560211 -0.22037 0.04239597
-0.032767143 -0.028474988 -0.19449204 0.03134799 0.04315358 -0.08225849 0.07707836 -0.12787622
-0.031157257 -0.1683983 -0.0021123618 0.16572553 0.3554327 0.11343127 -0.06272371 -0.053271893
0.093630515 -0.054864053 0.1355583 0.0023302042 -0.2174523 -0.059976984 0.021951456 0.07425678
-0.052286644 -0.19002287 -0.07155436 -0.20149586 0.08345415 -0.047035385 -0.19153413 -0.102738775
-0.089641936 -0.120188564 -0.059750054 -0.17232832 -0.0025672007 0.0012328572 0.06676454 0.13818242
-0.0067273392 -0.20247747 0.27797985 0.22848064 -0.09147905 -0.05397602 0.14042495 -0.24439237
0.04069284 -0.07562398 0.27617994 0.16940601 0.18105026 0.075071305 0.04034796 -0.009998903
-0.064796805 -0.12523785 0.061326127 0.06126636 0.02537424 -0.08949681 -0.06752139 0.13089173
-0.043925934 0.22742252 0.10986306 -0.01884559 -0.25756434 -0.15360872 -0.19418974 -0.20757392

conv5.bias f4 [10]
00000000: 6033 a83d b55f e03d 7a3f b2bd 0c6f 293c
00000010: 80b0 c73b ea4a 063d 0eea 4d3d 60db a7bc
00000020: 8e70 a93d d701 163e
0.08212924 0.10955755 -0.087035134 0.010341417 0.0060940385 0.032786287 0.05027204 -0.020490348
0.08273421 0.1464914
