R7models/BaseR7seed1.pt (torch_old, 38047 bytes, 10 tensors)

conv1.weight f4 [4, 3, 3, 3]
0	0x3d809be7	0.06279736
1	0xbe4002d3	-0.18751077
2	0xbd113492	-0.035450526
3	0x3e183949	0.14865603
4	0xbe573046	-0.21014509
5	0x3e5750cf	0.2102692
6	0xbcea3129	-0.028587895
7	0x3e05a9a9	0.13053001
8	0x3e1767ec	0.14785737
9	0xbcc10a18	-0.023564383
10	0x3d5aa308	0.053378135
11	0x3c1b8c50	0.009493902
12	0x3d8ff342	0.070288196
13	0xbd99988c	-0.07499799
14	0xbc65e380	-0.014031291
15	0xbc8deec8	-0.017325774
16	0x3ce482f8	0.027894482
17	0xba498a00	-0.0007688105
18	0x3e2c4565	0.16823347
19	0x3d754db4	0.059888557
20	0xbd92c785	-0.071669616
21	0xbdee0b43	-0.11623242
22	0xbd042098	-0.032257646
23	0xbdaa01f6	-0.08301155
24	0xbd7c9a0c	-0.061670348
25	0x3c16f9c0	0.0092148185
26	0x3deaf4da	0.11472483
27	0x3f1d1558	0.6136069
28	0xbd8210d4	-0.06350866
29	0x3f06bea8	0.5263467
30	0x3f0e759b	0.556482
31	0x3ec44106	0.3833086
32	0x3f05bcca	0.52241194
33	0x3e383651	0.1798947
34	0xbe48add4	-0.1959756
35	0x3e3bbf61	0.18334724
36	0x3e2d0c6b	0.16899268
37	0xbd034d60	-0.032056212
38	0x3da8acca	0.08236082
39	0xbdb7290c	-0.08943376
40	0x3e415e17	0.18883549
41	0xbda6c253	-0.08142533
42	0x3e13c96f	0.1443231
43	0x3b155a00	0.002278924
44	0xbdcfa37f	-0.10138606
45	0x3dca97ba	0.09892221
46	0xbdd1375e	-0.102156386
47	0x3d67d5e8	0.05660048
48	0xbd639ec8	-0.055571347
49	0xbcacd820	-0.02109915
50	0xbe3d75ae	-0.18501922
51	0xbdbbeaee	-0.09175669
52	0x3dd5df62	0.104429975
53	0xbd3f9ca4	-0.046780244
54	0x3fe093c1	1.7545091
55	0x3f798562	0.9746915
56	0x3f381ca8	0.71918726
57	0x3fadc65a	1.3576157
58	0x3f63aaf7	0.88932747
59	0x3f43747d	0.7634962
60	0x3f9a0844	1.2033772
61	0x3f3dc3f8	0.7412715
62	0x3f1cd1ba	0.6125752
63	0x3e2ec787	0.17068301
64	0xbddcf00f	-0.10787975
65	0xbd01c140	-0.03167844
66	0xbb745380	-0.0037281215
67	0x3ce64460	0.028108776
68	0xbe158f27	-0.1460539
69	0xbe0bd831	-0.13656689
70	0x3dd669aa	0.104693726
71	0xbd38d824	-0.045128003
72	0x3dc0869e	0.09400676
73	0x3c33c210	0.010971561
74	0x3d8169c2	0.06319
75	0x3d2d5538	0.0423176
76	0x3d8f4eea	0.069974735
77	0x3dc360da	0.09539957
78	0xbe368204	-0.17823035
79	0x3dc663ca	0.09687002
80	0xbe0a9050	-0.13531613
81	0xbe75df54	-0.24010974
82	0x3d11f7c3	0.035636675
83	0xbe088b0c	-0.13334292
84	0x3d4bbc50	0.049740136
85	0xbc857490	-0.016290933
86	0xbe57ca14	-0.2107318
87	0x3db5c17e	0.08874796
88	0xbb83edc1	-0.004026145
89	0x3d6278a7	0.055290844
90	0x3d7d6b1c	0.061869726
91	0xbe13c6f0	-0.14431357
92	0x3d1e5cfc	0.038662896
93	0x3d3d5754	0.04622586
94	0xbe03f2fe	-0.12885663
95	0xbdbb01e9	-0.09131224
96	0x3d866432	0.065620795
97	0x3d0d32ac	0.034472153
98	0xbda7a7c9	-0.08186299
99	0xbd6e9fa0	-0.0582577
100	0x3e347df3	0.17626171
101	0xbd11d908	-0.035607368
102	0x3dde362a	0.10850175
103	0x3daaa9b6	0.08333151
104	0xbdfec602	-0.12440111
105	0xbe2797dc	-0.16366524
106	0x3e3d2a09	0.18473066
107	0x3c24a510	0.01004912

conv1.bias f4 [4]
0	0x3f041334	0.515918
1	0x3d411d71	0.04714722
2	0xbb77e15c	-0.0037823534
3	0x3e81b763	0.25335225

conv2.weight f4 [8, 4, 3, 3]
0	0x3e59ccb8	0.212695
1	0xbd439760	-0.047751784
2	0xbbdce0d4	-0.006740669
3	0x3e19d2ca	0.15021816
4	0x3e3cb36d	0.1842782
5	0x3cd63aa3	0.026151007
6	0xbdbbc363	-0.091681264
7	0xbdfc33e2	-0.12314583
8	0xbe19b8e0	-0.1501193
9	0x3e9faa22	0.3118449
10	0x3eab958a	0.33512527
11	0xbd9ff804	-0.07810977
12	0x3efae520	0.49002934
13	0x3e34d1cd	0.17658158
14	0xbc913416	-0.017725032
15	0x3e8cf921	0.2753382
16	0x3ea16252	0.31520325
17	0x3e4fcdc9	0.20293345
18	0x3f630e23	0.88693446
19	0x3eff2f12	0.498406
20	0x3f34ec6c	0.7067325
21	0x3f9d8077	1.2304829
22	0x3f07531a	0.5286118
23	0x3f36ac0d	0.7135628
24	0x3f8c0899	1.0940124
25	0x3ec8f57f	0.392498
26	0x3eb063d7	0.34451172
27	0xbdfcaced	-0.123376705
28	0xbdcb8642	-0.09937717
29	0xbc8d233f	-0.01722872
30	0xbe061a13	-0.13095884
31	0xbc264cb6	-0.010150125
32	0x3d25056c	0.040288374
33	0xbd70b729	-0.058768425
34	0xbc048f80	-0.008090854
35	0x3cdf72d0	0.027276427
36	0x3e2fa810	0.17153955
37	0x3e46431e	0.1936154
38	0x3cc42582	0.023943666
39	0x3e82a4a2	0.2551623
40	0x3d618fd1	0.055068795
41	0x3daf041e	0.08545707
42	0xbdad71cf	-0.08468973
43	0xbc6045c9	-0.013688513
44	0xbcb1e3e0	-0.021715105
45	0xbdf2007f	-0.11816501
46	0x3dcd396a	0.100207165
47	0xbdb3569a	-0.08756752
48	0xbe165342	-0.14680198
49	0x3d806101	0.06268502
50	0x3d53c29f	0.051699277
51	0x3dd0af04	0.101896316
52	0xbdb16682	-0.0866213
53	0x3d397746	0.045279764
54	0xbe4143ed	-0.18873568
55	0xbdc613fc	-0.096717805
56	0xbe5716b7	-0.21004759
57	0xbe3f50ff	-0.18683241
58	0xbd97cf70	-0.074126124
59	0xbba44751	-0.0050133844
60	0xbdbe950e	-0.09305774
61	0x3d7c117e	0.06154012
62	0x3e5097a8	0.20370352
63	0x3e6a5731	0.22884823
64	0x3e32bf23	0.17455725
65	0x3da20261	0.0791061
66	0xbd8782ee	-0.0661677
67	0x3e4105a5	0.1884981
68	0x3c67a71d	0.014138964
69	0x3d0e26e7	0.03470507
70	0xbdbca4c7	-0.09211116
71	0x3d00b957	0.031426754
72	0xbd014148	-0.031556398
73	0x3e88aab2	0.2669273
74	0xbe0e4e69	-0.13897099
75	0xbd9f25c6	-0.077708766
76	0x3dc3c5f5	0.09559242
77	0xbe060425	-0.13087519
78	0x3df3712e	0.11886822
79	0xbd18a421	-0.0372659
80	0xbd97cef0	-0.07412517
81	0x3e6180e0	0.22021818
82	0x3e8fd65a	0.28093225
83	0xbde10127	-0.10986548
84	0x3ed27a44	0.41108906
85	0x3ed339c0	0.41254997
86	0x3e965bfb	0.2936705
87	0x3e03ca8e	0.12870237
88	0x3e7953b5	0.24348338
89	0xbdbcb5fa	-0.09214397
90	0x3f81b304	1.0132756
91	0x3ee5efc9	0.44909504
92	0x3f22bd3d	0.63570005
93	0x3f63dc42	0.8900796
94	0x3eded6c9	0.43523243
95	0x3eea35c6	0.4574415
96	0x3f5631cb	0.8366973
97	0x3f139489	0.5764852
98	0x3ef41feb	0.476806
99	0x3dc0a2e6	0.094060704
100	0xbe0bf9e3	-0.13669543
101	0x3e22a11b	0.1588177
102	0x3e063317	0.13105427
103	0x3d9b9e62	0.075985685
104	0x3e1c6c5b	0.1527571
105	0xbe008fad	-0.12554808
106	0xbdfa343b	-0.122169934
107	0x3e291ec5	0.16515644
108	0xbdc7efa8	-0.09762508
109	0x3e325e65	0.17418821
110	0xbddbb64f	-0.10728132
111	0xbdaeb560	-0.08530688
112	0x3dd5f178	0.10446447
113	0xbdc5dc20	-0.09661126
114	0xbbd7b6f7	-0.0065830904
115	0x3e12df1f	0.14342926
116	0x3e1fbcce	0.15599367
117	0x3e4e0119	0.20117606
118	0xbd288ab1	-0.04114789
119	0xbe06b4f5	-0.13154967
120	0x3e587804	0.21139532
121	0xbd38afe7	-0.04508963
122	0xbd8c8fd0	-0.068633676
123	0x3da5f562	0.08103444
124	0xbe025255	-0.1272672
125	0x3de13597	0.109965496
126	0x3e654d90	0.22392869
127	0xbe2b2819	-0.16714515
128	0xbe1347c5	-0.14382847
129	0x3ddf2826	0.108963296
130	0x3ce32d82	0.02773166
131	0xbc6207e6	-0.013795828
132	0x3d0ec36e	0.034854345
133	0xbd0691ca	-0.03285388
134	0xbe1df60d	-0.15425892
135	0xbdd3074f	-0.103041284
136	0xbdc7e306	-0.09760098
137	0x3e1a2af0	0.15055442
138	0x3e1ff945	0.15622433
139	0xbd32f981	-0.043694977
140	0x3c9f0a06	0.01941396
141	0x3daed78d	0.08537207
142	0x3d0c1538	0.034199923
143	0xbd8bb90c	-0.06822404
144	0x3e5954eb	0.212238
145	0x3e4e90af	0.2017238
146	0x3dd5b1ed	0.10434327
147	0x3dd133df	0.10214972
148	0x3e888270	0.26662016
149	0x3e8dfeca	0.2773345
150	0x3c35cd51	0.0110963145
151	0x3e82a549	0.25516728
152	0x3e22ec57	0.15910469
153	0xbded35a5	-0.115824975
154	0x3d81eb91	0.06343759
155	0xbe1600bd	-0.14648719
156	0x3e1efbb1	0.155257
157	0xbdc76c28	-0.09737426
158	0x3d9e7c95	0.07738606
159	0x3d5c773c	0.05382465
160	0x3df15dc8	0.117854655
161	0x3e754821	0.23953296
162	0xbe45183e	-0.19247529
163	0xbe062cfe	-0.131031
164	0xbe6cd412	-0.23127773
165	0xbd6d0875	-0.057869393
166	0x3d75d55f	0.06001794
167	0x3dbc777e	0.09202479
168	0xbe44a322	-0.19202855
169	0x3e711627	0.23543607
170	0x3ecc341e	0.39883512
171	0x3df49ea5	0.119443215
172	0x3c94d61e	0.018168505
173	0x3b96c75b	0.0046014017
174	0xbddd2bc3	-0.107993625
175	0x3e500b4f	0.20316814
176	0x3d5732a9	0.052538548
177	0x3d87ff01	0.06640435
178	0x3ce6fa1f	0.028195439
179	0xbd80957c	-0.06278512
180	0x3dd7f281	0.10544301
181	0x3dd9412c	0.10608134
182	0x3c80eb42	0.01573718
183	0xbdb0cdc8	-0.08633
184	0xbd785207	-0.060625102
185	0x3c559f6d	0.013038498
186	0xbdac6651	-0.08417953
187	0xbdb93d76	-0.09044926
188	0xbc3b7e98	-0.0114437565
189	0xbd19295d	-0.037392963
190	0x3d7bf190	0.06150967
191	0xbd2aae7e	-0.041670315
192	0xbb95eb5c	-0.004575176
193	0xbd06fe11	-0.03295714
194	0xbe0ccede	-0.13750789
195	0x3e29140c	0.16511554
196	0x3d8a0b07	0.067403845
197	0x3e31005b	0.17285292
198	0x3cd03bde	0.025419172
199	0x3d3b6030	0.04574603
200	0xbe0ecf3d	-0.13946243
201	0x3c4e2904	0.012583021
202	0x3e798510	0.24367166
203	0xbde95a2b	-0.11394151
204	0xbc39e2b4	-0.011345554
205	0x3e750f12	0.2393153
206	0x3e1fafae	0.1559436
207	0x3d86740f	0.06565105
208	0xbcd36469	-0.025804715
209	0xb942557d	-0.00018533129
210	0xbd019488	-0.03163579
211	0xbd6d6c38	-0.057964534
212	0x3da89daf	0.08233201
213	0xbd6e6428	-0.058200985
214	0xbdbc6fda	-0.092010215
215	0x3d32266b	0.04349367
216	0xbdf1d2f5	-0.11807815
217	0xbd08cf0c	-0.03340058
218	0x3db26b69	0.08711893
219	0x3d855214	0.06509796
220	0x3e152ee8	0.14568675
221	0xbde0798e	-0.10960685
222	0x3ba502ad	0.0050357194
223	0xbd377cea	-0.04479686
224	0xbdbaf56d	-0.091288425
225	0xbdbfaa3e	-0.09358643
226	0x3d230a31	0.03980464
227	0x3cb8fc3f	0.022581218
228	0xbdac2904	-0.084062606
229	0xbdf151e6	-0.11783199
230	0xbe10da58	-0.14145792
231	0x3e29b8c7	0.16574393
232	0xbcb8113e	-0.02246916
233	0xbd031ddd	-0.0320109
234	0xbd7b065c	-0.06128536
235	0xbdb432b7	-0.087987356
236	0xbe1d4547	-0.15358458
237	0xbdc1ce46	-0.09463172
238	0x3ddf4a82	0.10902883
239	0x3d33dfc1	0.04391456
240	0xbd5b855d	-0.053593982
241	0xbd4849d1	-0.04889852
242	0x3df83912	0.1212026
243	0x3df8f6e3	0.12156465
244	0x3e262531	0.16225125
245	0x3d4688c6	0.04847028
246	0x3da8adfa	0.082363084
247	0xbc29aa0b	-0.010355483
248	0xbdc0c2db	-0.09412166
249	0xbe26901b	-0.1626591
250	0x3dce60dc	0.10077068
251	0xbcbf7cee	-0.023375
252	0x3d9f2c9d	0.07772181
253	0x3b7ca141	0.0038548263
254	0xbe1f0537	-0.15529333
255	0xbd8fb60d	-0.07017145

conv2.bias f4 [8]
0	0xbdb58b6f	-0.088644855
1	0x3edfaf6b	0.4368852
2	0x3de82ed9	0.113370605
3	0xbd9c929f	-0.07645153
4	0x3ea61578	0.32438254
5	0xbdf3e5b3	-0.11909046
6	0xbda267b2	-0.079299346
7	0xbe20058d	-0.15627117

conv3.weight f4 [16, 8, 3, 3]
0	0x3e4e948c	0.20173854
1	0x3df7ca06	0.1209908
2	0xbe876ec6	-0.264517
3	0x3e42ed0b	0.19035737
4	0x3dd90e3f	0.1059842
5	0xbeebfe0e	-0.46092266
6	0x3edcda7d	0.43135443
7	0x3e78f0d6	0.24310622
8	0xbe98b4e0	-0.29825497
9	0x3dcb8722	0.09937884
10	0xbd82fc6c	-0.06395802
11	0xbc8dcc05	-0.017309198
12	0xbdb98026	-0.090576455
13	0x3decc3ff	0.11560821
14	0x3d4b2c38	0.049602717
15	0x3da66745	0.08125166
16	0x3c8a38ec	0.016872846
17	0x3dd9c8c7	0.10633998
18	0x3d6f2bfd	0.05839156
19	0x3d1bca2e	0.03803461
20	0xbe4d63a5	-0.20057543
21	0x3db0d462	0.08634259
22	0x3d521137	0.05128595
23	0xbecbb2cf	-0.39784858
24	0x3ea9cdac	0.33164728
25	0x3e60f323	0.2196775
26	0xbe110610	-0.14162469
27	0xbdbfeb60	-0.09371066
28	0x3d9ee878	0.07759184
29	0x3c337360	0.0109528005
30	0x3db9a7f9	0.09065241
31	0x3dbb6a1f	0.091511
32	0xbdc6b627	-0.097027116
33	0x3e114902	0.14188007
34	0xbdf2c787	-0.11854463
35	0x3d9358e2	0.071946874
36	0x3c89e3eb	0.016832313
37	0x3d407250	0.046984017
38	0xbd84d375	-0.06485645
39	0x3db6cbe5	0.089256085
40	0xbd4cb1c3	-0.049974214
41	0xbdf2aa55	-0.118488945
42	0x3d176373	0.036960077
43	0x3dba1db5	0.090876974
44	0x3e137f9c	0.14404148
45	0xbcc8ea55	-0.0245258
46	0x3deb5dce	0.11492501
47	0x3d7fbe8f	0.06243759
48	0xbd889155	-0.06668345
49	0xbd9d54e4	-0.07682207
50	0x3d314957	0.043282833
51	0xbd9f614f	-0.07782232
52	0x3d9f33c6	0.07773547
53	0xbdde8537	-0.108652525
54	0x3da62f69	0.081145115
55	0x3d0eaf9d	0.034835447
56	0xbc891530	-0.016733736
57	0x3d650066	0.055908583
58	0xbda98c23	-0.08278682
59	0xbce64a70	-0.028111666
60	0x39a8e313	0.0003221264
61	0xbd8da071	-0.069153674
62	0xbcfc6815	-0.030811349
63	0xbd5b20fa	-0.053498246
64	0x3dffa9ba	0.12483545
65	0x3dd1b153	0.102389
66	0x3dd237eb	0.10264572
67	0x3dd1b844	0.10240224
68	0xbdefdf3c	-0.117125005
69	0x3d42bc07	0.047542598
70	0x3d616ed8	0.05503735
71	0xbdb685ea	-0.08912261
72	0x3d43a0e5	0.047760863
73	0xbd830a69	-0.0639847
74	0x3c99888e	0.018741872
75	0x3d1fd812	0.03902442
76	0x3dd0354d	0.10166416
77	0xbd7d357d	-0.06181859
78	0xbdbde46f	-0.09272086
79	0x3ddf5c89	0.109063216
80	0x3d4a7ee4	0.04943742
81	0x3d6a849c	0.057255372
82	0x3d2de745	0.042456884
83	0xbd2ae5c5	-0.04172303
84	0x3d912a9a	0.07088204
85	0xbdd2abea	-0.10286696
86	0x3c86418f	0.016388683
87	0x3d5a657a	0.05331943
88	0x3da4e7d2	0.08052029
89	0xbd712821	-0.05887616
90	0xbda318a9	-0.07963688
91	0x3d350e1f	0.04420292
92	0xbdbfa9f8	-0.09358591
93	0xbdc88c0e	-0.09792338
94	0xbdd915b9	-0.105998464
95	0xbd6a0ba6	-0.057140015
96	0xbcb84509	-0.022493856
97	0xbd8edf78	-0.06976217
98	0xbd4c12d9	-0.049822662
99	0xbdd5b869	-0.10435564
100	0x3d94598f	0.072436444
101	0xbcdd046c	-0.026979648
102	0xbd9848d0	-0.07435763
103	0x3cfb5b34	0.030683137
104	0xbdb47754	-0.088118225
105	0x3da8f2f3	0.08249464
106	0x3d8ac905	0.06776623
107	0xbded2fb7	-0.115813665
108	0xbdbd8ba5	-0.09255151
109	0xbd9f1dfd	-0.07769392
110	0xbd82a80d	-0.063797094
111	0x3c711ea4	0.014716778
112	0xbdeea3c9	-0.11652333
113	0xbdb2e93c	-0.08735892
114	0x3d5cc2d9	0.05389676
115	0xbd1e1971	-0.03859848
116	0xbd402abb	-0.04691575
117	0xbdc7ac00	-0.09749603
118	0x3d43a6b6	0.04776641
119	0x3c0859c8	0.008322187
120	0xbd3a95cc	-0.045553014
121	0xbd93cdee	-0.07217012
122	0x3ccd5254	0.025063671
123	0x3d0357fa	0.032066323
124	0x3d564282	0.05230952
125	0x3d0f744a	0.03502301
126	0xbc9345d8	-0.01797764
127	0xbdbad693	-0.09122958
128	0x3d99a6b7	0.075025015
129	0xba8469c0	-0.0010102317
130	0xbda06779	-0.07832236
131	0x3dd0254b	0.10163363
132	0x3d8691bb	0.06570765
133	0xbdbdb0f5	-0.092622675
134	0xbd7113e6	-0.058856867
135	0xbd244568	-0.040105253
136	0xbd8b5519	-0.068033405
137	0x3d616c4e	0.055034928
138	0xbdac2f28	-0.08407432
139	0x3de04fc9	0.10952718
140	0xbd478628	-0.048711926
141	0x3d8e77e5	0.06956462
142	0x3b83873e	0.004013925
143	0xbd544b90	-0.051829875
144	0x3d1b0ce0	0.037854075
145	0xbe1cd376	-0.15315041
146	0xbe17704c	-0.14788932
147	0xbd9aa152	-0.07550301
148	0x3c70d02a	0.014698068
149	0xbe01623b	-0.12635128
150	0xbea45755	-0.3209788
151	0xbdcd4be2	-0.10024239
152	0xbd491ace	-0.04909783
153	0x3df14fcf	0.117828004
154	0x3e1b8e70	0.15191054
155	0x3de7a7f0	0.113113284
156	0x3e6482e6	0.22315559
157	0x3e393f69	0.18090595
158	0x3dc4db1b	0.096121036
159	0x3e0dac87	0.13835345
160	0x3e580720	0.21096468
161	0x3e37530f	0.17902778
162	0x3dd78f9e	0.1052544
163	0xbc94f030	-0.018180937
164	0xbe023ecf	-0.12719272
165	0xbddddad0	-0.10832751
166	0xbd365d93	-0.044522833
167	0xbd0d0e90	-0.034437716
168	0xbe050298	-0.1298927
169	0x3c3ec636	0.011643937
170	0x3de3c566	0.11121635
171	0xbcc200e1	-0.02368206
172	0x3da591bb	0.080844365
173	0x3cd545d1	0.026034268
174	0xbd04e475	-0.032444436
175	0x3dd05216	0.10171907
176	0x3cfb89e4	0.0307054
177	0xbdb95286	-0.09048943
178	0xbd84b039	-0.06478924
179	0x3d8bcf98	0.06826705
180	0x3e4b684c	0.19864005
181	0x3e8d7e05	0.27635208
182	0x3e261ff7	0.16223131
183	0x3e838853	0.25689945
184	0x3e5e60a7	0.21716557
185	0x3e3eda0e	0.18637869
186	0x3e33026c	0.17481393
187	0x3e9a023d	0.30079833
188	0x3e52675e	0.20547244
189	0xbd0116d7	-0.031515922
190	0x3bb48b7a	0.005509791
191	0x3dea4967	0.11439782
192	0x3d9e2063	0.07721021
193	0xbc8d0a67	-0.017216874
194	0x3dee98da	0.11650248
195	0x3d64d08d	0.055862952
196	0xbd52b66f	-0.051443513
197	0xbdc3a527	-0.09552985
198	0x3d8c3ea4	0.06847885
199	0x3de2e109	0.11078078
200	0xbd8bbb2e	-0.06822811
201	0x3d41b167	0.047288325
202	0x3b0b8b36	0.0021292693
203	0xbcc97bed	-0.024595225
204	0xbcfe0953	-0.031010306
205	0x3d16c19a	0.036805727
206	0x3cdb659c	0.02678185
207	0x3daf3e6e	0.085568294
208	0x3d2b4123	0.041810166
209	0x3d57db92	0.052699633
210	0x3dd4eeaa	0.10397084
211	0x3d12868a	0.035772838
212	0x3c922cfa	0.017843712
213	0xbd3771bc	-0.0447862
214	0x3da5b5b8	0.08091301
215	0x3c5c4fa0	0.013446718
216	0x3e6bf365	0.23042066
217	0xbabbb476	-0.0014320749
218	0x3e4c6822	0.19961599
219	0x3f37f373	0.7185585
220	0xbe00acae	-0.12565872
221	0x3f23f75c	0.64049315
222	0x3e866230	0.26246786
223	0xbe15a1df	-0.1461253
224	0xbe20dd3d	-0.15709396
225	0xbe2afe58	-0.16698587
226	0x3c7affb2	0.015319752
227	0xbd58bb86	-0.05291321
228	0xbd7da115	-0.061921198
229	0x3ce2f536	0.027704816
230	0xbe096fae	-0.13421509
231	0xbe15cbdf	-0.14628552
232	0x3db0711b	0.08615323
233	0xbd993a14	-0.07481781
234	0x3e422c0b	0.18962114
235	0x3cf6196c	0.030041419
236	0x3ea15abd	0.3151454
237	0x3f186895	0.5953458
238	0xbe6ca57b	-0.23110001
239	0x3f157ce7	0.5839371
240	0x3d9781e6	0.07397823
241	0xbd3eb1eb	-0.046556395
242	0xbe6d3250	-0.23163724
243	0x3dd6006f	0.104493015
244	0xbdebaa57	-0.11507099
245	0xbd602f66	-0.054732703
246	0x3cabb54c	0.020960473
247	0xbdf27041	-0.11837817
248	0xbd94c71a	-0.07264538
249	0x3e648333	0.22315674
250	0xbd08d837	-0.033409324
251	0x3cf8e4fc	0.030382626
252	0xbe82352c	-0.25431192
253	0x3e5a4001	0.21313478
254	0xbd45f1cc	-0.0483263
255	0xbe2029b7	-0.15640913

conv3.bias f4 [16]
0	0xbd41c3da	-0.04730592
1	0xbbedecbd	-0.0072608874
2	0x3f02b241	0.51053244
3	0x3e4a1f7b	0.19738571
4	0xbdd839fd	-0.105579354
5	0x3d12a97f	0.035806175
6	0x3b888ff0	0.0041675493
7	0xbd8f945e	-0.07010721
8	0x3e8e1661	0.2775145
9	0xbc58e24c	-0.013237547
10	0xbdeb370a	-0.11485107
11	0xbcae4181	-0.02127147
12	0x3e5aceaa	0.21367899
13	0xbe03dc2a	-0.12876955
14	0x3dd28562	0.10279347
15	0x3d48c6c3	0.04901768

conv4.weight f4 [32, 16, 3, 3]
0	0x3d49fd98	0.04931411
1	0x3d858253	0.06518998
2	0x3d3f5067	0.046707537
3	0x3e151ec9	0.14562525
4	0xbca5df1d	-0.02024799
5	0x3e05b147	0.13055907
6	0x3c00615b	0.007835711
7	0xbd137ccd	-0.03600769
8	0x3dd63126	0.10458593
9	0x3da5ffe9	0.081054516
10	0x3b905b00	0.0044053793
11	0xbd984ce8	-0.07436544
12	0x3d3b5892	0.045738764
13	0x3d992aa1	0.07478834
14	0x3d8f13c7	0.06986194
15	0x3b80ca90	0.0039303973
16	0x3c803f7c	0.015655272
17	0x3c5cf3e0	0.013485879
18	0xbde8eb12	-0.11372961
19	0xbd6df75c	-0.05809723
20	0x3cf07ffb	0.0293579
21	0xbdc6fd02	-0.09716226
22	0x3d4c942e	0.049946003
23	0xbd4e7011	-0.050399844
24	0xbdeb8901	-0.11500741
25	0xbdff91df	-0.124789946
26	0xbdcc9f04	-0.09991267
27	0x3e66c2d0	0.22535253
28	0xbb95a24c	-0.0045664664
29	0x3e0c0076	0.13672051
30	0x3e82ab3b	0.25521263
31	0x3e169eba	0.14708987
32	0xbd43a4e4	-0.047764674
33	0xbdc9d850	-0.098557115
34	0x3e0a0580	0.1347866
35	0xbe10a091	-0.14123751
36	0x3b0ffaba	0.0021969513
37	0xbdeef003	-0.11666872
38	0x3cf29e41	0.029616477
39	0x3d5d5ee3	0.05404557
40	0xbc8f70f5	-0.017509917
41	0x3e261d40	0.16222095
42	0xbdbe76ec	-0.09300026
43	0xbddd9235	-0.108189024
44	0x3d682cc3	0.056683313
45	0x3e06d058	0.13165414
46	0x3d5e1d2a	0.05422703
47	0x3d9a8e6a	0.075466946
48	0xbc62356c	-0.013806682
49	0x3de44c5e	0.111473784
50	0x3e0467cc	0.1293022
51	0xbd754120	-0.05987656
52	0x3d87ee75	0.06637279
53	0x3dfd7b10	0.12376988
54	0x3d1eb79e	0.03874933
55	0xbd76a1d6	-0.060212933
56	0x3bda0c50	0.0066543
57	0x3c028648	0.007966585
58	0xbda4dbac	-0.080497116
59	0x3c90df64	0.017684646
60	0xba91bdc0	-0.0011119172
61	0x3d84615d	0.06463883
62	0xbda2e68f	-0.07954132
63	0x3d861f15	0.06548897
64	0xbdceaeaa	-0.10091908
65	0x3db2248d	0.08698378
66	0x3dfa142d	0.122108795
67	0x3d4f0bf8	0.050548524
68	0xbe0cfb77	-0.13767801
69	0xbdbcd7b0	-0.092208266
70	0xbcaa9fb1	-0.0208281
71	0xbdb27a34	-0.08714715
72	0x3dbf92f9	0.09354205
73	0x3c1032b3	0.00880115
74	0xbda904ca	-0.082528666
75	0x3cb02210	0.021500617
76	0x3d4da5ab	0.05020682
77	0xbcc9f01f	-0.024650631
78	0x3d99b312	0.07504858
79	0x3d8b4a8a	0.068013266
80	0x3cb003ca	0.021486182
81	0xbd101d2f	-0.03518408
82	0xbb2fd26d	-0.0026828304
83	0x3d1b3e25	0.037901063
84	0xbd10511b	-0.0352336
85	0x3d86eda3	0.06588294
86	0x3df01d57	0.11724346
87	0x3d12de8f	0.03585678
88	0x3d987b2e	0.0744537
89	0xbcc356e4	-0.023845144
90	0xbd5c6691	-0.053808752
91	0x3d4e16b2	0.050314613
92	0x3dad29e0	0.08455253
93	0x3d5fc4db	0.054631095
94	0xbc9322e6	-0.017960977
95	0xbce4588e	-0.027874257
96	0xbc85ae8e	-0.016318586
97	0x3d5f0f95	0.05445822
98	0xbc221960	-0.009893745
99	0xbb89dcca	-0.0042072283
100	0x3d44a364	0.048007384
101	0xbcfa4e1d	-0.030554825
102	0x3da63a55	0.08116595
103	0x3bf3aedf	0.0074366177
104	0xbc4f4c62	-0.012652488
105	0xbd7478ea	-0.059685625
106	0x3d172b9d	0.036906827
107	0x3df654bf	0.12027883
108	0xbdf63cba	-0.120233014
109	0xbc20567c	-0.0097862445
110	0xbddcbedb	-0.1077859
111	0xbdebb9ed	-0.11510072
112	0x3e12378e	0.14279005
113	0x3d243f0d	0.040099192
114	0xbda22674	-0.079174906
115	0x3da765a2	0.08173682
116	0x3d472542	0.048619516
117	0xbda7436a	-0.08167155
118	0xbde32cad	-0.110925056
119	0xbd88e5f5	-0.06684486
120	0xbdd2e11b	-0.10296842
121	0xbe28036c	-0.16407555
122	0xbdf5a766	-0.11994819
123	0x3d89b9bd	0.0672488
124	0xbdf289ce	-0.118426904
125	0xbdc41e08	-0.095760405
126	0xbc15a956	-0.009134611
127	0xbdc3c2c6	-0.095586345
128	0xbe98891a	-0.297921
129	0xbd17cef8	-0.037062615
130	0x3c680f66	0.0141638275
131	0x3cf2ff30	0.029662699
132	0x3d047074	0.032333806
133	0x3ce1fb16	0.027585547
134	0x3e2cb464	0.16865689
135	0xbe5d729a	-0.21625748
136	0xbe78e55e	-0.24306247
137	0x3e84a072	0.2590366
138	0xbdd6527d	-0.10464952
139	0xbe520df0	-0.20513129
140	0x3da759b1	0.08171404
141	0x3d850f48	0.06497055
142	0xbd22c15b	-0.03973518
143	0x3dbf3fa2	0.09338309
144	0x3e076175	0.1322077
145	0x3e929bbb	0.28634438
146	0x3e104819	0.14090003
147	0xbd754a9d	-0.05988561
148	0x3daa1335	0.08304445
149	0xbe361e7a	-0.17785063
150	0x3da3576b	0.07975658
151	0xbdcef40f	-0.10105144
152	0xbd1cac0a	-0.038250007
153	0xbd8d01de	-0.06885122
154	0xbd1186ee	-0.03552907
155	0x3d81994e	0.06328069
156	0xbcfaad11	-0.030600103
157	0xbcc4849a	-0.02398901
158	0x3d1913ef	0.037372526
159	0xbcac53a6	-0.02103598
160	0x3c48544e	0.012227131
161	0xbdaa949f	-0.083291285
162	0xbddc00e5	-0.10742358
163	0xbe302680	-0.17202187
164	0xbd008f79	-0.031386826
165	0xbe4c2eec	-0.19939774
166	0xbddd73e3	-0.10813119
167	0x3da50490	0.08057511
168	0xbe822500	-0.25418854
169	0xbd8f09f8	-0.06984323
170	0xbde56849	-0.112015314
171	0x3d88d8b2	0.06681956
172	0x3d32885d	0.043587077
173	0x3db1e807	0.08686834
174	0x3d8fb38e	0.07016669
175	0x3d21adbb	0.039472323
176	0x3e58ffbf	0.2119131
177	0xbab7e697	-0.0014030513
178	0x3cba78c1	0.022762658
179	0xbdaa5ce8	-0.08318502
180	0xbdb3be2b	-0.08776506
181	0x3c94d6a7	0.01816876
182	0xbdfa93b1	-0.12235201
183	0x3dccf648	0.10007912
184	0x3df99e3b	0.12188383
185	0xbe01d04d	-0.12677117
186	0xbc43ced2	-0.011951165
187	0x3c768c6d	0.015048129
188	0xbdd57556	-0.10422771
189	0xbcff091c	-0.031132273
190	0xbe03620e	-0.12830374
191	0x3dc26924	0.0949271
192	0x3e0a2230	0.13489604
193	0x3e04225c	0.12903732
194	0x3df5dc17	0.120048694
195	0x3e2ad540	0.16682911
196	0xbd98cf35	-0.074613966
197	0x3e08c565	0.1335655
198	0xbd0cdceb	-0.03439037
199	0xbc6f6d88	-0.014613517
200	0x3d908529	0.07056648
201	0xbce5c5e0	-0.028048456
202	0x3d36ffee	0.044677667
203	0x3c9266fc	0.017871372
204	0x3cf0f730	0.029414743
205	0xbc9c15d0	-0.01905337
206	0xbd915bd7	-0.07097595
207	0x3c56ad1f	0.013102799
208	0x3d9f1fea	0.07769759
209	0xbd990e53	-0.07473435
210	0xbde3ee93	-0.11129489
211	0xbd425c8b	-0.047451537
212	0x3e4718a1	0.19442989
213	0xbecb2219	-0.39674452
214	0xbe39b3cb	-0.18134992
215	0x3e54f419	0.20796241
216	0x3d0706ab	0.032965343
217	0x3db0effb	0.08639523
218	0x3d01342a	0.03154389
219	0x3c35c0c2	0.01109332
220	0x3c9073d6	0.01763336
221	0x3d6c8a1a	0.05774889
222	0x3e076625	0.13222559
223	0xbca6e9bb	-0.020375123
224	0x3e07cd81	0.13261987
225	0x3df34cf3	0.11879911
226	0x3d9539c2	0.07286407
227	0x3d66da79	0.056360696
228	0xbd568cb5	-0.052380282
229	0x3da8195a	0.082079604
230	0xbd54aad7	-0.051920738
231	0x3d0bddc4	0.03414704
232	0xbd429b08	-0.04751113
233	0x3d99e208	0.07513815
234	0xbc7d8aec	-0.015475016
235	0x3e04d3da	0.1297144
236	0x3dd10044	0.10205129
237	0xbde2ba3e	-0.11070679
238	0x3db996ac	0.090619415
239	0xbdde299a	-0.108477786
240	0x3d5ebe71	0.054380838
241	0xbbda67ca	-0.0066652047
242	0x3e0ac362	0.13551095
243	0x3d6565c4	0.056005254
244	0xbd5b0d1d	-0.053479303
245	0x3d90d887	0.07072549
246	0x3cb7cbd4	0.02243606
247	0x3dd4e931	0.1039604
248	0x3c6224ac	0.013802689
249	0xbd899d53	-0.0671946
250	0xbdc07427	-0.09397154
251	0x3ce0fdb8	0.027464733
252	0x3cb49c94	0.022047319
253	0xbe0de4ea	-0.13856855
254	0xbd535ff0	-0.051605165
255	0xbdc0ded0	-0.09417498

conv4.bias f4 [32]
0	0xbd9e9c52	-0.077446595
1	0x3d447d8a	0.047971286
2	0x3e022dcf	0.12712787
3	0x3e3de5e3	0.18544726
4	0xbda93413	-0.082618855
5	0x3e0157a7	0.12631093
6	0x3ea1e4e5	0.31619945
7	0xbd8d1d66	-0.06890373
8	0x3e9d025b	0.3066586
9	0x3d08d0c1	0.03340221
10	0xbd415a2c	-0.047205135
11	0xbd3c1b47	-0.04592445
12	0x3d0b2de0	0.033979297
13	0xbd0c565b	-0.034262042
14	0x3a3b19a2	0.00071373035
15	0x3e08fdb2	0.13378027
16	0x3e62aef0	0.22137046
17	0x3dbc0fb7	0.09182685
18	0x3e08dbee	0.13365147
19	0xbd46d5ab	-0.048543613
20	0x3cd96319	0.026536511
21	0x3d509479	0.050922845
22	0xbd7e6b3d	-0.06211399
23	0xbca9429e	-0.020661648
24	0xbd20d9c9	-0.039270196
25	0xbdbb552c	-0.091471046
26	0xbd8020c9	-0.06256253
27	0x3d9e5a68	0.077320874
28	0xbd495b71	-0.04915947
29	0x3dd0ddf9	0.10198588
30	0xbd0bf667	-0.034170534
31	0xbd50ea5f	-0.051004764

conv5.weight f4 [10, 32, 3, 3]
0	0xbd95beb4	-0.07311764
1	0xbd05fd9f	-0.032712575
2	0x3b502fc6	0.0031766756
3	0x3e01b5fb	0.12667076
4	0x3e441c9d	0.1915154
5	0x3e463ffe	0.19360349
6	0xbdbe9de2	-0.093074575
7	0xbdd9dd95	-0.106379665
8	0x3d8144a5	0.06311921
9	0xbe7160bb	-0.23572056
10	0x3cf83e34	0.030303098
11	0x3e8fc932	0.28083187
12	0xbe082831	-0.13296582
13	0x3e442830	0.19155955
14	0x3ec5fc84	0.38669217
15	0xbe844120	-0.25830936
16	0xbe6a92cc	-0.22907561
17	0xbe3c0522	-0.18361333
18	0xbda1a37e	-0.07892512
19	0xbe213042	-0.15741065
20	0xbe71e0b1	-0.23620869
21	0xbd90670b	-0.07050904
22	0xbd93471e	-0.07191299
23	0xbef7ee25	-0.48423877
24	0xbd02baec	-0.031916544
25	0xbd08eb1b	-0.03342734
26	0x3d3d0204	0.0461445
27	0xbc82d331	-0.015969845
28	0x3d99bb9d	0.075064875
29	0xbe15486e	-0.14578411
30	0xbdee05d0	-0.116222024
31	0x3d2ebe3a	0.042661883
32	0xbdbf4938	-0.09340137
33	0xbe2acf30	-0.16680598
34	0xbd261432	-0.040546604
35	0xbdd83149	-0.105562754
36	0xbd0fb4d1	-0.03508455
37	0xbd0eb2eb	-0.0348386
38	0x3aa44fac	0.0012535951
39	0xbd067863	-0.032829653
40	0xbd3e5a19	-0.046472643
41	0xbd684377	-0.056704964
42	0x3d6b97e8	0.057517916
43	0xbd5773bc	-0.052600607
44	0xbd2e7b0f	-0.042597827
45	0xbdadbef8	-0.0848369
46	0x3e2547af	0.16140626
47	0x3dbf4a15	0.09340302
48	0xbcf16f5b	-0.029472044
49	0x3c965264	0.018349834
50	0x3bc7ac6c	0.0060935523
51	0xbd728ce3	-0.05921639
52	0x3df9692e	0.121782646
53	0xbd65203d	-0.055938948
54	0xbc8ae32c	-0.016954027
55	0xbd829ffe	-0.06378172
56	0xbd9841fb	-0.0743446
57	0x3e8927ac	0.2678808
58	0x3ec88975	0.3916737
59	0xbd85f6b0	-0.065411925
60	0xbe7438bf	-0.23849772
61	0xbe8a3682	-0.2699471
62	0xbea92a2d	-0.3303999
63	0x3e80a3a4	0.25124848
64	0x3ce279f0	0.027646035
65	0x3e0d130f	0.13776802
66	0x3d260070	0.04052776
67	0x3e3ae9cb	0.18253247
68	0xbe20f239	-0.157174
69	0xbda95181	-0.08267499
70	0xbd981c2a	-0.07427247
71	0xbe615405	-0.22004707
72	0x3d4f7668	0.05065003
73	0x3e2a324c	0.16620749
74	0xbe2e4c70	-0.17021346
75	0xbd0625b3	-0.032750797
76	0x3d4a978c	0.049460933
77	0xbae4165c	-0.0017401683
78	0xbe447ed6	-0.19189009
79	0x3bafa0c5	0.0053597414
80	0xbd972a8d	-0.07381163
81	0xbd876e47	-0.066128306
82	0x3de449c2	0.11146881
83	0x3d5a7d89	0.053342376
84	0xbd105b8a	-0.03524355
85	0xbdf8d57c	-0.12150094
86	0x3d0a786d	0.033806253
87	0xbcbf8c6b	-0.023382386
88	0x3e00695b	0.1254019
89	0x3d9337ba	0.071883634
90	0xbe1f8332	-0.15577391
91	0x3e444b22	0.19169286
92	0x3c61ab5a	0.013773764
93	0xbd0ca333	-0.034335326
94	0xbd7fb305	-0.062426586
95	0xbde1476a	-0.10999949
96	0xbdddf3ab	-0.108374916
97	0x3e0a7eb1	0.13524891
98	0x3e34379a	0.17599335
99	0xbd9fe853	-0.07807984
100	0xbe408250	-0.1879971
101	0xbe7b5c62	-0.2454696
102	0xbd914390	-0.07092965
103	0xbe12701b	-0.14300577
104	0xbebabc92	-0.36471993
105	0x3daa04de	0.083017096
106	0xbd3666ff	-0.04453182
107	0xbd9c672c	-0.07636866
108	0xbcb8c0a6	-0.0225528
109	0xbe1208e1	-0.142612
110	0xbe65e7ac	-0.22451657
111	0xbe3198aa	-0.17343393
112	0xbe8e5283	-0.27797326
113	0xbe63a192	-0.22229603
114	0xbdf166c6	-0.117871806
115	0xbdd02d45	-0.101648845
116	0xbdeb50ef	-0.11490046
117	0xbd26db07	-0.040736225
118	0x3d2f2f43	0.04276968
119	0xbc7762c8	-0.015099235
120	0x3c289f2f	0.010291859
121	0xbdab6b55	-0.08370081
122	0x3d670088	0.05639699
123	0xbd9c64fd	-0.076364495
124	0xbd6fe775	-0.058570344
125	0xbd2d8024	-0.042358533
126	0xbd1bc002	-0.03802491
127	0x3ce499ab	0.027905306
128	0x3d65dd41	0.056119207
129	0xbd84b22f	-0.06479298
130	0xbc5c47a7	-0.013444818
131	0x3e40ded2	0.18834999
132	0xbd89e443	-0.067329906
133	0x3d5ceec7	0.053938653
134	0xbd6a3ca5	-0.05718674
135	0x3dc1dcdb	0.09465953
136	0x38d63918	0.0001021495
137	0xbcb166d5	-0.02165548
138	0x3bb0b43d	0.00539258
139	0xbd3cb099	-0.046066854
140	0x3d73887d	0.059456337
141	0xbddf06d7	-0.108899765
142	0xbd29751c	-0.04137145
143	0x3e14961c	0.14510387
144	0xbd9a6e4d	-0.075405695
145	0xbea37cc9	-0.3193114
146	0xbee1b6f2	-0.4408489
147	0xbe57b217	-0.2106403
148	0xbe6a0279	-0.22852506
149	0x3e1f1663	0.15535884
150	0xbd3e7589	-0.04649881
151	0x3c2fb0f0	0.0107233375
152	0x3e3460b7	0.17615019
153	0xbe50c107	-0.20386134
154	0x3c887086	0.016655218
155	0x3eb8617e	0.3601188
156	0xbe0c9671	-0.13729264
157	0x3cefce4e	0.029273178
158	0xbd3da912	-0.046303816
159	0x3d58d7ae	0.052940063
160	0x3d859f8f	0.06524574
161	0x3d290291	0.041262213
162	0x3e23676d	0.15957423
163	0xbd57be0c	-0.052671477
164	0x3cd95275	0.026528576
165	0x3e52de86	0.20592698
166	0xbe206f58	-0.15667474
167	0x3c8ad428	0.016946867
168	0x3da6d912	0.081468716
169	0x3ce8dbef	0.028425185
170	0xbd2296a8	-0.03969446
171	0x3cc036e8	0.023463681
172	0x3d55e132	0.052216716
173	0xbe1c256a	-0.15248647
174	0x3d6a9a03	0.057275783
175	0x3c582e24	0.0131945945
176	0xbd03a245	-0.032137174
177	0xbba5e097	-0.0050621736
178	0x3e061bf4	0.13096601
179	0x3e1b630e	0.15174505
180	0xbc64538f	-0.013935938
181	0xbe21a2cc	-0.15784758
182	0xbe510559	-0.20412196
183	0x3dab9b18	0.08379191
184	0xbc5c7d0b	-0.013457547
185	0x3d4fff59	0.050780628
186	0xbe01be6d	-0.12670298
187	0xbda3cfdd	-0.07998631
188	0x3edef009	0.43542507
189	0xbe1a4594	-0.15065604
190	0xbe680579	-0.22658338
191	0xbdb76665	-0.08955077
192	0xbd45d918	-0.04830274
193	0x3c8af118	0.016960666
194	0xbe62864e	-0.22121546
195	0x3e4483e4	0.19190937
196	0x3e7715bb	0.24129383
197	0x3e1013a6	0.14069995
198	0xbe6a6877	-0.22891413
199	0x3d9fd4d0	0.07804263
200	0x3cd94623	0.026522702
201	0xbe39e838	-0.1815499
202	0xbde01caf	-0.10942971
203	0x3c68bf27	0.0142057305
204	0xbec3d8a6	-0.38251227
205	0xbe5f909f	-0.21832512
206	0xbe2cd312	-0.16877392
207	0x3ca76873	0.020435547
208	0x3e73bde2	0.23802903
209	0x3e76a861	0.24087669
210	0xbe20ec2d	-0.15715094
211	0x3daf091a	0.08546658
212	0x3e80b639	0.25139025
213	0xbe6e789f	-0.23288201
214	0x3d443060	0.047897696
215	0x3d5df370	0.05418724
216	0x3dac74d8	0.08420724
217	0xbdd54f34	-0.104154974
218	0xbd492147	-0.049104
219	0x3d45defb	0.048308354
220	0x3d059cec	0.032620355
221	0x3df81937	0.12114184
222	0xbd8275f1	-0.06370152
223	0xbd2f2157	-0.042756405
224	0x3dc5e8ac	0.09663519
225	0x3cc3e7a9	0.023914175
226	0x3ddc50f4	0.10757628
227	0x3defef64	0.11715582
228	0xbdec2511	-0.11530507
229	0xbdc44322	-0.09583117
230	0x3c353d32	0.011061953
231	0x3d22b6d4	0.03972514
232	0x3e3efa6a	0.18650213
233	0x3e6a19bb	0.22861378
234	0xbca2ca2e	-0.019871797
235	0x3c9b8272	0.0189831
236	0xbeb1051c	-0.3457421
237	0xbd89e5a1	-0.06733251
238	0xbdfa4212	-0.12219633
239	0xbd8fccfd	-0.0702152
240	0xbe1a5bb4	-0.15074044
241	0xbdb1e70b	-0.08686646
242	0x3d1adf43	0.037810575
243	0xbd3545b7	-0.04425594
244	0xbe24a415	-0.16078217
245	0x3e7c547b	0.24641602
246	0x3d9b038b	0.07569035
247	0xbe9160ae	-0.28394073
248	0x3e632f8e	0.2218611
249	0x3d9620cf	0.073304765
250	0xbc924334	-0.01785431
251	0x3c567881	0.013090254
252	0x3cba6c16	0.022756618
253	0x3e0311f8	0.12799823
254	0x3c5d5c8f	0.013510837
255	0xbd28138f	-0.041034278

conv5.bias f4 [10]
0	0xbdb3e284	-0.08783439
1	0x3e685a5d	0.22690721
2	0x3cdd90c7	0.027046574
3	0xbcca34d3	-0.024683392
4	0xbc2a2a6c	-0.010386091
5	0x3cfa2e05	0.030539522
6	0xbcaf24d6	-0.02137987
7	0xbc258f65	-0.010104989
8	0xbdec4267	-0.11536103
9	0xbd392a5a	-0.045206405
