R7models/BaseR7seed8.pt (torch_old, 38047 bytes, 10 tensors)

conv1.weight f4 [4, 3, 3, 3]
00000000: 3367 ca3f d748 963f 30c0 973f edc5 a63f
00000010: d527 383f 3d7a 4f3f 0659 c03f 967c c93e
00000020: 394a 373f 650f 15be 59c9 243e 564f 8e3d
00000030: 1478 ecbd d4e1 18be 0b4d 44be 2dd4 1a3e
00000040: 0233 f03d 8961 c1bd 40ea 47bc 76c3 02be
00000050: e091 01be 6024 823b 92f7 1abe 60b2 0f3d
00000060: 9a05 e43d 2368 23be 0447 50bd 80c7 16bc
00000070: 6489 5a3d e0e6 a3bc c0bc 25be ddfd 8dbd
00000080: 04ce 43be a861 f0bc f52e 98bd 217e 323e
00000090: 98c6 a9bc 0238 d93d b7ea 3fbe 50a8 0dbd
000000a0: d3be 083e 1a65 e33d c014 353d 6209 f5bd
000000b0: 0624 b63d 6d99 343e f0aa 59bc 5a58 d63d
000000c0: b777 05be 5a73 9c3d c09b 813c bfce 2a3e
000000d0: fe41 d53d dd1c 3a3e 47e7 17bf 0fee b2be
000000e0: 5a2d d9be 1d1f e8be 7f9d 81be dc6e 97be
000000f0: 5dc9 0bbf f4a7 83be e16c afbe 0edd bcbd
00000100: c0a6 203c 40cd 41be b80e 453d 897b 413e
00000110: a402 83bd 727e e2bd 153d 063e a07e 253c
00000120: 5e90 a83d 67af 0fbe 2c11 07be d620 94bd
00000130: 915b 29be 8ae4 8cbd c4c8 2ebd 1ad0 993d
00000140: e07d 053d 5a97 15be 633f 143d a233 85bd
00000150: 819e d43d 2bd3 573e ec26 e3bd f4bc f2bc
00000160: a47f bd3d 772b f43d 0b22 aabd 9fc2 353e
00000170: 1e42 25be 290a 1f3e c00f 00bb a178 163e
00000180: e3e9 353e 4e2c a7bd 2e0f aabd 361d ea3d
00000190: 7a36 01be 10bf 283c a083 253c b074 14be
000001a0: e73c 15be f1b9 0c3e 60e0 693d 0080 1639
1.5812744 1.1740979 1.1855526 1.3029152 0.7193578 0.81045896 1.5027168 0.39352864
0.7159763 -0.14556654 0.16092433 0.06948726 -0.115463406 -0.14929897 -0.19170015 0.15120001
0.11728479 -0.094424315 -0.012201846 -0.12769875 -0.12653303 0.0039716214 -0.15133503 0.03508222
0.11133881 -0.15957694 -0.050848976 -0.009202838 0.053353682 -0.02000755 -0.16185284 -0.06933186
-0.19121557 -0.029343441 -0.07430831 0.17430927 -0.02072458 0.10606386 -0.1874188 -0.034584343
0.13354044 0.11103268 0.044209242 -0.1196468 0.0889359 0.17636652 -0.013285384 0.104660705
-0.13033949 0.07639189 0.015821338 0.1668043 0.10412978 0.18175073 -0.59337276 -0.3494725
-0.42417413 -0.45336238 -0.25315472 -0.29576766 -0.5460413 -0.25714076 -0.34262756 -0.0922185
0.009805381 -0.18925953 0.04810974 0.18894781 -0.06396988 -0.11059274 0.13109238 0.0101009905
0.08230661 -0.14031754 -0.13190144 -0.072328255 -0.16538836 -0.06879528 -0.042671934 0.07510395
0.032590747 -0.14608517 0.036193263 -0.06503989 0.10381795 0.21076648 -0.11091408 -0.029631115
0.09252861 0.11922353 -0.083072744 0.17750023 -0.16138503 0.1553122 -0.0019540638 0.14694454
0.17765002 -0.08162747 -0.083036765 0.11431353 -0.12618437 0.010299459 0.010102183 -0.14497638
-0.14574014 0.13742806 0.057098746 0.00014352798

conv1.bias f4 [4]
00000000: af9f 303e 53e9 43be e208 8f3f 6bdb a0bd
0.17248414 -0.19131975 1.1174586 -0.07854351

conv2.weight f4 [8, 4, 3, 3]
00000000: e2aa 9e3f 09a1 573f 9ebc 583f 7b71 9b3f
00000010: c022 1d3f af9c 353f cf13 b23f 292d 493f
00000020: adf0 1f3f 09a0 093e 7015 31bc 7b07 053e
00000030: b866 8e3d f643 7abd c870 843c 5e9a 923d
00000040: 381f 9cbd 38ca b9bc 76dd cdbe ce09 00be
00000050: 3f7b 67be f824 bbbe 98d8 05be f7d2 cebd
00000060: 4a43 8bbe 8743 1bbe e5ea 9abd 6e6c 04be
00000070: 0e6d 4dbc 9173 273e b82a 5d3d c652 3a3d
00000080: 1177 e13c 644c c0bd ce3a 473d ad4c 343e
00000090: 619a 12bb 7a24 24be 80e0 a4bd 6407 35bd
000000a0: 9663 ef3d ef88 15bd 7676 d63d 2824 38bd
000000b0: 301d 163d f812 20be 406b 0cbb 4ccd 24be
000000c0: de88 b33d f61b 1ebe 7ec8 11be 30e6 3a3d
000000d0: 7803 cdbc 3acc e43d a968 1b3e d360 6f3d
000000e0: d085 0fbc fe60 163e e419 653d 40f8 313e
000000f0: 3282 8e3d b890 dfbd 56a4 ecbd be76 613d
00000100: 11bb acbc 350e 103e 41f7 d8bd 00f8 923d
00000110: 35f0 b23d d3c2 cb3d f985 533d f486 b1bd
00000120: 5b97 e03e 29ba 573e 6473 bb3d cf6c c93e
00000130: f2b4 193e 1afe 793d 54a0 3e3e c150 733e
00000140: 31ce 143d 7d9a 073e 0c00 5d3d ca96 b03d
00000150: 03ac febd 5aee b53d 5fca 003e f055 283c
00000160: 40bb 2d3c 68a8 9bbc 2cea 00be 218a cdbd
00000170: 19a9 153e bd20 06be 3ba5 02be c470 efbc
00000180: de50 823c d41b 0e3e d2bd ecbd c690 43bc
00000190: efc8 14bc 69a3 e63c c3d9 dfbd a14f 11be
000001a0: 1ca7 e3bd d41a 2d3e 0efe 80bd 432e 093e
000001b0: d82c 1ebc a885 f03d c200 eebd efaf 6d3d
000001c0: 7521 30bd 36c6 30bd 6f1e d7bd 13a6 443d
000001d0: c7fe e4bd a6d1 f0bd 6411 693d 7678 7bbd
000001e0: c4cc 103d f283 d53d 7db1 223e 632a 223e
000001f0: b273 da3d e8b1 ce3c 562d 0a3e 8fc4 033e
00000200: 9db5 1fbc 39ce a0bc 2d25 ab3c 1066 a0bd
00000210: 0408 3ebd 8894 ce3d 46e2 18be 44af 163d
00000220: 1b6b b8bd 9edd bc3d 1ded 103e c169 1a3e
00000230: 4a38 1ebe 7832 c0bd 838f b5bd 30f4 29be
00000240: 4c56 3bbf 6bf0 cabe 7c78 21bf 7575 e4be
00000250: aa09 d3bb 487d 83be 601a e9be 8c84 d1bd
00000260: be84 67bd a060 54bd dfd2 253e 9421 1e3d
00000270: 3a32 09be 8117 213e 045c 113d a359 12be
00000280: 8070 50bd 26f4 36bd e965 353f 1d0b e23e
00000290: d276 073f 3aa8 cf3e dd99 de3e 59ed ec3e
000002a0: a376 fe3e ccf9 b33e 0898 eb3e b315 873d
000002b0: ed99 4b3c 94ca 073e 343d df3d 9783 0d3e
000002c0: 6731 d8bd b5ce 86bd be17 78bd 5395 e5bd
000002d0: 3c26 973d 5aa0 04be d5f5 b8bd f28e bd3d
000002e0: ba1c 10bd b3c9 2cbe a6c2 003e 92e6 08bd
000002f0: ed97 103d 7064 10bd c692 6ebd 32bb 9d3d
00000300: 3e69 eb3d 804c f6bc 8d48 0b3e e614 bdbd
00000310: 0090 5bbb 50fc 373c 53a7 8dbd 7e91 a53c
00000320: 0fcc d3bd 8bf7 323d f509 b637 6534 1b3d
00000330: ba71 1ebd b84b 183e a037 2a3c 167c b8bb
00000340: c62e 9fbd ceef 3b3d ee4d 0d3e 6d92 0f3e
00000350: 88a7 15be 1ed1 ffbc 02ff 123e 2d6c 2a3e
00000360: 8874 e3bd 0a64 a23d 208b bdbd 3345 1bbe
00000370: fa75 a83d def2 90bd 8ef5 883d 7c60 68bd
00000380: 605c c33b 883b ef3c 8b12 e5bd 2046 00bd
00000390: 1ed2 9c3d 5050 4bbd 78e5 25be 90b9 0bbe
000003a0: 090f 0b3e 4cd0 21bd 00d2 9eb9 86a0 22be
000003b0: 6001 85bc 4c1c 75bd eb6e 053e 4078 51bc
000003c0: ce8b ebbd aecb aebd 01f8 0f3e 0546 0f3e
000003d0: 20d4 bfbc 9e7c b73d c0d4 70bb b009 d2bd
000003e0: 1a72 ee3d 2729 213e 27c9 16be e0cd edbb
000003f0: 0bef 0bbe 5882 cf3d c05e 1b3e 4c7c d0bd
1.2395899 0.84230095 0.84662807 1.2144006 0.6138115 0.70942205 1.3912295 0.78584534
0.6247662 0.13439955 -0.010808334 0.12991135 0.06953186 -0.06109997 0.01616706 0.071583495
-0.07623142 -0.022679433 -0.40208024 -0.1250374 -0.22605608 -0.36551642 -0.13070905 -0.10098832
-0.27199775 -0.15162478 -0.07564334 -0.12931988 -0.012538208 0.16352679 0.053995818 0.045489095
0.027522596 -0.0938957 0.048640065 0.17607374 -0.002236985 -0.1602954 -0.080506325 -0.0441965
0.116889164 -0.036507543 0.104718134 -0.044956356 0.03664893 -0.15632236 -0.002142623 -0.1609394
0.0876634 -0.15440354 -0.14236638 0.04562968 -0.025026068 0.111717656 0.15176643 0.05844195
-0.008759931 0.14685437 0.055932894 0.17379856 0.069584265 -0.10916275 -0.11554782 0.055044882
-0.021085294 0.1406792 -0.10594035 0.071762085 0.08737222 0.09949269 0.05164144 -0.086683184
0.43865475 0.21067108 0.091528684 0.39340827 0.15010431 0.061033346 0.18615848 0.23761274
0.036329452 0.13242526 0.053955123 0.08622511 -0.124351524 0.088833526 0.12577198 0.010274395
0.010603726 -0.0190012 -0.1258933 -0.100361116 0.14615287 -0.13098426 -0.12758343 -0.029228576
0.015907701 0.13877803 -0.11559643 -0.011936372 -0.009081109 0.028154092 -0.109302066 -0.14190532
-0.11115858 0.16904765 -0.06298457 0.13396554 -0.009654246 0.11744243 -0.11621238 0.05802911
-0.043000657 -0.04315778 -0.105038516 0.048009943 -0.111814074 -0.11758737 0.05690135 -0.061394177
0.03535153 0.10425557 0.15888019 0.15836482 0.106665984 0.025231317 0.13493857 0.1286795
-0.00974789 -0.019629585 0.02089175 -0.07831967 -0.046394363 0.10086924 -0.14930066 0.03678824
-0.09004804 0.092219576 0.14152952 0.15079404 -0.1545116 -0.09384626 -0.08865263 -0.16597056
-0.73178554 -0.3963655 -0.6307447 -0.44620863 -0.006440361 -0.2568152 -0.45527935 -0.102303594
-0.056523077 -0.05184996 0.16193722 0.03860624 -0.13398066 0.15731622 0.035488144 -0.14292006
-0.05088854 -0.04466643 0.7085863 0.44149104 0.5291568 0.40558034 0.43476763 0.46274832
0.49699888 0.35151517 0.46014428 0.06595936 0.0124268355 0.13260871 0.109003454 0.13819729
-0.10556298 -0.06582395 -0.060569517 -0.11210122 0.073803395 -0.12951794 -0.09031264 0.0925578
-0.035183646 -0.16873817 0.12574252 -0.033423014 0.035301138 -0.035252035 -0.058245443 0.0770172
0.11494683 -0.030065775 0.13601895 -0.09232502 -0.0033502579 0.01122959 -0.0691668 0.020210978
-0.103416555 0.043693107 2.1700727e-05 0.037891764 -0.038682677 0.14872634 0.010389239 -0.0056300266
-0.07772593 0.045882992 0.13799259 0.14020701 -0.1461469 -0.031227645 0.1435509 0.16642828
-0.11106211 0.07929237 -0.092550516 -0.15163116 0.08225627 -0.07077573 0.06687461 -0.05673264
0.0059619397 0.029203191 -0.111851774 -0.031316876 0.07657264 -0.04963714 -0.16200817 -0.13645005
0.13579954 -0.039505288 -0.0003029257 -0.15881547 -0.016236007 -0.05984144 0.13030593 -0.0127850175
-0.11501275 -0.085349426 0.1405945 0.13991554 -0.023416579 0.08959316 -0.0036747903 -0.10255754
0.11642857 0.15738355 -0.14725171 -0.007257208 -0.13665406 0.10132283 0.15172863 -0.10179958

conv2.bias f4 [8]
00000000: 8f5f 0f3f 3d18 eebd 183f 853d 52f3 c4bd
00000010: 0f7c 4f3f 805b 94bd 807c 5cbd 77cf d0bd
0.56005186 -0.11625717 0.06506175 -0.09616722 0.81048673 -0.07244015 -0.05382967 -0.10195821

conv3.weight f4 [16, 8, 3, 3]
00000000: c215 12bf 3101 bebd b89d 02bd 4a38 84be
00000010: c587 90bd e288 0a3f b80b cbbe a39f 1fbd
00000020: 09f5 af3e 85f0 d33d 4811 20bc 7f86 f63c
00000030: 9c46 913d 17a3 58bd 7bea 8abd ec63 ce3d
00000040: 1d9c b33c 39bb 6c3d db59 41be ed0d f1bd
00000050: a80a d4bd 22e0 09be 27e4 d03c 8807 4a3e
00000060: e371 b8bd d0bb a33d f2af 443e 1df2 ddbd
00000070: 959f 9bbc 9c1b d53d 3aa3 643c 55b2 8ebd
00000080: f57a 80bd f9ea 82bd 50f3 99bd bd8d 41bc
00000090: 9027 b83e ec50 8e3e 3b48 133e 111a 683d
000000a0: 0699 d83c cec3 93be 1bac 6d3d e6ee 083c
000000b0: 9344 04be e0fa 033c 5742 103d 6662 8bbd
000000c0: f114 ee3c f1dd 963c bedc 113d aeb6 e6bd
000000d0: cb6b e8bd b465 e03d d0ab cc3b aa56 8cbd
000000e0: fc10 2fbd 2f59 e6bd 658b b23d 97fb 9f3d
000000f0: b3e3 6bbd 4f78 883d dede 04bd 9f8d dcbd
00000100: 2b25 d1bd 06db ef3d f0d4 4c3d e4de a33d
00000110: 0082 abbb f9db f13c cfbd f03d e447 87bd
00000120: 289c 453e 5f7e fabe bbed 843c 1e58 813e
00000130: b7ac 77be d1a6 c4bd aff0 483d 7efb 0fbd
00000140: 7c00 263e cb80 50bd 699e a73d 70d2 be3d
00000150: a807 b9bd 3edc d1bc 367b c13c 9510 833d
00000160: f401 bb3c e5e8 0dbd 0aa8 1b3e 5bab 0ebe
00000170: e271 fcbc 7f13 313e 8d33 dfbd 0c19 08be
00000180: 8080 0c3c 6dc8 cbbd 9c71 083e 3b91 063d
00000190: c5ff d5bd 8e47 88bd 3abd 853b 7882 38bd
000001a0: 8b03 cabd 0ea8 093c 8925 933d e5e0 e5bc
000001b0: 58bf 133e 7aed cb3e b32e 833e 89d3 013e
000001c0: 2431 b33e 62ea 4e3d 643d 443e c35f 7f3e
000001d0: 25ab 133e 1f73 24bd 94b8 9dbc b49f 50bd
000001e0: 74c2 04be de54 873d bf97 463d 77f4 d0bd
000001f0: 4973 97bd 3f19 7ebd 988d 713c ab91 9e3d
00000200: 21f4 e93d 0f30 a63d 630e ef3d f928 e33d
00000210: ca75 7f3d dfd8 d43d 3df3 8b3d 079e 8ebd
00000220: 5ecb ad3d e4b5 b13d be32 efbd 5e5b 473d
00000230: b6ec 6bbc 35e6 fbbd 11ed 313d 035e 7b3d
00000240: 61ff 043d 3186 25bd 663c 96be bfbd 083f
00000250: 38a7 82bd c6bd b6bd c0ac cd3e c7fe adbb
00000260: b3fa a1be 1d0a 0b3d 32e8 79bd c69e f13d
00000270: 9fa6 e7bd 0e13 b5bd 08a8 95bd 8d6c 053d
00000280: 0a0c 9f3d 87df 963d b3e3 033e f3b7 39bc
00000290: e3e7 c2bd 2f61 603e 9c43 e3bd 7dcf 94bd
000002a0: 71a1 b23d 4e03 1e3d acaa a7bd e5a7 3c3d
000002b0: cecb b03c fc21 ef3d 1cef 43bd dc3b 72bd
000002c0: 967e 703d 25ce 6f3d efeb a2bd fa24 e53d
000002d0: 089b 8bbd 8d8b 583e e680 483e 6869 9dbe
000002e0: 5522 1f3e 2c03 013e 11f8 5dbe fcec 203e
000002f0: d62a 6d3e d400 57bd 44d9 00be d290 c93d
00000300: f4f9 11bd fead 413d 8394 d13b 909d 7cbd
00000310: 91de c2bc 21ca 0bbd 9620 b9bd 394d d1bd
00000320: bc32 58bd 3570 b03d 0058 14bc b9cb e83d
00000330: 4107 d63d bcf0 b9bd 98c6 5e3c 69bc 433d
00000340: a620 59bd 1f8e 103d 68cb 113d 6308 c5bd
00000350: 4c58 423d 0c18 503d 12a0 593d 4908 adbd
00000360: a479 49be 8bb9 c43e 5a96 7f3e f19c aebe
00000370: 7155 183e db5a 703d b1fd 223d a37d 8e3e
00000380: 700a 17be ccad 61bd 5860 143d fe4b 15bd
00000390: eeac eebd 727f 95bc 1ca1 98bc 79e9 b63d
000003a0: e3f1 0bbd 7590 713d 49eb dfbd 507d 283e
000003b0: 2578 a03d 9801 bbbd 7b3b 0b3e eab7 a63c
000003c0: dd49 c5bd 92f3 2ebd 2a0f de3d 34ff a4bd
000003d0: 23a8 803d 746a e03d 5ad7 c53c f75c 3dbd
000003e0: 27b3 513d 6847 aeba 7a47 7f3b 9b1c 8fbd
000003f0: 2662 2c3e 0815 a8bd 484c 063d 7551 a33b
-0.5706445 -0.09277571 -0.031888694 -0.25824195 -0.07057146 0.54115117 -0.39657378 -0.0389706
0.34366634 0.1034861 -0.009769745 0.03009343 0.07093546 -0.05288991 -0.06783005 0.10077652
0.021925027 0.057795737 -0.18881933 -0.11770234 -0.10353595 -0.13464406 0.025499417 0.19729435
-0.09006097 0.07994807 0.19207743 -0.10837195 -0.018996993 0.10405657 0.013954932 -0.06967608
-0.06273452 -0.06392474 -0.07517111 -0.011813578 0.35967684 0.27796113 0.14383022 0.056665484
0.026440155 -0.28860325 0.05802546 0.008357739 -0.12916784 0.008055419 0.035219517 -0.068058774
0.02906272 0.018416377 0.035610907 -0.11265312 -0.11348685 0.10956898 0.0062460676 -0.06852467
-0.042740807 -0.11247479 0.08717994 0.07811659 -0.057590198 0.06663572 -0.032439105 -0.107691996
-0.10212167 0.11711697 0.05000776 0.080014974 -0.005234003 0.029523836 0.11754953 -0.06605509
0.1929785 -0.48924538 0.01622664 0.2526254 -0.24186979 -0.0960213 0.04905766 -0.03515195
0.16211122 -0.050904077 0.08184511 0.093174815 -0.090346634 -0.025617715 0.023618322 0.06399647
0.02282808 -0.034645934 0.1520082 -0.13932554 -0.030816022 0.17292593 -0.108985044 -0.13290805
0.008575559 -0.099503376 0.13324589 0.032853346 -0.10449175 -0.06654273 0.0040813955 -0.0450463
-0.09863957 0.008401884 0.07184894 -0.02806134 0.1442846 0.39829618 0.25621566 0.1267835
0.3499843 0.050516494 0.19164044 0.24938874 0.14420755 -0.04014885 -0.019253053 -0.050933555
-0.12964803 0.06607984 0.04848456 -0.10202878 -0.07395036 -0.062035795 0.014743231 0.07742628
0.11423517 0.08114635 0.11672666 0.11091799 0.06236819 0.103929274 0.068335034 -0.06963735
0.08486055 0.08677271 -0.116796 0.04867112 -0.014399698 -0.12299768 0.043438975 0.061368953
0.03247011 -0.040411178 -0.29342955 0.5341453 -0.06379551 -0.08922915 0.4017086 -0.005309913
-0.3163658 0.03394519 -0.061012454 0.11797862 -0.11311077 -0.08841525 -0.0730744 0.032574225
0.07765968 0.07366853 0.12879829 -0.011335361 -0.09516885 0.21912073 -0.1109688 -0.07266138
0.08722199 0.03857737 -0.0818685 0.046058554 0.021581557 0.11676404 -0.047835454 -0.059139118
0.05871447 0.058546204 -0.07955157 0.11188693 -0.06816679 0.21146984 0.19580421 -0.3074448
0.1554044 0.12598866 -0.21676661 0.15715402 0.23160872 -0.052491024 -0.1258288 0.098420754
-0.035638765 0.047285073 0.006395878 -0.0616737 -0.023787769 -0.034128312 -0.090394184 -0.10219807
-0.05278276 0.08615152 -0.009054184 0.11366982 0.10450602 -0.090791196 0.013597153 0.047787104
-0.05300965 0.035291787 0.035594374 -0.0962074 0.047447488 0.050804183 0.05313117 -0.08448846
-0.19675308 0.38422808 0.24959698 -0.34104112 0.14876343 0.058680397 0.03979272 0.27830228
-0.14750075 -0.055097386 0.036224693 -0.036449425 -0.116540775 -0.018249247 -0.01863151 0.0893125
-0.034166228 0.058975656 -0.10933549 0.16454053 0.07835416 -0.09131163 0.13596909 0.020351369
-0.09633229 -0.042712756 0.10842736 -0.08056489 0.062820695 0.10957804 0.02415054 -0.046231236
0.051196244 -0.0013296427 0.0038952515 -0.06987878 0.16834316 -0.082071364 0.03278759 0.0049840757

conv3.bias f4 [16]
00000000: 6904 e43d 1bf4 5f3e c095 debd 4693 85bc
00000010: 047a cdbd c015 1b3e 7949 04bd 6ab9 973e
00000020: ca9c 8b3e 236e 38bd bbed d9bc 0342 853e
00000030: 010e ecbc b4dd 503e 744e db3e eb1c 42bd
0.11133654 0.21870463 -0.10868406 -0.016305577 -0.10033038 0.15145016 -0.03229663 0.29633647
0.27268058 -0.04502691 -0.026602617 0.26026925 -0.028815271 0.20397073 0.42833292 -0.04739086

conv4.weight f4 [32, 16, 3, 3]
00000000: f8cb 2bbe 3f5d 6bba e3c2 05be 3eba ffbc
00000010: ea22 a2bd b409 c2bd 0f83 4fbc 119e 8c3a
00000020: 685b 73bb 86d9 72be 2f62 52be 0c1f 193c
00000030: d81a cdbd c262 413e 3bbd 553e c98c 7fbd
00000040: f6f7 c13d c230 15ba bf15 92bd 4ef5 1fbe
00000050: 51ae cdbd fbff 08bd db45 23be 3ae3 d3bc
00000060: 5320 e4bd dc7e a0bd 36f1 12bc 485d 9a3c
00000070: e98c dbbc df75 11be 1045 5e3d ced1 a3bd
00000080: a68d 72bc a8e2 8d3d 762a 9fbd 37ae 053d
00000090: ce69 a33d d34c 1e3d 6ee7 44bc bd27 de3b
000000a0: 4f53 10bd 26f9 693d b9ca 91bd a2b8 543c
000000b0: f0bc 243d d890 f4bd 75a6 adbc af5d 013d
000000c0: 8a94 a43d 4b50 083d 77bb d13d 6f41 95bd
000000d0: 5673 b43c e151 e6bc 1942 ddbd b4f5 083e
000000e0: 3657 c1bd da29 0dbe 1ef4 95bd 660e 63be
000000f0: bc0d 18bd 49f2 93bd 7957 bb3c 7971 1f3e
00000100: 64b9 5b3e 9114 a2bc 7b12 46be 645d 32be
00000110: c361 e0bd 6511 cd3c 761b 063e b4e5 7f3d
00000120: 45e0 253e 7b36 2a3e 224b dfbc e329 34bd
00000130: 8fdb 61be 28e1 97bd 308d a03c 1878 d73d
00000140: a70c 76bc dcc5 f5bd 8bc6 d53c cb35 35be
00000150: d954 03bd b2b5 0fbe ea93 0ebe fec1 a43d
00000160: dbd3 af3c acd1 febb 8622 47bd 43d7 9b3d
00000170: e507 46bd acb3 453d 43c5 353d d27b 073d
00000180: 5542 e2bc ce00 5c3d 7ea3 b23d bfcf 593e
00000190: be70 74bd 30fd e0bc eea8 0bbe dee7 c0be
000001a0: 14d0 0ebe 2675 0abd c373 ac3d bbe9 bc3d
000001b0: 587f c23c 1986 f6bc fa9a 42bd f70d 273c
000001c0: 8dde 123d feda 9f3d a607 6d3d 6924 d63d
000001d0: 8ed7 a13c 91c5 cfbc 9dcf 5abd d5dd 87bd
000001e0: 6f7d 923c 97e6 e73d f9e7 143e d8cd d1bd
000001f0: 4da0 7fbd fe58 ccb9 0765 9cbe 4c1d f4bd
00000200: 6413 bcbd 9cb5 5e3e dafe ad3e 6d60 423e
00000210: 58c1 283e e9ac bb3d b29d 183d 85e3 5a3c
00000220: be2b 44bc 5e81 a5bd 23e0 0b3d 9166 71bd
00000230: e1a2 0c3d 6bbb e4bb e93c 88bd cb06 523d
00000240: 0601 cb3d 3665 aa3d 01ea 1d3e c813 acbd
00000250: 9b16 c53c e658 70bd de25 84bd 72c6 183d
00000260: 09ec d6bb a572 b33d 7d2e 963d be8f 4d3e
00000270: 5200 03be 9004 413d 4914 273e 908f e4bc
00000280: b186 013b 4b21 5d3e 58b7 9d3d 6f69 103c
00000290: 1336 483d 1e41 02bd 6b24 63be d68d bbbd
000002a0: 2bdf 723e b0dd 2e3c 0ab6 293d 4db2 33bb
000002b0: 36b2 bfbb cc49 3ebd 346c 24bc 3125 013e
000002c0: bfce 51bd 4214 0e3d 34f5 303e 4521 b4bd
000002d0: dd30 1fbd 8748 50bd b82a 1ebd d08f 223c
000002e0: ad37 d43c 7dd1 b73d a657 32be 7a74 0dbe
000002f0: 95af a73d 5163 a0bd d4b7 b339 5e74 133e
00000300: 5a09 b5bd f093 b4bd 5df9 c73d f723 2abe
00000310: 0b34 e33d 65f7 983d 894d 7a3c 10c8 363d
00000320: 8bc8 ee3c 609e 083d 8a65 d63d 9d00 f53d
00000330: 4295 ce3d fce6 a03e 0800 1b3e e949 b5bd
00000340: 9f17 7f3d 4be3 f43d 0b86 9bbd 300f c5bb
00000350: bdd4 b63d 1785 39bc 8981 f23c 63cf 2a3d
00000360: edb1 b9bd c243 d03b e54f 55be 0bf9 0abd
00000370: 812e a9bc 5c6d f93c 893c 44bd 6b85 36bd
00000380: 0fc4 48be bdb0 75bc 3e76 8d3d cdfd 5f3d
00000390: 2ec0 f3bc 2d42 2c3d e259 8c3c 0bff e23d
000003a0: 51ad 293e 6b79 683d 106c c7bc e7d2 a0bd
000003b0: 2c05 10bd 8473 ea3a 574e 9f3d 1125 533d
000003c0: d274 4a3d f521 443d 546d 853d 30a8 ff3c
000003d0: 9c6f 56bd e1fd a03d c893 32bc d932 b9bd
000003e0: 9fcf 8bbd be8f b83d b86b cc3d 83d5 6a3d
000003f0: b038 293d 2d1a 62bc 902a 333e 6b96 41bd
-0.16777027 -0.00089784333 -0.13062625 -0.031216737 -0.079168156 -0.09474507 -0.012665524 0.001072826
-0.003713334 -0.23715791 -0.20545267 0.009345781 -0.10014886 0.1888533 0.20872967 -0.062390123
0.09471123 -0.00056911644 -0.07133054 -0.1562092 -0.10043014 -0.033447247 -0.15944616 -0.025865186
-0.11138978 -0.078366965 -0.008968642 0.018843308 -0.02680059 -0.1420512 0.054265082 -0.079990014
-0.014804279 0.06927997 -0.07771771 0.032636847 0.07979165 0.038647484 -0.012018068 0.0067796395
-0.0352357 0.057122372 -0.071187444 0.012983473 0.040219247 -0.11941689 -0.021197537 0.031583484
0.08036144 0.0332797 0.10240834 -0.07287871 0.022027653 -0.028115215 -0.10803623 0.13374978
-0.09440462 -0.13785496 -0.07321952 -0.22173461 -0.037122473 -0.072239466 0.022868859 0.1557063
0.2145744 -0.019785197 -0.19342987 -0.17418438 -0.109561466 0.025032708 0.13096413 0.06247492
0.16198833 0.16622345 -0.027257506 -0.04398526 -0.22056411 -0.07415992 0.019598573 0.10520953
-0.015017665 -0.12000629 0.02609565 -0.17696302 -0.03206334 -0.14034155 -0.13923612 0.080448136
0.021463325 -0.0077764597 -0.04861691 0.07609417 -0.048347373 0.04826705 0.044377577 0.03307707
-0.02761952 0.053711705 0.0872259 0.21270655 -0.05967783 -0.02746448 -0.1363866 -0.376769
-0.13946563 -0.033803128 0.08420517 0.09224268 0.023742363 -0.03009324 -0.04751108 0.010196201
0.035856772 0.07805441 0.057868622 0.104561634 0.019756105 -0.025362762 -0.05342065 -0.06634108
0.017882077 0.113232784 0.14541616 -0.1024434 -0.062408734 -0.00038976216 -0.30545828 -0.119196504
-0.09183386 0.21748966 0.339835 0.18982096 0.16480005 0.09163839 0.037259765 0.013359909
-0.01197332 -0.080813155 0.0341493 -0.058935706 0.03433502 -0.00698035 -0.06652243 0.05127601
0.099123046 0.08320086 0.15421297 -0.084022105 0.02405863 -0.05867853 -0.06452535 0.037298627
-0.0065588993 0.08762101 0.07333086 0.20074365 -0.12793091 0.04712349 0.16316332 -0.027900487
0.001976412 0.21594732 0.07700986 0.0088142 0.048879694 -0.03180038 -0.22181861 -0.091579124
0.23717944 0.010672972 0.04143337 -0.0027419508 -0.005850102 -0.046457097 -0.010035563 0.12611844
-0.05122256 0.034687288 0.17281038 -0.08795408 -0.03886496 -0.050850417 -0.03861496 0.009921983
0.025905455 0.089755036 -0.17416248 -0.13813964 0.081877865 -0.07831443 0.00034278503 0.1439986
-0.08839674 -0.08817279 0.09764359 -0.16615282 0.11093911 0.07469062 0.015277275 0.04462439
0.02914836 0.033354163 0.10468586 0.119630076 0.100870624 0.31426227 0.1513673 -0.08851988
0.062278386 0.11957415 -0.07593926 -0.0060137734 0.08927295 -0.011323235 0.029602783 0.041701686
-0.0906714 0.0063557336 -0.20831259 -0.033928912 -0.020652058 0.030447654 -0.047909293 -0.04456083
-0.1960604 -0.014995751 0.069073185 0.054685403 -0.029754724 0.042055298 0.017132703 0.11083802
0.16570021 0.05675642 -0.02434352 -0.078527264 -0.035161182 0.001788721 0.07778614 0.05154902
0.049427815 0.047883946 0.06514993 0.031208128 -0.052352533 0.078609236 -0.010899492 -0.090429015
-0.0682671 0.09011792 0.09981483 0.057332527 0.041313827 -0.013800186 0.17496705 -0.04726259

conv4.bias f4 [32]
00000000: a470 2a3d 897e 623e ecda 4bbd d276 69bc
00000010: 77d2 873a 3733 253c 8335 ffbb 993c 79bd
00000020: a43e 83ba 8a9b bc3c 9756 b1bc e094 34bd
00000030: e470 5e3e 4a77 103d 6ddc 223c d6f8 07bd
00000040: 3cdc 0d3e a003 923d 071b 6dbd c652 143e
00000050: 1dec b7bd 90b4 dcbc 1660 0ebb 357b b9bb
00000060: 7c98 2b3e 7d73 c5bd 8488 1abc f3a4 733d
00000070: 57dc b23d fc22 1abd f0e4 8dbd 6037 a13d
0.04161133 0.22118582 -0.049769327 -0.01424952 0.0010362406 0.010083011 -0.0077883615 -0.060848806
-0.0010013175 0.023023386 -0.021647735 -0.04408729 0.21722752 0.035270013 0.009940249 -0.033196293
0.13853544 0.07129598 -0.057887103 0.144847 -0.08980582 -0.026941568 -0.0021724752 -0.0056604394
0.16757387 -0.09641168 -0.009431962 0.05948348 0.08733433 -0.03763102 -0.06928432 0.0787189

conv5.weight f4 [10, 32, 3, 3]
00000000: 0f5e 0a3e 42bf 9b3d febc 2abe 21a9 783d
00000010: e306 cebd a84e ab3c a8f4 8dbe 19c4 10bc
00000020: 4e46 f63d 541a 4b3e 7b14 1fbe 35aa c13b
00000030: 6b55 2bbc 5aa6 b4bd 3446 0cba 4fbe 543e
00000040: 8258 a13d 7b73 d63d 2ff6 40bd e0eb 41bc
00000050: 23b6 753e 965a bfbd dfe1 a2bd fcaf 6c3c
00000060: ab9a 36bb 4f4b 893d 453a b7bb 1c88 4bbd
00000070: 10bd b2bc 99d5 6bbd 73d6 61bb 3b85 10bd
00000080: 4f4b eabd 164d 2e3b 0832 8fbd 2744 c2bb
00000090: e6a4 7e3e 3143 ddbc abce 34be 7d31 7f3e
000000a0: 4448 1bbd 1985 713d cdc9 a3bb 12b0 ebbc
000000b0: 5f02 b53d c3e0 333e 18bb a03c e286 48bc
000000c0: 8fe5 e93d 5145 b83c 6883 983e 7ef2 c1bc
000000d0: f534 15be bbc9 3d3e 6c64 613d 9a03 1dbd
000000e0: f16e 13bd 71e9 2c3e e6d3 17be 4899 133d
000000f0: 7c92 f8bd 3e92 fd3c dba5 f63d 6925 77bd
00000100: 76aa 5b3d cf16 87bd e3ee 9ebc f7c5 39bd
00000110: cf4a e3bb cd57 c2bc c2f4 83bd 58ec e3bc
00000120: a289 a1be df9f 13bc 961c 123e 76fa 1dbe
00000130: 929c 7bbd b2c0 f1bd b12b fcbc 88fb 0b3e
00000140: c5a5 163e a395 b8bc 8dcf 62bd 3c08 973d
00000150: 5130 52be c29a bbbd 8e9b d0bc 0967 31be
00000160: fd52 6abd 49ad cb3c d4dc 203d 20fe e23c
00000170: dd48 833b 94a2 51bd 93aa 7b3c a054 243b
00000180: 57c4 0ebd 7e00 ef3c 7610 703a 62d4 513d
00000190: 6ca2 b9bd 185c 1a3d a67e e83c 8bdc 3cbd
000001a0: 6beb 04bd f10a 1bbd d8b2 863b 48d5 093d
000001b0: c5dc 2a3e 3629 b03b 9386 19be 8c01 893e
000001c0: b2ac c0bc 8adb ddbd 81b7 703e a9b2 913d
000001d0: 0b13 33be c6f1 0e3e 71ff 04be 6183 963c
000001e0: a305 433c 3328 273d 79b0 6a3d 3cb5 963d
000001f0: 36a3 95bb 016d d63d 9cc2 2abe 17cd 81bd
00000200: 8f56 2fbe 3c26 1c3e 2860 0f3e 1697 0ebe
00000210: 960d 38be c34a 31bd 7769 513d d521 edbc
00000220: 266f c6be f411 e2bd fccb 1cbc 53f7 2cbe
00000230: e420 83bd 94f3 2f3d 978d dd3d 1474 e8bd
00000240: 6722 143e b816 b93d dbe2 2a3e 1779 b03d
00000250: 4254 5b3c 6547 953d be00 dbbd 4350 7dbd
00000260: 744b 02bd aa14 25bc e3df 8a3e d108 d73e
00000270: 9d83 e2bd eae9 12be 3565 243e 503e 3f3e
00000280: 3a41 0dbe 0c51 b8bd e65b 013e eafb bbbd
00000290: b9d2 133c acd5 b53c 9a6b a4bd 9cbe 68bd
000002a0: ec1a 91bc 0766 653d 1e5f cfbc e209 cabd
000002b0: ba3a 89be 1e92 1dbe 9d1c 32be 1c3f 87bb
000002c0: 7c35 283e c0c3 13be 61bd 18be c13b 0dbe
000002d0: 6898 513d 6d5d c73d 6ea6 153e 272f 5c3e
000002e0: 371c 06be 0441 85bd 1767 73be 0837 d0bd
000002f0: 56d2 26bd 81b6 0a3d 51b5 02be d458 bbbd
00000300: 1f5f 7d3d de66 b53d 13ae a03d 26d9 fabd
00000310: 5911 eebc 0a88 4cbd ecaf 91be e6d4 d3bd
00000320: e651 e6bc b789 7dbd 815c fe3c 5dfa cc3d
00000330: 4bad 66be 77b5 513d f278 92bd 590d 35bd
00000340: 270f 59be 51a9 74bd 9dca 0bbc fe12 843d
00000350: 4dea d33d bda0 0cbe 838f 633b e869 abbc
00000360: 41c4 a3bd 1e57 b83d 7444 aa3d f348 8ebd
00000370: e22f 2b3d 5bf9 2f3d b1f8 323d f99f 49be
00000380: 18b2 42bd 2e30 52bd 95c3 323e b0e4 ae3d
00000390: 6ad8 1a3d ebc3 2c3e a8d5 073d 9d4f ccbe
000003a0: 184f 66bd 3b8f 2f3d ad75 f0bd afaa a2be
000003b0: d763 d2be 5fed 02bd e395 dfbb 40a2 853d
000003c0: cac8 2ebe 4a28 f33d 0011 b3bd 2653 30bd
000003d0: e633 5bbe 43cd 8abe 191f 97bd aa5c adbd
000003e0: 9af6 683e 7152 49be ba3d 97bd e6c0 b339
000003f0: f3a6 fd3c a509 afbc 5ef2 933d d342 b83c
0.13512443 0.07604839 -0.16673657 0.06070817 -0.10059907 0.02091153 -0.2772572 -0.008835816
0.12025128 0.19834262 -0.15535156 0.005910183 -0.010457377 -0.088207915 -0.0005351037 0.20775722
0.0787821 0.10471245 -0.04710978 -0.011836022 0.23995261 -0.0934345 -0.07953238 0.014446255
-0.0027863185 0.06703817 -0.005591663 -0.04969035 -0.021818668 -0.05757675 -0.0034460097 -0.03528331
-0.11440145 0.002659624 -0.069919646 -0.0059285345 0.24867591 -0.027009578 -0.17656963 0.24921222
-0.037910715 0.058964822 -0.0049984218 -0.02877048 0.08838343 0.17566209 0.019620463 -0.01223919
0.11420738 0.02249399 0.29787755 -0.0236752 -0.14570983 0.18533985 0.05502741 -0.038333513
-0.035994474 0.16885926 -0.14826927 0.036034852 -0.12137315 0.030953523 0.12043353 -0.06033841
0.05362936 -0.06596147 -0.01940102 -0.04535481 -0.006936408 -0.023723507 -0.06443168 -0.027822658
-0.31550318 -0.009010284 0.14268717 -0.15427575 -0.061428614 -0.11804332 -0.030782552 0.1367017
0.14711674 -0.02253229 -0.055373717 0.073746175 -0.20526244 -0.09160377 -0.0254648 -0.17324461
-0.05720805 0.024862902 0.039273098 0.027709067 0.0040064887 -0.051180437 0.015360492 0.0025074854
-0.034855213 0.02917504 0.00091577263 0.051227935 -0.09064183 0.037685484 0.028380703 -0.046108764
-0.032451075 -0.03785223 0.0041106753 0.033650666 0.1668578 0.0053760065 -0.14992742 0.26758993
-0.023519848 -0.108328894 0.23507501 0.07114155 -0.17487733 0.13959417 -0.12988068 0.018373193
0.011903199 0.04080982 0.057297204 0.073587865 -0.0045665754 0.104700096 -0.166758 -0.06337946
-0.17122863 0.1524896 0.14001524 -0.13924822 -0.17973933 -0.04328419 0.05112597 -0.028946796
-0.38756675 -0.110385805 -0.009570118 -0.16891222 -0.06402758 0.042956904 0.10818022 -0.11350265
0.14466248 0.090375364 0.16688101 0.08616846 0.013386788 0.07289008 -0.10693501 -0.06184412
-0.03181024 -0.0100757275 0.27123937 0.41998914 -0.110602595 -0.14347044 0.16054232 0.18676114
-0.13794413 -0.089998335 0.12632713 -0.09178908 0.009022408 0.022196613 -0.08028336 -0.056822404
-0.017713033 0.056005504 -0.02531391 -0.09865166 -0.26802617 -0.1538777 -0.17393728 -0.0041273963
0.16426653 -0.14430141 -0.14915992 -0.13792326 0.051170737 0.097346164 0.14614269 0.21502362
-0.130967 -0.06506541 -0.23769794 -0.101667464 -0.040727936 0.033865456 -0.12764479 -0.09147802
0.061858293 0.08857511 0.07845702 -0.12248449 -0.029061006 -0.049934424 -0.2845453 -0.103433415
-0.028115224 -0.061898913 0.031049969 0.100086905 -0.22527044 0.05119845 -0.07151975 -0.044202182
-0.21197186 -0.059731785 -0.0085321935 0.06448935 0.10347424 -0.13733192 0.003472299 -0.020924523
-0.07996417 0.09000991 0.08313838 -0.06947508 0.04179371 0.042962413 0.0436942 -0.19689931
-0.047533125 -0.05131548 0.17457421 0.085397124 0.037804045 0.16871612 0.033162743 -0.3990449
-0.056227773 0.042861205 -0.11741195 -0.31770846 -0.41091797 -0.031964656 -0.006823288 0.06525087
-0.17068782 0.11872919 -0.08743477 -0.043048047 -0.21406516 -0.27109727 -0.07378978 -0.0846494
0.22750321 -0.19660355 -0.0738482 0.0003428526 0.030963397 -0.021366904 0.07223962 0.022492802

conv5.bias f4 [10]
00000000: c4a8 db3d 9c04 e9bd dc9c eb3c 9cac a7bd
00000010: 4835 3dbd 8a47 aabc d6a8 e8bc 19a5 4ebd
00000020: 0e75 173e d589 02bd
0.10725549 -0.11377832 0.02876132 -0.081872195 -0.04619339 -0.020786066 -0.02840082 -0.05045042
0.14790747 -0.031869728
