R7models/BaseR7seed5.pt (torch_old, 38047 bytes, 10 tensors)

conv1.weight f4 [4, 3, 3, 3]
0	0x3fcd2a5d	1.6028553
1	0x3eb78a7e	0.3584785
2	0x3e8f9472	0.28042942
3	0x3fc6c8d4	1.5530038
4	0x3f6940f0	0.9111471
5	0xbe20af0c	-0.15691775
6	0x3f340c74	0.703315
7	0x3f57d169	0.8430391
8	0x3e9a0985	0.30085388
9	0x3e42c6e1	0.19021179
10	0x3d27ca44	0.04096438
11	0x3ccb9990	0.024853498
12	0xbe28874d	-0.16457863
13	0x3d7b34bc	0.06132959
14	0x3da97bda	0.08275576
15	0x3cfa20c0	0.030533195
16	0x3e3d8d2d	0.18510886
17	0x3d6cbb94	0.057796076
18	0xbe2ebf52	-0.1706517
19	0x3e2594f7	0.16170107
20	0x3d85d24a	0.0653425
21	0xbdbc0661	-0.09180904
22	0xbe350580	-0.1767788
23	0x3de0afce	0.10971032
24	0x3e3b476f	0.18288969
25	0xbe2175f8	-0.15767658
26	0x3c2c51b0	0.010517523
27	0x3dfccbe8	0.123435795
28	0xbdb72bc6	-0.08943896
29	0xbd2c7b08	-0.04210952
30	0xbe0387f9	-0.12844838
31	0xbdb76130	-0.08954084
32	0xbe33a948	-0.17545044
33	0x3c0ad83d	0.008474407
34	0x3e3b99fb	0.18320458
35	0x3e316da3	0.1732698
36	0x3e3920d1	0.18078925
37	0xbe2d1388	-0.16901982
38	0xbcc1fb60	-0.023679435
39	0x3e3fdf49	0.1873752
40	0x3d011468	0.0315136
41	0xbd5e4ab4	-0.05427046
42	0xbe317b6f	-0.17332242
43	0x3db768e6	0.08955555
44	0x3e159bf9	0.1461028
45	0x3e1e063f	0.1543207
46	0x3e24fa5b	0.16111128
47	0x3d1a538c	0.037677333
48	0x3e0c7561	0.13716651
49	0xbd466ba8	-0.048442513
50	0x3e200b1b	0.15629236
51	0xbc86e308	-0.016465679
52	0xbd228e8c	-0.039686725
53	0xbdc3ebda	-0.095664695
54	0x3f3370df	0.700941
55	0x3f9f8db3	1.2465118
56	0x3fbccb99	1.4749633
57	0xbca8d2fa	-0.020608414
58	0x3e9ca422	0.30593973
59	0x3f883b17	1.0643033
60	0xbdabee6d	-0.083950855
61	0xbe02e861	-0.12783958
62	0x3ed3ba0e	0.41352886
63	0xbd7ec738	-0.06220171
64	0xbe060552	-0.13087967
65	0x3e1f4219	0.15552558
66	0x3cafbb78	0.021451697
67	0x3db3b166	0.087740704
68	0x3e122ca5	0.14274843
69	0xbdff6674	-0.12470713
70	0x3e167085	0.1469136
71	0xbdc571e3	-0.09640863
72	0xbcfb0040	-0.030639768
73	0x3e1522e5	0.14564092
74	0x3e35b147	0.17743407
75	0x3e2cff5d	0.16894288
76	0x3de2adde	0.11068319
77	0x3e372b2f	0.17887567
78	0xbd8e028e	-0.06934081
79	0xbc48b0f0	-0.012249216
80	0xbd86cec0	-0.06582403
81	0xbe75495f	-0.2395377
82	0xbe52eb9e	-0.20597693
83	0x3e147b54	0.14500171
84	0x3de09f18	0.10967845
85	0xbe43f654	-0.19136935
86	0xbe7a636a	-0.24451986
87	0xbce092ce	-0.027413752
88	0x3e19d1fc	0.15021509
89	0xbde2b94b	-0.11070498
90	0xbdf52295	-0.119694866
91	0xbd0ff94c	-0.035149857
92	0xbdc05767	-0.09391671
93	0x3bad9e60	0.005298421
94	0xbe11e1d0	-0.14246297
95	0xbd450e2c	-0.04810922
96	0xbd916d06	-0.07100873
97	0xbcd9c660	-0.02658385
98	0x3e1ad799	0.15121306
99	0x3e0138fd	0.12619396
100	0xbd7e6174	-0.062104657
101	0xbe34ad60	-0.17644262
102	0xbe0cf5fe	-0.13765714
103	0xbe173026	-0.14764461
104	0xbc959618	-0.018260047
105	0xbdaf082b	-0.0854648
106	0xbe09b8aa	-0.1344935
107	0x3d2ec6a0	0.042669892

conv1.bias f4 [4]
0	0xbb804ab9	-0.0039151576
1	0x3bd9a8b8	0.0066424273
2	0x3cae894b	0.0213057
3	0x3eca2f66	0.39489287

conv2.weight f4 [8, 4, 3, 3]
0	0xbdad7fb5	-0.08471624
1	0xbb7edd40	-0.00388892
2	0x3d5be125	0.05368151
3	0x3e87a8ca	0.26495963
4	0xbe05805f	-0.13037251
5	0xbcd117fe	-0.025524136
6	0x3e9d5bfc	0.3073424
7	0x3d7fa167	0.062409785
8	0x3d85762b	0.065166794
9	0xbd94120a	-0.07230003
10	0x3dedcc70	0.11611259
11	0xbd79ce6b	-0.06098787
12	0xbdaf5885	-0.08561806
13	0x3e1cf706	0.15328607
14	0x3d4090a3	0.047012936
15	0xbb031809	-0.002000334
16	0xbdec3808	-0.115341246
17	0xbd1453c8	-0.036212713
18	0xbe0d70b4	-0.13812524
19	0xbe019332	-0.12653807
20	0xbd1bf789	-0.038077865
21	0x3d1a7463	0.03770865
22	0xbe0bdf47	-0.13659392
23	0x3e2e70cf	0.1703522
24	0x3e1dfa01	0.154274
25	0xbe157fb1	-0.14599492
26	0x3e04d113	0.1297038
27	0xbd86d059	-0.06582708
28	0xbdcfbabc	-0.10143039
29	0x3e432cc6	0.19060048
30	0xbced655e	-0.028979
31	0xbca1d3ec	-0.019754373
32	0x3d532ab2	0.05155439
33	0x3df8c94d	0.1214777
34	0x3d435faf	0.047698673
35	0xbc47e964	-0.012201641
36	0x3ccb8ac8	0.02484645
37	0xbdae474b	-0.08509692
38	0xbdea605b	-0.114441596
39	0x3d442b20	0.04789269
40	0x3ce79608	0.028269783
41	0x3d9d2bf4	0.07674399
42	0xbd7b4e60	-0.06135404
43	0xbe28da22	-0.16489461
44	0xbd383f4b	-0.044982236
45	0xbe26a252	-0.16272858
46	0xbc8b920a	-0.01703741
47	0x3da362ae	0.07977806
48	0x3c7e0acb	0.015505503
49	0x3dc28e4f	0.094997995
50	0x3cf6f3dc	0.030145578
51	0x3d921ad8	0.07134026
52	0x3e1d13ec	0.15339631
53	0x3cefe31f	0.029283104
54	0x3cce81c5	0.025208363
55	0xbd2df578	-0.042470425
56	0x3e1e7452	0.1547406
57	0x3e0cf07c	0.13763613
58	0xbdd4bf1e	-0.10388015
59	0x3e6764a4	0.22596985
60	0x3d47068c	0.048590228
61	0xbcef1857	-0.02918641
62	0xbdf721b6	-0.12066977
63	0xbe1b4081	-0.15161325
64	0xbdf033d9	-0.11728639
65	0xbe10f183	-0.1415463
66	0xbdc7d3e2	-0.0975721
67	0xbcc173bd	-0.023614759
68	0xbe06d294	-0.13166267
69	0xbe036fa5	-0.12835558
70	0xbb6ef4a9	-0.0036461747
71	0xbdfccfe7	-0.12344342
72	0x3f8a9fd2	1.0830023
73	0x3e0ca76a	0.13735738
74	0xbd31ac8a	-0.043377437
75	0x3f99e479	1.2022849
76	0x3f345080	0.70435333
77	0x3ba31744	0.0049771387
78	0x3f3bf4e0	0.73420525
79	0x3f1c6fd4	0.61108136
80	0x3f39f8cd	0.72645265
81	0x3e39a0cb	0.18127744
82	0xbd453116	-0.048142515
83	0x3bb5e3ef	0.0055508534
84	0x3dd40ee4	0.10354403
85	0x3dee117f	0.11624431
86	0xbd59d347	-0.053180005
87	0xbe2e7013	-0.1703494
88	0xbdbae88c	-0.09126386
89	0x3d14ee0b	0.036359828
90	0xbdcc0eb6	-0.099637434
91	0x3e5e734f	0.21723674
92	0x3f41dd2e	0.7572812
93	0x3ea1f6b5	0.31633535
94	0xbde4cdf8	-0.11172098
95	0x3d3d0b6e	0.04615348
96	0x3f5aa81f	0.8541278
97	0x3d001a34	0.03127499
98	0x3e248dd9	0.16069736
99	0x3db4b866	0.08824234
100	0xbc1bfdb6	-0.009520939
101	0x3aac0ff8	0.0013127318
102	0xbe8ac4f5	-0.2710339
103	0x3e74befc	0.2390098
104	0x3e8a266b	0.26982436
105	0xbe926a1c	-0.2859658
106	0xbe73916e	-0.23785946
107	0x3db6e92e	0.08931194
108	0xbd4538fa	-0.04815004
109	0x3d911c33	0.07085457
110	0xbe01d5f8	-0.12679279
111	0x3df0346e	0.1172875
112	0x3c275857	0.010213933
113	0x3cd8f955	0.026486078
114	0xbde58747	-0.11207443
115	0x3bb179a3	0.0054161116
116	0x3e02210a	0.12707916
117	0x3e24631d	0.16053434
118	0xbde078c6	-0.10960536
119	0xbd8fac6f	-0.07015311
120	0x3d125215	0.03572281
121	0x3dc6d66d	0.09708867
122	0xbe0d159e	-0.13777778
123	0xbd7b123c	-0.061296687
124	0xbe04fd16	-0.1298717
125	0x3e200216	0.15625796
126	0xbd37562b	-0.04475991
127	0x3de27bb7	0.11058753
128	0x3d5b96ad	0.053610492
129	0x3c9cb411	0.019128831
130	0x3d8a8917	0.06764429
131	0x3dc3a2ee	0.09552561
132	0xbcea2b13	-0.028584993
133	0x3de894f3	0.11356535
134	0xbcac7b25	-0.021054814
135	0xbbf28bd8	-0.0074019246
136	0x3d197a65	0.03747024
137	0xbe1a5d45	-0.15074642
138	0xbdaf8402	-0.085701
139	0xbe1461ae	-0.14490387
140	0xbd830203	-0.06396868
141	0xbca60187	-0.0202644
142	0x3d612c7c	0.054974064
143	0xbe1ba459	-0.15199412
144	0xbe0d7975	-0.13815863
145	0x3dfc1392	0.1230842
146	0xbc98e963	-0.018665975
147	0xbdac01c6	-0.08398776
148	0xbd1e45aa	-0.038640656
149	0x3c2f3013	0.010692614
150	0xbdf910f6	-0.12161438
151	0xbe240e85	-0.16021164
152	0xbddc4594	-0.107554585
153	0x3e074652	0.13210419
154	0x3d47a455	0.048740704
155	0xbe29d125	-0.16583689
156	0xbdb7d7d1	-0.089767106
157	0x3e01761f	0.12642716
158	0x3e23b2ad	0.15986128
159	0x3d07cdc9	0.033155236
160	0x3dbe019e	0.09277652
161	0x3ce24c9a	0.027624417
162	0x3dcf4c2b	0.1012195
163	0xbdfa53d1	-0.12223018
164	0x3d6c2b19	0.05765829
165	0xbe171181	-0.14752771
166	0xbe29deda	-0.16588917
167	0x3e20a514	0.15687972
168	0x3c85f5b8	0.01635252
169	0x3d8f7f5c	0.07006714
170	0xbc95a58d	-0.018267417
171	0xbe06c05f	-0.13159321
172	0x3e09c132	0.13452604
173	0xbe182f6d	-0.14861841
174	0xbdd1fa4f	-0.10252821
175	0x3d76a7ab	0.060218494
176	0xbd5c0335	-0.053713996
177	0x3d53e75d	0.051734317
178	0xbe1666fc	-0.14687723
179	0x3d917552	0.07102455
180	0xbdec3135	-0.11532823
181	0x3da3b6d5	0.07993857
182	0xbcd52d4e	-0.02602258
183	0xbe0be2e2	-0.13660768
184	0xbd3f3939	-0.04668543
185	0xbcf7b949	-0.030239718
186	0x3dcbb952	0.099474564
187	0xbd9aad9c	-0.075526446
188	0x3c6d0417	0.014466307
189	0xbd993615	-0.074810185
190	0x3bb2d1a2	0.005457119
191	0x3e155e93	0.14586858
192	0x3d92dc10	0.0717088
193	0x3d119ca4	0.035549775
194	0xbe1ba892	-0.15201023
195	0x3dc6c6bc	0.09705874
196	0x3e2486cb	0.16067044
197	0x3d2ef0b1	0.04271001
198	0x3dfb3b54	0.12267175
199	0x3d81280e	0.06306468
200	0x3e1ec634	0.15505296
201	0xbcdde84e	-0.02708831
202	0xbd877b05	-0.06615261
203	0x3d86f323	0.065893434
204	0xbd3d67df	-0.046241637
205	0xbc5b3a4d	-0.013380599
206	0xbd180cf5	-0.03712173
207	0xbd884dec	-0.066554874
208	0x3ce8d41c	0.028421454
209	0xbd11dc40	-0.035610437
210	0xbdea61fb	-0.114444695
211	0x3e14bac4	0.1452437
212	0xbe25b75c	-0.16183227
213	0xbdc3bacd	-0.09557114
214	0x3e158ae5	0.14603765
215	0xbde05bde	-0.10955022
216	0xbc7fbba3	-0.015608701
217	0x3f4db7d8	0.8035865
218	0x3f9ff14e	1.2495515
219	0xbd030f92	-0.03199727
220	0x3bb627b4	0.005558932
221	0x3ec1b291	0.37831548
222	0xbeadc600	-0.33940125
223	0xbda24bc6	-0.07924609
224	0x3e77d213	0.2420123
225	0xbb20003d	-0.0024414205
226	0x3da06245	0.078312434
227	0xbc7aab31	-0.015299604
228	0x3b769fa2	0.003763177
229	0x3e3c1f15	0.18371232
230	0xbc694ba9	-0.01423923
231	0xbdd1803f	-0.10229539
232	0x3e1d49dc	0.15360206
233	0x3dedf868	0.11619645
234	0x3f99ecec	1.2025428
235	0x3f920038	1.1406317
236	0x3ec3d17f	0.3824577
237	0x3f056c9d	0.52118856
238	0x3f31488b	0.69251317
239	0x3e365e31	0.17809369
240	0x3d935880	0.071946144
241	0x3ef5c017	0.47998115
242	0x3e8761e3	0.2644187
243	0xbdc31f01	-0.09527398
244	0xbd964fcf	-0.07339441
245	0x3d409d6e	0.047025137
246	0x3e51263c	0.20424742
247	0xbe28d654	-0.1648801
248	0xbe125c77	-0.14293085
249	0xbd235595	-0.03987654
250	0xbd43e83b	-0.047828894
251	0xbe892299	-0.26784208
252	0x3e079cec	0.13243455
253	0xbdabf30e	-0.083959684
254	0xbd84bf9b	-0.06481858
255	0x3d9f36da	0.07774134

conv2.bias f4 [8]
0	0xbd94396f	-0.07237517
1	0x3e44545f	0.1917281
2	0xbbc0ef21	-0.0058878814
3	0xbd397e27	-0.045286324
4	0xbc56bc35	-0.0131063955
5	0xbe21b592	-0.1579192
6	0x3e13fa5d	0.14450975
7	0xbe0f9541	-0.1402178

conv3.weight f4 [16, 8, 3, 3]
0	0xbd872d8d	-0.06600485
1	0x3db11541	0.08646632
2	0xbda58812	-0.08082594
3	0x3d2968e9	0.041359816
4	0xbd160a42	-0.036630876
5	0x3d2aa93b	0.041665297
6	0xbcbed19c	-0.023293309
7	0x3d96a1b4	0.07355061
8	0x3dca1928	0.098680794
9	0x3dd1385b	0.10215827
10	0x3db4be49	0.088253565
11	0xbd2f22fa	-0.042757966
12	0x3d931760	0.07182193
13	0xbda8a8da	-0.08235331
14	0xbdd86768	-0.10566598
15	0x3dd06a08	0.10176474
16	0xbc94bdea	-0.018156964
17	0x3dbb9b70	0.09160507
18	0x3dfa7dc8	0.12231022
19	0x3a0c9b33	0.00053637027
20	0x3d458b26	0.048228405
21	0xbd1854fe	-0.03719043
22	0xbe09ee1e	-0.13469741
23	0x3d85741d	0.065162875
24	0xbd7c061f	-0.061529275
25	0x3c9abd06	0.018888962
26	0x3d5fd830	0.05464953
27	0xbdc4a452	-0.09601654
28	0xbd8f792c	-0.070055336
29	0x3dc66eb7	0.09689086
30	0xbc2aae97	-0.010417602
31	0xbdd9f1f3	-0.10641851
32	0x3d2482ab	0.040163677
33	0x3da82c16	0.08211534
34	0xbda3b672	-0.07993783
35	0x3db01a56	0.08598773
36	0x3de7bb94	0.113150746
37	0x3de4cf0b	0.11172303
38	0x3d8d4aec	0.06899056
39	0x3c01bbec	0.007918339
40	0x3d3d8fd2	0.046279736
41	0xbd1a069e	-0.037603967
42	0x3c908864	0.017643161
43	0xbd6fe2aa	-0.058565773
44	0x3daf1d8d	0.08550558
45	0xbd2503b1	-0.040286724
46	0xbd844cce	-0.06459962
47	0xbc83d36e	-0.016092028
48	0x3cdcc508	0.02694942
49	0x3c7c3ca4	0.015395317
50	0xbd89ad34	-0.06722489
51	0xbd933504	-0.07187846
52	0xbdc38218	-0.09546298
53	0xbd450c4e	-0.048107438
54	0x3d9f973f	0.0779252
55	0x3e628c89	0.22123922
56	0xbbfd4490	-0.0077291206
57	0xbb17a7df	-0.002314083
58	0xbdb12a26	-0.08650617
59	0xbc9368dd	-0.017994339
60	0xbda881f3	-0.08227911
61	0xbe38e983	-0.18057828
62	0xbdcc9ab0	-0.09990442
63	0xbc736692	-0.014855998
64	0x3cbe9568	0.023264602
65	0x3d3b1f48	0.04568413
66	0xbdb3fe84	-0.087887794
67	0xbded1c4c	-0.11577663
68	0xbd8a7508	-0.06760603
69	0xbd7f59cd	-0.0623415
70	0xbd844741	-0.06458903
71	0x3d6f467a	0.05841682
72	0x3d1b852b	0.037968796
73	0xbbe50e08	-0.006990198
74	0xbdafb619	-0.08579654
75	0xbd91fcdf	-0.071283095
76	0x3de18fa6	0.11013727
77	0xbdd64b09	-0.104635306
78	0xbb917bdb	-0.0044398136
79	0xbdbdb903	-0.09263804
80	0xbdfcd56b	-0.12345394
81	0x3c58759c	0.013211634
82	0xbd265c5a	-0.040615417
83	0xbde4fcb1	-0.111810096
84	0xbd9929f5	-0.07478706
85	0x3dcf255f	0.1011455
86	0xbd6df97c	-0.058099255
87	0x3dbbc79a	0.0916893
88	0x3df427d4	0.11921659
89	0xbd8ef03f	-0.06979417
90	0xbd3c620e	-0.04599195
91	0x3e942b3a	0.2893923
92	0xbdd5d0de	-0.10440229
93	0x3e27b143	0.16376214
94	0x3df2240a	0.1182328
95	0xbd8b9994	-0.06816402
96	0x3dd5a355	0.10431544
97	0x3e1ca72e	0.15298149
98	0xbe0a261c	-0.134911
99	0xbdee41ff	-0.116336815
100	0xbd863ca1	-0.06554533
101	0xbd987968	-0.074450314
102	0x3cac67e2	0.021045629
103	0x3c0fc211	0.008774296
104	0x3d871438	0.06595653
105	0x3cfb477c	0.030673735
106	0x3daef7ff	0.08543395
107	0xbda7e7ab	-0.08198484
108	0xbb802f4b	-0.0039118878
109	0xbd2bebf0	-0.041973054
110	0x3d1ddbd6	0.03853973
111	0xbd92bdca	-0.07165106
112	0xbdbe65bd	-0.09296749
113	0x3bb2501d	0.005441679
114	0xbd65d24a	-0.05610875
115	0x3d709a6d	0.058741022
116	0x3d94f78f	0.072737806
117	0xbd6b9cdb	-0.057522636
118	0xbd11c3d8	-0.03558716
119	0xbc24b763	-0.010053488
120	0xbd4fa582	-0.05069495
121	0xba8c5891	-0.0010707547
122	0xbdc73e0a	-0.0972863
123	0x3dacb8ac	0.08433661
124	0x3db916d0	0.09037554
125	0x3d21ca33	0.039499473
126	0x3ee8284c	0.45343244
127	0xbc9ee2eb	-0.019395312
128	0x3e4ea817	0.20181309
129	0xbdd2a2da	-0.10284968
130	0xbb9b87e3	-0.0047464236
131	0x3d9dfa38	0.07713741
132	0x3dfd1a6e	0.12358557
133	0xbcd96e64	-0.026541896
134	0x3da8b967	0.08238488
135	0x3d614804	0.05500032
136	0x3df9dd17	0.12200373
137	0xbde142b0	-0.10999048
138	0xbdd6a846	-0.10481314
139	0xbd2a9bc3	-0.041652452
140	0xbd933635	-0.071880735
141	0xbdb82655	-0.08991686
142	0x3d286fa9	0.041122112
143	0xbd966e96	-0.07345311
144	0x3e05f314	0.13081008
145	0xbc7bbd6d	-0.015364987
146	0xbc90b7c5	-0.017665753
147	0x3dd3228a	0.10309322
148	0xbd57e856	-0.052711807
149	0xbda114c0	-0.07865286
150	0x3c8d2c98	0.017233178
151	0x3d88ee06	0.06686024
152	0xbd642b8b	-0.05570559
153	0xbdaa9360	-0.08328891
154	0xbdc74103	-0.09729197
155	0xbde08034	-0.10961953
156	0x3dad4022	0.08459498
157	0xbcc6d7b7	-0.024272783
158	0x3d2b49db	0.04181848
159	0xbcffc9be	-0.031224128
160	0x3dbb57ac	0.091475815
161	0x3d345d0f	0.04403406
162	0x3e3aa7b4	0.18228036
163	0x3e3e6bfd	0.18595882
164	0x3e6d285c	0.23159927
165	0x3e069937	0.13144384
166	0xbe123cab	-0.14280955
167	0xbd002ab3	-0.03129072
168	0x3d444261	0.047914866
169	0x3c647a15	0.013945122
170	0xbe54a1e1	-0.20764877
171	0x3d869102	0.06570627
172	0xbc9b531a	-0.018960524
173	0x3dee5e48	0.116390765
174	0xbd7e5a79	-0.062098
175	0xbdcaef9e	-0.099089846
176	0xbd8487e7	-0.06471234
177	0x3d666453	0.05624802
178	0xbdcb9796	-0.09941022
179	0xbdd986f9	-0.10621447
180	0x3db421f4	0.087955385
181	0x3d8cdacd	0.068776704
182	0x3cb18282	0.021668676
183	0x3daaa4ac	0.0833219
184	0xbde57a42	-0.112049595
185	0x3d43ddc9	0.047818933
186	0x3b0a7a6c	0.0021130098
187	0xbd1d4ea5	-0.03840508
188	0x3d8aff40	0.06786966
189	0xbdd9d170	-0.1063565
190	0x3dd9f873	0.10643091
191	0xbd909672	-0.07059945
192	0x3de2a1a7	0.11065989
193	0xbca14958	-0.019688293
194	0xbdbc6449	-0.091988154
195	0xbd86c312	-0.065801755
196	0x3d3615e0	0.044454455
197	0x3d051071	0.032486383
198	0x3e8bc533	0.2729889
199	0x3ebc8c27	0.36825678
200	0x3ea9d369	0.33169106
201	0xbdd254ad	-0.10270057
202	0xbdc2e6b9	-0.09516663
203	0xbd98aacc	-0.07454452
204	0xbe1553c6	-0.14582738
205	0xbe2da1d9	-0.16956271
206	0xbe7d4f8c	-0.24737376
207	0xbb8f4cb5	-0.004373158
208	0xbda337c0	-0.07969618
209	0xbd084f3e	-0.033278696
210	0x3d46628f	0.048433837
211	0xbd33ef10	-0.04392916
212	0xbdaa8a2e	-0.08327137
213	0xbd185bf4	-0.03719707
214	0x3cdb25ed	0.026751483
215	0xbc5cd294	-0.01347794
216	0x3d8bd850	0.06828368
217	0x3d936168	0.07196313
218	0x3de23902	0.110460296
219	0x3dc9bc1d	0.09850333
220	0xbcfb1d33	-0.030653572
221	0x3ce9055c	0.028444938
222	0x3dcb02a5	0.09912614
223	0xbdcb8f44	-0.09939435
224	0x3c8034e3	0.015650218
225	0xbde98ca2	-0.11403777
226	0x3a962c13	0.0011457227
227	0xbc8f1dfd	-0.017470354
228	0x3d800202	0.06250383
229	0xbdd7d2e0	-0.10538268
230	0x3d843a0a	0.064563826
231	0xbdf01130	-0.11722028
232	0xbccba2cf	-0.024857907
233	0xbcde676d	-0.027148927
234	0x3d318282	0.043337353
235	0xbc75308f	-0.014965191
236	0xbdf405ed	-0.11915193
237	0x3db3667f	0.08759784
238	0xbde2132c	-0.11038813
239	0x3eb23a54	0.34810126
240	0xbe5d64d9	-0.21620502
241	0xbe4116f4	-0.18856412
242	0x3d7c39f2	0.0615787
243	0x3ca6fcc2	0.020384196
244	0xbda07f83	-0.07836821
245	0xbd94e48b	-0.072701536
246	0xbde14d4c	-0.11001071
247	0x3ceb2c5d	0.028707677
248	0x3d9700e1	0.073732145
249	0x3d7029fd	0.058633793
250	0x3de03488	0.109475195
251	0x3d5e291e	0.05423843
252	0xbd726818	-0.059181303
253	0x3d8365a2	0.06415869
254	0x3d438c31	0.04774112
255	0x3d040222	0.032228597

conv3.bias f4 [16]
0	0xbc2d2995	-0.010568996
1	0xb9e85c91	-0.00044319456
2	0x3cec21fb	0.028824797
3	0xbd084eea	-0.033278383
4	0x3f28246b	0.6568057
5	0xb9e34ea9	-0.0004335542
6	0xbd08d2cb	-0.033404153
7	0xbd9b629d	-0.07587168
8	0x3f4007c1	0.7501183
9	0xbd557099	-0.052109335
10	0x3b772ab9	0.0037714674
11	0xbbf7dc20	-0.0075640827
12	0xb94f3968	-0.00019762444
13	0x3ccd6f03	0.025077349
14	0xba8623c0	-0.0010234043
15	0xbd405d2d	-0.04696386

conv4.weight f4 [32, 16, 3, 3]
0	0xbdaa1d10	-0.083063245
1	0xbdbba543	-0.091623805
2	0x3d42f03b	0.047592383
3	0x3d6e490e	0.05817514
4	0xbcfb9cdb	-0.030714443
5	0xbd92ef2b	-0.07174524
6	0xbd426f17	-0.047469225
7	0x3ce22c95	0.027609149
8	0x3cf44448	0.029817715
9	0xbde09671	-0.109661944
10	0x3cade6a9	0.021228151
11	0xbcb5bf9d	-0.022186095
12	0xb8d31cc3	-0.00010066621
13	0x3af092f5	0.0018354343
14	0xb9275743	-0.00015958869
15	0x3b704918	0.003666466
16	0x3d8d9154	0.06912485
17	0xbdc17140	-0.09445429
18	0xbc9161a8	-0.017746761
19	0x3c65d1d4	0.014027078
20	0x3d532223	0.051546227
21	0x3dac9431	0.08426703
22	0xbc177a8a	-0.009245524
23	0xbd816129	-0.0631736
24	0xbd92eb02	-0.071737304
25	0xbc8222c7	-0.015885724
26	0x3da90917	0.08253687
27	0xbd2039c7	-0.0391176
28	0xbd601767	-0.05470982
29	0x3d092edc	0.033491954
30	0xbba883ff	-0.0051426883
31	0xbd82fc52	-0.063957825
32	0x3d8f4162	0.06994893
33	0xbdbcb3d3	-0.09213986
34	0x3d977de1	0.07397056
35	0x3d90cf40	0.0707078
36	0xbd828d16	-0.06374566
37	0xbc605f25	-0.013694559
38	0xbd907045	-0.07052664
39	0x3d063ba5	0.032771725
40	0xbdde2536	-0.10846941
41	0x3c03a6a4	0.008035336
42	0xbc866678	-0.016406283
43	0xbd66ca13	-0.056345057
44	0xbbed47fb	-0.0072412468
45	0xbd901e74	-0.070370585
46	0x3c2f09b6	0.010683468
47	0x3b8756b5	0.0041302093
48	0x3c68fcb4	0.014220405
49	0xbda3e48a	-0.08002575
50	0x3d7bff6f	0.061522897
51	0xbd441a3c	-0.04787658
52	0xbd0c5e2c	-0.034269497
53	0x3a9977b5	0.0011708649
54	0x3c9c6896	0.01909284
55	0x3d8f562b	0.06998857
56	0xbc9a0d13	-0.018805062
57	0xbd5b01b6	-0.05346843
58	0xbceff7ae	-0.029292908
59	0x3be9a9de	0.0071308454
60	0x3d36ba65	0.044611353
61	0xbcad4cfb	-0.021154871
62	0xbd180e44	-0.03712298
63	0xbd05e089	-0.032684837
64	0xbcee1afc	-0.029065602
65	0x3d9a0c3d	0.075218655
66	0x3d859ed6	0.06524436
67	0xbc25f165	-0.010128354
68	0x3d015712	0.031577177
69	0x3d78565d	0.060629237
70	0xbd904098	-0.0704357
71	0x3d4f8b64	0.050670043
72	0x3d482c6a	0.04887048
73	0xbdc4dfe8	-0.09613019
74	0x3d0c3ccf	0.03423768
75	0x3cb94008	0.02261354
76	0xbd49dc74	-0.049282506
77	0xbc903fdc	-0.017608576
78	0x3d0f2135	0.034943778
79	0xbd99c076	-0.07507412
80	0x3bd8ff66	0.0066222427
81	0xbc9403df	-0.018068252
82	0x3ba9a203	0.005176784
83	0xbca9f9ac	-0.020748936
84	0x3da8f9d5	0.08250777
85	0xbc4514ec	-0.012028914
86	0x3d85a149	0.06524903
87	0x3d69a019	0.057037447
88	0xbc336597	-0.010949514
89	0x3ce59306	0.028024208
90	0x3ce0abbf	0.027425645
91	0xbd44a0c2	-0.048004873
92	0xbbbcd880	-0.0057631135
93	0x3d06a01e	0.032867543
94	0x3d383549	0.04497269
95	0xbd88c779	-0.066786714
96	0xbd8bbdd3	-0.068233155
97	0xbc50e7ba	-0.01275056
98	0xbd2fa087	-0.0428777
99	0xbe6de4aa	-0.2323176
100	0x3e5d5ed6	0.21618208
101	0x3a3a455c	0.0007105672
102	0xbd228f31	-0.03968734
103	0x3e2587ff	0.1616516
104	0xbe2baa3e	-0.16764161
105	0x3bf28f07	0.007402304
106	0xbd7682c2	-0.060183294
107	0xbcda026b	-0.026612481
108	0xbbe39d49	-0.00694624
109	0x3e76db14	0.24107009
110	0xbdc24875	-0.09486476
111	0xbc9bc6f6	-0.01901577
112	0x3deb0e10	0.114772916
113	0xbd9ffb44	-0.07811597
114	0x3debdfa5	0.11517266
115	0x3d2e1fca	0.042510785
116	0xbd1d2ae5	-0.038370986
117	0xbde4e559	-0.11176557
118	0x3e1e42b7	0.15455137
119	0xbe408e78	-0.18804348
120	0xbc60fb77	-0.013731829
121	0x3cea3ec2	0.028594378
122	0xbe07e4fb	-0.13270943
123	0x3e010ada	0.12601796
124	0xbd0a71cf	-0.033799943
125	0x3da2926a	0.079380825
126	0x3c5cc311	0.013474242
127	0x3da277c8	0.07933003
128	0xbdb167f9	-0.08662409
129	0xbd18b516	-0.037282072
130	0xbd9b2f94	-0.07577434
131	0xbd3ab25a	-0.045580246
132	0x3de55309	0.11197478
133	0xbd555ce1	-0.05209053
134	0xbcd204fa	-0.025637139
135	0x3d9d42d3	0.07678761
136	0x3ca8ca65	0.020604322
137	0xbd070e24	-0.03297247
138	0xbda5b8b0	-0.08091867
139	0x3d65762c	0.0560209
140	0x3cbccbba	0.023046363
141	0x3d614c6f	0.055004533
142	0x3d6782f5	0.056521375
143	0x3a86304d	0.0010237783
144	0x3d6b9262	0.05751265
145	0xbd28be0d	-0.04119687
146	0x3d98fd59	0.07470197
147	0xbd381c3b	-0.044948798
148	0x3c147170	0.009060249
149	0xbd15f654	-0.03661187
150	0x3dbee321	0.09320665
151	0x3d700c92	0.058605738
152	0xbd66f0c9	-0.056381974
153	0x3cb0a0c9	0.021561043
154	0x3d6e68da	0.058205463
155	0x3e0a72af	0.13520311
156	0xbe1bd110	-0.1521647
157	0x3ba406ff	0.005005717
158	0x3d2c0c26	0.042003773
159	0xbdbc76b9	-0.09202332
160	0x3b2e6a46	0.0026613637
161	0x3d3db10c	0.046311423
162	0xbd7c4cb4	-0.061596587
163	0x3defc348	0.11707169
164	0xbd2c6a24	-0.04209341
165	0x3d97e9c7	0.07417636
166	0x3d528208	0.05139354
167	0x3e08a634	0.13344651
168	0x3deca53b	0.11554953
169	0xbd2929dd	-0.04129969
170	0x3daf8dae	0.08571945
171	0x3d19cb2f	0.037547287
172	0x3c217e10	0.009856716
173	0x3d48ecfd	0.049054135
174	0xbc4404a6	-0.011963999
175	0xbd223345	-0.039599676
176	0xbd81a5d0	-0.06330454
177	0x3d755517	0.0598956
178	0x3dd47bbf	0.10375165
179	0xbc809b05	-0.01569892
180	0xbde6c3d1	-0.11267818
181	0xbe05aa39	-0.13053216
182	0x3d52ad51	0.05143482
183	0xbca729b5	-0.02040563
184	0x3a6751f8	0.0008824165
185	0x3dcb2351	0.099188454
186	0xbd38bfda	-0.04510484
187	0x3c9422e8	0.01808305
188	0x3e08dccf	0.13365482
189	0xbc366f33	-0.01113491
190	0xbd8fa258	-0.070133865
191	0xbda587e6	-0.08082561
192	0x3c03e0a5	0.008049165
193	0x3dcb0bdf	0.099143736
194	0x3b027240	0.0019904524
195	0x3d83df0f	0.064390294
196	0x3d50f412	0.051014014
197	0x3b086ad5	0.002081563
198	0xbd9c3516	-0.07627313
199	0xbb278373	-0.0025560528
200	0x3cf2ce34	0.029639341
201	0xbd9a1933	-0.075243376
202	0xbd9d28eb	-0.0767382
203	0x3daafc5d	0.08348916
204	0xbd679d26	-0.056546353
205	0x3d6cb1e9	0.057786856
206	0x3d87f340	0.06638193
207	0xbd3173a2	-0.043323167
208	0x3d904ded	0.07046113
209	0xbd8c97fb	-0.068649255
210	0x3bc8934f	0.006121076
211	0x3da97235	0.082737364
212	0x3d9f0971	0.07765473
213	0x3cba0167	0.022705747
214	0xbda1d008	-0.07901007
215	0xbd881a0e	-0.066455945
216	0x3ac006fc	0.0014650519
217	0xbd61bf9c	-0.055114374
218	0xbdc381dc	-0.09546253
219	0x3d3c0116	0.045899473
220	0xbde90bf0	-0.1137923
221	0x3d95c95b	0.07313796
222	0xbd66f591	-0.056386534
223	0x3d2ea36e	0.042636327
224	0x3c1aceb2	0.009448694
225	0x3be7abf2	0.007070058
226	0x3c308e1b	0.010776068
227	0x3d25e0c6	0.040497564
228	0x3becb93a	0.007224229
229	0xbb344e8f	-0.0027512645
230	0x3d9d759b	0.07688447
231	0x3d82fa4c	0.063953966
232	0x3bb46c12	0.005506047
233	0x3d9aadf3	0.075527094
234	0xbd781284	-0.060564533
235	0x3dac6307	0.084173255
236	0x3dc2d59a	0.095133975
237	0xbd2fd136	-0.04292413
238	0x3d21bb45	0.039485235
239	0x3dd44821	0.1036532
240	0xbd309864	-0.04311408
241	0x3cadd55c	0.021219902
242	0x3d67269f	0.056433316
243	0xbe325cec	-0.1741826
244	0xbd16559a	-0.03670273
245	0x3dd10da7	0.10207682
246	0x3d8e3cee	0.06945215
247	0xbe074edc	-0.13213676
248	0xbdaa155c	-0.08304855
249	0x3d55a66b	0.05216066
250	0x3c397b8d	0.011320961
251	0x3dfed182	0.12442304
252	0x3e06ed96	0.1317657
253	0x3e3debaa	0.1854693
254	0x3e065ca8	0.13121283
255	0xbe2c65e7	-0.16835748

conv4.bias f4 [32]
0	0xbdb8ebf4	-0.090293795
1	0x3b80bb81	0.003928602
2	0x3e17c070	0.14819503
3	0xbd09c91a	-0.03363905
4	0xbd696eb8	-0.056990355
5	0xbc99d301	-0.018777372
6	0x3e3fdfce	0.18737718
7	0xbdb38774	-0.0876607
8	0x3b533332	0.003222656
9	0xbd3c9e4d	-0.046049405
10	0xbd0431ad	-0.032273937
11	0x3c90b6bc	0.01766526
12	0x3ca5cd44	0.02023948
13	0xbd264255	-0.040590603
14	0x3e022b3b	0.12711804
15	0x3d76796a	0.060174383
16	0x3e5ccc33	0.21562271
17	0x3d233b3f	0.039851423
18	0xbd315e92	-0.04330308
19	0xbcfe9c5c	-0.031080417
20	0x3e72b144	0.23700434
21	0x3e84b2d9	0.259177
22	0x3e0b794b	0.13620488
23	0x3dade32d	0.08490596
24	0xbd8c5646	-0.06852393
25	0x3c5a4398	0.01332178
26	0x3e2f17a6	0.17098865
27	0xbd4c45df	-0.04987132
28	0xbdad0dd9	-0.08449907
29	0x3ddcbe44	0.10778478
30	0x3e6ad304	0.22932059
31	0x3af4475a	0.0018636987

conv5.weight f4 [10, 32, 3, 3]
0	0x3c558289	0.01303161
1	0x3d958e87	0.073025756
2	0xbd594a28	-0.053049237
3	0xbda1ad5b	-0.07894393
4	0x3c0da797	0.008645914
5	0x3deb59d5	0.114917435
6	0x3d45e6d7	0.04831585
7	0xbd15346e	-0.036426954
8	0x3c834630	0.016024679
9	0xbe20d769	-0.15707172
10	0xbd386834	-0.04502125
11	0xbca6d63b	-0.020365825
12	0x3b455791	0.0030112008
13	0xbe572f71	-0.21014191
14	0xbd35c1cb	-0.04437427
15	0x3cb678d6	0.022274416
16	0xbe20feb9	-0.15722169
17	0xbdf2da27	-0.118580155
18	0x3c90d82e	0.017681208
19	0x3d0efb7d	0.034907807
20	0x3dad32f4	0.08456984
21	0x3d1694c8	0.036762983
22	0x3d88428a	0.06653316
23	0x3d8e4d26	0.06948309
24	0xbdae4bc2	-0.085105434
25	0xbe571daa	-0.2100741
26	0xbd1a10a1	-0.037613515
27	0xbb2a7953	-0.0026012256
28	0xbc037d4d	-0.0080254795
29	0x3db495ec	0.08817658
30	0x3c6720af	0.0141069135
31	0xbda9f045	-0.08297781
32	0x3c4eb160	0.012615532
33	0x3c4ecfd4	0.012622792
34	0xbdd7ec7b	-0.10543152
35	0xbc7abfdd	-0.015304533
36	0xba68a2e8	-0.00088743726
37	0x3d444625	0.047918458
38	0x3d50fcb2	0.05102224
39	0xbd5e13b6	-0.054218017
40	0xbd60d982	-0.05489493
41	0xbcbf199b	-0.02332764
42	0xbc9ff56d	-0.019526208
43	0x3d6aa147	0.057282712
44	0x3d47b2b3	0.048754405
45	0xbe04c72f	-0.12966608
46	0x3c77e6b0	0.015130684
47	0xbcfb96fb	-0.030711642
48	0xbdf08f3a	-0.11746068
49	0xbd3bf283	-0.045885574
50	0xbdddd278	-0.10831159
51	0x3dfd05a2	0.1235459
52	0xbd8edca7	-0.0697568
53	0x3c9ab209	0.018883722
54	0xbc5ac8d3	-0.013353544
55	0x3d9cd6ee	0.07658182
56	0xbd9da204	-0.07696918
57	0x3e187075	0.14886649
58	0x3c6a19f0	0.014288411
59	0xbe9f8585	-0.31156555
60	0xbdd110ec	-0.10208306
61	0xbb15b6a1	-0.002284445
62	0x3e0522d1	0.13001563
63	0xbc93a9a8	-0.018025234
64	0xbc392b9f	-0.011301904
65	0x3b484229	0.0030557013
66	0x3cf7cb4b	0.030248305
67	0x3d01f6f0	0.03172964
68	0xbdb76889	-0.089554854
69	0x3d9f01b1	0.077639945
70	0xbb2ef070	-0.0026693605
71	0xbe37317a	-0.17889968
72	0x3d2b2f86	0.04179337
73	0xba7b6a5c	-0.0009590739
74	0xbb368541	-0.0027850422
75	0x3df531c5	0.119723834
76	0xbc091a75	-0.008368124
77	0xbe3f6342	-0.18690208
78	0xbe06d3ed	-0.13166781
79	0xbd7a9d26	-0.061185025
80	0x3e51c828	0.2048651
81	0x3d84aa12	0.06477751
82	0x3a216e1e	0.00061580713
83	0xbd39188b	-0.04518942
84	0x3bfb1333	0.007662201
85	0xbdc6ec91	-0.0971309
86	0xbd7ba586	-0.061437152
87	0xbd3db7cf	-0.04631787
88	0xbdb7f1b9	-0.08981652
89	0x3e004659	0.12526836
90	0xbc95ffec	-0.01831051
91	0x3dc19d20	0.09453797
92	0xbcc88b02	-0.024480347
93	0xbd189282	-0.037249096
94	0x3d290105	0.041260738
95	0xbd997682	-0.07493307
96	0x3e518990	0.20462632
97	0xbd87e9c7	-0.06636386
98	0xbe27b5cb	-0.16377942
99	0x3c198f30	0.0093725175
100	0xbd5e72f6	-0.054308854
101	0x3da7159f	0.08158421
102	0x3d84d058	0.06485051
103	0xbdcbbd51	-0.099482186
104	0xbc3871ad	-0.011257571
105	0x3d9efe35	0.0776333
106	0x3d229bc1	0.03969932
107	0x3e8ee636	0.27910012
108	0x3cf1f29f	0.029534636
109	0xbc819e5b	-0.01582258
110	0xbd9ac13e	-0.07556389
111	0xbaefa71f	-0.0018284059
112	0xbc5e23f2	-0.013558375
113	0xbd8b0e46	-0.06789832
114	0xbcc060bb	-0.023483625
115	0xbcddd43e	-0.027078744
116	0xbc9dff30	-0.019286722
117	0x3d09b544	0.033620134
118	0x3d34fb67	0.04418507
119	0x3be98d3a	0.007127431
120	0xbd67aab0	-0.056559265
121	0xbd9425e1	-0.07233787
122	0xbcac53d0	-0.021036059
123	0xbc7f4604	-0.015580658
124	0xbe2141c8	-0.1574775
125	0xbccd9058	-0.025093243
126	0x3c0acdaf	0.00847189
127	0xbca8c25c	-0.02060049
128	0x3cfb61f8	0.030686364
129	0x3deae1e0	0.114688635
130	0x3dac6e03	0.084194206
131	0xbe291034	-0.16510087
132	0xbc349a40	-0.011023104
133	0xba190e56	-0.0005838623
134	0xbd7a0752	-0.061042137
135	0xbd843dc4	-0.06457093
136	0xbe11a865	-0.14224394
137	0xbe0043d3	-0.12525873
138	0xbde5d32d	-0.11221919
139	0x3d0a5922	0.03377641
140	0x3ddc3528	0.10752326
141	0xbe205640	-0.15657902
142	0x3db0fa42	0.08641483
143	0x3d7fbfac	0.062438652
144	0xbcf26040	-0.029586911
145	0xbcafc5bc	-0.021456592
146	0x3dd3d14c	0.103426546
147	0xbb7c6d5d	-0.0038517334
148	0xbd82ccfd	-0.06386755
149	0xbd3b7235	-0.045763213
150	0x3e396bfe	0.18107602
151	0x3d9be8d2	0.07612766
152	0xbda758af	-0.08171212
153	0xbdec2311	-0.11530126
154	0x3daed356	0.08536403
155	0xbc487e69	-0.01223717
156	0x3cf81597	0.030283732
157	0x3e2020f4	0.1563757
158	0xbb32360d	-0.0027192861
159	0x3de28730	0.11060941
160	0xbd9de8d1	-0.07710422
161	0xbdf665d5	-0.12031142
162	0xbdb09c81	-0.08623601
163	0xbda2e458	-0.07953709
164	0x3dc939c0	0.09825468
165	0xbdc1f2e8	-0.09470159
166	0xbc820d09	-0.015875356
167	0xbe3348a9	-0.17508186
168	0xbd8d5bd8	-0.069022834
169	0x3c140093	0.00903334
170	0x3da8c6a5	0.082410134
171	0xbd47745c	-0.048694953
172	0x3cecfd09	0.02892925
173	0x3c695fd8	0.014244042
174	0xbcececb3	-0.02892146
175	0x3ce9b384	0.028527983
176	0xbc0a1a3c	-0.008429106
177	0x3d0ef1ea	0.034898676
178	0xbc5327e5	-0.01288793
179	0xbcacab1e	-0.021077689
180	0x3d1aa1e5	0.03775205
181	0x3db5f9ef	0.08885562
182	0xbd479074	-0.048721746
183	0x3a45934d	0.0007536903
184	0x3d8fa1ea	0.070133045
185	0xbcc07da6	-0.023497414
186	0xbd5830d0	-0.052780926
187	0x3db4d4a4	0.088296205
188	0xbdd17e48	-0.10229164
189	0x3e0df98d	0.13864727
190	0x3dcd83fa	0.10034938
191	0x3d8e44b4	0.06946698
192	0x3d8afc1d	0.06786368
193	0x3df29105	0.118440665
194	0xbda9764a	-0.08274515
195	0x3d067eb3	0.032835674
196	0xbe325c5e	-0.17418048
197	0xbd567c67	-0.052364733
198	0xbdc550b0	-0.096345305
199	0x3de46297	0.11151617
200	0xbcbc38c0	-0.02297628
201	0x3d006bbf	0.031352755
202	0xbdbe3fcd	-0.09289513
203	0x3ca86d1d	0.020559842
204	0x3e0b16d4	0.13582927
205	0x3c0f3bac	0.008742254
206	0xbddad0d8	-0.10684365
207	0xbdb072f5	-0.08615676
208	0x3cc2c72c	0.023776613
209	0x3cbd907f	0.02314019
210	0xbb5fa659	-0.003412625
211	0xbd8a619a	-0.06756897
212	0x3e1fd114	0.156071
213	0xbe52d907	-0.20590602
214	0xbc23c801	-0.009996415
215	0x3e321673	0.17391376
216	0xbd7ee1a4	-0.062226906
217	0xbda54856	-0.080704376
218	0xbd98cd69	-0.07461054
219	0x3ca96735	0.020679096
220	0x3bd96a8d	0.0066350163
221	0xbced6de0	-0.028983057
222	0xbbf3e29e	-0.0074427864
223	0xbcb45519	-0.022013234
224	0x3e01ccb4	0.12675744
225	0xbe1ce613	-0.15322141
226	0x3e163c65	0.14671476
227	0xbd8e8103	-0.06958201
228	0x3d8416f4	0.064496905
229	0xbd891f00	-0.06695366
230	0xbdfc5125	-0.123201646
231	0x3e0e39a3	0.13889174
232	0x3e776857	0.24160896
233	0xbdb75b8c	-0.08953008
234	0xbe1659e6	-0.14682731
235	0x3d3357e9	0.04378501
236	0xbd6ce431	-0.057834808
237	0xbdb6d552	-0.08927406
238	0xbd479f0d	-0.048735667
239	0x3e36257f	0.17787741
240	0x3e441913	0.1915019
241	0xbd8ebf60	-0.06970096
242	0x3dccf070	0.10006797
243	0xbb2027e6	-0.0024437844
244	0x3cd22402	0.025651935
245	0x3ca93d1d	0.020659024
246	0xbc8cac79	-0.017172085
247	0x3ce29312	0.02765802
248	0x3b483f5c	0.0030555343
249	0x3d8571e4	0.065158635
250	0xbd75b731	-0.059989158
251	0x3cfd0df5	0.030890444
252	0xbd1225ad	-0.03568046
253	0xbb8d375f	-0.0043095793
254	0xbc9965a5	-0.018725226
255	0xbdd043cb	-0.101691805

conv5.bias f4 [10]
0	0xbd8964ba	-0.06708665
1	0x3d564332	0.052310176
2	0xbdbfc685	-0.093640365
3	0xbcbe7046	-0.023246896
4	0xbd96e50d	-0.07367907
5	0xbc6422c9	-0.013924309
6	0x3c70d1c4	0.0146984495
7	0x3bf9cd25	0.007623332
8	0xbce7bfa5	-0.028289625
9	0x3d76215d	0.06009041
