R7models/BaseR7seed9.pt (torch_old, 38047 bytes, 10 tensors)

conv1.weight f4 [4, 3, 3, 3]
000000 3d 29 9f 3e 60 8a 18 3e ff a7 7e 3e dd 80 c0 3e
       0.3108615 0.14896536 0.24868773 0.37598315
000010 97 5d d1 3e fd 45 08 3f a3 95 41 3e 5a a6 e0 3e
       0.40891716 0.53231794 0.18904738 0.43876916
000020 53 47 96 3e 44 34 0d bd a7 c3 31 3e 58 65 d8 3c
       0.2935129 -0.034473673 0.17359792 0.026415512
000030 e5 a3 0e be 0f 12 e7 bd 40 51 af 3b a0 30 bd bb
       -0.13929708 -0.11282741 0.005350262 -0.005773619
000040 00 0f f3 3b e0 8f 71 bd 98 0e a5 bc 78 67 4f 3d
       0.0074175596 -0.0589751 -0.02014856 0.050635785
000050 6e 83 99 3d 2e 68 fd 3d 3b 0a 22 3e d2 7c b6 3d
       0.07495771 0.12373386 0.15824215 0.08910526
000060 90 c5 a7 bc 7d 82 28 be b3 5f 25 3e 6a 3a b0 3f
       -0.020479947 -0.16456027 0.16149788 1.3767827
000070 50 c2 a4 3f 54 51 38 3f 3e 0d 94 3f a3 1f 75 3f
       1.28718 0.71999097 1.1566541 0.957514
000080 ab 28 7a 3f 3b 78 b0 3f 6c 37 6b 3f 84 74 3d 3f
       0.97718304 1.3786691 0.9188144 0.74005914
000090 70 d9 c7 bd 38 ae 01 3d da 5d fd 3d 00 69 a9 bb
       -0.0975827 0.03166029 0.123714164 -0.0051699877
0000a0 75 b1 2c 3e f0 02 04 be 16 cd d9 3d 88 21 28 3d
       0.1686457 -0.12891746 0.1063482 0.041047603
0000b0 cc 4f 03 be 76 e2 b4 3d cb b5 e3 bd d5 dc 07 3e
       -0.12823409 0.088322565 -0.11118659 0.13267834
0000c0 2a 2f d8 3d 44 f2 2f be 32 e3 ca 3d 50 68 fb 3c
       0.10555871 -0.17182261 0.09906615 0.030689389
0000d0 36 29 bd 3d 5a 29 be 3d 58 8b e6 bc 07 ed 87 bd
       0.09236376 0.09285231 -0.028142616 -0.06637006
0000e0 c1 0b 96 bc 05 34 8b bd 9c 64 30 be 40 c1 0a 3e
       -0.018316152 -0.06797031 -0.1722588 0.13550282
0000f0 8a 8f ab bd e5 cd 6e 3d ca e1 f0 bc 95 c9 0c 3e
       -0.08376987 0.058301825 -0.02940454 0.13748772
000100 a0 aa 66 3c e7 c2 36 be 00 03 06 ba 78 1b eb bc
       0.014078766 -0.17847787 -0.00051121414 -0.028699622
000110 53 d5 ce bd cb d4 28 3e ac db 0e 3d 94 f2 73 bd
       -0.10099282 0.16487424 0.034877464 -0.059557512
000120 ef 50 42 be 3d 6a 33 3e 1a 1a 16 be 08 fb 92 3c
       -0.18976186 0.17520995 -0.14658394 0.017941967
000130 0a ec f1 3d 59 8d 27 be 22 fa 81 3d b7 5e 3c 3e
       0.11812599 -0.16362514 0.06346537 0.18395506
000140 64 7f 9f bd 82 6c 93 3c 9e 36 6c bd 3e a3 43 be
       -0.0778797 0.017996076 -0.057669275 -0.1910524
000150 5e 8c d4 bb 63 e0 c3 3e 24 7a 8c 3d af c0 8c bd
       -0.0064864596 0.3825713 0.06859234 -0.06872689
000160 e4 19 a4 3e fa b5 d6 3d 5b ce 36 3e fc fb 3f be
       0.32051003 0.10483928 0.17852156 -0.18748468
000170 c5 80 33 be 50 dc a3 3c a8 49 1c be f7 1f 29 be
       -0.1752959 0.020002514 -0.15262473 -0.165161
000180 d9 6d 0a 3e 31 22 22 be 0e 7c 1d be f0 89 64 3d
       0.13518466 -0.15833355 -0.15379354 0.05579561
000190 dc 35 7f 3d 7d 41 39 3e 64 60 79 bd 40 32 9b 3c
       0.062307224 0.18091388 -0.06088294 0.01894486
0001a0 0a bd f0 bd b8 ee 2d 3d 6c 30 03 3d 67 8d b1 bd
       -0.11754806 0.042463988 0.0320286 -0.086695485

conv1.bias f4 [4]
000000 c5 d5 67 3e 39 ab 76 bc 48 05 c8 bc 4f 32 87 b9
       0.2264014 -0.015055471 -0.02441658 -0.0002578669

conv2.weight f4 [8, 4, 3, 3]
000000 c2 dc 83 3d 6c 37 a3 3d 99 8c b3 3d 58 33 64 3e
       0.064385906 0.07969555 0.08767051 0.22285211
000010 05 7d b5 3d 6b 18 45 3e a9 b0 3c 3d 2f ba 14 3e
       0.08861736 0.19247596 0.046066914 0.14524148
000020 21 e3 d8 bd 20 95 dc 3e c6 49 c3 3e 5e 6a 9b 3e
       -0.105901964 0.43082523 0.38142222 0.3035459
000030 32 94 1b 3e 3b 1b d2 3e 82 a4 18 3e a3 97 a7 3e
       0.15193251 0.410364 0.14906505 0.32732877
000040 00 08 c7 3e 7b 62 ea 3d a0 b7 f0 3d fb b8 b4 bd
       0.3887329 0.11444565 0.11753774 -0.08824345
000050 25 3a 21 be e6 62 a5 bd a3 63 08 be 60 46 02 3e
       -0.15744837 -0.08075504 -0.13319258 0.12722158
000060 97 a9 ad 3d 3a bc de bd 2e f3 80 3d af ec bc 3d
       0.08479612 -0.10875745 0.06296383 0.09224831
000070 cb 81 5e 3d ed 4e f2 3d 1a 01 f7 bd a0 00 22 3e
       0.054323 0.1183146 -0.12060757 0.15820551
000080 ac 1d 11 3e 8f 6c 9c 3c 1c dc 93 3c 5b e7 79 bc
       0.14171475 0.019094734 0.018049292 -0.015252913
000090 6e 11 99 3d e4 04 2b bd 18 9b a7 3d f9 49 f8 3d
       0.074740276 -0.04175271 0.08183879 0.12123484
0000a0 09 b2 c5 3d 1a 5a 6b 3e b0 d0 48 3d 91 95 52 bd
       0.09653098 0.2298359 0.049027145 -0.05141217
0000b0 b3 5a 75 3d 94 6b b2 be fb cc ab be 34 71 b9 be
       0.05990095 -0.348477 -0.33554825 -0.3621918
0000c0 84 20 9e be 3a 6a 4d be a5 f4 4f be cf 61 7e be
       -0.30884182 -0.20060053 -0.20308168 -0.24841999
0000d0 75 c8 12 be ba b3 1d be 4a 06 37 3c 2b 66 0c 3e
       -0.14334281 -0.15400591 0.011170933 0.13710849
0000e0 a5 ae 87 3c 37 52 6a 3c 56 2e 5f 3c 3e 53 92 3b
       0.01656277 0.014301828 0.013621887 0.0044654896
0000f0 77 93 ba bc 45 86 b8 bc aa da 15 3e 99 e0 2a bc
       -0.022775395 -0.022524962 0.14634195 -0.010429525
000100 33 51 fd 3d 83 5e 68 3d 28 f9 21 3e cd 91 0a 3e
       0.12369003 0.05673076 0.15817702 0.13532181
000110 59 4b 0e be ed 1f 08 be 4a 7d 28 be 00 53 30 be
       -0.1389593 -0.13293429 -0.16454044 -0.17219162
000120 cb b9 31 3d 9b 34 f9 bd 1d 5d f0 bb b6 3a 84 3a
       0.043390077 -0.12168237 -0.0073353187 0.0010088298
000130 96 b7 d1 3d fa df 0d 3e db 66 31 3e a3 da 23 3d
       0.10240094 0.13854972 0.17324392 0.04000343
000140 34 68 3d be 52 fa 89 3e b8 4d 9a 3c ab 3b cc bc
       -0.18496782 0.26948792 0.018835887 -0.024930796
000150 6a cb ca 3e 5d 0c e6 3d ac 54 51 be 41 c6 12 3f
       0.39608318 0.11232827 -0.20442456 0.5733376
000160 6f 42 6f bd 7f f0 f1 3c c4 1d d2 3d f5 7e 02 bc
       -0.058412965 0.029533623 0.102595836 -0.007964839
000170 92 d6 ce 3d e1 9f 8c 3d aa 5d 62 bc 84 a6 25 be
       0.1009952 0.06866432 -0.013816277 -0.16176802
000180 f0 31 dd bd 6f d7 2c bc 5d 2e d7 3d 1e 77 98 3d
       -0.108005404 -0.01054941 0.1050689 0.07444595
000190 e2 58 80 bc b5 14 c3 bd d6 b9 01 3e 75 65 e8 3c
       -0.015667383 -0.09525434 0.12668547 0.028368691
0001a0 b4 5d c2 3d 91 0b 67 3d 47 80 d5 bc 0d 9c 02 3e
       0.09490529 0.056407515 -0.026062144 0.12754841
0001b0 68 45 20 bc 1c 17 0c be f1 7c 8d 3d c6 d3 92 bd
       -0.009782173 -0.1368069 0.06908596 -0.07169299
0001c0 b4 ab 86 bd 3e 4b 14 be ba 14 e2 bd 83 92 23 bc
       -0.065757185 -0.14481828 -0.110391095 -0.009983662
0001d0 6d 46 a5 bd db 09 16 3e 0f cf 9e bd 31 14 16 3e
       -0.08070073 0.14652197 -0.07754337 0.1465614
0001e0 73 2a 68 3e 5c 21 48 bc 4b 1d 9b bc c2 b5 e4 3d
       0.22672443 -0.012214985 -0.018934866 0.1116748
0001f0 35 8c d6 bc d4 16 34 be 3e 8c f2 bd 33 98 83 bd
       -0.026189903 -0.17586833 -0.11843155 -0.06425514
000200 49 98 9f 3d 28 1a 59 3c d8 39 13 be 18 85 0e be
       0.07792718 0.013250865 -0.14377534 -0.13917959
000210 5f c2 02 3e c8 64 e7 3d 38 cb 23 be fa 8f 03 3e
       0.12769459 0.112985194 -0.1599549 0.12847891
000220 62 9c 76 bd 1a c0 48 3c b3 28 c4 bc 5a 98 56 3d
       -0.060207732 0.012252832 -0.023945188 0.052391388
000230 86 9f d0 3d 9f 2f 8c 3d 2b 7b b4 bd 85 ff 73 bd
       0.10186677 0.068450205 -0.08812555 -0.059569854
000240 1e 4b dd 3c f6 30 4d 3e 1f 49 0c 3e 61 46 6f 3e
       0.027013358 0.20038208 0.13699768 0.23366691
000250 b5 61 81 3e 36 96 1b 3e 15 ac 2a 3e e6 df 95 3c
       0.25269857 0.1519402 0.16667207 0.01829524
000260 04 ea 70 bd 36 70 99 3c 7b c3 5d 3e 55 52 a0 3d
       -0.058816925 0.018730264 0.21656601 0.078282036
000270 87 69 69 3e 3c 97 a0 3e 0d 23 95 3e 3a f1 e6 3c
       0.22794162 0.31365383 0.29128304 0.028191198
000280 46 75 43 3e 44 77 77 3e fd af 2c 3d db 1c 07 be
       0.19087705 0.2416659 0.042160023 -0.13194601
000290 41 9e e7 3d 65 fb e8 3c db 80 ec bd b8 58 0b 3c
       0.113094814 0.028440187 -0.11548015 0.008505039
0002a0 1c 47 7f bb 53 d4 09 bd 17 dc e2 bd 93 69 49 3d
       -0.0038952297 -0.033649754 -0.11077135 0.04917295
0002b0 13 39 95 3d 20 73 c2 3d 74 ee bd bd ea ac b4 3d
       0.07286277 0.094946146 -0.09273997 0.08822043
0002c0 e5 ba 9d bd 81 25 07 3e 39 71 bd 3c 58 ca 8c bd
       -0.07701663 0.131979 0.023125278 -0.068745315
0002d0 f4 a3 95 3e 3c 44 34 3e 72 5f 93 3d ce a2 67 3e
       0.2922665 0.17604154 0.07195939 0.22620699
0002e0 bd d9 8f 3d 69 8a d4 3c 1f bd 9f 3e 73 0e f2 bd
       0.07023952 0.025944905 0.31198975 -0.11819162
0002f0 a8 d5 60 3e 46 6a 4c 3f ff 3b cc 3d f2 58 fe bd
       0.21956503 0.7984966 0.09972381 -0.12419309
000300 08 f5 81 3f b2 11 a8 3e 2f 87 a5 3d 73 db 8e 3f
       1.0152903 0.32826 0.08082425 1.116072
000310 a6 e8 38 3e 7c 7c 5f 3d 4d 20 7a 3d b5 d4 3a 3b
       0.18057498 0.054562077 0.06106596 0.002850813
000320 03 32 e8 bc d6 69 73 3d 3f a3 5c 3d ce 0c 1c be
       -0.02834416 0.059427105 0.05386662 -0.1523926
000330 8f 1e 5e bd 93 3d 95 3d 07 7b 07 3e 61 9f 9e bd
       -0.05422836 0.07287135 0.13230525 -0.07745243
000340 af 07 1c 3e b5 96 e3 bd d7 63 0b 3c cb d4 94 3d
       0.15237306 -0.111127295 0.00850769 0.072671495
000350 65 42 1d be 24 23 14 3e 47 66 21 3d 01 58 ea 3d
       -0.15357359 0.1446653 0.03940418 0.11442567
000360 58 04 20 be e9 b1 3b 3d 87 a0 08 be d5 da f9 bd
       -0.15626657 0.045823965 -0.13342486 -0.12199942
000370 cf 25 0d be 0b 20 97 bb c5 54 b8 bd 70 fa 10 3e
       -0.13783954 -0.004611974 -0.090005435 0.14158034
000380 07 31 b3 3b b7 3f 5d 3d 28 fb 5f 3d 32 e3 a5 bd
       0.005468491 0.05401584 0.05468288 -0.08099975
000390 91 42 0e 3e fa d0 08 bd fa d7 19 bd 98 13 f2 bd
       0.1389258 -0.03340242 -0.037559487 -0.118201435
0003a0 c3 77 b5 bd d8 39 22 bd 5d ab 26 3e 4e ce d4 bd
       -0.08860733 -0.039605945 0.16276307 -0.10390912
0003b0 33 02 1a 3d 86 82 1c 3c 7b d2 1a be 01 a8 06 be
       0.037599754 0.009552604 -0.15119354 -0.13150026
0003c0 dd 19 e2 3c 86 df 1f be 34 aa e8 bd 12 e9 f8 3d
       0.027600223 -0.15612611 -0.11360589 0.1215383
0003d0 4f 1f e8 bd 2f ce 9b 3c d3 c9 66 3c 44 c8 f7 3d
       -0.11334097 0.019019214 0.014086205 0.120987445
0003e0 c5 e8 81 bb c0 54 20 3d 27 b8 c8 3d f3 a8 d5 3c
       -0.003964516 0.039143324 0.09800749 0.026081538
0003f0 e1 25 37 3d 09 30 ff 3e c7 6d 90 3e 0f 81 f0 3d
       0.04471386 0.49841335 0.28208753 0.11743366

conv2.bias f4 [8]
000000 91 44 dd bd cb fc 3a 3f b3 9e ac 3d 6b 93 29 3e
       -0.10804094 0.7304198 0.08428707 0.16560142
000010 55 6b b4 3d a4 e1 fe 3d a4 15 9b 3d 17 4f 14 3d
       0.088095345 0.12445381 0.07572487 0.03620824

conv3.weight f4 [16, 8, 3, 3]
000000 f3 5d 7e 3c c3 19 6b 3d 22 e8 c6 bd 5b d0 bb bd
       0.015525329 0.057397615 -0.097122446 -0.091706
000010 fe b4 51 be d4 d1 94 bd b5 49 30 3d ef e7 e3 bc
       -0.204792 -0.07266584 0.043039043 -0.027820555
000020 c2 82 37 3e ba c6 29 bc 4b 2d 04 3e 0a 62 0c 3e
       0.17920974 -0.0103623215 0.12907903 0.13709274
000030 8a 26 2c 3e 3a 6d 45 3e 26 27 2a 3e e8 6f 20 3e
       0.16811576 0.19279948 0.16616496 0.15667689
000040 78 6c df 3d 19 c2 d6 3c b1 76 03 3e 46 b3 ff 3c
       0.10909361 0.0262156 0.12838246 0.031213414
000050 a5 5a c5 bd 38 a2 2b 3e f5 f9 89 bd 48 d9 a0 bc
       -0.0963643 0.167611 -0.06737129 -0.019634858
000060 f4 71 f8 3d fa ee d8 bc 6f 63 18 3e 5a 3c 71 3d
       0.1213111 -0.02648114 0.14881681 0.058895446
000070 73 07 19 3c 4f 29 9e bd 5e eb 28 3d 7d d9 f4 3c
       0.009340155 -0.07722723 0.04124009 0.029888863
000080 1b 42 0e bb a6 04 e9 3d 5d 35 de 3d e6 5d e7 3d
       -0.0021706882 0.1137784 0.10850022 0.112972066
000090 5c cc 72 3b 54 8b 77 3d be 83 de 3d c2 cd 9b bd
       0.0037048077 0.060435608 0.108649716 -0.076076046
0000a0 db a5 18 be 15 80 91 bd ef d9 ef 3d 88 0f 8c bc
       -0.14907019 -0.07104508 0.117114894 -0.01709725
0000b0 f6 04 b7 3d 32 57 49 3e d6 25 ae bd a5 d7 41 be
       0.08936493 0.19662169 -0.085033104 -0.18929918
0000c0 ad 83 9a 3e 6c 47 ee bd 71 58 b4 3b 90 f6 a6 3e
       0.30178586 -0.116347164 0.005503707 0.32609987
0000d0 40 9c 15 bd b8 51 48 3e f6 86 8d 3c cb e6 de 3c
       -0.036525965 0.19562423 0.017276268 0.02720966
0000e0 6a 0a fe bc 49 f1 b0 bd 6a 0a 9c 3d 7f 63 4d 3d
       -0.031010825 -0.086397715 0.07619174 0.050143715
0000f0 61 c7 d9 3d 10 6c 55 3d 0e 1b 9d 3b 21 f1 e5 bd
       0.10633732 0.05210501 0.004794485 -0.11227632
000100 67 ad 3d be 90 ba 45 3e c1 72 b3 bd 93 31 43 be
       -0.18523179 0.19309449 -0.08762122 -0.1906188
000110 53 dc 59 be 1c 8e 07 3d 60 46 6d 3e cd 03 4c 3e
       -0.21275453 0.03309451 0.23171377 0.19923325
000120 79 d3 41 3e 0c 88 46 3e a1 37 9a bd 10 db c8 3d
       0.18928327 0.19387835 -0.075301416 0.09807408
000130 cd 31 07 bd 41 8f 10 be 69 a9 eb 3d c5 39 5d 3d
       -0.033006478 -0.14117147 0.11506922 0.05401017
000140 98 4f 33 be d6 4b 10 be ea 16 89 bd e0 09 6b 3d
       -0.17510831 -0.14091429 -0.06693824 0.057382464
000150 84 95 77 3d 82 d0 4a bd 29 c7 17 3d 86 20 1f bd
       0.060445324 -0.049515255 0.03705517 -0.038849376
000160 57 8f a4 3a a5 92 37 3d 7a a1 d9 bc a0 46 0e 3e
       0.0012554926 0.044817585 -0.026566256 0.13894129
000170 c1 2a 91 bc 29 9e 4e 3d e4 c6 2c bc 6f 45 62 bd
       -0.017720582 0.050443802 -0.010545466 -0.055242
000180 59 d8 af 3d 19 82 c0 3b 92 df 0d 3c 2d 67 b2 bd
       0.08586187 0.005874884 0.00865926 -0.087110855
000190 d8 bb f2 3d e3 e0 bc bd 03 61 96 3d 85 89 14 bc
       0.118522346 -0.09222581 0.07342722 -0.00906599
0001a0 20 ce a9 bc 26 a3 91 bd c0 04 fe 3c a1 5b b7 bd
       -0.02072817 -0.07111196 0.031008124 -0.08953024
0001b0 b5 e7 25 3e df 0c 85 bb c2 8d 2f be 6e ed a9 3d
       0.1620167 -0.0040603722 -0.1714392 0.08297239
0001c0 17 cd c0 3c d1 c1 87 bd 0d 4c fa 3d 59 28 5b bc
       0.023535294 -0.066287644 0.12221537 -0.013376319
0001d0 69 8b db bd 07 c9 99 bd 88 18 c6 3e 17 84 d4 bd
       -0.1071995 -0.07509046 0.3869059 -0.10376757
0001e0 c6 86 93 bc d1 1f cf bd fb 6f d1 bd ed a2 ad bd
       -0.0180086 -0.101134904 -0.10226437 -0.08478341
0001f0 96 aa a3 bc 32 a5 49 be 02 df 0e bd 05 22 f4 3c
       -0.019978803 -0.19691923 -0.034880646 0.029801378
000200 3a 1b d5 3d 91 64 23 bd a5 67 8f 3d a6 cc cb bb
       0.10405584 -0.03989083 0.070021905 -0.0062194644
000210 12 37 4e 3c 9c 32 b5 3d b7 5f c5 3d b6 bb e7 3e
       0.012586372 0.088475436 0.09637397 0.452604
000220 96 fa 62 3e af 95 a6 be bf 58 9c bd 2c 0c 8f 3d
       0.22165903 -0.32536075 -0.076341145 0.069847435
000230 3f 01 0a be 64 6c 58 3e ae c2 51 3d 1a 19 ad be
       -0.13477038 0.21135098 0.05121105 -0.33808213
000240 e7 75 93 3d a8 b5 df 3c ac 18 a6 3c 63 0d e6 bd
       0.072002225 0.0273083 0.020275436 -0.11233022
000250 ea 6b 35 bd 8a e1 b7 3c 82 6e 51 bd 98 b5 f6 bc
       -0.044292368 0.022446413 -0.05113078 -0.030115888
000260 b5 41 d0 3d 7c a1 f2 bb ff 23 c4 bd 4b 32 23 bd
       0.101687826 -0.0074045043 -0.09577178 -0.039842885
000270 0d 79 05 be 22 4b 17 bd 0e ca 59 3d 68 b6 e6 bd
       -0.13034458 -0.036936887 0.05317121 -0.1126526
000280 3c 14 64 bc a4 4a 8f 3d 30 2d 5a bd 0a 5e e0 3d
       -0.01392084 0.069966584 -0.05326575 0.109554365
000290 a1 ee 80 bd eb 68 e5 bd 66 2a 8e bd e9 03 a3 bd
       -0.06295515 -0.11201652 -0.069416806 -0.0795973
0002a0 76 0f 11 3e 6f e5 1e bd 86 6e b6 3d 8d cf be bd
       0.14166054 -0.038793024 0.089077994 -0.09316931
0002b0 a2 4f 06 3e a6 fe 58 3d b5 8a d3 bd 2c cf 02 be
       0.13116315 0.052977227 -0.10329191 -0.12774342
0002c0 ac 3b b1 3c b2 c4 8b bd 4b 61 5a 3c 0c 76 3d 3a
       0.0216349 -0.06824626 0.0133288605 0.0007227368
0002d0 0b cd b8 3d dd 23 b8 3d ad 78 d5 bc b5 d2 ce bd
       0.09023484 0.089912154 -0.02605852 -0.10098783
0002e0 14 ae c8 bc 4c 47 6f bd bb 09 df 3d 8b df 23 3b
       -0.02449707 -0.058417603 0.10890528 0.0025005068
0002f0 ec 25 34 3d 72 31 02 bc 58 98 8d 3e d2 72 83 bd
       0.043981478 -0.007946359 0.27655292 -0.064183846
000300 35 a5 1e bd 58 1c 44 3c 54 81 59 be 24 8a 3c 3e
       -0.038731772 0.011969648 -0.21240741 0.18412071
000310 14 9d 5c bd 3c 13 49 3e 07 7f a5 bd 13 69 c3 bd
       -0.05386074 0.19636244 -0.08080869 -0.09541526
000320 7f a9 d1 bd 00 f8 b3 bc f4 ae 96 3c 01 dd 2b 3d
       -0.10237407 -0.021968842 0.018393971 0.041958813
000330 e1 c7 7a bd 57 db 2b bd 68 2c ee 3c 3d c7 a4 3e
       -0.061225776 -0.041957226 0.029073909 0.32183257
000340 8c 91 80 3d 7a 66 3b 3e 0f bf 8d be 60 ca 6a be
       0.06277761 0.1830081 -0.2768483 -0.22928762
000350 89 ef 8b bd 02 8f 55 bd 28 a9 9b bc 64 b8 b4 3e
       -0.06832797 -0.052138336 -0.019001558 0.3529693
000360 c3 fc d7 3d 71 30 4c 3b ea 3f 44 3e b7 91 85 3d
       0.10546257 0.0031156803 0.19165006 0.065219335
000370 48 ff b3 bd 9b 38 93 3e fd f4 84 bd 3f 69 0b bc
       -0.087889254 0.28754124 -0.0649204 -0.008508979
000380 27 9c b6 3d ee e6 29 be dc 14 06 3c 5c c5 7e be
       0.089165024 -0.16591999 0.008183684 -0.24879974
000390 43 af 4f 3c ec fe 02 be c2 8f b1 bd 81 5a 13 be
       0.012676063 -0.12792557 -0.08669998 -0.14389993
0003a0 e0 60 51 3d 9c 30 4b be 7c cb 09 3e 50 4f 15 be
       0.051117778 -0.19842762 0.1345653 -0.14581037
0003b0 84 40 26 3d 1d ab 57 3e de 69 2d bd 4d 03 bf 3d
       0.04058887 0.21061368 -0.04233729 0.093268014
0003c0 4d 65 8a 3d 75 5e 9e bd d9 cf 94 3c d8 d4 ac 3d
       0.06757603 -0.0773286 0.018165516 0.08439034
0003d0 39 5c cc bb af 18 c7 bd eb aa 1d 3d 6f 5a a1 3d
       -0.0062365797 -0.09721505 0.03849308 0.07878577
0003e0 35 04 41 3b 37 20 5b 3d 19 9a ed bd f0 7f 6b 3d
       0.002945197 0.05349752 -0.116016574 0.057495058
0003f0 8f e2 2c be ca 3a 1c 3c 44 69 42 3e 41 0f 37 3d
       -0.168833 0.009535501 0.18985468 0.04469228

conv3.bias f4 [16]
000000 4b 73 55 bd e9 61 f1 bc f1 47 d5 bd 0b 93 fd 3d
       -0.052111905 -0.029465633 -0.10414112 0.12381562
000010 5d 58 4b bd b5 62 65 3e cc 4a 03 bd fd ea 3f bc
       -0.049644817 0.22400935 -0.032053754 -0.01171374
000020 9f 43 87 bd 9d ae 6d bd 8d 25 0e 3c bf 97 75 3e
       -0.066046946 -0.058027852 0.008675945 0.23983668
000030 5a 5e d8 3c b2 e3 b0 bd 6f 58 5d 3d 2e 49 92 3e
       0.026412178 -0.086371794 0.054039415 0.28571457

conv4.weight f4 [32, 16, 3, 3]
000000 8e 01 fc 3d 8c 11 6f 3d 7a 01 c4 3d c9 f8 1a 3e
       0.12304984 0.058366343 0.09570594 0.15133967
000010 ce e5 b7 3c 77 e3 b0 3d d3 9d 03 3e d0 93 1e 3d
       0.022448447 0.086371355 0.12853174 0.038715184
000020 f9 51 77 bd b7 df c0 3c e7 61 5f 3d ac dc 55 bd
       -0.06038091 0.023544176 0.054536726 -0.052212402
000030 2a e9 ec bb 01 d9 29 bd f8 14 53 bd 47 38 9f 3d
       -0.0072299438 -0.041466717 -0.05153367 0.07774406
000040 55 45 b1 bd 9e 2a 5e 3b 40 54 5b 3d 2d b7 6f 3c
       -0.08655802 0.0033899914 0.053547144 0.014631075
000050 c9 c7 de bc eb 5d ad bd cf 66 25 bd c1 63 f9 3d
       -0.027194874 -0.08465179 -0.04038125 0.1217723
000060 d4 9f 8d 3c fe ed f5 3d b8 75 07 bd 7c f0 81 bd
       0.017288126 0.12008284 -0.03307125 -0.06344697
000070 70 a6 d5 bd 2b fe ee bd ef 4d 28 3d 6a 1c e7 bd
       -0.10432136 -0.116695724 0.04108995 -0.112847164
000080 5b 05 72 bd 71 9a f5 3b 35 56 cf bd 9d 01 ca 3d
       -0.05908714 0.0074952175 -0.101238646 0.09863589
000090 74 d6 8f 3d e4 51 99 bd 56 ec ca bd 93 3a 03 3e
       0.070233256 -0.074863225 -0.09908359 0.12815313
0000a0 56 2c 8d 3d 51 10 09 be 42 cc 7e 3d 86 d6 af bd
       0.06893222 -0.1338513 0.062206514 -0.08585839
0000b0 9e 33 a5 bd fc 15 a6 bc 3a 66 f0 3c 26 35 4e bd
       -0.08066486 -0.020274155 0.02934562 -0.050343655
0000c0 3a d5 5c 3d 77 2c 58 bd af 5f c3 bc f1 c7 b3 bc
       0.053914286 -0.05277678 -0.023849336 -0.021945925
0000d0 fe 88 52 bb a8 e5 28 3d 80 7a e7 3d ec 5a cc bd
       -0.003212511 0.041234642 0.11302662 -0.099782795
0000e0 eb 5a 4f be 56 60 00 3e a6 0b cd bd b5 8f 99 b9
       -0.20249526 0.12536749 -0.100119874 -0.00029289504
0000f0 45 f3 c5 3d 21 bb 4b bd f1 5f 45 3d 56 a5 a4 3c
       0.096655406 -0.049739007 0.0481872 0.02009837
000100 cb 3e 99 3c 62 9c c3 bd 31 90 a6 bb f0 2a 6d bd
       0.0187067 -0.09551312 -0.005083107 -0.057902277
000110 72 6b 93 bd b1 1c 8a bd dd b9 9f 3c c0 94 61 3d
       -0.07198228 -0.06743754 0.019497806 0.0550735
000120 96 b9 a0 3d df cc 86 bd 04 86 16 3d 9f c9 2e 3d
       0.07847898 -0.06582045 0.0367489 0.04267275
000130 26 f0 d7 ba cd b1 05 bd 5e ac a7 3d 7f 4e 9e bd
       -0.0016474768 -0.032640267 0.08187173 -0.07729816
000140 8e 16 e1 bc 05 ec 73 bd 3d 3b 59 bd 29 21 bb bd
       -0.027476575 -0.059551258 -0.05303501 -0.09137184
000150 1a f5 b2 3d 16 50 7b bd 44 0f 83 bd d0 84 49 bd
       0.08738156 -0.061355673 -0.06399396 -0.049198925
000160 c3 0b 5b 3c a1 bc 79 bd bc a2 b3 3b 50 57 e0 3b
       0.013369503 -0.060970906 0.005482046 0.006846346
000170 10 54 5f bd a4 b2 9e 3d 94 d2 10 bd e6 90 91 bd
       -0.054523528 0.07748917 -0.035357073 -0.07107715
000180 fc d9 98 bd ca 06 04 3c 08 81 45 3d 1f ec dd 3b
       -0.07463452 0.008058259 0.048218757 0.0067725326
000190 aa 96 b3 be c7 cf b8 be 17 34 8e 3e a5 f6 33 be
       -0.35075885 -0.36096022 0.27774116 -0.17574556
0001a0 2d 39 31 be 30 c4 65 3e cc 8e cb be ba a1 59 bc
       -0.17306967 0.22438121 -0.39757383 -0.0132831875
0001b0 49 17 aa ba 43 da c0 bd 30 6a 02 bd fc dc f4 3c
       -0.001297691 -0.0941663 -0.03183955 0.02989053
0001c0 ec e4 a5 bd 0d ca 49 bd 22 b0 b9 3d 19 22 82 bd
       -0.08100304 -0.049264956 0.09066798 -0.0635416
0001d0 7c ec 08 be 90 cd 4d 3c 9f 0e ba bd 6a 01 81 bd
       -0.13371462 0.012561217 -0.0908482 -0.06299098
0001e0 62 2f a4 3d 43 31 0a be 2b 7a c8 bd c2 14 a8 bc
       0.0801685 -0.13495354 -0.09788927 -0.02051771
0001f0 c7 ff 44 be bd ac c3 3d c1 43 23 3d cc d0 0a be
       -0.19238196 0.095544316 0.039859537 -0.13556212
000200 91 dc 82 3d dd 83 da 3d 1d 21 79 bd e1 f3 0d bd
       0.06389726 0.10669682 -0.060822595 -0.03465641
000210 b5 c3 67 3d 77 8d 80 be c2 72 0b 3e 5e 63 3e be
       0.056583125 -0.2510793 0.13617995 -0.18592593
000220 04 ce ba bd e5 16 a6 3c de d6 80 bd 27 00 12 3d
       -0.091213256 0.020274589 -0.06290983 0.035644677
000230 34 52 2d 3e 56 3e 93 3d 9d 0a 22 3b bb 2d 4f 3e
       0.16925889 0.07189624 0.0024725564 0.20232289
000240 93 e3 89 3d a6 18 8a 3d c4 66 ad bc 40 76 b2 bc
       0.067328595 0.067429826 -0.021167167 -0.021784902
000250 c4 e1 bc bc 96 d5 bf 3d b2 46 1d 3c be 15 8e 3c
       -0.023056872 0.0936691 0.009599375 0.017344352
000260 e5 a5 a3 3d c2 24 38 bd 03 01 14 bd 6c cb cd 3d
       0.07990626 -0.04495693 -0.036133777 0.10048565
000270 3a b4 17 3d 34 dd 08 3d fd 86 53 3e 41 49 08 bd
       0.03703711 0.03341408 0.20656963 -0.033272985
000280 b9 c9 b1 bd c0 cb ff 3d aa df 95 3b 17 ef cf bd
       -0.08681054 0.12490034 0.004573782 -0.10153025
000290 38 e5 1a bd 3f 75 c0 39 35 e8 a1 3d 60 fc a3 3d
       -0.037816256 0.0003670845 0.07905618 0.08007121
0002a0 a5 b7 e2 ba 4b ef ba bd 38 69 a0 3d 21 74 0c 3d
       -0.0017297162 -0.09127673 0.07832569 0.034290437
0002b0 85 11 6c bb 86 57 77 be d8 f2 1a bd 36 d7 98 3d
       -0.0036021185 -0.24154481 -0.03782925 0.07462923
0002c0 cc e2 b2 bd 7a 9f 50 3d 51 5a ce bd 48 85 a2 3d
       -0.08734664 0.05093334 -0.1007582 0.07935578
0002d0 c2 1b ad 3d 76 27 13 be 3b c8 ba 3d 3b 2a 37 3c
       0.0845256 -0.14370522 0.09120222 0.011179502
0002e0 23 f1 c9 bb 62 38 85 b9 f3 45 ba 3d 67 9c 14 bc
       -0.006162779 -0.00025409745 0.09095373 -0.009070492
0002f0 39 2e ad bd 09 13 37 3a fa 07 35 be 06 be 73 be
       -0.08456082 0.00069837325 -0.17678824 -0.23802957
000300 35 16 e5 bd c2 b4 13 be 01 c5 11 be d4 43 25 be
       -0.11185876 -0.14424422 -0.14235307 -0.16139156
000310 d5 61 43 bd d5 97 98 bd ee 19 24 be 66 63 a9 bd
       -0.04770072 -0.07450835 -0.16025516 -0.08270912
000320 61 d3 0e 3d 89 32 59 3d de ff 14 bd c6 5f 74 bd
       0.034869555 0.05302671 -0.036376826 -0.05966165
000330 5c e2 7c 3d 73 79 f1 bc 29 d1 9f bd 94 b0 66 bc
       0.06173931 -0.029476857 -0.07803566 -0.014080185
000340 3e 87 37 3d 37 f3 af b8 82 eb e7 3c 9b 58 db bd
       0.04480671 -8.3899526e-05 0.028310541 -0.107102595
000350 4f 2f d8 3c da 65 e0 bc 9b 5b cb bc 18 ad 14 3d
       0.026389746 -0.027392317 -0.024823954 0.036297888
000360 49 c4 59 bc b4 ac a0 3c a3 1c 05 3d 7c cd 35 bd
       -0.013291427 0.019613601 0.032498013 -0.04438542
000370 7e 9b f9 3b e7 e4 96 3d ca 93 92 3d 83 1b 14 bd
       0.007617413 0.073678784 0.07157095 -0.03615905
000380 85 5b 70 3d b3 8d 91 bd b1 82 9e bd a2 16 90 3c
       0.05868103 -0.07107105 -0.07739771 0.017588917
000390 df 3e 47 3d cb 76 88 bd ec 28 94 3c 92 fb 0c 3d
       0.048643943 -0.06663283 0.01808592 0.034419604
0003a0 aa 13 41 3d 4c f1 f8 bc ba a3 36 3d 8e 50 51 3d
       0.047137894 -0.030388497 0.044589736 0.051102214
0003b0 c2 24 ea 3c cc 1f 0e 3c aa b9 a5 bd 2c 26 1b bd
       0.02858198 0.008674573 -0.08092053 -0.0378782
0003c0 73 7f 8b bd a6 df 06 3d f9 b8 45 3d 9c c7 64 bb
       -0.068114184 0.03292813 0.048272107 -0.0034909016
0003d0 96 29 00 be 5b f2 7a be 88 c8 e1 3d ee ce 8c 3d
       -0.12515864 -0.24506514 0.110245764 0.06875406
0003e0 cd c3 00 be 62 95 96 3e cb 50 e0 3c 9e fa 2b 3e
       -0.12574692 0.29410845 0.027382275 0.16794822
0003f0 91 33 0c 3e db fe 24 be 2d a2 34 bc 75 f2 5f bd
       0.13691546 -0.16112845 -0.011024994 -0.054674584

conv4.bias f4 [32]
000000 75 80 9b ba 5e 38 1d bd 4f c5 ad 3c aa ee a5 3e
       -0.0011863845 -0.038383834 0.021212248 0.3240865
000010 24 81 bc bd bb 33 16 bd 79 48 bf bb 4f 2b ee 3e
       -0.09204319 -0.036670428 -0.005837497 0.46517417
000020 cb 23 64 3e d0 17 7c bd 75 04 b1 bd 33 06 28 3d
       0.22279279 -0.061546147 -0.08643428 0.041021537
000030 5f cf d3 bd a3 56 d9 bd 0d 53 49 3e d3 bf 25 3e
       -0.10342287 -0.10612228 0.19660588 0.16186456
000040 ee 3a b8 3b e0 28 d6 3b 28 10 a8 3d 1d 2e c8 bc
       0.0056222593 0.0065356344 0.082062066 -0.024436051
000050 28 38 a5 3e 69 78 84 bd 2d 12 8e bd 34 55 ad 3c
       0.32269406 -0.06468279 -0.069370605 0.021158792
000060 9d 2b 57 bd d0 30 39 ba 9e 15 d4 3c 24 2f 59 bd
       -0.052531827 -0.00070644636 0.025889214 -0.053023472
000070 aa 32 5f bd e1 42 b1 3c 60 08 47 3e a1 dd 3d 3c
       -0.054491676 0.021638336 0.19436789 0.011588485

conv5.weight f4 [10, 32, 3, 3]
000000 e8 b9 9a 3d c5 7e 1e 3d 56 7a f0 3d c6 5b f3 bd
       0.0755499 0.038695116 0.11742084 -0.11882739
000010 f7 4a f1 bc a6 75 02 3d 22 ef d2 3c 64 d4 0b be
       -0.029454691 0.03185048 0.025748793 -0.1365524
000020 59 71 c3 3c 09 73 82 3d 23 1e 89 bd 9c ab f1 3d
       0.02385776 0.063695975 -0.06695201 0.1180031
000030 9c fc ed 3d 7e be d0 bd 88 6f 3e be 23 a5 90 3d
       0.11620447 -0.101925835 -0.18597233 0.07062747
000040 f2 12 af bd 95 02 37 bd e0 16 33 be 8b 9f 5f be
       -0.085485354 -0.044680197 -0.17489195 -0.21838205
000050 8b 13 d7 3e c2 7a ea bd 21 eb 2b 3e df 6b d1 bd
       0.42007098 -0.114491954 0.16788913 -0.10225653
000060 e8 35 0e 3e 0a e9 64 3e 95 c1 be be 04 38 33 bd
       0.13887751 0.22354522 -0.37257066 -0.043754593
000070 c7 70 f8 bd 5b 72 48 bd aa 6d d8 bd 11 92 72 3d
       -0.121308856 -0.048937183 -0.10567792 0.05922133
000080 cc b5 1a 3e 01 6e 9f bd 1e 41 4a 3e 7e 2e cc bd
       0.15108413 -0.077846535 0.19751403 -0.09969805
000090 81 ca b8 3b ed ba 0f be 1e c6 05 3e ed 6a 48 be
       0.0056393747 -0.1403615 0.13063857 -0.19572039
0000a0 bc e4 87 3d 1f d9 aa 3e b0 ce 3d be b7 29 d1 bc
       0.066354245 0.33368775 -0.18535876 -0.025532587
0000b0 b9 44 4d bd 84 b7 da 3d 6d 6b 05 be 9c 17 63 3d
       -0.050114367 0.10679534 -0.13029261 0.055442438
0000c0 ab 83 9b 3d 24 8e a3 bd 25 f0 e7 3b ff 55 81 3d
       0.07593473 -0.079860955 0.007078188 0.063152306
0000d0 72 45 18 3e c4 87 87 3d b3 8b 04 3c aa e8 b0 3d
       0.14870241 0.06617692 0.0080899475 0.08638127
0000e0 db 12 06 bd a8 33 88 bc c7 6f 09 be 43 50 de bb
       -0.032732826 -0.016626194 -0.13421546 -0.0067844703
0000f0 c8 b7 2f 3d 9e d1 98 3b b2 31 e4 3d 51 94 c2 bd
       0.042899877 0.00466366 0.11142291 -0.09500945
000100 25 62 1f bd 62 f6 65 bd 08 8d 7c bd f0 a3 b7 3d
       -0.038911957 -0.056143172 -0.061657935 0.089668155
000110 52 06 86 3d 88 51 cf bc 85 1b 10 be 49 fd fc bd
       0.06544174 -0.025307432 -0.14072998 -0.12352998
000120 8d d3 07 be 80 08 29 3e b6 f9 27 bc 33 7e 94 bd
       -0.13264294 0.16507149 -0.010252407 -0.07250633
000130 9a 5b 0f bd 1c 0b b6 bc a5 5f b1 3c b9 02 0c bc
       -0.034999467 -0.022222094 0.021652052 -0.008545571
000140 aa 86 aa bd 4a 97 5b bd 83 cf 99 3c 3d e8 85 3e
       -0.083264664 -0.053611077 0.018775707 0.26153746
000150 db 39 d5 bd 37 4b ae 3c 67 5c 3b 3d 8d 27 a3 3d
       -0.10411426 0.0212761 0.04574242 0.07966528
000160 00 4a 25 3e 24 d2 c4 bd 7f 4c 2f 3c ee 80 c6 3d
       0.1614151 -0.09610394 0.01069939 0.0969256
000170 51 e8 d1 3c 6a 01 e4 bc 25 70 cb 3d 70 de fc 3d
       0.025623472 -0.027832706 0.09933499 0.12347114
000180 4d 6a 1b 3c b2 1b ef 3d 31 6d de 39 bf 45 8b be
       0.009485793 0.11675204 0.00042424494 -0.2720165
000190 20 3a 5d be 64 4a ac bd 70 1a 3c be 3a 38 c9 bd
       -0.21604204 -0.084126264 -0.1836946 -0.098251775
0001a0 a3 07 f4 3d 4f 20 55 3e 95 fd c0 3d 1d 5c ec bd
       0.11915519 0.20813106 0.09423367 -0.11541007
0001b0 62 ae 50 3e 7d 4f 35 3c 0d 0f 2e be b3 72 a5 3b
       0.20379022 0.011066315 -0.16997929 0.0050490736
0001c0 1f 35 ae bd 95 c0 8a 3d 7a 42 82 bc 26 9f 9e be
       -0.08506226 0.06775013 -0.01590084 -0.30980796
0001d0 cc b2 59 3d c7 8e 74 bd d5 b5 4c 3a 33 3c 5b 3d
       0.05314903 -0.059706476 0.00078090775 0.053524207
0001e0 96 75 8a bd 16 df 69 3d 1a a5 32 3e f5 24 fd bd
       -0.06760709 0.057097517 0.17445794 -0.123605646
0001f0 ae e0 6e 3d 0d e8 39 be 8d a8 69 be db 02 2e 3c
       0.05831974 -0.18154927 -0.22818203 0.010620798
000200 65 4e 08 3e 54 f5 22 be 5f 43 f9 bd 67 be ac 3c
       0.13311155 -0.15913898 -0.12171053 0.021086885
000210 07 4a bb 39 60 4b 0a bc 30 2e 27 bd 02 8f 26 3e
       0.00035722574 -0.008440822 -0.040815532 0.1626549
000220 32 4f 83 3d 09 f7 4d be 23 c3 a1 3e 5c 32 62 be
       0.0641159 -0.20113768 0.3159419 -0.22089523
000230 8c d2 2f bd e8 b8 be bd aa fc 49 be 4f 15 86 3d
       -0.042925403 -0.09312612 -0.1972529 0.06547033
000240 df e6 de 3e 2e 0c 59 3c 82 d8 52 3e 13 9a 3b bc
       0.43535516 0.013247533 0.20590404 -0.011450308
000250 b0 8b 07 be 88 18 1d 3e e0 9f 71 3e e7 89 d3 bc
       -0.1323688 0.15341389 0.23596144 -0.025822593
000260 ac 3e 5e be da 44 8a bd cb 9b 71 bc 6b a2 1a be
       -0.21703595 -0.06751414 -0.014746617 -0.1510102
000270 7c 22 84 bd f4 b1 a5 3d 70 07 9e bd fe 22 4e 3e
       -0.0645189 0.080905825 -0.07716262 0.20130536
000280 2f 31 4f 3d f1 f1 61 3d 21 98 b5 3d 10 f5 83 3e
       0.050584015 0.055162374 0.08866907 0.25772905
000290 ff 91 d0 bd 57 74 43 be c3 3b 10 be 33 fa 1a 3e
       -0.101840965 -0.19087349 -0.14085297 0.15134506
0002a0 ca 51 df bb 16 9b 8a be e2 13 f5 bc db 32 78 3c
       -0.00681517 -0.27071446 -0.029916707 0.015148844
0002b0 eb 0d 76 be 70 2c 94 3e c6 cc fd bc c6 e4 7c bb
       -0.24028747 0.28940153 -0.030981433 -0.0038588508
0002c0 c4 96 e5 3d 4f 0c 54 be bf 5b 86 3d de 24 76 bb
       0.11210397 -0.2070782 0.06560468 -0.0037558596
0002d0 ed a1 0f 3e 1a a0 a0 3c 34 d9 c5 bd 01 0d a6 3c
       0.14026614 0.019607592 -0.09660569 0.020269873
0002e0 c5 ab 20 be e1 7c 99 3c 87 a4 5b be 8e 9b 97 bb
       -0.15690525 0.018736305 -0.21449481 -0.004626698
0002f0 60 17 b4 3d 62 fc 5d 3d 76 67 49 3e 80 8e a0 bd
       0.08793521 0.05419577 0.19668373 -0.0783968
000300 e5 ba 6b bd fa 43 80 bd b0 bd 8d 3d 52 b3 0f 3e
       -0.057551283 -0.062629655 0.06920946 0.14033249
000310 2c c3 2e be 68 a0 4b 3e 26 be 04 3b fa 3d 41 bd
       -0.1706664 0.19885409 0.002025494 -0.047178246
000320 cc 2c 53 be cf 0f 85 bd 30 df 15 3e 09 1d 08 3e
       -0.20622557 -0.06497156 0.1463592 0.13292326
000330 1b 3d 04 3d 66 59 3a 3a 25 f6 65 3d 7d 77 2d 3e
       0.032284837 0.00071086583 0.056142945 0.16940112
000340 4a fd 27 3e 1c 4e f2 bb b8 60 37 be d7 0a 4b bd
       0.16405216 -0.0073945653 -0.17907989 -0.049570885
000350 06 b5 ae 3c 36 e2 d9 3d 31 9c ff bd 50 0d f0 3d
       0.021326553 0.106388494 -0.12480963 0.11721289
000360 20 41 10 3d 66 59 a1 3d 48 0e 51 be 04 b6 8d bd
       0.035218358 0.078783795 -0.20415604 -0.06919482
000370 53 ff 66 3d a8 f7 72 3e 81 21 34 be 92 fd 2a 3e
       0.05639584 0.23727286 -0.17590906 0.16698292
000380 1d a9 61 3c 47 88 22 3e c6 3e 94 bd f4 e6 64 3d
       0.01377323 0.15872298 -0.072385356 0.055884317
000390 6b f9 2c 3c c9 a4 1c be f4 a7 1d 3e 1c f5 6c be
       0.010557513 -0.15297236 0.153961 -0.23140377
0003a0 56 ba 5b 3d 41 76 97 3e 1d 12 b5 bc b8 3d 66 be
       0.0536445 0.29582408 -0.022103364 -0.22484481
0003b0 60 58 16 3e 8f 66 04 3e 35 a4 98 3c da fb 83 be
       0.1468215 0.12929748 0.018632988 -0.25778085
0003c0 43 b9 c1 3e 6f a8 98 bd 0c 4d 88 be 78 62 f0 3d
       0.37836656 -0.07454001 -0.26621282 0.117375314
0003d0 23 7d 92 bc b3 5a 41 3e d8 6d 80 3a 96 dd fb 3d
       -0.017881935 0.18882255 0.0009798361 0.122981235
0003e0 d8 77 f4 3d 05 69 b8 bd 1d 56 c3 3d 87 ae 08 3d
       0.11936921 -0.09004406 0.09537909 0.033369567
0003f0 c7 4d be 3e ac b0 fc bd 6f 68 36 bc 26 cf b9 3e
       0.37168714 -0.12338385 -0.011133297 0.36290854

conv5.bias f4 [10]
000000 85 3f 5e 3d 0a be 72 3e 80 3d 0c bc 69 07 1e bd
       0.054259796 0.23705307 -0.008559585 -0.038581286
000010 35 a6 fd bc eb fd 4a 3b 0c 94 12 3d 5f a4 f7 3d
       -0.030963043 0.00309741 0.03578572 0.12091898
000020 e8 2c 37 bc e5 03 21 3e
       -0.01118014 0.15724142
