R7models/BaseR7seed6.pt (torch_old, 38047 bytes, 10 tensors)

conv1.weight f4 [4, 3, 3, 3]
00000000: 8c0a d93f 529e 993f bdfd b13f 020c 03bf
00000010: 8692 1bbf 15cd ccbe 0301 d13f bf9e 7c3f
00000020: 2908 763f 6219 03be d261 83bd 9047 5ebc
00000030: fc10 523d 6e3d d43d afe4 e0bd 6ae5 dd3d
00000040: a5a0 0f3e 98cf 253d 30e0 54bd c83f c2bd
00000050: 9659 04be cecd aabd 2403 34bd ed8a 033e
00000060: b4f6 383d c0be 29bd e818 f6bd facf 633e
00000070: d1b8 ffbd c0c1 b53c bd7f b13d 229d f3bd
00000080: b752 b23e 22a0 03be da51 113e 6db7 3e3e
00000090: d753 8abd 5f84 ccbd 4fb9 163e ad65 a1bd
000000a0: e593 2f3e 0032 293a 15b1 393e 3f41 093e
000000b0: d48d 63bd 00d1 03bd a081 fd3b 66ae fa3d
000000c0: 70ec 6d3c f74c abbd 6053 febb 7031 b1bc
000000d0: 1354 333e 4aeb ac3d 10e9 06be 0ac5 05be
000000e0: 63fc d1bd 0d9e b03d 1226 cebb 240a 6abd
000000f0: 1c56 393d e5a8 cd3d 60b8 d73b 627c 9b3d
00000100: f004 c6bc 08f4 493d c500 0c3e acc0 16bd
00000110: 7c8e 73bd 4466 74bd 7008 583d 562c cabd
00000120: 0de3 353e 7244 d13d a21e 2cbe 0060 85bd
00000130: f79b 293e 271e 8dbd d913 38be ae1f f93d
00000140: 51ff 1abe d092 aebe 2f52 95be 66c9 a6be
00000150: 544a 873f 564c 2a3f 093d d73e 7ec5 8cbe
00000160: 4aa3 5ebe 526a 44bd 3eae 993d a081 bdbc
00000170: 8201 823d 5002 f5bc 45f4 19be b1bc 423e
00000180: 7d8d 3e3e 2056 c3bd b088 73bd 60c7 e4bd
00000190: 12c3 d93d 327f c23d 7e6e 843d 208f 75bd
000001a0: a0c9 0f3c 9e57 ff3d 641b 5d3d 596f 3a3e
1.6956344 1.200144 1.390556 -0.511902 -0.6077045 -0.40000215 1.6328434 0.9867973
0.961062 -0.12802652 -0.06415142 -0.0135668665 0.05128573 0.10363279 -0.10981118 0.10834773
0.14026125 0.04048118 -0.051971614 -0.094848216 -0.129248 -0.083400354 -0.043948308 0.12845965
0.04515715 -0.04144168 -0.12016469 0.22247306 -0.12486423 0.022187114 0.08666942 -0.11895205
0.3482873 -0.12854055 0.1419138 0.18624659 -0.067542724 -0.09986185 0.14719127 -0.07880721
0.17146261 0.0006454289 0.18133958 0.13403796 -0.05555518 -0.03218174 0.0077364 0.12240295
0.014521703 -0.08364289 -0.007761404 -0.021630019 0.1751254 0.08443315 -0.13174844 -0.13063446
-0.10253217 0.08623896 -0.0062911594 -0.057138577 0.045248136 0.1004198 0.0065832585 0.075920835
-0.024172276 0.049304992 0.13672169 -0.03680484 -0.059462056 -0.05966784 0.05274242 -0.09871738
0.17762394 0.10218133 -0.1680856 -0.06512451 0.16563402 -0.06890517 -0.17976321 0.121642455
-0.15136458 -0.34096384 -0.29164264 -0.3257553 1.0569558 0.6652273 0.42038754 -0.27494425
-0.21741977 -0.047952957 0.07503937 -0.0231331 0.06347944 -0.02990833 -0.15034588 0.19017293
0.18608661 -0.095379114 -0.059456527 -0.1117084 0.1063291 0.09496917 0.06466387 -0.059950948
0.0087760985 0.124678835 0.0539812 0.18206538

conv1.bias f4 [4]
00000000: e1cd 783d 49ef 2cbb 51be 38be d822 6b3e
0.060743216 -0.0026387742 -0.1804135 0.2296251

conv2.weight f4 [8, 4, 3, 3]
00000000: e116 f2bc ce1c 85bd 84d9 b13d a1b0 24bd
00000010: 55e3 00be 912d 8dbd b93f 93bc 43b0 4ebd
00000020: b31d 2e3d e529 39bd 8ed6 293e 134f 803d
00000030: 5c9f abbd 82e8 bdbd 379b 8ebd 4abd cf3d
00000040: 6f31 7fbd 3fee ea3b 3307 033e 4c76 45bd
00000050: 100c 44bc 13c4 b0bd 5d1e 103e ec7d 693d
00000060: 98c8 a6bc f3b5 99bd e9dd 0a3e 1ef7 b63d
00000070: 5427 513d f642 b23d 2a57 103e 94be 7a3d
00000080: aa80 15be f4a6 73bd a800 73bd 2cf7 293e
00000090: 2d63 373f 70f3 6a3e 2292 d03e 027d 89be
000000a0: 718e 9dbd 86c1 3dbe 9c03 363f f3f8 cb3e
000000b0: 7578 ec3e b67f 5cbc 7245 143e 1a66 183d
000000c0: b81b 243c 6259 19be 9771 6e3d f4e8 db3c
000000d0: 3ed6 cbbc d867 05bd e26e 1a3e 1c34 4abd
000000e0: 5f6f 7fbd f5e5 5fbd 35b8 2ebd 819a c6bd
000000f0: 5dc4 1d3e c86b 1e3e d0f5 debd 4f82 8abe
00000100: 74b7 c8bd 8b66 f4bc 9b4e 333e a3ce a5bc
00000110: dbfd a03e 887c 3dbe ad18 52ba 1dc9 35be
00000120: 84ef 923e 2e5c 873e 3998 713e 7ea3 76bd
00000130: a43f 57be c339 fd3c 5da9 093f 88f9 993e
00000140: f821 f93e 64b6 093d e0f6 1b3e fc63 35bc
00000150: f9d3 353e d9cc 0b3d 629f d8bd ec45 4abd
00000160: 4c60 30be 4cc4 9f3d 81ec aa3d 880d 243e
00000170: 0d9a e4bd da13 d3bc 358a 12be 8519 e23d
00000180: 6086 a3bc 7efe c5bd aabd 00bd 33d6 983d
00000190: 2332 0e3e 6422 adbd 13d2 6c3e 64c4 433d
000001a0: b3dd 683e 9783 2e3d f595 723d e6e9 c03d
000001b0: ad87 693d ac04 b73c 473f 1cbe 5afe dabc
000001c0: 4008 babd 38e1 1a3c be8b c1bd a1aa 14bb
000001d0: ce65 05be d63e df3d a10c aebd e15b b5bd
000001e0: de0f 153e 89a2 0c3d 365d 02be 1c8b cdbd
000001f0: ffa5 86bb 9c6c 22be 6aff d33d 96bb c93d
00000200: f48a 08be 009c 983c 5ff4 0a3e c6d2 b3bd
00000210: 4087 12be fc62 69bd ebfe fcbd de57 113d
00000220: f748 95bd 1df3 0dbe 3656 e5bd 639d 063e
00000230: fa34 d7bd 9c35 803d 044a 9abd 7cf3 a5bd
00000240: 078e 843f 4152 103f 8615 323f 7b6d 31be
00000250: 02da a2bd 2fcd b2be 6138 273f ca33 eb3e
00000260: 4fad 9b3e e411 5f3d 5264 08be aded 0a3e
00000270: 9b85 3d3d fcbe 513d db43 683d 0a21 143e
00000280: b53d 073e 648e 013e 3c68 0dbe bec5 e3bd
00000290: 197e 9bbd 7369 b13d 9e67 0cbe 2721 0dbe
000002a0: 9613 bd3d b5a6 dcbd 21ec 0f3c b195 9bbe
000002b0: 22ae 85be 0893 afba 5191 023f 4085 a13e
000002c0: 284b 893e 5e85 30be cfa0 e5ba 193c 6bbd
000002d0: 41f4 9ebe bfc5 e4be 4627 85be 3a57 843f
000002e0: 9b45 5d3f c3d2 503f e6a6 d5bd 1f6f 2a3b
000002f0: e741 5d3e ebf6 e43d ecbc 223e 560e 1e3d
00000300: b89b 313e 2c11 d23c 9c34 c3bd 6416 143e
00000310: 652a f63d ac3e cb3d 3ef0 b8bd 21ee f63d
00000320: efa7 babd 8ae6 e13d b34c eebd 5dd6 953c
00000330: 5b6d b03d 624b fb3c 2a7c 943c f7bf b43e
00000340: 1873 023e 2481 d03e eb26 9bbe 1987 2ebd
00000350: 5b62 e6bd 1a71 333e a94e d73d dac9 9a3e
00000360: 9628 d6be 381a babe 9886 6fbe 9eb4 ac3f
00000370: d8a3 7e3f 1330 2b3f 331e 98be c3aa 0f3e
00000380: f4b7 513e 95d5 513e 2291 3b3e 64bd cc3d
00000390: 70bf 513e 2f92 3bbd fab8 bfbd 7dcb 153e
000003a0: 8963 1dbd e410 eebd 3afc 943d f9e6 993c
000003b0: c651 25be b176 a23c 7e37 5abd 97ef 683c
000003c0: e8c9 e93c d39e 0ebe 2347 afbd fac6 bd3e
000003d0: 7ea6 8b3e f6c0 c03e 8dfd ffbe fde9 87be
000003e0: 94d0 c9bd 8f3a 973e bafd f83d d162 663e
000003f0: 5a80 f33d ee7b cabd 7ec0 cf3d 3847 1cbe
-0.029551925 -0.06499635 0.08684066 -0.04020751 -0.1258672 -0.06893457 -0.017974721 -0.050461065
0.042508792 -0.04520597 0.16585752 0.06265082 -0.08380005 -0.09272863 -0.06963199 0.10143526
-0.062303003 0.0071695144 0.12795715 -0.04820852 -0.011965767 -0.08631148 0.14074083 0.057004854
-0.020359322 -0.07505407 0.13561215 0.089338526 0.051062897 0.08704178 0.1409575 0.061216906
-0.14599863 -0.05948539 -0.059326798 0.16598195 0.71635705 0.22944427 0.4073649 -0.26853186
-0.07693184 -0.18530855 0.7109926 0.3983837 0.4618565 -0.013458183 0.14479616 0.037206747
0.010016374 -0.14975503 0.058213796 0.02684448 -0.024882432 -0.032569736 0.15081361 -0.0493661
-0.06236207 -0.054662663 -0.042656142 -0.09697438 0.15406938 0.15470803 -0.10886729 -0.27052543
-0.09800616 -0.029834053 0.17510454 -0.020240134 0.31443676 -0.18504536 -0.0008014541 -0.177525
0.2869836 0.26437515 0.23593225 -0.060214512 -0.2102037 0.030911332 0.5377405 0.3007319
0.4865873 0.033621207 0.15230894 -0.011071201 0.17756642 0.034130905 -0.10577275 -0.04938309
-0.17224234 0.078011125 0.08345891 0.16020787 -0.11162195 -0.025766302 -0.14310534 0.11040024
-0.019961536 -0.09667681 -0.031430878 0.0746273 0.13886313 -0.08453825 0.23127012 0.047794715
0.22740822 0.042605963 0.05922504 0.094196126 0.057014156 0.022341095 -0.15258513 -0.026732612
-0.09083605 0.00945311 -0.09450482 -0.002268471 -0.13027117 0.10900657 -0.084985025 -0.08855415
0.14556834 0.034334693 -0.1273087 -0.10036299 -0.0041091437 -0.15861744 0.10351451 0.09850232
-0.13334256 0.018629074 0.13569783 -0.08780436 -0.14309406 -0.056979164 -0.12353309 0.035484187
-0.072893076 -0.13862272 -0.11198084 0.13145976 -0.10508151 0.06260225 -0.075336486 -0.081030816
1.0355843 0.5637551 0.6956409 -0.1732692 -0.07951738 -0.34922168 0.653204 0.4593795
0.3040566 0.05446042 -0.13319519 0.13567229 0.046269994 0.051207528 0.056705337 0.14465728
0.13207133 0.12651974 -0.13809294 -0.11121701 -0.075924106 0.08662691 -0.13711402 -0.13782178
0.09232251 -0.10773984 0.008784325 -0.30387643 -0.26109415 -0.0013395259 0.51002985 0.31546974
0.26815152 -0.17238376 -0.0017519238 -0.05743036 -0.31045726 -0.44682118 -0.26006526 1.033912
0.86434335 0.81571597 -0.10432224 0.0026006175 0.21607171 0.11179908 0.1589238 0.03858789
0.17344558 0.025642954 -0.09531519 0.14461666 0.12019805 0.09924063 -0.090301976 0.12057138
-0.09114062 0.110303 -0.11635723 0.018290693 0.08614608 0.030675594 0.018125612 0.35302708
0.12739217 0.40723526 -0.3030313 -0.042609308 -0.112492286 0.17523614 0.1051305 0.30232126
-0.4182784 -0.36348128 -0.23391187 1.349262 0.99468756 0.6687023 -0.2971054 0.14029984
0.20480329 0.20491631 0.18317083 0.09997061 0.20483184 -0.04579371 -0.09361453 0.14628406
-0.038425002 -0.116243154 0.07274671 0.018786894 -0.16144475 0.019831987 -0.053275578 0.014217279
0.02853866 -0.13927774 -0.0855849 0.3706587 0.2727546 0.37647218 -0.4999813 -0.26545706
-0.09854236 0.29536864 0.121577695 0.22498633 0.118897155 -0.09886919 0.10144137 -0.15261543

conv2.bias f4 [8]
00000000: 55ae 28be b256 c0bd 8700 d53e 2659 d6bc
00000010: fcaa 6f3e 4049 ac3d f5a3 70bc 532c 12be
-0.16472752 -0.09391536 0.41601965 -0.026165556 0.23405069 0.08412409 -0.014687528 -0.14274721

conv3.weight f4 [16, 8, 3, 3]
00000000: d571 eb3d caa6 93bd e494 cd3d 5c05 ca3c
00000010: ad78 ba3d c210 673d 9456 9ebc e0cb 8a3d
00000020: 6365 df3d 3332 b0bd c385 cabd c5ee acbd
00000030: 04b0 53be ec0f aabd 39e8 25be 02a4 603d
00000040: 8f98 333d 780c c33c 9b12 d9bd 1a3f 66be
00000050: 7953 9ebd cafb 003c 9643 9abd b45b 1abe
00000060: 0ae8 823d 1256 a73d dde1 d93c b2e0 c8bd
00000070: 98b2 c93d 3eac eb3d 8afb 32bd 3b81 363d
00000080: bd3a f93c f542 9abd 9558 c73d fd02 443d
00000090: 059b 35be a9ca 85be de34 dbbd b902 01be
000000a0: 8736 65be ce70 7abe c6c1 adbb 6fcd c2bd
000000b0: 5803 a93c b53c 773e 03b8 ff3e ade9 c93e
000000c0: cae2 f9bb 6392 db3e 8865 013f b854 943c
000000d0: c1a4 033e 8628 3b3e c2cc 853e e990 bd3e
000000e0: 3c3b 2a3f 0192 373e 2f04 b63e ae4e 2c3f
000000f0: 5643 9f3d 3a91 173e 68e5 413e 400f e7bc
00000100: e31f ae3d 2a0a a9bd 4e10 303d 7df4 c23d
00000110: 80f2 48bc d002 e53b 072c 82bd 7ba7 cabd
00000120: 189d 613c 8e15 7f3d 3ab6 1c3d 80e0 42bc
00000130: 261f 2bbd 7fd2 863d ddd1 cc3d 7253 ae3d
00000140: e18e ea3d 486a 703d d4d0 493d 254d 9b3d
00000150: 2b0a d33d 5c9f 063e 76d8 2c3d 56a9 72bd
00000160: 42d1 cb3d b21f b03d 03a3 e8bd 2ccd 8abd
00000170: 05f3 003c 8751 edba b3cc 1e3d 4f52 7cbd
00000180: 0826 49bd 394c 9bbd 182c 8cbd d25c 023d
00000190: 8f03 59bc 665f bebd 4c3a 6fbd 33c8 043d
000001a0: e107 b7bd 0cd3 32bd dac7 153d 88e3 2cbc
000001b0: aab5 b5bc b08f f7bc e133 993a 6bf9 05be
000001c0: bedb 8d3d 4527 6dbc 8ce7 93bd 5638 bbbc
000001d0: 9f2a 9cbd ea15 943d e532 1ebd b590 80bb
000001e0: d27e 07bd b96d 95bd c9dc b1bd 0f03 e2bd
000001f0: 5830 9d3d 56df e4bd a72a bf3d ec0c 9e3d
00000200: 32fb 9d3c 842a e4bd f92d 88bc e7e7 04bd
00000210: 1228 eabd b74f 8ebd 4593 5a3c 845f ccbc
00000220: adc0 aa3d 5c09 67bd e0fe a2bd 207c 48bd
00000230: dcc9 71bd cb32 be3d 00f9 c2bb f041 983b
00000240: e60b debd 2902 dbbd 46fe 3fbd 15d7 0e3c
00000250: 8e34 42bd 669f d3bb 6f22 df3d 1091 dbbd
00000260: 548c 80bd 36d6 503d 42ad c33d f574 01be
00000270: 4e13 0f3e 28a8 75bb a248 fbbc 1062 4a3e
00000280: e3df b5bd d174 65bd a443 4b3d 0a47 253e
00000290: 7e88 37be a583 32bd de4a ec3b 7ecd 52be
000002a0: 1848 e43d c18d a43d 4d4e 23be ad8c aebd
000002b0: f06a e4bc 5d58 633c ec70 a83b 5e36 a0bd
000002c0: c5e6 a43d 2ea5 a13d 98e5 d8bd 3551 aabd
000002d0: fd9b 9abd a4a4 7e3e 10e1 9f3d 1a7e 223e
000002e0: fc46 c83d fb06 cebd c1e0 783e cab0 bd3d
000002f0: 8bb7 a8bd 1d72 653e 66f9 64bd 0953 49be
00000300: f08a fa3d 4867 5e3d b5a0 a5bc ec45 97bc
00000310: 6e62 983e 84c4 743b 3822 c63d a610 bb3d
00000320: 136b 6bbe 7f1a 123d 23aa 673e 086a 29bd
00000330: 2b6c e5bc 0bfc b23e d869 203c ae30 0b3d
00000340: 6c17 a13c 1e9e 3fbd 6d37 e23d ee25 753d
00000350: c6d4 233d 054f d53d fdd6 e43d 78c9 88bd
00000360: 2cb0 16bd 15e8 53bd aa41 aabd 1a39 75bd
00000370: 7fdc 75bd ebfb e5bd bb48 bcbd 6461 19bd
00000380: 7a13 90bd 1e1a 7ebd 0a65 b4bd aa26 44bd
00000390: e6b3 4ebd fed2 29bd eff2 8cbd 33af 5e3d
000003a0: 4576 e7bd 4f5e c9bd bdf6 723d 1d7d a3bd
000003b0: 07ef de3d 24fb debc 0667 4f3d 67c8 f6bd
000003c0: 5cd7 83bc 475a bcbd a399 acbd 1af3 1d3d
000003d0: a9a8 233c b7d8 86bd 4eb6 653d 5f7a 80bd
000003e0: 8fbd a5bd 0af2 cfbc 73ca 9ebd 008b 51ba
000003f0: 1bd8 e63d 2692 973d 3366 47bc 832f 78bd
0.11496321 -0.07209547 0.10038164 0.024660759 0.09105048 0.056412466 -0.019328393 0.06777167
0.1090801 -0.08603325 -0.09888794 -0.08443979 -0.20672613 -0.08303818 -0.16201867 0.05484391
0.043846663 0.023809657 -0.10599252 -0.22485009 -0.07730765 0.007872531 -0.07532422 -0.15074044
0.06391914 0.081707135 0.026596958 -0.09808482 0.09848517 0.11507462 -0.043696918 0.044556838
0.030423516 -0.07532302 0.097336926 0.047854412 -0.17734917 -0.2613118 -0.10703443 -0.12598695
-0.22384082 -0.24457094 -0.0053026406 -0.095118396 0.020631477 0.24144252 0.49945077 0.39436093
-0.0076259123 0.42885122 0.5054555 0.018106803 0.12855817 0.18277177 0.2613278 0.3702462
0.66496634 0.1792679 0.35550067 0.67307556 0.07776515 0.14801493 0.18935168 -0.028205514
0.08502176 -0.08253892 0.0429843 0.09519289 -0.012264848 0.0069888607 -0.06356054 -0.098952256
0.013770364 0.062276416 0.038259722 -0.011894345 -0.041777752 0.06583118 0.10000966 0.0851201
0.11453033 0.058695108 0.04927142 0.075830735 0.10304674 0.13146728 0.04219862 -0.059243523
0.09952022 0.085997954 -0.11359217 -0.06777415 0.00787044 -0.0018105962 0.038769435 -0.061601933
-0.049108535 -0.07582898 -0.06844348 0.0318268 -0.013245477 -0.092955396 -0.058405206 0.032417487
-0.0893705 -0.0436583 0.036567546 -0.010552295 -0.02218135 -0.030219883 0.0011688435 -0.13083427
0.06926678 -0.014474695 -0.072218984 -0.022854012 -0.07625317 0.07230742 -0.038622756 -0.0039235004
-0.03307993 -0.072963186 -0.086846896 -0.1103574 0.076752365 -0.111754104 0.09334307 0.077173084
0.019284818 -0.11140922 -0.016623484 -0.03244772 -0.11433424 -0.06948798 0.013340776 -0.02494789
0.08337531 -0.05640541 -0.0795877 -0.0489465 -0.0590304 0.09287032 -0.0059500933 0.0046465322
-0.10842113 -0.106937714 -0.046873353 0.008718272 -0.0474134 -0.0064582108 0.108952396 -0.10721028
-0.062767655 0.050985537 0.09554531 -0.12642272 0.13972208 -0.0037484262 -0.030674282 0.1976397
-0.08880594 -0.056019608 0.049625054 0.1614038 -0.17923161 -0.043582577 0.0072110733 -0.20586202
0.11146563 0.0803485 -0.15947838 -0.085229255 -0.027883023 0.013876048 0.0051404145 -0.0782287
0.08051828 0.07892834 -0.105906665 -0.0831627 -0.07549284 0.24867493 0.07806599 0.15868416
0.09779164 -0.10059925 0.24304487 0.092622355 -0.08238133 0.22406812 -0.055901907 -0.19660582
0.122335315 0.054297715 -0.020218233 -0.018465959 0.29762596 0.0037348578 0.096744955 0.09134035
-0.22990064 0.0356698 0.22623496 -0.041360885 -0.02800568 0.3495792 0.00979086 0.03398197
0.019664489 -0.04678165 0.11045728 0.059850626 0.03999784 0.104154624 0.11173818 -0.06679052
-0.036789104 -0.051735003 -0.08313306 -0.05986891 -0.060024735 -0.1122969 -0.0919356 -0.037446395
-0.07034965 -0.062036626 -0.08808334 -0.047888435 -0.050464533 -0.041460983 -0.068822734 0.0543663
-0.11301855 -0.09832441 0.05931734 -0.07982848 0.108854346 -0.027219363 0.05063536 -0.120499425
-0.016093902 -0.091969065 -0.084277414 0.038561918 0.009988942 -0.06584304 0.056082062 -0.062733404
-0.08092796 -0.025383968 -0.07753458 -0.000799343 0.112716876 0.074009225 -0.012170362 -0.060592186

conv3.bias f4 [16]
00000000: dd12 373d d9a0 8d3c 02a7 09bd aaf6 d4bc
00000010: 45f6 b83d 1f08 86bd 2f20 4abd 3c52 d0bd
00000020: cf83 903e 8cb1 983e 1ee0 483d 3ea6 573d
00000030: 746f 1ebe c5db 813e 5fd3 723e fa61 c0bc
0.044695724 0.017288612 -0.033606537 -0.025996525 0.09031347 -0.06544518 -0.0493471 -0.10171935
0.28225562 0.29822958 0.04904186 0.052648775 -0.15472203 0.25362983 0.23713444 -0.023484219

conv4.weight f4 [32, 16, 3, 3]
00000000: 3d2d 5abb 8135 053e 1b86 5e3b 6ece 94be
00000010: 72aa 8e3e 915d 143e ff22 373d 6527 be3d
00000020: 4392 8e3d 0a9a 2f3a 2b4f 8dbd 99a1 3abd
00000030: 5c4a 573d 10f4 2ebd e214 72bd e6ed 8dbd
00000040: 6cda 0cbd ca28 88bc 2705 cd3c 0432 d43d
00000050: b1e4 e8bc 09d6 08bd 5d46 84bd 2d57 fcbd
00000060: 69c9 c73d f8c6 7fbc 4d02 02be d8c7 813c
00000070: 31ee 61bd 61ec a03d 5fa3 a8bd ebf3 f6bd
00000080: 8623 babd 63d6 a1bd 38ac e23b ca60 053c
00000090: 6aa7 143c 8336 903d 3515 b539 3993 173c
000000a0: fdd9 b93d 31fa 6b3c e959 52bd a190 5e3d
000000b0: 74eb ae3d f6a0 143c 83fc a2bb 0e2c 20be
000000c0: 865f dabc b26e 16be c1a7 1c3e bcef d6bc
000000d0: b39a 03be b087 ebbc d68b 793d ad01 953b
000000e0: 440b e93c 30b3 343c be1f 91bd 9877 f6ba
000000f0: 8884 efba c164 3cbe fd96 83bd 11a5 a4bb
00000100: 93c7 393d e975 933d 3f75 25bc d402 c6bd
00000110: 9295 08bd 9063 5a3d 333d 593c 5995 acbd
00000120: 6f79 c0bd 79ff c73d d8f7 4cbd 8c30 233d
00000130: bd39 babd 7d9b 2ebc 6b0a 9bbd 360f 2bbe
00000140: e699 4f3d 5768 c13b 287c 28bd c0e7 c5bd
00000150: 97fd 153d 23fd cabd 45af dabd 6476 513c
00000160: 285e eabd 5cb1 2bbd f005 623d 5786 6c3d
00000170: bc55 703d b239 b33a 9751 01bc 261f 853d
00000180: 6151 c8ba e56a b23c 9ab3 de3c 65fd 1d3d
00000190: c6cf 873e 9c2d 5e3a aeec 873d 6d5f 86bd
000001a0: 145a b6bd 8900 abbc 7254 93bd cb78 f6b9
000001b0: 05c3 71bd f011 043e 4619 32be 8337 123d
000001c0: f287 51be 5335 d63c 3f62 21bd 37b2 91be
000001d0: b07b a7bd 1608 8cbd 2580 d33d 5a8b b03e
000001e0: 49d1 18be a408 523e f326 31be 2649 bebd
000001f0: 2fcb b83c 6f9a a9bd cc04 763d 9fca 213e
00000200: dfcd 3cbd 802c b0bd 43a8 0fbe 1fab dcbc
00000210: b369 51bd dcb5 a7bd 7f95 7cbd 6ee0 883d
00000220: f41b 333d 1b80 1abe b75d d4bc 06c3 55bd
00000230: 7b09 353d 6507 c3bc 755e 98bd 579a 433d
00000240: b46b eb3c 39e4 38be 99fc 3a3e fae3 b6bd
00000250: f5e9 21be 4c09 5abd c598 1e3c 29e5 74be
00000260: c8c3 ce3c 638b 713c 8ec3 043d 27f8 a4bd
00000270: d6d3 753d cd99 abbc fd61 053d 4c42 963d
00000280: b24d 29bd b5a5 1a3d 1bab edbc 628c 613d
00000290: 4542 6ebe c834 15bd 0c33 b1bd b3f0 45bc
000002a0: e2f6 ab3d 3e68 9d3d 41b4 49bd 08bf 3abd
000002b0: cab4 04bd feee f93c bdb8 a53d 55f0 54bd
000002c0: 698d afbd dd89 973d 0c73 a1bd b485 1a3d
000002d0: 5214 0cbd 2611 8cbd e5f5 46b9 f6ff 90bd
000002e0: b51a 413c fb66 2ebd 1ad6 95bc 09dc 6ebc
000002f0: ea6a 40bc 545e 45bc 6a5e 03be 1e99 1c3e
00000300: b88b 203d ee64 49bd 0ad9 393e 7cb5 38bc
00000310: 1f84 9e3c 1353 09bd a27b 323c 6bd3 cabb
00000320: 14e4 e1bc ae41 033e ca74 f43c d454 43bd
00000330: a2c1 d7bc 18c4 583d 32c4 10bd 9674 70bd
00000340: 093e f2bc e15c 5abb 31e0 2d3d 1520 afbd
00000350: b935 773d b04b 363d 5e3a 22bc 832d 8cbd
00000360: ea5a 66bd a0e4 19bd 68bc eb3d 19b8 a63d
00000370: a339 8bbd 9e57 ae3d 0fee 8d3d 3d38 42bd
00000380: ad45 1a3d d7e0 20bd 36e6 06be 0db7 0e3e
00000390: 407d 723e f4b7 44be 3a4f 8fbd 1865 3c3e
000003a0: 0b38 56bd f5b7 933b 973f 9e3d e8db 52bd
000003b0: 3514 893d 9452 41bd 691b 933d 7941 3c3d
000003c0: d8b5 f7bc 2a50 8abb 2552 9e3d 5762 c5bd
000003d0: 3193 82bd 25c4 c53d 659e 933d 9d75 dbbd
000003e0: a65d e53d 366e 7d3c 1634 8dbc 4d78 aa3d
000003f0: 17ff 3ebe f66f 8cbc 4cf7 443e c8e3 b7bd
-0.0033291124 0.13008691 0.0033954445 -0.29063743 0.27864414 0.14488818 0.04471111 0.09284858
0.06961491 0.0006698674 -0.06899866 -0.045564268 0.05256115 -0.042713225 -0.059101947 -0.06930141
-0.03438799 -0.016621012 0.02502687 0.10361102 -0.028429361 -0.033407245 -0.06458733 -0.12321315
0.09755213 -0.015611403 -0.1269619 0.015842363 -0.055158798 0.07857586 -0.082342856 -0.120582424
-0.09088807 -0.07902219 0.0069175027 0.008140752 0.009073118 0.07041647 0.0003453881 0.009251409
0.09074781 0.014402912 -0.051355276 0.054337148 0.08541003 0.009071579 -0.0049739494 -0.15641806
-0.026656877 -0.14690664 0.15298368 -0.026237361 -0.12851982 -0.028751224 0.060924374 0.004547319
0.028447755 0.01102905 -0.070861325 -0.0018803952 -0.001827375 -0.1839781 -0.06425283 -0.0050245603
0.045356344 0.07200224 -0.010098754 -0.09668508 -0.033345766 0.053317606 0.01325922 -0.08426923
-0.093981616 0.097655244 -0.05004105 0.03984122 -0.09093044 -0.0106571885 -0.075703464 -0.16705021
0.05068388 0.005902331 -0.04113403 -0.096633434 0.036618795 -0.09911563 -0.10677961 0.012784574
-0.1144374 -0.04191719 0.055181444 0.057745304 0.058675513 0.0013673811 -0.007892988 0.06500082
-0.0015283042 0.021779487 0.02718525 0.038571734 0.26525706 0.0008475424 0.0663694 -0.0656117
-0.089039 -0.020874279 -0.07193841 -0.00047010774 -0.059023876 0.12897468 -0.17392454 0.03569747
-0.20462015 0.026148474 -0.039400335 -0.2845628 -0.081778884 -0.0683748 0.10327176 0.34481317
-0.14923586 0.20511109 -0.17300014 -0.09291296 0.022557823 -0.08281409 0.06006317 0.1579995
-0.04609477 -0.08602238 -0.1402903 -0.026937066 -0.051126193 -0.08188984 -0.061666008 0.066834316
0.04372783 -0.15087931 -0.025923593 -0.052187942 0.044198494 -0.023807237 -0.07439891 0.04775461
0.02873788 -0.1805581 0.18260421 -0.08930202 -0.15811904 -0.053231522 0.009679978 -0.23915543
0.02523984 0.014742705 0.032413058 -0.08055144 0.060016476 -0.020947361 0.032564152 0.07336864
-0.04133386 0.037755687 -0.029012254 0.05506552 -0.23267467 -0.03642729 -0.086523145 -0.012081313
0.083966985 0.07685898 -0.04924417 -0.045592338 -0.032398976 0.030509468 0.08091877 -0.05198701
-0.08571894 0.07399342 -0.078832716 0.037725165 -0.034199066 -0.06839208 -0.00018974354 -0.07080071
0.011786153 -0.04257868 -0.018290568 -0.014578828 -0.01174424 -0.012046415 -0.12828985 0.15292785
0.039195746 -0.04916852 0.181492 -0.011273738 0.01935011 -0.03352649 0.010893734 -0.0061897538
-0.027574576 0.12818024 0.029840846 -0.04768832 -0.026337449 0.052921385 -0.035343356 -0.058704935
-0.029570596 -0.003331952 0.042450134 -0.08551041 0.06035397 0.044505775 -0.009901611 -0.06844618
-0.056239046 -0.03757155 0.11510545 0.081405826 -0.06798103 0.085128054 0.06930172 -0.047416914
0.037664104 -0.039276924 -0.13173756 0.13937016 0.23680592 -0.19210798 -0.06997533 0.18397939
-0.05229954 0.0045080134 0.077269726 -0.05147925 0.06693307 -0.047197893 0.071829624 0.045960877
-0.030238077 -0.004220982 0.077305116 -0.096378975 -0.06375731 0.09656552 0.07207946 -0.10715792
0.11199503 0.015468171 -0.01723675 0.08323727 -0.18651997 -0.01714323 0.19234961 -0.08978993

conv4.bias f4 [32]
00000000: 0362 63bd 8c0d 9d3d 8cc0 a1bd 98d3 ad3d
00000010: 8364 16bd 15f4 7dbc 37c7 9fbd 861d 5e3c
00000020: 6b1e 473e 8d99 b03e 34c6 f73d 8dc6 a23d
00000030: 79f5 f8bc bb6f 6fbd d3e1 b63d 8a0f 9dbd
00000040: 0cb3 44bd eea5 2f3d d05d 5f3e 26fb a5ba
00000050: 8130 23bd f3d1 51bd be98 b3bd fada 643d
00000060: 5e62 bebd c274 61bd 0b7a deba acb6 a83d
00000070: 90c1 22bd ccdc e83b 3ae1 23bd 262b 8fbd
-0.055513393 0.076685995 -0.078980535 0.08487624 -0.03671695 -0.015500088 -0.07801669 0.013556844
0.19445197 0.3449215 0.12098351 0.07948027 -0.030390488 -0.058456164 0.08929791 -0.076689795
-0.048022315 0.042882852 0.2181313 -0.0012663349 -0.03984118 -0.051225614 -0.08769368 0.055872895
-0.09296106 -0.05504299 -0.0016973627 0.08237967 -0.039735377 0.007106399 -0.040009715 -0.06990652

conv5.weight f4 [10, 32, 3, 3]
00000000: be5a cd3d aa42 dfbc a60d 1c3d ad02 09be
00000010: 2706 abbd bdad 523c 1ac1 243b abdc 84bd
00000020: cb00 d93d 02a2 383e cd1f fabd e152 ac3e
00000030: d461 ad3d 1275 26bd ad87 303e 6e85 4f3e
00000040: 0819 dfbd 1813 b93d 0d04 22bd d1b4 8cbd
00000050: 0200 353e 6a35 39bd d0be c13d 51da 303e
00000060: b7fc 313e a24f cfbd a0bd 96bd 67c5 1e3c
00000070: f903 f73d e4e8 843d 4a14 df3d 617e 98bd
00000080: 1990 bebd e89e 7fbd 3bfd d9bd 9f37 583e
00000090: a4c1 db3c e8cd be3d a23f d3bc 92ce 1dbd
000000a0: fa69 cabd 5d5a b3bd c3d2 883e 8a90 9b3e
000000b0: 36a0 15be 5129 3c3c bbd1 483d 05d2 23be
000000c0: 6126 a9bd 6e51 98bc baf4 d73d 93c7 b13e
000000d0: b848 e7bc cd27 a0be d067 193d 56cf bd3d
000000e0: f72a 0c3e a950 ac3d a35e cebc 30ec 013d
000000f0: f3eb ca3d 3bec dabd 6447 32be 88bc 0d3d
00000100: 7933 c1bc a6d4 e13d 31ef d1bb a063 293c
00000110: 9f8e 06be 224c 5dbd b865 32bd 06c1 053d
00000120: 2292 a23e 1f7a 77bd 5d8b 8f3c fb3c 623e
00000130: dff0 1ebe 0d9b ca3d 2a0e c93e 6853 b23d
00000140: 64a4 d4bd 565c 74be 52e8 e2bd b08b 3ebe
00000150: fd39 5cbe 98c2 d0bc 378e 0b3e 2b51 8cbd
00000160: 2154 29bd 8224 643e fd6a 47bd 5d98 bdbd
00000170: 8a3d ab3d 45e2 3c3d 700e 2e3e 6c02 f03d
00000180: b46d f2bc 6adc 78be 761f c23c a73b 2f3e
00000190: cf1b 903d 7a2e f13d 444a a73e 30c8 96bd
000001a0: fa72 f3bd f2ee 633d 6e1b 4cbc e386 b6bc
000001b0: f1ab fe3d 98da 113d ed2b 063e 10f9 e13d
000001c0: 70bc 0fbe 7228 13bb e84a 4f3e 4d41 99bd
000001d0: 305e 07bd 45d6 303e df9a 07bc acbc 683e
000001e0: a656 dd3c 1b9e d1bd 4a1d be3c ee5f 0f3e
000001f0: 581f cd3c 62d6 723c 0ed7 63bd e040 423e
00000200: e8b9 893a c7e4 2a3d 0cc1 223d 5d89 583e
00000210: c816 a23e dd62 09be e323 2dbe 7273 ce3c
00000220: 3dca 203d 27ad c9bc 9189 97bc b4c0 933b
00000230: 3209 3ebd 2e85 513b 0f4d 5a3d a7d1 513d
00000240: 1353 0fbe 9e93 703d a139 203e e7c2 53be
00000250: 68de be3b 320e c8bc 2ada 84bd b018 4c3d
00000260: 4ea6 003e 7ab9 303d b35a ac3d ac79 b23d
00000270: 8516 cc3d fea7 54bc c487 523e 8fa5 c3bc
00000280: b865 3cbd 3514 163e fb9a 81be b709 0cbc
00000290: 0c0c 9f3e 7c87 173d 2fe7 a6be ca11 35be
000002a0: d177 913d b042 9dbc 0c47 0ebe c93c 513d
000002b0: 2226 42bd ea68 60bd 9239 033d 79a4 483d
000002c0: 976e dc3c eb83 283e f6cb b9bc 70dd c6bd
000002d0: 8464 383e 7e01 013e 3733 e73c 5aad 7abd
000002e0: c7c2 0bbe 56b5 88bd d79b 0e3e 418d 153c
000002f0: b3cc 97bd 39f3 ab3d 6d2e c1bd e142 2cbe
00000300: 0cfb 123d c1f0 b83c a7f6 cdbc e3de ba3d
00000310: 4c23 273d 5e2c 803d e280 063d 51a7 c53d
00000320: 1469 cfbd a5b7 bfbd 35aa 223e 68d3 1dbb
00000330: 9f51 44bc c844 0d3d a4e0 b0bd 4ecf 3c3e
00000340: afc1 093d bbc0 893d 08e1 31bd 8a39 babc
00000350: 07db 03bd ede4 a53d 098f 3bbd 67fb 23be
00000360: 1a38 dabb ba3e 44be f061 debc 8eeb 68bc
00000370: a438 c3bb 861e 0c3d 62e8 0b3e e481 0bbd
00000380: 2359 893c 7a69 77bc 3d1e 30bd 0780 073c
00000390: 56db 873d 980f 543c e047 2e3d c884 273e
000003a0: 260a d43d b4cf be3d 5916 c0ba bd4f e23c
000003b0: ec1d 7d3d 7e90 c8bd e5fe a13d 1dee cf3b
000003c0: 7a2b eb3d e268 783c 4eb8 943d 7809 b8be
000003d0: 842c 60be 0b45 b03b 8141 91bd 6e88 4ebe
000003e0: eec1 a4bd 50cf 2e3d 79e4 67be 24af 3db7
000003f0: b49f 51be c153 8ebc 395f 9a3c b65f 22bd
0.10027073 -0.027253468 0.038098954 -0.13379927 -0.08350783 0.012858805 0.0025139512 -0.064874016
0.10595854 0.18030551 -0.12213097 0.33656982 0.08465925 -0.04063899 0.17239256 0.20265743
-0.10893446 0.09036845 -0.039554644 -0.068704255 0.17675784 -0.045216955 0.09460223 0.17270781
0.1738156 -0.10122611 -0.07360387 0.009690619 0.120613046 0.06489733 0.10892542 -0.0744598
-0.09304828 -0.062407404 -0.10644003 0.21114968 0.026825733 0.09316617 -0.025787178 -0.03852708
-0.09883495 -0.0875747 0.26723298 0.30383712 -0.14611897 0.01148446 0.04902814 -0.15998085
-0.08259273 -0.018593516 0.10544725 0.34722576 -0.028232917 -0.31280366 0.03745252 0.09268062
0.13688265 0.08413822 -0.02519161 0.031719387 0.09908285 -0.10689589 -0.17410046 0.034603626
-0.023584114 0.110268876 -0.0064066877 0.010338694 -0.13140343 -0.054027684 -0.043554038 0.032654785
0.31752115 -0.060419198 0.017522508 0.22093575 -0.15521573 0.09892855 0.3926862 0.08707315
-0.103829175 -0.23863348 -0.11079468 -0.18607974 -0.21506496 -0.025483415 0.1362847 -0.06851419
-0.041339997 0.22279552 -0.048686016 -0.092575766 0.08361347 0.046114225 0.16997695 0.11719212
-0.029593326 -0.24302831 0.023696642 0.171126 0.07036554 0.11776443 0.32673848 -0.073624015
-0.118871644 0.055647798 -0.012457712 -0.022281116 0.12435139 0.035608858 0.13102694 0.11033833
-0.14036727 -0.0022454527 0.20243418 -0.07483158 -0.03304881 0.17269237 -0.00827667 0.22728223
0.027018856 -0.10235234 0.023207325 0.14001438 0.02503936 0.014821621 -0.055625014 0.1897006
0.0010507675 0.041722085 0.039734885 0.2114615 0.31658006 -0.1341662 -0.16908221 0.025201533
0.03925537 -0.024618698 -0.018498214 0.004509056 -0.046395488 0.003197025 0.053296145 0.05122533
-0.13996534 0.05873453 0.15646984 -0.20679818 0.0058248527 -0.024420831 -0.06486924 0.04982823
0.1256344 0.043145634 0.08415737 0.08714613 0.09965233 -0.012979506 0.20559603 -0.023882655
-0.045995444 0.14656146 -0.25313553 -0.008547238 0.3106388 0.036994442 -0.32598254 -0.17682567
0.07102931 -0.019196838 -0.1389429 0.05108336 -0.047399648 -0.054787554 0.032037325 0.04898498
0.026908202 0.16456573 -0.022680264 -0.097102046 0.18007094 0.12598225 0.028222663 -0.061200477
-0.1364852 -0.06675212 0.13926636 0.009127916 -0.0741209 0.083960004 -0.09432683 -0.16822387
0.03588395 0.022575738 -0.025142027 0.091245435 0.040805146 0.06258462 0.032837756 0.09651054
-0.10127464 -0.09361199 0.15885241 -0.0024082307 -0.011982351 0.034489423 -0.08636597 0.18438455
0.033631977 0.067262135 -0.043427497 -0.022732515 -0.032191303 0.08100305 -0.045790706 -0.16013871
-0.00665952 -0.19164553 -0.02714631 -0.014216317 -0.00595768 0.034208797 0.13662866 -0.03405942
0.016766137 -0.015100831 -0.042997587 0.00827027 0.06633632 0.012943171 0.042549014 0.16359246
0.10353498 0.0931696 -0.0014655098 0.027625913 0.061796114 -0.09793185 0.079099454 0.006345524
0.11482902 0.015161725 0.07261716 -0.35944724 -0.21891981 0.0053793243 -0.07092572 -0.20169231
-0.08044802 0.042678177 -0.22645749 -1.1306056e-05 -0.20471078 -0.017373921 0.018844234 -0.03964206

conv5.bias f4 [10]
00000000: cad5 8c3a dc5d 183e 6f59 eabc 202a 7dbc
00000010: c1f4 eb3d e452 a0bc 9163 293d a62b a8bc
00000020: 422e 08be 5f74 febb
0.0010744866 0.14879555 -0.028607098 -0.015451938 0.115212925 -0.019570775 0.04135472 -0.020528626
-0.13298896 -0.0077653374
